data/models/ann_005_021.pth (torch, 659063 bytes, 8 tensors)

linear_afunc_stack.0.weight f8 [200, 5]
00000000: 1432 b6fb bc2f b9bf 1fe0 ad9b 0316 c33f
00000010: 67ec eb76 1eb0 d3bf 41b4 4a62 33db 923f
00000020: df5f ebf6 591a cfbf fda5 9029 ec6c bbbf
00000030: 714e 9e2f 0b44 aabf 6f04 ef9d 9768 d4bf
00000040: 3944 9746 6517 c8bf a67b 492d e21f d2bf
00000050: 7ec8 795a b7b3 dc3f 4324 31c6 68eb afbf
00000060: 17e1 9b7e 495c c7bf 7413 8274 9957 c6bf
00000070: 8748 d9e0 9bca c43f ffff d3fc f96c d83f
00000080: 0573 e466 b1e5 c4bf 86b1 7d94 35f5 d33f
00000090: 3901 9d1c fb24 d53f 27bd 1f46 3522 d83f
000000a0: 98a4 c080 a561 c6bf b149 fc1a 04c5 cbbf
000000b0: 2f63 caa4 cc8b cbbf bf59 20ca 0514 89bf
000000c0: 75e1 c7af dbf4 cdbf 28b2 b73f c4d5 b13f
000000d0: 3e61 4c92 aa46 cdbf 973e 1a6d d2f7 d23f
000000e0: 8263 5663 88bf b8bf cefc 3011 1462 cabf
000000f0: b4d6 627b cbe5 c73f c0f4 8bcc 9cba c2bf
00000100: ca1c 7330 95ba c5bf 6a04 bf32 2f53 c3bf
00000110: a61e 33f2 1281 c3bf 8529 3391 f414 a3bf
00000120: b545 0845 ab08 9e3f ebec a7af 346c d3bf
00000130: bfac 88ce 1622 b1bf 246a b6bf 82f6 d2bf
00000140: cf9a 0e9e 33e7 c4bf f954 27bd 3094 b33f
00000150: 7f64 752a 3a8e aebf 1ef7 d580 ae95 d63f
00000160: d5c8 2306 5324 723f b685 c7e9 7bdc c3bf
00000170: 15c3 fac8 f867 d13f 70c6 84c6 2bdb c7bf
00000180: b877 695b 92a3 d43f 1a1f f26f 1c2b 95bf
00000190: ff1b 6fb2 9acf bfbf 1bb6 19e1 7938 b8bf
000001a0: b3a6 c285 9c9d c93f a7bf 2368 46fe c6bf
000001b0: c303 d3f7 e121 b93f eb02 5ad3 5f61 b93f
000001c0: b7a1 882d 42ae 9dbf ccaa 1f23 ae43 acbf
000001d0: bb1b 19b5 4337 ab3f 2324 3d92 d8c8 853f
000001e0: 1336 a0bf d2fd d73f 4d6b 0a2c 1890 d13f
000001f0: 93a3 b15d c7f6 ab3f 7185 bd01 fe65 d0bf
00000200: bfdc 9a38 5162 c03f 6b0b 6dfe bd50 ddbf
00000210: 09aa 1a66 05a6 d93f d418 af79 26a5 b63f
00000220: 671d bf9d f771 d43f 9082 055e 52fb c9bf
00000230: 2c6f 96ab 5744 c73f 4496 5559 b5d0 d03f
00000240: 001b 34c4 fd4b aebf 12d6 0fba f3b4 d23f
00000250: f6a6 e058 f6a1 cd3f af6b 6e9d 9262 e0bf
00000260: f693 25f0 d22d d63f 0b62 9b9f ba1f b63f
00000270: 7fe7 8b45 43a6 b5bf 18f9 b20f eb2b c73f
00000280: c0f4 8cb1 1740 d2bf abc7 c863 d5b1 bd3f
00000290: 1bb0 eccf 668e c63f cad6 a706 f667 ac3f
000002a0: ad0d 269c bc19 b93f 91d7 dd4b ce94 c8bf
000002b0: ab8b efa0 bab0 c33f 7ca9 e734 9ebf d43f
000002c0: af4f 6a7e 6f28 9a3f 225a 87f4 b42a cbbf
000002d0: 3b07 6164 07c5 313f 7a85 932d 78de b43f
000002e0: 52c1 6bbd 0e0c bd3f 7847 8d58 442a b73f
000002f0: b98d e93b 11cf c13f 428e bf87 3200 81bf
00000300: f85e 1e43 10b9 82bf f5f6 9805 b99d a13f
00000310: 075d 4d4b d362 843f f766 58a2 355c a33f
00000320: 367c 45d1 0944 a1bf 2634 e212 3202 a83f
00000330: cc9e 198d bdd9 c8bf afec 6589 b58a d3bf
00000340: 23bd be88 5c42 cabf 8c96 f20e e742 dabf
00000350: 8f5c 4321 2620 9d3f d59d 81eb 57fa ccbf
00000360: 8c6f 61fa a54b d3bf ff05 2ae3 c685 c5bf
00000370: c07c 362b eae6 cebf eddf f165 c0da c33f
00000380: 6492 f126 9ce1 d43f b479 b60a 8887 e2bf
00000390: 4a76 9af6 ff8e 99bf beb9 8bb0 e0d6 d53f
000003a0: deae 2ef2 14ad b3bf da05 d813 b2af d63f
000003b0: 88be dc0c 3a00 c0bf e35c 55e0 32fc c73f
000003c0: 1687 f5b6 ccaf c13f 25bb d32a 6896 d8bf
000003d0: df00 ee62 64c9 c33f 006f 6071 2db3 c2bf
000003e0: 3eac 3bf7 d92e a53f 9d00 4406 34b5 d03f
000003f0: 892c a06b c593 afbf 108f d565 9359 d53f
00000400: 7537 a8f0 222c e0bf e0c6 5a26 9c39 c7bf
00000410: 83f6 dc28 17bc d63f 46c1 5713 4d43 aebf
00000420: 6558 5a5d 4a07 c83f dd05 f056 85b6 c3bf
00000430: 4d2f 8f75 0d8a cc3f e198 8510 0ac7 d4bf
00000440: e7b9 c06c 7a2d b33f 4fb1 965c 7844 cc3f
00000450: 14e5 d919 805e a5bf f7c8 8936 50f7 cc3f
00000460: d358 dddd ff8f d5bf eeff 3d0c a5de c53f
00000470: 0056 ebc2 242b 683f 3e87 5aa0 8150 9f3f
00000480: db01 c84b 2896 c43f f57c fa4d cfd9 aabf
00000490: 6624 efd1 e8ef 993f 1ce6 7a31 2b1a c33f
000004a0: 9238 0843 53a0 d43f b08e 1e14 d2bc c0bf
000004b0: 1563 7d0c daa1 a0bf 7de1 511f 955b c03f
000004c0: 3523 1b25 114c d33f 267c d9a6 3c96 833f
000004d0: 48b4 c0b1 2602 d03f 8196 8240 b8e8 c1bf
000004e0: 865a 91f4 11ed b43f f178 c90a ef50 cfbf
000004f0: ad33 958d 4869 d2bf 9d9a c93d 14c7 d0bf
00000500: 618b 2993 5a74 a83f e175 421a 7ea5 99bf
00000510: a448 cd10 3b19 903f 7585 3146 fa3c ca3f
00000520: 7097 689e 8057 8c3f 7565 7eb2 f08c dfbf
00000530: fa28 303d 8df1 d53f fb22 bbbb 7077 c43f
00000540: 70b7 86d6 848b d73f c26e 3eaf 328e adbf
00000550: 53dd 1523 c9ce d3bf 6ec2 ed1a 82c0 d1bf
00000560: a098 3051 090d c23f 4503 0770 0d8f d83f
00000570: 4130 85b3 0b22 ce3f b7fd 0df9 094d c4bf
00000580: 1a05 a208 a286 883f af6b 95f7 eea5 cbbf
00000590: ee4f 5bf7 0b3b d9bf cd2b 4fd0 4aba d0bf
000005a0: 7836 73d7 b64d cdbf 07d2 c93d 8fa1 d4bf
000005b0: 6c8e 728d b9c6 b6bf 452d e73e 382a aabf
000005c0: f360 d76b a577 a4bf 9a45 dc9d 089c d2bf
000005d0: b05c 8912 72de c73f 2d94 854c b27c c73f
000005e0: 3c8b 6656 e69d c63f caa5 bef3 011c cc3f
000005f0: 6498 7ad7 4d14 d83f 0723 253a 8be5 c5bf
00000600: 9f77 bd4a eda9 af3f 8029 5936 aa47 d2bf
00000610: 67fb 52b8 b960 cd3f 7dfb 7084 7c2f 8e3f
00000620: 9484 69ba 5081 c9bf 40ce 181c 03f6 70bf
00000630: 48d6 22f6 0e50 4bbf d855 eae6 f43c 98bf
00000640: 31e6 b1da 7da9 b33f 070b f534 b58e 993f
00000650: 07e0 a3ce b8b4 cdbf ba94 65ab ca78 c3bf
00000660: 42ba a60e 7fc1 c8bf 0654 cbcd 3377 c03f
00000670: aef7 fa0f c7a9 c6bf 9aaa ce66 e62c c83f
00000680: c611 2b79 c396 933f ce2b eb1a 53d3 c33f
00000690: 84f5 79af 092e ddbf 13f0 9443 d819 d73f
000006a0: 6880 c159 6a3a c93f 7456 4896 6de5 d83f
000006b0: 0dc3 40b7 47de c63f adce eab6 7e6b d93f
000006c0: 8739 0598 208f e2bf ce7d 20de c50f c6bf
000006d0: a1a6 25ab 842e c7bf b524 c65c 6d1b 8e3f
000006e0: 6bbb f04a 3713 9dbf cb9b 8269 6eed 95bf
000006f0: 98d3 f4ed 000d b5bf 2cd6 7493 d367 b0bf
00000700: ac03 53e3 3ce9 b4bf 402d 7085 634a adbf
00000710: 54a0 ce07 ec01 c1bf a511 04ba 960a 8abf
00000720: b8e5 55ee e453 a03f 9225 65bb eacc 8fbf
00000730: 93f7 b00c e7cc d4bf ed8b d382 8700 c13f
00000740: 355a 9f52 a0d6 bdbf 331a 3e4f cbed b73f
00000750: 801d 97f3 d141 c73f c886 c430 5d04 c93f
00000760: 0edf b665 4225 c6bf db79 30b7 0128 a43f
00000770: c349 c35f af25 d1bf a18e 2dc9 69fc 9cbf
00000780: 0f4d 5623 cc4b c33f 69fa 9d0b cea4 d23f
00000790: 5dd9 42e3 9783 c2bf b5dd 8804 6d83 bb3f
000007a0: c2b6 ab04 e1a3 b93f 166a b848 3693 c8bf
000007b0: 738b 68ec 893c b53f ad67 a36e 2aab d03f
000007c0: dbce 0c1c 79de ca3f 717b 19cb 1295 d13f
000007d0: d63b be0a 5132 d8bf 61bd 72fb ce0b d3bf
000007e0: ab7f f751 d474 c0bf a37a 4703 da3b a03f
000007f0: 851d 37a8 52e0 a23f 2a62 6476 83b4 d73f
-0.09838467736535278 0.14910931684039583 -0.30762445081172135 0.01841430938172928 -0.2429916816388404 -0.10713077559253033 -0.05130038219718081 -0.3188838045426285
-0.1882139773065619 -0.2831960146194724 0.4484690078308019 -0.062342905228952826 -0.18250387842250212 -0.17454832257149244 0.16243313292449477 0.38165139856573654
-0.16325967334787364 0.31184138775895354 0.33038213533656663 0.37708789680523797 -0.17485493456596113 -0.2169499522938856 -0.21520383879103508 -0.012245221358210821
-0.23403497775121776 0.0696680694160895 -0.22871906417345572 0.29637585310499887 -0.09667255807143074 -0.20611811484739068 0.18670028233252867 -0.1463199614299011
-0.1697565542765232 -0.1509760854515066 -0.15237652612835467 -0.03726925156077513 0.029329944694898653 -0.3034793582334731 -0.06692640821772765 -0.29629582139901545
-0.16330571382169132 0.07647995584496305 -0.05967885750096346 0.35288584310170446 0.004429172813831002 -0.15516613879212365 0.2719709360781491 -0.18637606805127716
0.3224836247153422 -0.020672268231037717 -0.12426153999614085 -0.09461175675979698 0.20012241870181455 -0.17963485798781884 0.09817325878522269 0.09914206418944686
-0.028985055951268737 -0.05520385912662604 0.05315600953740992 0.010636989558081627 0.37486714089831813 0.27441982556199634 0.05461714762424843 -0.2562251107211387
0.12800040496742857 -0.4580531105640861 0.4007581231223019 0.08845749350357163 0.3194560089582041 -0.20298223105330182 0.18177314642240938 0.2627385494618901
-0.05917351741850574 0.29229443712333236 0.23150519695018773 -0.512032802088802 0.3465468735869871 0.08642164608625806 -0.08456821868813157 0.18102777735288877
-0.2851618989842102 0.11599477468624168 0.17622075226370346 0.055480659782842404 0.09804896175597007 -0.19204119400427236 0.15383084161939328 0.32419543425080355
0.025544874277855175 -0.21224080982092725 0.0002711432501919413 0.08151961434079694 0.11346523403677125 0.09048869287405903 0.13913169312864485 -0.008301157729824319
-0.009142043159769284 0.034406454022684864 0.009954119430104059 0.03781287771944435 -0.03372221641142696 0.04689175110352321 -0.19414491071369466 -0.30534113328730944
-0.20515019108777563 -0.4103334089253188 0.02844295099279442 -0.22638987540561453 -0.30149220896941453 -0.16814504711150843 -0.24142195806505207 0.1551132676866013
0.3262701397236809 -0.5790443619951504 -0.024959563662028374 0.3412400936203105 -0.07685976898818178 0.3544736093318456 -0.12500692012826087 0.18738399461538
0.1381774800639099 -0.3841801088555477 0.1545835001998119 -0.14609306369754194 0.04137307303411618 0.26105976688269 -0.06167427958288225 0.3335922712778805
-0.5053877544721518 -0.18144561646254598 0.3552301310590808 -0.05910721646421506 0.1877224880051386 -0.15400759453773008 0.22296303024483635 -0.32464839566672593
0.07491269259546805 0.2208395435421928 -0.04173660579267327 0.22629740393637807 -0.3369140307089655 0.17085707757723817 0.0029502599712525335 0.030580544864853502
0.16083244037873964 -0.05244300677190409 0.025329244435657115 0.1492361060716555 0.32228547617058567 -0.13076234800711495 -0.03248483087981505 0.1277948763779583
0.30151775954850574 0.009563897935718723 0.25013129576365545 -0.13991454267413775 0.08174240322964907 -0.24465740229329172 -0.28767598940322153 -0.26215082200944
0.04776270910658443 -0.025045366623649094 0.015721247578149758 0.20498588969625656 0.013838772615666989 -0.4929773085692298 0.34286814666178567 0.15989503065636498
0.36789055776431834 -0.057725509540629286 -0.3094961969977323 -0.27737476949463413 0.1410228392061912 0.383731231118919 0.23541399255407394 -0.1586010423743411
0.011975541962103754 -0.2160013874916706 -0.394228927191988 -0.2613703760404718 -0.22893414993307082 -0.322360811557957 -0.08896980002696758 -0.05110336082324322
-0.03997532788679505 -0.29077353874262146 0.1864760008345221 0.18349293457427632 0.17669371813561863 0.21960472489926836 0.3762392620359434 -0.17106762255777871
0.06184331452708069 -0.28562407786798616 0.2295143270511872 0.014739010612286435 -0.1992588911262244 -0.004140865466570498 -0.0008335183195160101 -0.023670031160312494
0.0768049868510381 0.02495844970440955 -0.2320776947960896 -0.15212376946434408 -0.19340503898043165 0.12863776730105786 -0.17705620079317214 0.188870239447472
0.019129804869196375 0.15488661589037495 -0.4559349263798469 0.36095244025978096 0.1970951975117743 0.3890031783679213 0.17865845153712492 0.39718597281464946
-0.57997159663664 -0.17235635133782384 -0.1811071239165374 0.0147007507264497 -0.028393615674015587 -0.021413541021185794 -0.08222966966134349 -0.064084266185852
-0.08168392705830624 -0.05720816615947877 -0.132871154605939 -0.012715508987192712 0.03189006242150633 -0.01552756676086878 -0.32500625838644587 0.1328286541748577
-0.11655618683958198 0.0934722012008045 0.18169617075021094 0.19544567948564961 -0.17301206556816634 0.039367726909620614 -0.26792511321869145 -0.028306630042961193
0.15075065350956904 0.29130889067156446 -0.14464090916380715 0.10747414932926953 0.10015684474975742 -0.19199255514907126 0.082954998223199 0.26044712833901934
0.20991433972959936 0.27472371896686015 -0.37807107972269927 -0.29759573512543197 -0.12856534960064656 0.03170663156537514 0.0368676977482734 0.370392671220119

linear_afunc_stack.0.bias f8 [200]
00000000: c407 7029 4dd6 d63f ddef 1b5c 2973 b63f
00000010: 162a eb76 9f13 c1bf 9fd2 21c0 5cf6 913f
00000020: b858 cd17 8742 d0bf dcee 2aef 947b e5bf
00000030: 6f67 4432 cc76 c23f 658f f089 9797 b73f
00000040: e5b2 e72e 646e d43f 2e25 4f28 6de4 c93f
00000050: f780 a2de 19f7 cabf f3e1 4548 b57b ce3f
00000060: e8b2 40e2 ab3b e1bf 1843 a57e 4f64 d23f
00000070: 438a c373 d052 d9bf e10d f757 c383 d1bf
00000080: aa80 ec42 fdec c63f ff9d 3754 1b11 e6bf
00000090: f5ce 4ccb 7e9e b73f 41b7 34bb c369 aebf
000000a0: a623 6674 b538 a1bf e63b fc17 714c bcbf
000000b0: 7782 3051 1f75 e7bf 9ef7 fd3e 1069 c63f
000000c0: 53e9 761b 2f87 b4bf 9f38 a3bf 5d90 cfbf
000000d0: b5eb b458 9f63 b8bf 567d 6fcf 1bb4 d5bf
000000e0: 33f6 decf 92f9 dabf b0c6 a8a3 ccf6 d3bf
000000f0: 0218 a706 65bd a33f b30d 9eba 9596 c4bf
00000100: f92d 9766 06c3 b73f 0195 7818 af5f d9bf
00000110: dbb3 aeca 2228 d2bf 8dce f068 da96 d9bf
00000120: f70f 6ffe 3dbb e4bf ea5c 8f63 5f92 cbbf
00000130: 46b3 47bc 30f2 d23f 7e77 9657 ba49 cdbf
00000140: 7224 8524 a0db cc3f 23fa e93d d3b4 c2bf
00000150: 5fd6 7ca1 7303 983f 07ce 48f1 67e9 c5bf
00000160: 4b60 6a76 e150 b4bf 003a b683 6328 cfbf
00000170: 9f3f b402 3051 c2bf dd5d a7f9 0237 a23f
00000180: 0968 76da fd96 d5bf a263 3df0 6c71 c5bf
00000190: ab92 a7c4 af28 dcbf 979a 477d bf0a bdbf
000001a0: ba57 d6f4 1cfb c73f 606e 0186 f154 c3bf
000001b0: 64ce d19d e070 c2bf 8b17 f67b 02c1 dbbf
000001c0: 5480 e40d bb73 6fbf f87d 87ef d107 943f
000001d0: 93fa d690 9309 dabf 7187 808e ea9f c9bf
000001e0: 6014 5a0c e09a cb3f 259f abb3 0d15 b93f
000001f0: 448c c04c 9ef4 b43f dc8b 9d55 e51f b1bf
00000200: 3e66 2a27 d5b0 debf f959 5384 3864 b5bf
00000210: 8874 da18 510f d3bf daf2 a159 fe23 dabf
00000220: f20d 3886 4f53 d2bf 7b92 6061 e5bc d2bf
00000230: 0f9f 0192 5cb3 c13f 10f7 3d89 1515 b4bf
00000240: 7946 cc19 2970 ddbf 3919 e580 a0a6 d6bf
00000250: 38bb eae7 9226 c1bf 09bf ce61 169c c0bf
00000260: c35b a1df 50e8 d1bf f6af f9d3 3780 dabf
00000270: 14d0 7b10 c8b1 d63f 8040 ff5f eff9 d7bf
00000280: bb68 7bcf f989 dcbf 0894 65b6 fc9d bc3f
00000290: c04c d91e 8922 e1bf 327f b558 e710 93bf
000002a0: 9db9 eb13 f0ca d5bf b9b5 391b 3bb3 d5bf
000002b0: eac7 7ea0 2039 7ebf 850d 8449 7703 d53f
000002c0: 97f0 4687 48f7 a03f 1cde 772b 63f2 e0bf
000002d0: fd63 982a dbfe dabf 43eb 1823 7c43 c6bf
000002e0: b25b 115c 1905 d53f ea55 bb47 cbab d8bf
000002f0: ab57 85d0 a1ad d03f a7ee e28f 0b20 d3bf
00000300: 9fd3 7166 2323 793f 1c75 3ad9 a3b3 d0bf
00000310: 0269 311a 4963 c4bf 9688 27b5 b40a 813f
00000320: 5a95 556f 148f ccbf 86b2 18ef 4d98 cabf
00000330: fe15 2707 1a06 d5bf e9fd b31f e597 b1bf
00000340: 2fd4 b925 7f5c dcbf 61f9 128e 1948 8cbf
00000350: b985 abec 6ca6 733f 5111 7f5e 17c8 a03f
00000360: 267f c0d5 ac34 d6bf f20f 04b1 170c a73f
00000370: c59c aea5 be9d a93f c1b8 57dd 6129 c93f
00000380: a864 72d9 120a cbbf c36e 0239 1264 d5bf
00000390: df63 f7f7 6091 e5bf 7d41 ce30 7766 c4bf
000003a0: 1c7c bc4c 6616 e2bf b5e2 085d ae85 e2bf
000003b0: 8d96 0654 8705 d23f afd9 f923 13fe be3f
000003c0: dcbc 2497 e229 d2bf 632d 3c6d f580 d5bf
000003d0: 2e9c 5a2f 0cd7 dcbf 0ad8 6920 eabd b6bf
000003e0: 9145 15d0 b5e3 c7bf e832 9297 563e d4bf
000003f0: 3485 f822 a318 b0bf cf94 5034 5827 cb3f
00000400: 24af 4a20 8e07 e5bf 6ee4 e9ba 86e5 c8bf
00000410: 30bc 1c98 cc43 a9bf 62d6 0d11 7515 d73f
00000420: 42ae de75 9d0b d63f 1824 738e 0ac7 dbbf
00000430: e465 1c56 a36d b3bf 62e5 c0d9 71a4 d9bf
00000440: e019 cdd8 bd5a cabf eb7a ebab c4f9 d4bf
00000450: 7ae5 013d 005f c9bf 56bc 9b98 d556 d7bf
00000460: 6a2e 9026 0ee5 e0bf 3068 890a 3cf4 e3bf
00000470: 4046 9556 5cce c7bf 6b8a b50e 208d dcbf
00000480: cb31 b93e 1800 dcbf 26e8 563b 14f0 a83f
00000490: 82d1 4650 7df1 ce3f 964a 6bed 5cca d43f
000004a0: 9219 8dcd 06a7 d4bf 9808 aaa2 4346 c93f
000004b0: 3c38 bb7b 215e dfbf 894f 2430 cbd1 e7bf
000004c0: e06a 2ab3 234a e8bf 3b2d 01b3 b68d dcbf
000004d0: 2740 a099 bab7 ce3f ac88 83b3 e17c d9bf
000004e0: 3f9c 044d 39e7 d9bf 1371 054e 1332 d0bf
000004f0: f355 8832 d16c d6bf b262 34ac 1010 b4bf
00000500: c822 7b46 a0b1 c03f 7370 90e4 677e b0bf
00000510: dc97 61f8 7c88 dabf 9412 5390 1f02 acbf
00000520: cc56 eb67 c7ee bbbf 49e2 625f 7ca5 c3bf
00000530: 703c 5eaf f5ad ce3f 9888 559a e15e cdbf
00000540: ea39 983b ecf3 e0bf 5115 a8a6 3246 debf
00000550: 35e4 a34e 5c1a abbf f041 da1e 1662 883f
00000560: 49a7 37af e9be c93f 7d14 ea64 0c62 d4bf
00000570: bde9 73b0 dc86 d03f a1dd 3e32 f7a3 d7bf
00000580: d88b 8297 8037 debf d762 627c 09b3 d0bf
00000590: 12c2 b9ad e5b8 d13f aa5f 4e3b fe13 d83f
000005a0: e314 40cb 4322 e0bf 8459 2cdc c889 dc3f
000005b0: 3600 74a0 e59a ba3f cd8a a2a8 823b c33f
000005c0: 0259 6744 33d6 bcbf d323 1694 18e5 7e3f
000005d0: 2e56 d3a6 33fa cebf 2f7e 8e29 359b dcbf
000005e0: 26b6 a6f0 8484 c3bf 98dd 419b f47d c8bf
000005f0: 85e0 1251 d1c0 b5bf e285 a6e7 00da bcbf
00000600: ab40 ea49 961b 9e3f 3c58 606f b6c5 d1bf
00000610: 1d9a f8da 028d da3f 62d3 46f3 4d35 c33f
00000620: d8fd 0e4c 4499 a03f 9c71 d6f5 2e28 e1bf
00000630: 6d78 f40e 98ff c93f 5271 2999 b537 d13f
0.35682992025988036 0.08769472597845103 -0.13341134363720702 0.01754136011773488 -0.25406052898814435 -0.6713356658214837 0.14425041632130894 0.09215685956638493
0.31923775272916394 0.20228352039547687 -0.21066592570151219 0.2381502726455121 -0.5385341090201026 0.2873724686406134 -0.3956795816904199 -0.2736671790155168
0.17910733955159702 -0.6895882267826322 0.09226219619159422 -0.05940066967228442 -0.03363577886472706 -0.11054140887811989 -0.7330471597416154 0.17508128238472137
-0.08018774433631863 -0.2465932069521317 -0.09527011790934987 -0.33911795861600547 -0.42148275661370177 -0.31193843824722034 0.03855434137544479 -0.16084548580339017
0.09281959538127883 -0.3964650858855095 -0.28369970124441374 -0.3998323464213421 -0.6478567094241033 -0.21540443765000045 0.296032127253785 -0.2288124969172109
0.22545244010169402 -0.1461433460535356 0.02345066712515231 -0.17118548661675012 -0.07935914174083895 -0.24342006617776235 -0.14310264713321616 0.0355759553673882
-0.3373407967970939 -0.16752397280177173 -0.43998331265019414 -0.1134452515467309 0.1873508639807236 -0.1510297684024975 -0.14406974512131676 -0.43365537744136223
-0.0038393643764181116 0.019561081165987176 -0.406834498829917 -0.2001927562533257 0.21566391566389864 0.09797750126346878 0.08185757993537474 -0.06689294185848332
-0.4795430071331771 -0.08356049757581009 -0.2978098623951344 -0.40844687226471665 -0.286334878037649 -0.2927792979192316 0.1382861817285108 -0.07844671822200788
-0.4599707366879567 -0.3539201029529014 -0.13398968051975557 -0.1297634103370842 -0.27980443800828086 -0.4140758104392711 0.35460092172365987 -0.37462982535090106
-0.44592137586517894 0.11178569272085792 -0.5354657747760925 -0.018619169988027547 -0.34051134057417604 -0.33906438502057373 -0.007378699730837804 0.32833654574661636
0.0331366219647588 -0.5295883034695552 -0.4218051830262651 -0.17393447602975173 0.3284362219905531 -0.38548547749573336 0.2605976616226779 -0.29883088160907295
0.006137026102000314 -0.26096435750680924 -0.15927995470958228 0.008321201113123327 -0.2231164497017442 -0.2077729623282673 -0.32849741648200836 -0.06872398399354264
-0.44314554866952255 -0.013809394500978458 0.004797387586877582 0.03277657536048884 -0.3469650351926127 0.045014133795149194 0.05003162167059253 0.19657538707492075
-0.21124492280504126 -0.33423286025366056 -0.6739964335530394 -0.15937700160112547 -0.5652343271975755 -0.5788184945186773 0.2815874405444923 0.12106437328643581
-0.2838064647684868 -0.33599601428496423 -0.45062546371849777 -0.08883536616653501 -0.18663666401202453 -0.31630482484687983 -0.06287593463686819 0.2121382003253189
-0.6571722632120083 -0.19450458647387187 -0.04934539181555697 0.36068464913782894 0.3444589282105178 -0.4340235129462271 -0.07589169361417408 -0.4006619097231888
-0.20589421354288984 -0.32774464406058595 -0.19821169833066304 -0.3646749487224431 -0.5279608491122876 -0.6235637861057111 -0.18598512866678796 -0.4461136001247385
-0.43750578046163174 0.04870665764197239 0.24174467487103973 0.3248512571855512 -0.3226944930396708 0.1974567932375677 -0.4901202877343882 -0.7443595829267774
-0.7590502261476466 -0.4461495159236681 0.23998196126240254 -0.39824717074055616 -0.40473778268136934 -0.2530563604284605 -0.3503916734201475 -0.07837013439383148
0.13042071763472607 -0.06442879991704036 -0.4145805764768491 -0.05470369946263989 -0.10911222731678122 -0.1534877267602204 0.23968382895370466 -0.22945804630132183
-0.5297757305104913 -0.47303453707748583 -0.052935490226396466 0.011905834976716684 0.20113869720017366 -0.3184844003192849 0.25823132735936466 -0.36938266665262104
-0.4721375922765083 -0.2609275545778877 0.27691022839920365 0.3762202815209955 -0.5041827172978198 0.4459097051743799 0.10392604033768368 0.1502536128437754
-0.11264343662273649 0.007542701730366158 -0.2420105518892099 -0.4469731241060541 -0.15248166800067614 -0.19134385662958375 -0.08497341374720875 -0.11270146995095545
0.029402111302773076 -0.2776924216899521 0.4148566378011383 0.15006422404044445 0.03241933277558545 -0.5361552049176228 0.20311260919783383 0.2690252299996888

linear_afunc_stack.2.weight f8 [200, 200]
00000000: ac4f 0e0b cdc7 b6bf 1520 1f52 1480 80bf
00000010: e698 1157 7a31 82bf 1206 de73 8d1b 8cbf
00000020: 8da6 c328 3ca4 aebf a5e5 464c 0dea 90bf
00000030: 2ecc 4f2c 1ebf adbf e2e2 45f4 6f9b 943f
00000040: c7ec 62cd b806 abbf 42e6 51cf 38f5 9dbf
00000050: b587 657a fd49 a33f 7513 4db9 b2eb 85bf
00000060: dedf 0338 9b01 bb3f c23e 9d84 1a31 b9bf
00000070: f850 682c de21 48bf c60b 051f 7966 b5bf
00000080: 7192 61e4 afef 85bf ccf3 bee4 af60 96bf
00000090: 2a11 eb49 1647 b1bf b1db 1fd6 5a5d 88bf
000000a0: d3af 101c e635 ad3f b570 d209 31cb babf
000000b0: 800b c52c 7cac 9f3f ee62 b581 e495 a23f
000000c0: 4abf 55e7 9b6a 893f 6c3a b9b3 9033 713f
000000d0: 671d 1dc3 f61f a03f 4ca7 8b20 ec2d 5e3f
000000e0: b941 726e 4bbd 9d3f 4c54 5ffb 0c87 98bf
000000f0: 7d4c da27 1522 aabf 526a 28ce ac65 9d3f
00000100: fbf9 37e6 df73 b2bf ea61 0e45 eea1 a2bf
00000110: 57bf d259 ffe8 b4bf c423 9081 3a2e 9dbf
00000120: 0651 e43b 57b2 a43f d824 faf8 e9f6 a6bf
00000130: 059b fd05 1507 9a3f 5cce c338 7697 92bf
00000140: e981 b6ff f7ec 78bf 2d12 7d98 71df 7bbf
00000150: 74fa 7c28 973f c4bf 4014 0072 5bbc 8cbf
00000160: 4978 af19 a593 95bf 1ee5 b3ee 74ce b0bf
00000170: ea8a af1e ae2d b5bf 0535 9fb7 36dd 77bf
00000180: ad03 01d3 cb45 a23f cb70 36a8 9a5b aebf
00000190: c7bc c5a0 7a03 a4bf b68a 9c74 3a3c b63f
000001a0: e7ae 0a3d afde a3bf 8d62 664f cab6 acbf
000001b0: ac69 9b38 4c53 b43f aff3 cb51 611b b3bf
000001c0: e787 2a3b 16b2 a3bf 3740 0ae5 2674 b8bf
000001d0: da31 d9be 0c92 643f 3899 a796 945a 973f
000001e0: 9e91 f0f7 df7a aabf b2fd 2849 ef57 85bf
000001f0: 420c 67c8 4f3d 84bf 7dfe 0970 69ec 693f
00000200: 5784 c194 a2b7 b3bf 5d6d 7de7 cb19 bebf
00000210: d781 9349 3e14 80bf 7db7 33c0 7233 b4bf
00000220: 2f55 a57d 610d aabf 05c1 22f9 70a8 953f
00000230: b32e 8b71 90d1 a5bf 05fc c2ef a445 903f
00000240: 2051 f350 eacc bd3f 119b 397e 3149 9e3f
00000250: 4ff9 a8a5 cf09 843f e847 9089 4725 70bf
00000260: 67f1 3e54 d02b b3bf bf6d 11c8 4f59 a63f
00000270: 8231 9a67 e839 babf a86c f90f dacb 81bf
00000280: b84c ec9d 10d9 783f 2f67 30af bdf5 96bf
00000290: f105 5374 d548 a43f 3ac6 956d dbc9 9abf
000002a0: 5fc8 43d6 66ce a6bf c3f2 1e36 b779 8fbf
000002b0: 8e8b f2e0 8e4f 82bf 88ad 84e1 e38c 9b3f
000002c0: c514 e2de 9f0f 993f 0bb8 18b8 3d98 9bbf
000002d0: 443d 7989 410f abbf 2c5c 44cd 6f1a a73f
000002e0: b83a 7a57 a19e ae3f c292 518a 9516 82bf
000002f0: 4d7b 35d0 3ad1 a5bf 86ab a1ba b336 a4bf
00000300: a22a 00e6 2b35 b9bf a9bd efe7 461c a8bf
00000310: 6c18 f82e 5d41 9cbf 5ad8 f3e8 1869 79bf
00000320: eee6 07b9 b041 aebf b4be da9e dc1f a03f
00000330: 5ef7 e8f2 edae 9e3f a9b3 7d0b 77b3 aabf
00000340: 4588 cd8f 09f1 913f 3b51 dc8f 1855 82bf
00000350: fa4e 9187 526c aabf 4484 7687 39c8 993f
00000360: b0bf 7f1e 14c4 5cbf 366a 8a41 ee3f 89bf
00000370: d1ad 0015 2498 b7bf 5861 ebe4 9afa b0bf
00000380: 74c9 c710 9f5e bb3f a886 4d14 446f b03f
00000390: c50f 8c99 4639 adbf 9f3c adaa 74df a43f
000003a0: 8974 8375 4358 a13f dd1a cfcb 7c82 a83f
000003b0: 3f95 fec7 5ff7 4d3f 8813 2f30 6e6e 973f
000003c0: ffce fc89 19b8 9abf c341 9354 2880 b03f
000003d0: d063 1040 1902 a13f d2e7 4ba1 777e b9bf
000003e0: a411 f2fd 81fa b1bf 9ff8 e29f 6a53 9a3f
000003f0: 677f ca19 e1b3 a9bf 0160 07f1 0fef 8d3f
00000400: cf87 e964 d84d b83f c009 689b 0104 b23f
00000410: 2b87 4a20 cfc3 aa3f 3c38 48e0 8326 a8bf
00000420: b4b3 028d 4c98 b23f 4e0b 1f51 c6be a83f
00000430: 53ed 8b2e 0587 abbf 8451 bd01 ec9f 96bf
00000440: fa32 05b8 e495 913f dbfa b6c2 0942 973f
00000450: fedb 42fd f5b1 acbf 56e5 ef89 94a0 af3f
00000460: 4a47 23e9 ca80 a0bf 95a2 dd3d 9ad2 b63f
00000470: 2959 fe89 4429 a83f 1204 33ad 17f5 a53f
00000480: c216 3af0 c23a 47bf c190 7347 b0ba 85bf
00000490: 0c64 06b0 903c c1bf cfc3 9e9c fc9c b0bf
000004a0: 5258 8b38 7909 a4bf 442f 24d4 9c7d 7cbf
000004b0: ebab 54e3 d37c c33f 6918 fd6b 1c19 b53f
000004c0: 72db 8009 d6ec b43f 4d93 e734 fae9 903f
000004d0: d171 bd67 9632 b23f 3db3 4744 065a a4bf
000004e0: f0b0 0a9c bce5 b93f 069a e321 1ab3 a53f
000004f0: 9a09 2b8d 8d3f aa3f c4c4 0b2e e116 a9bf
00000500: e184 1b93 71f9 b43f f5b2 4076 e43b 863f
00000510: 0a18 7c79 ae8f 95bf 6af1 d537 6fc0 b0bf
00000520: 006f d2bf 365a a5bf 0a29 67cc e8a0 ad3f
00000530: 5d6f 7b05 389f 80bf ff53 d1b0 241c a93f
00000540: 9c2e 93ba 6032 8e3f fa9c 286f 7108 b03f
00000550: dc16 1687 ee30 9c3f 5d98 737d cb8e 86bf
00000560: 0047 71f0 aa59 b33f e432 ba03 4e94 a83f
00000570: d3fc 7c22 302b b53f 5b03 93d5 3462 973f
00000580: 9a9c 0fe5 1494 aa3f cc76 bedb b780 b0bf
00000590: d92a 7b36 177a ab3f 5815 8dab 7180 3dbf
000005a0: 1d10 4b71 29da b93f e7da 66fe ef7f a2bf
000005b0: 3b03 a831 472e 983f c786 96ac 42f3 a5bf
000005c0: cf2f 67f5 75e0 a5bf 74be 16d2 ee2f 8e3f
000005d0: 70fa 513b 55d9 c1bf be59 44af f109 a0bf
000005e0: 8d7d 7b08 e491 7f3f 35f2 40c7 e226 a1bf
000005f0: 3dfd 3eff b462 a73f b583 fbec a1a9 ab3f
00000600: 33d4 4961 93ac 99bf 6c2a 961a cf84 af3f
00000610: 16cc c3d5 a771 c6bf 42df 9f17 d776 b8bf
00000620: d68c 54e8 0cd6 a33f e0a1 0b68 58cb 9fbf
00000630: 4b7c f4ac 0681 96bf 2e8b 1417 270a a1bf
00000640: 7aea b31b 7061 a63f 427a b53d f2a7 aa3f
00000650: 9d98 152c d1d4 9cbf 2e38 ceeb 07b1 b4bf
00000660: e0b6 a96f 6f11 9a3f 4451 88f8 8af5 a6bf
00000670: 0ae3 a4be d743 abbf 4522 8999 0c1e 8e3f
00000680: d19e 740b 0e2b b53f 7544 9fab 2baa a0bf
00000690: d83b b532 393a 993f 3648 5c6d f433 9a3f
000006a0: 1960 9677 3bc1 67bf 6af5 4181 04e4 b53f
000006b0: 1051 c15e 6125 aabf 9f4a b674 4b50 bc3f
000006c0: e8d6 1278 0f72 a83f a1e4 15fb b66f bb3f
000006d0: 9519 900b 5996 9cbf 8aa5 814c 2e8a a83f
000006e0: fa45 94e2 8156 aabf ec78 06ec df6c ba3f
000006f0: c6c9 761f a6dc a4bf 6f4f 5446 df50 9bbf
00000700: b527 f8c8 9860 b8bf 9359 6f6b 4b3b b3bf
00000710: 1d4d 5f5b 4f69 a5bf 006f a797 b3cb 9d3f
00000720: ed0e c19d c277 b33f 999f 0900 78d7 803f
00000730: 43f8 d8a4 5215 b1bf 541d d2c5 9e76 843f
00000740: dada f01c 7607 613f e892 7517 3035 c13f
00000750: 3500 c934 90f8 b43f 4b1d c21e 0285 a93f
00000760: b55b 1e6d 88bb 9b3f 2692 90da efd2 af3f
00000770: 2378 34ba 79e6 bfbf 184d 5c8d 9cb1 a5bf
00000780: 6f15 1d62 1f3f a83f 92bd c50d ba5d a4bf
00000790: 2040 5e22 824d c13f f704 71b8 cf3c aebf
000007a0: f55a 68de 8526 b0bf 656f 5972 842c b53f
000007b0: 5632 ca9c 681b a63f 9ddd 0d18 ea29 a7bf
000007c0: 60e6 25e8 2299 b4bf 6f01 288d ef5b 8abf
000007d0: 09d3 89b3 b2f1 a53f eb6a 4b4a 500e c3bf
000007e0: edf1 fa1d 7cbb a1bf 2797 6e27 8e85 78bf
000007f0: 7c71 9e1b 5699 c0bf 7d50 5908 3a04 ae3f
-0.08898622054976951 -0.008056792026664575 -0.008883434087874464 -0.01372442731713178 -0.05984676358805272 -0.016517837315154122 -0.05809873858370228 0.02012419632362395
-0.05278565890463365 -0.029255759862712567 0.037673875037185146 -0.010703464775028352 0.10549326055104255 -0.09840551126148525 -0.0007364592391377036 -0.08359486586873208
-0.01071107307161265 -0.021853206955473145 -0.06749095253605178 -0.011896810206946858 0.057051840711522715 -0.10466295709415159 0.030931415779615445 0.036299839814722165
0.012410371777803814 0.004199567072261528 0.03149386531600378 0.001842003434087097 0.029042414299114337 -0.02395267757659196 -0.051041279902300986 0.028708171923520993
-0.07208060617993077 -0.03639168351145712 -0.08168025916051867 -0.028496660383129827 0.04042313200094054 -0.04485255398055593 0.025417641153945975 -0.01815590592828041
-0.006085366006488326 -0.006804889424362898 -0.15819062687838292 -0.014031137863648735 -0.02107103318473261 -0.06565028026297567 -0.08272827386057782 -0.005826200236652261
0.035688752658195134 -0.05929263404252224 -0.039089042783297105 0.08685651156387561 -0.03880832309854814 -0.05608207911717953 0.07939602262505357 -0.07463653800000601
-0.03846806976549982 -0.09552233783529195 0.0025110482154444393 0.022806474395019566 -0.05171871091468748 -0.010421628399057112 -0.009882567694949999 0.003164487774767909
-0.07702079898582902 -0.11758112336740596 -0.007851111050002508 -0.07891003792221159 -0.050883337581277714 0.02115036507228842 -0.04261447320967928 0.015890671857729206
0.11640800930337436 0.029576085404552425 0.009784338229221005 -0.003941802447132027 -0.07488729531082115 0.043650143787739897 -0.10244610337594476 -0.0086895977139448
0.006066384229387704 -0.022421802346890004 0.039618177842850495 -0.026160648883381855 -0.04454347005402392 -0.015368872965944807 -0.008940807571269162 0.02690464080766966
0.024473665217119817 -0.026947941171037864 -0.0528507690729563 0.04512357121182506 0.0598040026935584 -0.008832138332033227 -0.04261192123043731 -0.03947984364716377
-0.09846758237123734 -0.047090736210403 -0.027593093864219417 -0.006203744225095143 -0.05909492739369947 0.03149308623448857 0.029964178038646032 -0.052150459435188985
0.017521047021894515 -0.008951370134618322 -0.051607684181957894 0.025177859204294842 -0.0017557331539101821 -0.012328969359534186 -0.09216523659477295 -0.06632392968038425
0.10691255721738974 0.06419778342890459 -0.05707760452608527 0.04076733191924941 0.03387652215472154 0.047870540503529325 0.0009144990617541495 0.022882196131621707
-0.026092909857836407 0.06445552887749444 0.03321913630515605 -0.0995859879293726 -0.07022869539111426 0.02570883370275878 -0.050200495146099304 0.014616131346812724
0.0949378248565431 0.07037363094426663 0.05227515477350971 -0.04716884720629408 0.07263639872208111 0.04833049526452858 -0.05376449769206695 -0.02209442864052981
0.017173360568722075 0.022712852963873025 -0.05604523388449677 0.06177200492670447 -0.03223260970993509 0.08915103922266561 0.04718984779826691 0.04288553227662119
-0.0007089092109288863 -0.010609986477398416 -0.1346608027932067 -0.06489542793020962 -0.039134777214414954 -0.006955731021900228 0.1522469387067241 0.08241441379968396
0.08173883182540267 0.016517552832641603 0.07108440430369646 -0.03974933227059416 0.10116175469983424 0.0423820654266827 0.051266120417056985 -0.04900268256268128
0.08193120805255517 0.01085642324331946 -0.021055914082374762 -0.06543631661583552 -0.041703902164242024 0.057868266059431475 -0.008116185824682704 0.049042841514769
0.014744525617423059 0.06262883151849855 0.027530409808170883 -0.011014547124841007 0.07558697099855394 0.04800647540569061 0.08269024698255416 0.022835565124072015
0.05191102310328084 -0.0644640838131309 0.05366585292866483 -0.0004501607432313057 0.10098513618419287 -0.03613233547678423 0.023614036947040545 -0.04287155491625821
-0.04272812481539711 0.01473986223831434 -0.13944497486587037 -0.03132586731424024 0.007707491640501896 -0.03349980051323024 0.04567494979664353 0.054028568438077164
-0.025072386563312853 0.06156012725394508 -0.17534349382148723 -0.09556335760850934 0.03874245010435977 -0.031049138403348553 -0.021976570421540036 -0.0332805839227802
0.04371214235466865 0.05206257823259765 -0.02815558272904949 -0.08082627779933269 0.02545713538204708 -0.04484209331363556 -0.05325197412680012 0.014705751834427913
0.08268821506191705 -0.032548298549621636 0.024636167259185132 0.025588816809495728 -0.0028997575252098892 0.08551052241997117 -0.05106643945387834 0.11060020064750596
0.04774521198980414 0.10717338209168982 -0.027917281466238803 0.04792923625866326 -0.05144124880656516 0.10322379600845338 -0.04074591764528494 -0.026675690333902432
-0.09522395044783034 -0.07512351391719667 -0.04181907644638214 0.029097372180202363 0.07604614592952048 0.008223474026820375 -0.0667316105327425 0.00999187508774805
0.002078753175307352 0.13443566461059864 0.0819177750463503 0.0498428976580337 0.02708256879813194 0.06215619605089655 -0.12461052700061308 -0.04237069345085781
0.047356587149390054 -0.03977757852669152 0.135177866727191 -0.05905770422442374 -0.06308781318544361 0.08271053115589451 0.043177861346610655 -0.045241656719493074
-0.08046167533566395 -0.012870666022536807 0.04285963479643413 -0.14887431743303323 -0.03463352075548074 -0.005986743249115445 -0.1296794543130878 0.05862599708476155

linear_afunc_stack.2.bias f8 [200]
00000000: 7efc 6151 7a91 a73f e86c a914 53a2 a03f
00000010: 3546 ce38 3d64 b0bf 7ae6 c3e1 f33b 843f
00000020: d604 0bdc 0bc4 babf 1df4 afa4 23a0 91bf
00000030: 988a 686c 4856 a4bf 0bb9 919c 8205 853f
00000040: 3c8e c21e ee94 c8bf 8d90 0e75 45e1 abbf
00000050: 3c3b b093 6ba0 a0bf 9484 eb7b 0c7e 9fbf
00000060: c237 e6e0 f484 c2bf 44e2 eea0 a4e5 cdbf
00000070: 5b03 b395 22bc b7bf 483a e73c ed4e abbf
00000080: 771c 44b4 ca19 a53f 5eb6 87ff 994b adbf
00000090: 0690 9d1d 1eaa b1bf 7838 7639 a6d2 b2bf
000000a0: 8b94 b69c 0f1a a6bf c2cb b901 0ebb a5bf
000000b0: 68b6 42e4 4eae a2bf 3c6e 9ad2 87f9 adbf
000000c0: e415 a363 2544 84bf d920 b759 6776 94bf
000000d0: d99a a155 751c a2bf fac1 4487 d77a adbf
000000e0: 6b40 2b20 18d4 a43f 92d3 a45f 8a82 adbf
000000f0: e472 2eb8 88ab a5bf 705a 9b6d 65dd a53f
00000100: a8ab a627 9617 abbf 4d78 136e 068a 9cbf
00000110: 672c 00dc e3e6 b8bf c466 2b0d 0e55 94bf
00000120: 48a9 6e9e d6f1 94bf 6689 eb50 3e09 c0bf
00000130: 4e63 a582 1dc9 c5bf 6a18 aacb 8604 8ebf
00000140: ab96 bdf3 b31b b63f cb10 9236 163f aabf
00000150: a2dd 9e67 78e8 a1bf a9ce 3dce 46e0 983f
00000160: f3e6 791a 39b6 abbf f500 6b00 6829 a9bf
00000170: 3f95 ab33 690b 90bf 3899 8c34 a9d2 943f
00000180: 23d6 d6f3 dc8b b7bf ce0b 0bac eed1 c6bf
00000190: ba0a 36bc 8519 3abf b553 802f 1046 73bf
000001a0: 0cfb 0878 5017 c0bf f680 4258 0c39 8d3f
000001b0: 117f fbb6 a269 8e3f 47b1 2acf 889f 95bf
000001c0: 450b 110b e5ee b0bf df69 0bd4 1c8f 88bf
000001d0: 8ea6 e863 cd5a bfbf bea0 7472 c847 a5bf
000001e0: 925f 27f1 9788 c0bf f26e 7aa5 9d14 5b3f
000001f0: 27fc 575d 1b05 b4bf 86d2 f941 cd19 adbf
00000200: c39c 1d91 e2ea c9bf 0ef1 beec fb86 babf
00000210: ccb8 4d4c 6313 babf b04d 30f3 0ac7 b3bf
00000220: 6422 14c8 956a 813f d708 cb0e 869a bfbf
00000230: 9a27 795e 04b8 ac3f a375 ff0c cac7 c6bf
00000240: 8b10 0e94 38c1 babf 752b 8033 5316 c3bf
00000250: a86b 5a82 8769 74bf 0daa cd8f 28c6 a2bf
00000260: 74fc 52d1 d6d1 743f 9012 9922 2fc2 b9bf
00000270: 73e1 30ba 53a9 b6bf 84b6 9a6e d2d7 bfbf
00000280: 4b2e 4096 309c b9bf 54bf 0445 863f bebf
00000290: b0d6 8956 4f32 a0bf bc34 e081 d909 a73f
000002a0: afd7 65de e63f b1bf 2503 784d 625b b8bf
000002b0: 87c7 a881 6f2e c9bf c21e 084d d58a 723f
000002c0: 0888 69b9 fd40 d6bf 0d6b 8844 7a6d a1bf
000002d0: adc4 5510 8701 873f 0016 eeba b39c 983f
000002e0: 8cb9 f9c7 8756 b5bf ee8c b30a 5833 7fbf
000002f0: 8c61 69ec 387d babf e55f cdaf 45dd b0bf
00000300: 48f7 d56e 9f06 a53f f640 cc2d aa29 a2bf
00000310: 38f3 9803 6d94 babf f7c5 d232 d341 b6bf
00000320: 5968 c1e5 4da2 b6bf 48aa aa8b 2ae9 91bf
00000330: 3ceb e298 84e9 babf fc0e d351 4d89 6e3f
00000340: 76ec 34fa 96b3 a93f 0cbd 8083 9c25 a1bf
00000350: 43c5 7f9a e4c8 95bf a813 6215 77d6 903f
00000360: dbe3 96e2 72e7 91bf b985 a9be 6f98 aa3f
00000370: e7d2 b733 27a8 abbf 3023 a99f 6e46 a93f
00000380: 098d 38cc 5148 b6bf 6353 2c0e 1cb1 bdbf
00000390: 62dc a601 f57a afbf 4a97 3c57 52ba b9bf
000003a0: b7ac aaf4 0024 a43f d1bb a042 0ea7 b4bf
000003b0: 4e96 7883 848f 96bf 697e 3a1d 46f5 acbf
000003c0: 3c6f 0fc2 eb01 9e3f 33f3 dcdd 440c b5bf
000003d0: ef1e 4c30 a339 ae3f d00a 6e07 2b9c 803f
000003e0: 0979 f1fe 7a27 a13f 52d2 fc57 133a 963f
000003f0: 5418 b802 cb94 863f a7c0 5c42 c651 d0bf
00000400: f4cb 07b1 6aa2 a33f af41 706c 3c6d c2bf
00000410: dc07 1712 3a1b adbf bf0f ae61 cda7 8fbf
00000420: 7ab6 5947 3d98 9f3f 48d2 f5d8 f58c c6bf
00000430: 53de 5fb0 db81 93bf 1e5d f7ef d238 943f
00000440: 4592 39ee 1c24 303f bcd8 1611 7f1a a83f
00000450: ed75 22fc e4de acbf 92e7 634a bdb9 babf
00000460: ae09 b9d3 113b d4bf cf6e d6a4 8a92 a4bf
00000470: 7c56 0961 4035 b1bf 19f0 18c2 3b0f a73f
00000480: c710 3cbf 0355 7c3f 3753 7a35 b255 c1bf
00000490: 5ec5 f0ca f7ac a83f 37e5 0d2a 65f5 a33f
000004a0: cf3f 237e 0803 c1bf 25ec 54c5 50c7 733f
000004b0: 44cc 13cc b404 b6bf 590f 541c 37a9 b9bf
000004c0: c3c4 24ad b6c7 a6bf 8bad 121c 6227 c0bf
000004d0: c266 56b1 41e9 b4bf 9fb1 2ccf b840 d2bf
000004e0: e57b 926b 0c59 8a3f 353f 858f fb9c b03f
000004f0: 277a 06a8 7606 b03f 3503 fc26 b4ed abbf
00000500: 01d9 ca0b 7786 a13f 6110 0549 f073 a8bf
00000510: f12b c98f 52a3 bbbf b4a5 b965 fc50 b0bf
00000520: f372 6f7a c99f a9bf ed4c b09c 6d61 bfbf
00000530: 8ced ae16 a46c b1bf 314d 56e9 bcc5 a6bf
00000540: 1b08 0cfd 17d4 adbf c17e 8888 0911 703f
00000550: 9a5c b614 39aa 9a3f ac32 363c 46a0 b5bf
00000560: 10c3 44ec 7acf 9d3f 6c97 b5ba bc8b d3bf
00000570: 1d32 a1e8 0fb6 8bbf 5069 4818 ec3f b23f
00000580: 3ed5 9440 3377 b3bf 045e cbc7 25ad 673f
00000590: 04c6 ddee d535 a9bf ef8e 200c 895b b8bf
000005a0: 32d9 4d9f 3f5d b3bf fce7 4de2 c229 87bf
000005b0: a271 6bf4 aee5 c4bf 1cd1 6c78 2b65 b0bf
000005c0: ff19 0d33 88f3 aebf eeb6 33ca 4e37 babf
000005d0: b75c fae6 f465 97bf 623a b23d 1413 a1bf
000005e0: 8935 0397 8791 b33f 11cb 00d9 5962 ac3f
000005f0: 067e 2369 ffdc 58bf 8de5 13ab 20f5 bfbf
00000600: 1933 33e5 ead7 bebf f73d 4d84 e0fd b6bf
00000610: ef40 c683 ed57 93bf 5a9f c658 eb4e a4bf
00000620: e08b 52b6 e65c babf 1895 d6e1 839a bebf
00000630: fa58 5858 d39c d2bf 5c44 51d0 6b2c 93bf
0.046031782564562626 0.032488437912172874 -0.06402952801570268 0.009879975631054128 -0.10455392954010576 -0.017212445189205384 -0.03972078631729409 0.010264416125405981
-0.19204498769714629 -0.05445305875699189 -0.03247390916668855 -0.030754275382495935 -0.1446825121060425 -0.2335706506544445 -0.09271446375624974 -0.05333653801391286
0.04121240091813488 -0.057217419092790975 -0.06900203917535927 -0.0735267534530254 -0.043167579536466404 -0.042442739210762706 -0.03648611580261446 -0.05854439206924808
-0.009895603278333227 -0.019982924319067095 -0.035373369887386104 -0.05757783437946169 0.04068065064132117 -0.057636570143961965 -0.04232432602223016 0.042704743985883975
-0.05291432603856744 -0.027870274036893062 -0.09727310296163837 -0.019855708650402773 -0.02045379011148299 -0.12528208686041892 -0.17020005110932818 -0.014657071199746425
0.08636021328637848 -0.0512625638594116 -0.03497673287295845 0.024293047273615063 -0.054124626619296644 -0.04914402966596924 -0.01566852929945139 0.020334857780789778
-0.09197789147477713 -0.17828162575287226 -0.00039824976939699006 -0.004705489373027773 -0.12571149693572925 0.014268967097735157 0.014849921425990982 -0.021116387981849696
-0.06614524383716709 -0.01199171564205853 -0.12247928322963217 -0.041563285800579206 -0.12916850352371206 0.001652864409982632 -0.07820292500399316 -0.0568374770199727
-0.2024806221554397 -0.10362219362190592 -0.1018583356178368 -0.07725590169166341 0.008504076164642167 -0.12345159398231274 0.05609143880117458 -0.17797208437597786
-0.10451081862089688 -0.1491188050716478 -0.0049834531143017405 -0.03666807895099931 0.005082930690320276 -0.10061926455188996 -0.08852122588803528 -0.12438693237592174
-0.1000395170996679 -0.11815680680296953 -0.031633834184430554 0.04499702177427298 -0.06738131456026396 -0.09514440909698559 -0.19672960120220415 0.004526932913456684
-0.3477167425791099 -0.03403837286551523 0.011233382402425407 0.024035270962050603 -0.08335159904684114 -0.0076173247464084 -0.10347324153679532 -0.06587634603545174
0.04106615283943299 -0.035474126902160494 -0.10382729852512973 -0.08694190970233949 -0.0884140668798933 -0.0174910209413304 -0.10512570126131221 0.00372758008470153
0.05019828609734926 -0.033490077068899365 -0.02127415841090864 0.016443119697686776 -0.017484469489975268 0.05194424822253602 -0.054017281592597936 0.049365479459601125
-0.08704100833761087 -0.11598372789405924 -0.061484962894092346 -0.10049929265786975 0.03933718668607738 -0.08067406775147325 -0.02203185131488388 -0.05655879122536762
0.029304202765941798 -0.08221846024111983 0.05903348888938164 0.008110366977921585 0.033504336949350906 0.0217059156850204 0.011025987644654268 -0.25499111633963384
0.038348516569293084 -0.1439586190686106 -0.05684834929299118 -0.015456776183562114 0.03085418460835008 -0.17617676824342454 -0.01905005706791336 0.01974801625860067
0.00024629312813420997 0.04707715114220565 -0.05638804986777388 -0.10439665857475536 -0.3161053245168216 -0.04018052351167755 -0.06721880311064327 0.045038096850902494
0.006917013775595566 -0.13542773829672125 0.04819464065838973 0.03898159159047981 -0.13290506514613162 0.0048287539587433025 -0.08600931150776697 -0.10023827020273525
-0.04449244369096441 -0.12620188112974193 -0.08168421344307844 -0.28520031196492285 0.012865159066050633 0.06489536527555802 0.06259862520389757 -0.054547910460320294
0.03422901171636462 -0.04775954142908812 -0.10796085367580567 -0.06373574718022362 -0.050047203250619086 -0.12258038592726779 -0.06806397966186334 -0.044477370723280514
-0.058258771552587706 0.0039224979778109135 0.026039974106961773 -0.08447684259426563 0.02911178652829266 -0.30540388329824597 -0.01353084973029533 0.0712878760608977
-0.07603760077184504 0.0028901803874352722 -0.049238858612522335 -0.09514671846460108 -0.07564160956630842 -0.011310122042903707 -0.16325938162380021 -0.06404372873368341
-0.060451751930077784 -0.10240642963955413 -0.0228498712518472 -0.03334868672492487 0.07643935620145305 0.05543785833324056 -0.001517533707151021 -0.1248341005010813
-0.1204821405000981 -0.08981135587713839 -0.018890105407593557 -0.03966460665406997 -0.10298006011230099 -0.11954521430614695 -0.29082187297298356 -0.018724140729606695
