data/models/ann_005_020.pth (torch, 659063 bytes, 8 tensors)

linear_afunc_stack.0.weight f8 [200, 5]
-0.019418509574569056 -0.20761826607451614 0.30288220396076787 0.19079894993705823 -0.11605634033226678 0.09267521558307101 0.07040940223193917 0.2709210235742845
-0.056667138373752604 0.023559514596427317 0.03254577297078378 0.05101474598097221 0.30815048438463855 0.34854368495830473 -0.2875932791118169 0.18275923453242374
-0.06467589748024047 0.06472370734104939 -0.1499971228358304 -0.08528074276608966 -0.17379603924711745 -0.1861916306060157 -0.13633163652096153 -0.16323778125985627
-0.1704469438809415 0.3063365716524371 0.20934436640033857 -0.2265830048692324 0.34153883092094806 0.053989181795526496 -0.018857046138943515 -0.10002612778199937
0.22295364131442558 -0.07552785727224023 -0.02732599822473195 0.14025237833037255 -0.16450190582100954 -0.04226155304511133 0.19953578869828267 -0.03174435744142893
-0.40771882609097804 -0.1534735889746753 -0.2061097289079412 -0.22757547668366065 0.048143990335573844 -0.37767097362994567 -0.28046810412285034 -0.2840978803190775
0.2520492104066089 -0.291138858307259 -0.4483011435381234 0.07903721297038617 0.2158726417287006 0.20711933410856007 0.41367590927289283 -0.08954751515332407
-0.1777516486625364 -0.11288177314893362 0.10856594774786539 -0.3442647349564899 0.3169361789138077 0.2106968711370571 0.4435799949493277 0.2729171088504237
0.3423278777212797 -0.36861648832533717 -0.35352998732531904 -0.2529692943280775 -0.0009280663682816501 -0.34969807794554136 0.27879643971313467 0.15029101477439358
0.0988462784937661 0.4009731072759887 0.028688429305377447 0.16627505069051945 -0.14503400269115033 0.09117368531600908 0.0016995368300628982 0.19793552552109828
-0.2571053593432307 -0.10414055638700238 -0.07178075971612354 0.01877260081345795 0.2702169605901722 -0.33458882522528066 -0.20523328761035464 0.14470332500608285
0.04751002204872997 -0.17327803756049862 0.12229586585543811 -0.012415303769657583 -0.10521603612863424 -0.06745021815735247 -0.007561950291779701 0.26083958020037284
-0.12401305211897433 0.2075374112419048 0.1449864465700793 -0.15642955648113027 0.08207343266970804 -0.28251888066456465 -0.30295250141132113 -0.3617384251472234
0.0008395503964207659 0.37685610552207555 -0.28146622295339246 0.10996181879412548 0.29299128789589635 0.37680933384311405 0.2070110913424426 0.16673839296009016
0.07192876772208456 0.2677753722097819 -0.2144122974639722 0.08176929472732324 -0.19393730023430464 -0.23362264761285542 0.2438476454292671 0.10338094871816414
-0.28981267718033926 0.048939263236536856 0.3433039252615596 0.009886591404553016 0.05722940220878418 -0.12018683349139864 0.40693126877873126 -0.3327075748037269
0.004303257436201455 0.25362157626618637 -0.1433544764938555 0.18079203112717096 -0.3329697713813692 -0.21642547894189149 -0.23350210431146184 0.2561602408020974
-0.06147991204865126 -0.2679713896420009 0.10902124932461048 0.03959651883361828 0.31084304706895743 -0.2117000892468838 0.05006036603318819 -0.14727347447363395
0.25741812817593823 -0.00642447435063062 -0.06445211188460263 0.37946694668541353 -0.05125269913310866 0.3507259280245543 0.08708773149445619 0.27608494154585117
0.2711039602908367 -0.3677422813648034 0.04331520770135594 -0.024230249233231582 -0.16764358630832277 -0.14460931442378802 -0.16508785276082433 -0.017486806617557707
0.2089309139522234 -0.2760818369980974 -0.07829268187247931 0.3438545180498112 -0.16093391835591392 0.2074525673660086 0.03991439812829508 -0.034772520260056256
-0.03869752190582904 0.04073366218328511 -0.050463039466318596 -0.16019424720168854 0.14166844832219322 0.14416596094186848 0.11064094179957447 -0.256317269455362
0.020906118531352557 0.06070538320335689 -0.08903770404926507 -0.10857088194730859 -0.2616741754907328 0.12436838400659607 -0.03784290943030976 0.04472789665293165
-0.05889688459711075 0.0842720959565142 -0.015621889732715048 -0.05448244807042923 0.14499675521096483 0.22760838906546713 -0.18766376875506657 -0.1519044419104829
0.003993893510142378 0.33509280104613454 0.21430920277051782 -0.4316610174230952 -0.1100745013704727 -0.2622613158749803 -0.08014459098980131 0.052732406903661794
-0.23773530333685547 0.16459771630264783 0.33497705362788865 -0.48125048299787293 0.016586484810329347 0.026124062259282946 0.23838979051692383 0.24977923350176898
0.015303166353568355 -0.12980636026579342 0.06815703487103436 -0.13667057067997582 -0.2010544459580442 0.06638384209333054 -0.009629218680190087 -0.02103986660801472
-0.2074980699052109 0.13078084464654088 0.4098844083791567 0.28006156420650513 0.13012374807339264 0.08808114842024556 0.023966481671850216 0.03808425307917479
-0.0412003148394867 0.2380242348070442 -0.11463215298000484 -0.04978533073432303 -0.07178097654379585 -0.20360585574395842 -0.0718737564686805 0.017727428186289904
0.28653235350306944 0.18415162684925762 0.22813386590205026 0.09538583818138319 0.24573230661628992 0.138538904395145 0.3130825378075269 0.1463349001692918
0.08351386329923874 0.01685617569745359 0.2826467481699401 0.2373022350621822 0.3137515888776273 -0.01045047765006958 -0.1578919351938151 -0.11637246589728661
0.25411412720863474 -0.18549452212063436 -0.007148657926278068 0.17496515985555047 -0.2229261940932484 -0.1068037891796273 0.014243499664433244 0.20647374892423098
00000000: e745 3d1e 72e2 93bf 9bcf 6b3f 3c93 cabf
00000010: 5352 230a 6c62 d33f 8b9f 0b99 196c c83f
00000020: c274 384a deb5 bdbf f03b 141c 90b9 b73f
00000030: 4ac6 eabf 5906 b23f b439 0322 c556 d13f
00000040: 1277 25a4 7903 adbf f51e ce42 fc1f 983f
00000050: 53ab 10ed d6a9 a03f 5f3c 34d3 9a1e aa3f
00000060: e06d 2bcf bcb8 d33f 43e3 072c 8a4e d63f
00000070: f76a 15a4 ed67 d2bf a5eb ad93 a764 c73f
00000080: 765f 8480 998e b0bf 3141 4e9e bb91 b03f
00000090: 6278 8910 1b33 c3bf 88b0 2871 f5d4 b5bf
000000a0: 52cf 5ed8 f23e c6bf abf1 1e9a 20d5 c7bf
000000b0: a243 22a8 5073 c1bf 9ac8 fdc1 f9e4 c4bf
000000c0: 40fd d598 34d1 c5bf fc38 34b5 049b d33f
000000d0: 2b49 a5d3 cbcb ca3f d312 df01 ac00 cdbf
000000e0: a2a6 47af c5db d53f 6396 4c54 78a4 ab3f
000000f0: 911b ddf1 424f 93bf 60b7 91f3 4f9b b9bf
00000100: f21a fcb2 be89 cc3f 92d5 eb2c cb55 b3bf
00000110: 69b7 d2b2 58fb 9bbf ddbd 0e39 caf3 c13f
00000120: 98c1 d000 660e c5bf bbf1 6968 4ea3 a5bf
00000130: bf9b 6b83 638a c93f e541 16e2 cb40 a0bf
00000140: 838d 01b4 1018 dabf c315 b9c6 05a5 c3bf
00000150: 2f05 86b8 cd61 cabf e92c dd76 3121 cdbf
00000160: 64ff fa3f 54a6 a83f efe6 18e0 c22b d8bf
00000170: 49d7 b17d 30f3 d1bf c555 35e0 a82e d2bf
00000180: de74 eb02 9321 d03f ad90 c1e0 04a2 d2bf
00000190: 6f5c 9047 f7b0 dcbf 9bf2 df64 c83b b43f
000001a0: e5b6 29f8 b6a1 cb3f c3ca 2ee7 e282 ca3f
000001b0: bd16 5e85 aa79 da3f 0287 0501 96ec b6bf
000001c0: 1268 e8e6 90c0 c6bf a539 fde3 d1e5 bcbf
000001d0: b54c 095b faca bb3f 8a78 73f4 6e08 d6bf
000001e0: 15a8 d6ae ae48 d43f 9e9b 7375 1df8 ca3f
000001f0: bbe6 dd58 9d63 dc3f 2503 4252 7977 d13f
00000200: 609b d42f b3e8 d53f 85ea 879c 6997 d7bf
00000210: 2cec 6d3d 3ca0 d6bf ad00 821f a630 d0bf
00000220: a202 a359 2f69 4ebf 9b02 100c 7461 d6bf
00000230: 19c9 b305 cdd7 d13f a559 ab68 bc3c c33f
00000240: d447 765d fd4d b93f 13db 941b 8ba9 d93f
00000250: ac91 8fe6 7f60 9d3f 8ea2 6d38 8048 c53f
00000260: 61e8 2e65 7990 c2bf 5624 b09c 2857 b73f
00000270: cf36 9fc6 5fd8 5b3f 4c33 6a88 f355 c93f
00000280: 2d5a 8009 6a74 d0bf 4192 de9b f4a8 babf
00000290: 1179 764f 3960 b2bf 13fa 37ea 1f39 933f
000002a0: becb 2314 3c4b d13f e8c6 7c3f e769 d5bf
000002b0: f823 2b99 1545 cabf d404 4378 a385 c23f
000002c0: 0bf2 dccd 3b53 a83f c3fc 3788 f92d c6bf
000002d0: f4fc 4828 c84e bf3f b4e0 48dd 316d 89bf
000002e0: ddee 2f2a 70ef babf 7409 18e1 6a44 b1bf
000002f0: 469d 2793 47f9 7ebf 4fa1 9d7e 98b1 d03f
00000300: abcd 20c3 51bf bfbf 7f80 fdfc 9590 ca3f
00000310: ecdc 3077 ea8e c23f 326c 9b3a e205 c4bf
00000320: aad5 2fb5 c302 b53f bc3c 3d12 ca14 d2bf
00000330: a664 73e3 9263 d3bf 05b0 6dec b826 d7bf
00000340: 82fa 7bbf a882 4b3f aff9 2012 691e d83f
00000350: 9ddc a0e7 8a03 d2bf d889 872f 7526 bc3f
00000360: a2a6 e187 5ec0 d23f 15c2 6be5 a41d d83f
00000370: c2ce 9ce5 567f ca3f cb26 6004 af57 c53f
00000380: f007 0279 ec69 b23f e72c 9450 3b23 d13f
00000390: e9e6 bbb6 dc71 cbbf 13bc ab1e d5ee b43f
000003a0: 338d fdfc efd2 c8bf 2313 8dcf 58e7 cdbf
000003b0: a1a3 294f 6636 cf3f c622 c681 2c77 ba3f
000003c0: 372b 9d78 4a8c d2bf c0b9 2e2e 910e a93f
000003d0: 928e e506 b1f8 d53f a802 03d6 6b3f 843f
000003e0: 9674 b615 2c4d ad3f ec5e 4177 90c4 bebf
000003f0: c5f6 c772 290b da3f 7876 3ab6 144b d5bf
00000400: 30ac 46df 4aa0 713f 2be3 e7fd 553b d03f
00000410: 215e 2382 7059 c2bf 52c8 887a 3124 c73f
00000420: d6ee a871 604f d5bf bdcc 0981 d4b3 cbbf
00000430: f24e c89e 65e3 cdbf 9af3 31ec ed64 d03f
00000440: 9646 3887 4b7a afbf 15ab b178 7126 d1bf
00000450: 5b13 6b0c d1e8 bb3f 8407 dab2 fe45 a43f
00000460: 0969 563c dae4 d33f 3515 f00f fd18 cbbf
00000470: 1f6d e025 83a1 a93f c15d 3772 dbd9 c2bf
00000480: b871 7ae2 8979 d03f 5fdf adb3 8c50 7abf
00000490: 1fd7 b300 ef7f b0bf 2151 7bbb 2f49 d83f
000004a0: 0a84 3735 cb3d aabf a961 ae29 4b72 d63f
000004b0: ebc9 a6ae 614b b63f 52e1 b62c 60ab d13f
000004c0: 78f9 d06c c459 d13f 635e f4eb 1689 d7bf
000004d0: c858 fe30 692d a63f 0065 1f80 d0cf 98bf
000004e0: 0009 4a54 5875 c5bf d5d5 12da 8e82 c2bf
000004f0: 9e8c 4948 9921 c5bf 34b3 22ba 0fe8 91bf
00000500: 142b 4689 3fbe ca3f a64a 3b27 53ab d1bf
00000510: ea8e 283c fd0a b4bf 1dc5 6661 b601 d63f
00000520: bef0 138e 7b99 c4bf 8874 2744 ce8d ca3f
00000530: 6b7b 33f5 a86f a43f 4c04 a22a b4cd a1bf
00000540: a926 0b5e 29d0 a3bf d0d7 d8e5 0adb a43f
00000550: e245 54a0 4ad6 a9bf 2d8a 5ebe 3e81 c4bf
00000560: 0e9e 3514 3122 c23f e38a b8bb 0774 c23f
00000570: 45b8 a0fa f652 bc3f bd7d 6d8c 8067 d0bf
00000580: b38a 83dd 6968 953f a860 19a7 c614 af3f
00000590: 2ba5 00cb 2ccb b6bf 11f6 4223 4dcb bbbf
000005a0: 8830 7c0a 45bf d0bf 8df6 f63d 9bd6 bf3f
000005b0: cfff c654 2560 a3bf 21b9 af2a 93e6 a63f
000005c0: e39b 5c82 bb27 aebf 013e 1928 db92 b53f
000005d0: 3ca3 078c 5efe 8fbf 2f47 5699 1fe5 abbf
000005e0: 821f d4f0 408f c23f 256c aa8d 4522 cd3f
000005f0: 263b b9ca 5d05 c8bf 30b3 0fd1 9a71 c3bf
00000600: a802 28a0 e65b 703f 4d90 6713 2972 d53f
00000610: 61cb 90e4 7b6e cb3f f393 3288 55a0 dbbf
00000620: e07a 82af d72d bcbf 0518 acaf e3c8 d0bf
00000630: 60a3 401d 5b84 b4bf 1462 2ef6 bdff aa3f
00000640: 11dd 7744 1c6e cebf 7b11 42b8 8911 c53f
00000650: 8880 8f98 4370 d53f 8f3e 6ad3 cecc debf
00000660: 698c 4327 0cfc 903f 944d 2b24 44c0 9a3f
00000670: a638 fc80 8e83 ce3f f715 8e13 c4f8 cf3f
00000680: 944f 1c38 4457 8f3f 9dc2 13ac 7e9d c0bf
00000690: c46f c34b bd72 b13f 21b5 b2d7 6b7e c1bf
000006a0: 2b77 0def 26bc c9bf 1410 c60e 88fe b03f
000006b0: 8c22 8ada 7bb8 83bf 0279 f98b 798b 95bf
000006c0: a8ed 1cf8 4b8f cabf 829e 593d 6dbd c03f
000006d0: 093e 48d0 8b3b da3f fb8b c856 87ec d13f
000006e0: bb3e 341d e5a7 c03f 74ec db73 7c8c b63f
000006f0: 9d51 ec5b ab8a 983f e86e ef7a c77f a33f
00000700: 6d18 a429 3518 a5bf 3e6a 1300 9477 ce3f
00000710: 3883 1e64 8858 bdbf c31f a67e 767d a9bf
00000720: 1505 bbf2 3c60 b2bf f1e1 d8b5 c10f cabf
00000730: 3441 7989 5166 b2bf 1c8f 3591 2327 923f
00000740: 7ba9 e2cb 8b56 d23f 1a50 69cf 4792 c73f
00000750: c265 9492 7d33 cd3f 3c97 7dcf 346b b83f
00000760: fe69 3efe 2774 cf3f 9ee7 cc8f a4bb c13f
00000770: ad3f 3557 8b09 d43f cac9 3e1d 1abb c23f
00000780: 2202 a21f 2a61 b53f e6bd 6ccd be42 913f
00000790: 237b ed62 e216 d23f 2d0d 6e6d eb5f ce3f
000007a0: 5d09 538b 8114 d43f 8784 e05d 0f67 85bf
000007b0: c1d3 fa8c cd35 c4bf 5c08 2fff 95ca bdbf
000007c0: c902 74e6 6743 d03f e931 0cd5 48be c7bf
000007d0: 0df9 0e40 e947 7dbf a36e c223 4265 c63f
000007e0: 23b0 8674 d888 ccbf 6889 9d3d 7e57 bbbf
000007f0: ac24 ea29 b22b 8d3f e058 8e57 bb6d ca3f

linear_afunc_stack.0.bias f8 [200]
-0.056944901108376675 -0.16779011663262489 0.21213240539719966 0.09590336152217584 0.09104600734559018 0.22499111214326256 -0.29744410394863185 -0.1137543056212077
-0.39395632848130197 -0.26212842286624743 -0.37366036935511493 -0.051066328353151176 -0.25234483089320475 -0.45339897955637126 0.1879099444405038 -0.05863210990970801
-0.30670314722221714 0.15554276032931308 0.06868346001675223 -0.1754349114248663 0.14606581722458767 0.2524201222279968 -0.3832284357222895 0.1994202740949678
0.223627296066715 0.40465486108519816 0.09510819547203507 -0.3161737511909656 0.31607723933204884 -0.18903526149781338 0.1055769394970928 -0.05143896398168448
-0.08054106070001213 0.26885516270320525 0.10483277612047151 -0.004721241303148439 0.28334960785833574 -0.17924102130241834 0.3089203687976964 -0.17634138896995302
-0.56855511644912 0.22841182161813242 -0.2068395515902244 0.24776720972806188 0.2880344661789913 0.28264705011499613 -0.05174311195357983 -0.016088128949278455
0.030775793802048795 -0.36670917381575263 -0.01241812280071607 0.18494601813122835 -0.21600180418394085 -0.33438017128173053 -0.42719684558524895 -0.40972838562695385
-0.16123014292191262 0.2589217042276666 -0.350514274600202 -0.13191853738170928 0.03351611348918978 -0.35128373721551115 -0.4280045262079205 0.1390116476757442
-0.4534628448961409 -0.031072966565163333 -0.21551489333867355 -0.05081949838943798 -0.5665919370187443 -0.20050024215281237 0.36414145509882795 -0.36030731853195797
0.09323292418473537 -0.21089044703617962 0.30931587875538347 0.08421831757456245 0.012564029510342247 0.17581156240297402 0.24362636865804752 0.2636729656069302
-0.06998774426615258 -0.029029316123280365 -0.22419925033025176 0.04296450387883022 0.14423219034336288 0.21714129440381966 -0.017647513907972017 -0.25057402244821836
-0.0530168269023711 -0.09034747583750459 -0.28572851008200945 0.21111086271740048 -0.31173365112842744 0.07459032043111963 -0.20628256099349696 -0.547122428253288
-0.42497035665464317 0.03474788154684256 0.3197119565623511 0.09402814012507213 0.1725756842458768 -0.2562112829324243 -0.5605501543556113 -0.15363584957924503
0.07070371349270925 0.24720153774431297 0.13397379852321817 -0.2969987154308898 -0.18287723843898868 -0.34732649348809064 -0.4030484590793201 -0.22897586298120057
-0.3744982923919625 0.17346414963602524 -0.11761853574172265 0.2979918737022666 -0.23031038661828565 -0.08275630569514565 -0.3975500017958629 -0.39241686315922825
0.3067419699631314 0.19181939052236113 -0.2044557393691387 0.33959101655239643 0.2939935511431665 -0.46685618908112264 -0.19009809320022475 -0.2159940930397326
-0.168051706122805 -0.002072058911254962 -0.12987731517791126 -0.24726083283554465 -0.031053752851161288 -0.22266801659461166 0.2131188489837421 -0.06215372143846685
-0.420467158042516 -0.14429979197126655 -0.047219842111598305 -0.12484668431510261 -0.06359571001422461 0.26488181360799984 -0.42418226190595687 -0.01110869379142854
0.0046793218859670915 -0.43565481222512137 -0.4679392807139803 -0.42300201775050805 0.23978538427848797 0.36959279403444856 -0.24891605954405535 0.24047304168981765
-0.11858047828040733 -0.06442757155433729 0.35639993884478965 0.21050101279993388 0.014931117816304598 -0.12299258092057665 -0.2160244049878953 -0.5132018085832909
-0.26772986958944933 -0.4449859110669866 -0.17039326098437882 0.1917472433246926 -0.29453043291368824 0.313649151367011 0.3310058965491744 0.2903056999811658
-0.1957664779994546 -0.4832102252697529 0.19029701159392762 -0.22070870688410765 -0.33662458669008605 0.3382134778379343 -0.2263419280146257 -0.1830818662494629
-0.3538097955804383 -0.14989133809959873 -0.16090324701557235 -0.28870281886539506 0.25328590435291193 0.15214976143833808 0.3472600866313665 0.2639930226680489
0.07957690813879734 -0.36917425055766 0.18481288888141237 -0.3763378487260755 -0.06361676575412102 -0.07683575078306697 0.2882941225344538 -0.07262445959715559
-0.22390487953373345 0.2583861461595414 0.05295614445691877 -0.3735205741388595 -0.013560043043129156 0.010569813660079731 -0.2651212360441266 0.028274508845619127
00000000: de6d decf e127 adbf 2cbb c383 257a c5bf
00000010: 1b28 cd97 2727 cb3f 1170 5069 1f8d b83f
00000020: 360e fb87 ca4e b73f b6e2 453e 82cc cc3f
00000030: c63b b6fe 5209 d3bf 481a 6c8e 001f bdbf
00000040: 8148 b89a 9436 d9bf 7f01 e44a b6c6 d0bf
00000050: 8641 8c2e 0dea d7bf e13b 68a4 5d25 aabf
00000060: cf0f 00ef 6a26 d0bf 3300 4f27 7d04 ddbf
00000070: bc89 fbdc 6e0d c83f 5f87 1d25 0705 aebf
00000080: 9e94 b93c 06a1 d3bf 463a 5f3e d3e8 c33f
00000090: 9b4e 8c3e 3d95 b13f 1fbf 92b3 a674 c6bf
000000a0: e084 05e2 48b2 c23f 9694 74ba a627 d03f
000000b0: 24c4 948f d086 d8bf d9d8 b281 9a86 c93f
000000c0: caba 8cb9 d19f cc3f 79d0 a180 dde5 d93f
000000d0: 974b 22bd 0259 b83f 7201 4ed4 303c d4bf
000000e0: 393b 7c07 9c3a d43f e542 f6b4 4e32 c8bf
000000f0: 890e 5a1e 1707 bb3f d339 1538 3556 aabf
00000100: 7213 b1c5 569e b4bf 15f2 ca48 ec34 d13f
00000110: 227f fc20 52d6 ba3f 8191 e58f 9456 73bf
00000120: a480 c564 6622 d23f 333a 4caa 5ef1 c6bf
00000130: b77a 43f0 59c5 d33f 2151 47c9 5a92 c6bf
00000140: 0ceb e37f 9a31 e2bf 2b51 ef3b 993c cd3f
00000150: 79b6 ccea b779 cabf 38cf 66ff d5b6 cf3f
00000160: 7403 171d 286f d23f 8a81 23a7 e316 d23f
00000170: 7f8d 44bb 127e aabf bc90 c30e 6879 90bf
00000180: 8b8e 8d8f b083 9f3f 38a3 2bc1 2978 d7bf
00000190: fa4c 743a ac6e 89bf 0814 b3a5 4fac c73f
000001a0: 376b 6c76 f2a5 cbbf 917f 0517 7c66 d5bf
000001b0: 6a8d 2f70 3157 dbbf 61ae 2068 fd38 dabf
000001c0: 8c50 7d77 30a3 c4bf 7479 f856 2c92 d03f
000001d0: 1619 8c6c d36e d6bf 3632 e5e5 b4e2 c0bf
000001e0: cb72 a626 0629 a13f 0d44 bdc8 6e7b d6bf
000001f0: 7297 a618 6d64 dbbf 02e4 4338 22cb c13f
00000200: 45ec 3106 8905 ddbf 5e91 bf7c 97d1 9fbf
00000210: 5363 58f5 fd95 cbbf 8ddc 2967 0305 aabf
00000220: 9187 f569 8521 e2bf e075 71ef fda9 c9bf
00000230: bf1b 31f6 174e d73f 72ab 666d 460f d7bf
00000240: bfac 48e8 1cde b73f 3f94 874a 75fe cabf
00000250: ead2 d8d3 d4cb d33f 99f6 b4e7 548f b53f
00000260: a1bc d27e 2bbb 893f 94c4 6347 fe80 c63f
00000270: cf2e ea1a 262f cf3f 12c0 0793 04e0 d03f
00000280: a572 be80 b7ea b1bf 72ba 7f6d dcb9 9dbf
00000290: 1363 fa9f 8fb2 ccbf 40cd 1886 71ff a53f
000002a0: 7c10 474e 3376 c23f 6baa 0933 49cb cb3f
000002b0: 9b9d 5c9c 3012 92bf ea1a e99f 6709 d0bf
000002c0: 92e3 5d83 0525 abbf 298c ff1d 0321 b7bf
000002d0: 0392 953b 6049 d2bf 66cd 9945 ae05 cb3f
000002e0: 7831 2ab3 71f3 d3bf c48d d9ea 5918 b33f
000002f0: 84e1 998a 7767 cabf fa30 08e5 0682 e1bf
00000300: 3779 e6dd b632 dbbf 49ac b26d 79ca a13f
00000310: 82d4 6423 2976 d43f faaa bd6a 3a12 b83f
00000320: d9de f5c3 f516 c63f dbe6 4302 c465 d0bf
00000330: 0a34 97e0 06f0 e1bf eccf b7ea 56aa c3bf
00000340: 3b2d 2879 a319 b23f 6cfd 10cc 4ca4 cf3f
00000350: 7acc 96ad 0d26 c13f 1db3 6ee6 0602 d3bf
00000360: b69d 2377 8568 c7bf 8834 a4e6 983a d6bf
00000370: 5aba 9cc3 8bcb d9bf e5ef 89c1 144f cdbf
00000380: 05ce 8eaf c7f7 d7bf fa8a dbc0 1234 c63f
00000390: d802 6a94 3f1c bebf 8f99 0182 4c12 d33f
000003a0: 1132 3a8d cf7a cdbf 0d99 7f6a 842f b5bf
000003b0: f13a 0f90 7571 d9bf 1dbd 6a9e 5b1d d9bf
000003c0: 4a58 5312 a9a1 d33f ea1e 84ac 898d c83f
000003d0: 22f4 080d 9b2b cabf 72e8 86f5 dbbb d53f
000003e0: 7644 d953 cad0 d23f a778 02c8 f8e0 ddbf
000003f0: b0d8 a962 2255 c8bf 000f dec6 b1a5 cbbf
00000400: 46cf eae2 b782 c5bf 2093 4b28 6cf9 60bf
00000410: 8d38 97e2 d19f c0bf 2b21 4e33 3ea6 cfbf
00000420: 5dbc a713 8ecc 9fbf 24cc 91b4 6280 ccbf
00000430: 4fee 457b 7a47 cb3f 1d4a ced1 9cd2 afbf
00000440: 3a6b 3515 efe8 dabf 6108 ab63 6a78 c2bf
00000450: f9e5 2efb 322d a8bf 21bc 25ca f3f5 bfbf
00000460: 814f adf6 ce47 b0bf 0519 b0d9 d2f3 d03f
00000470: 267b 9b5b cd25 dbbf 42a1 48a4 27c0 86bf
00000480: 00a4 7be7 9f2a 733f d085 b6b8 c4e1 dbbf
00000490: 2e8a cb98 b7f2 ddbf 3059 180e 7712 dbbf
000004a0: 8d77 c497 49b1 ce3f 2cc6 cd88 68a7 d73f
000004b0: 9f6f 983f 7bdc cfbf 044f d014 d2c7 ce3f
000004c0: 1a8c 284c 4a5b bebf 365d c948 537e b0bf
000004d0: 19a0 68b0 41cf d63f 7213 e07a b2f1 ca3f
000004e0: 2ec3 b5b5 3494 8e3f c95a b418 717c bfbf
000004f0: 93ca 470d b0a6 cbbf 0ba0 0333 266c e0bf
00000500: 4e23 8376 7c22 d1bf 86a9 cd2f a67a dcbf
00000510: 617f b145 72cf c5bf 2bbf 9675 2c8b c83f
00000520: f59f 422c 96d9 d2bf 9c86 e2e3 d312 d43f
00000530: 2b8f 1d5b 332f d53f 55bc d05b 5e94 d23f
00000540: d193 543e e00e c9bf a216 a894 eaec debf
00000550: 1b46 a908 a75b c83f 9a3d 01d3 2e40 ccbf
00000560: 8b42 b7d9 418b d5bf a257 9824 4aa5 d53f
00000570: dfa8 44b5 c5f8 ccbf 811b 0402 3a6f c7bf
00000580: 756f 41d7 d1a4 d6bf cfb4 8bad a32f c3bf
00000590: 9444 e043 7a98 c4bf 748d 5263 1b7a d2bf
000005a0: 55f2 ee14 d635 d03f 0a66 bcb4 a479 c33f
000005b0: 116c d25e 8239 d63f 30d0 aefd 42e5 d03f
000005c0: fe11 f9f9 265f b43f cfe8 2a09 8da0 d7bf
000005d0: 4dfe cfe0 f2a7 c73f 9fa1 2158 eb15 d8bf
000005e0: 7928 6438 3049 b0bf 8be1 c6fc 81ab b3bf
000005f0: 1987 fa30 6973 d23f 5905 dc3e 8497 b2bf
00000600: ee8f 8143 eaa8 ccbf 45a9 df0b 6689 d03f
00000610: b122 2159 111d ab3f 95cf 93d6 c2e7 d7bf
00000620: 2d82 382b 5ec5 8bbf 5477 f55f a0a5 853f
00000630: 3737 920f bff7 d0bf 86a7 352b fef3 9c3f

linear_afunc_stack.2.weight f8 [200, 200]
-0.05845836845892624 0.07038331881659741 -0.10567832751632493 -0.06682468850429753 -0.20048061077634385 -0.06651157406287932 0.0911425548006609 -0.000724457166451586
0.05537832822671606 -0.0812892103786135 0.004588154830284589 -0.056365974415723025 0.06928682975107464 -0.018654680801180795 -0.137810122167448 0.06123460908692797
0.10371640954304844 -0.13708639134548886 0.090941447067716 -0.08549586262803677 -0.03748825707817914 -0.0658564207651856 0.03241601322458784 -0.04507157534569871
-0.28297497002703 -0.11755639174046316 -0.09170898315599701 -0.0050651108757913225 -0.0774826692298067 -0.019866240777266862 -0.07996584697074494 -0.1119515770312121
-0.03520725159444471 -0.009126836830625974 -0.12066415842406064 -0.13005600654073646 -0.15502413122218756 0.053085764514618744 -0.11766937798476226 -0.09271286573298224
-0.12453749730654677 -0.1972814445118473 -0.09721688828560236 -0.04693736083262836 -0.1259760849217091 -0.0373674057964449 -0.021392192702873274 -0.0850124652308937
-0.11285918391254791 -0.00925363372873024 -0.020046306585211282 -0.09190987705195573 0.06826881608812471 -0.06533068847054614 0.005565440161939013 -0.025161936858281247
-0.09529674115236961 -0.09641391407264724 -0.008947438614852973 0.02235494487542229 -0.1722474629806178 0.016527280419971657 -0.04955923497741873 -0.05588042049275564
-0.031845877981767724 0.0073103789410289555 0.03171510611048395 0.06885255758595395 0.03208429960589449 -0.014730942137636698 -0.09598186153341304 0.05801876643325698
-0.07145199096623417 -0.11607079503748542 -0.10143496492446852 -0.11974806947537964 -0.11255321079986648 -0.05687809225187523 -0.018362902881270782 -0.07151033405909867
-0.14722142919807094 -0.10673133980438089 0.01923373730911805 -0.15404225659824955 -0.0008795960970178989 -0.11249399045189244 -0.08169434492666804 -0.10176496796686837
0.21081184081405077 0.06629393316961839 -0.0037905818465160833 -0.06468360388090326 0.12166968785131593 -0.1018446401069604 -0.038963593644712635 0.1449757639644733
0.030452413570494007 -0.0771952411538126 -0.12064914610048087 -0.2148047367614306 -0.09464805252383703 0.0746972975679679 -0.07211386043065361 -0.014461136250224535
0.025926682748232226 -0.13573862436881687 0.03404308932977406 0.025444909410091796 -0.08472954609660419 0.0547585757232555 0.09781689374682558 0.06884908011950597
-0.08955296237592161 -0.1307391292309736 -0.09358960040777993 -0.1562807343405989 -0.04162237707857263 -0.1170790028217506 -0.026841629905781535 0.08997961861979074
-0.08310492169797846 -0.22185668853901439 0.05455410632541462 -0.0329450477664276 -0.08816056515137345 0.003910911097669115 -0.10275745850464342 0.026599870660566464
-0.05000540689699378 -0.08563648970660559 -0.11613207834395124 -0.10800345139745708 -0.08256664882167616 -0.11335711430095614 -0.03613041265398048 -0.05274161115413291
-0.044434886733383125 -0.08446263562164569 -0.07729668568374533 0.03988641202050416 0.0760845531391717 -0.16476872124883854 -0.07037103873290024 -0.04221811671240579
-0.035444763610206556 0.15163485002478275 -0.040177492224287674 0.053477462981072 -0.10985493298842317 -0.019992308531928172 -0.044588252446135485 -0.11320619187838908
-0.11669210405204548 -0.04545818808298201 -0.05716757335048858 -0.0006767390237101107 -0.13387064419198028 -0.0748383770705847 -0.0491936368555968 0.04657574418796513
0.07788454337127358 -0.08212394051169696 0.021992404396156504 -0.07054734044586158 -0.05674617111643119 -0.10952722022414872 -0.11215297023017137 -0.10409153867786837
-0.02846911235324745 -0.005377498088775078 -0.055873397103748626 0.056979093899373646 -0.02270450280156963 -0.13001080538525348 -0.05866309722893584 -0.1224965213594911
-0.08796152263269866 -0.017112256293574907 -0.11619417865603467 -0.021311363128665047 -0.10509163674680545 -0.1891967942331431 -0.0815833992221725 0.02789697485928577
-0.09513730934570831 0.044957279280060734 -0.1636609939195425 0.008869235553196984 -0.18578559962074556 0.0733802399839248 -0.15149880781987238 -0.08705728786618222
0.04621606018354529 -0.029092467372299615 -0.08160934196058363 0.03863923627581008 -0.1067894702915896 -0.16276296341851637 0.039228995057101694 -0.08498081622517634
0.03990600832880906 -0.06663850133572667 0.006729511832358918 -0.06441609733161409 0.06650293007278726 0.05232524836519433 0.008139647032182952 0.06003900218759919
-0.1154457560091203 0.059062555856904383 -0.08214499488010449 0.10478676547336775 0.03830232808082961 0.05362997338444646 0.08432028110727459 0.04827077277031685
-0.0018038703877162282 0.02680772105527188 0.06608635305472446 -0.037462928763257394 0.01518958626208934 0.03503456746434237 0.12604528388405717 0.07416446954722933
-0.06806346143347025 -0.03866590549110199 0.04334580969705111 0.07341211298002827 0.05403946900636523 -0.07770803561034138 -0.038367114801270676 0.03286869844224127
0.02805591758406917 0.04015792419112095 -0.010672584952493477 -0.07974860764409462 0.008409364407087571 0.05051461135296653 -0.038421148915241336 0.04266165758849084
-0.10293240825902775 0.02171333565210946 0.04216170924376759 0.038525501947721016 -0.0016180578756705755 0.05839275447029758 -0.08220256182511856 0.08704435490926815
0.05140018239353663 0.0676752114541517 0.01114258008535579 0.03214858000788956 -0.028782335362600237 0.03689135375446404 0.03825306727360305 -0.015884062073174426
00000000: 6cce 6a59 41ee adbf 6f50 8024 a404 b23f
00000010: a31e 9420 bc0d bbbf fdfb b03b 6c1b b1bf
00000020: bd1c 6241 59a9 c9bf 07d2 670b e706 b1bf
00000030: b789 2454 1e55 b73f fc69 2beb 2fbd 47bf
00000040: ef23 4859 8c5a ac3f da03 18a4 5ecf b4bf
00000050: d1f3 1e6f 07cb 723f 2406 7241 00dc acbf
00000060: ec0a d31b c8bc b13f 5864 d56f 361a 93bf
00000070: 8b2b e217 c3a3 c1bf 59ca d286 245a af3f
00000080: 6bc2 0b9b 288d ba3f ad1b c7ff 0b8c c1bf
00000090: b7ba 014d f047 b73f 1844 ee8d 0ee3 b5bf
000000a0: 1e07 452c a931 a3bf c707 6b65 f7db b0bf
000000b0: 5c26 55e9 d498 a03f 3e8e 2d1c 9f13 a7bf
000000c0: 3692 760c 431c d2bf 9f07 f6f9 2c18 bebf
000000d0: 3488 676b 3d7a b7bf 0c84 fe58 27bf 74bf
000000e0: 4e4b 597a e7d5 b3bf e635 bbd9 d057 94bf
000000f0: 504a 8949 a478 b4bf a3ad 15ca dba8 bcbf
00000100: 1041 5c54 af06 a2bf 3ab3 a04d 17b1 82bf
00000110: 600f 3ba6 d8e3 bebf 5cd3 5edb aca5 c0bf
00000120: 7655 d8aa d4d7 c3bf 5c67 f2ac 0e2e ab3f
00000130: 566a 2f92 941f bebf 5ad9 3dc6 07bc b7bf
00000140: a3ab 0e7e b0e1 bfbf 659c 24b4 8440 c9bf
00000150: 5f38 cebb 34e3 b8bf 732f 797b 2c08 a8bf
00000160: d98e 68fe fb1f c0bf ec07 aa13 d221 a3bf
00000170: 7bbc 31c0 d5e7 95bf 4245 eb7d 60c3 b5bf
00000180: 1128 f5e7 56e4 bcbf 485a dfb1 91f3 82bf
00000190: 109c c1dc 0487 94bf 7f16 1edc 6787 b7bf
000001a0: f664 6fac 107a b13f 19fa 6712 83b9 b0bf
000001b0: 55e5 bb77 c9cb 763f d82e a4ff 0cc4 99bf
000001c0: a630 aa02 5e65 b8bf 9245 d20f 95ae b8bf
000001d0: 1ebe dee1 0853 82bf f345 93f4 36e4 963f
000001e0: 7d0d 2972 340c c6bf 0318 9503 87ec 903f
000001f0: bbb5 e2fa d35f a9bf 1e98 01c5 5b9c acbf
00000200: ed60 e358 1a4e a0bf 20c3 91e7 7cf1 7d3f
00000210: e840 115f f63c a03f 7ddf 133b 52a0 b13f
00000220: b975 0b73 5a6d a03f 7c6a c395 412b 8ebf
00000230: d892 4b6c 4492 b8bf ff2b c5c0 a2b4 ad3f
00000240: c41e 6f7c ad4a b2bf 89eb b4cc d0b6 bdbf
00000250: fc80 0551 a4f7 b9bf 80e8 273a cfa7 bebf
00000260: f9f9 7187 49d0 bcbf 3f4e 2914 201f adbf
00000270: edb6 568d b9cd 92bf 0720 1c52 804e b2bf
00000280: 418a d6db 26d8 c2bf 3907 ebbd be52 bbbf
00000290: 84db e342 02b2 933f 9850 251b a8b7 c3bf
000002a0: d172 353c 96d2 4cbf 2fc7 fcf9 67cc bcbf
000002b0: 2f6a baab ebe9 b4bf eed2 4bd9 440d babf
000002c0: bbf4 f3e4 e1fb ca3f 1f00 e3a2 a3f8 b03f
000002d0: 66fe 0822 6d0d 6fbf 8b82 41cb 1a8f b0bf
000002e0: f065 3ca2 be25 bf3f d243 8886 7d12 babf
000002f0: e899 e040 09f3 a3bf d752 78da 908e c23f
00000300: 4368 7ae1 ea2e 9f3f e096 293c 11c3 b3bf
00000310: 63b9 cac8 dce2 bebf 2347 b5bb b87e cbbf
00000320: f94f 38d2 da3a b8bf b56c 27b2 5c1f b33f
00000330: b951 23d0 0d76 b2bf 98cc 0fda cc9d 8dbf
00000340: ee5c fd39 868c 9a3f 9bea 3b1c e25f c1bf
00000350: df01 a786 186e a13f 5c69 10f7 3a0e 9a3f
00000360: 1e66 7de5 d5b0 b5bf 1258 d0e7 5009 ac3f
00000370: 7190 a327 870a b93f 0814 79e3 17a0 b13f
00000380: ca1c aa64 f1ec b6bf df61 2d4e 0fbc c0bf
00000390: 7543 fff0 7cf5 b7bf 256e 7ed1 0101 c4bf
000003a0: bf22 ab38 874f a5bf 14ef 2ab8 e3f8 bdbf
000003b0: 9f77 774a 5f7c 9bbf 4f4f 477f e708 b73f
000003c0: 6157 d438 5d46 b5bf 2b43 d6ca cc65 ccbf
000003d0: 7671 0f0d 84ee ab3f 51a5 715d 2cde a0bf
000003e0: 1d3d 1fd8 b091 b6bf c45d 3134 e304 703f
000003f0: b590 b213 504e babf a185 421a ff3c 9b3f
00000400: 67d4 7d06 4f9a a9bf 2455 a2e2 45ec b5bf
00000410: c1f7 80f6 d4ba bdbf b371 9b3b 1da6 bbbf
00000420: 36ee 6d80 1623 b5bf cd08 b1ca f804 bdbf
00000430: 18cb 7a79 af7f a2bf 1238 17ce f200 abbf
00000440: 4e87 a462 2bc0 a6bf 589b bae1 579f b5bf
00000450: 1dd3 1931 b7c9 b3bf 139e 5de6 fd6b a43f
00000460: 06a9 76fb 467a b33f b370 9536 2417 c5bf
00000470: c47f f11d d603 b2bf 5a30 28ed 9c9d a5bf
00000480: 3263 0ae9 d025 a2bf c528 e550 c568 c33f
00000490: dff7 46ee 2492 a4bf 6b4c 27e5 6561 ab3f
000004a0: 1653 7df0 731f bcbf edc2 431d dd78 94bf
000004b0: ac79 157c 45d4 a6bf 9f87 d2bb 14fb bcbf
000004c0: f3de 9aa2 88df bdbf f6bb 4dae 4b46 a7bf
000004d0: fc32 dd73 1145 adbf 6cff c4fc e52c 46bf
000004e0: 1579 595b ac22 c1bf 1ffe 009e 9b28 b3bf
000004f0: 28a3 ee8a e82f a9bf eaf9 25a4 c6d8 a73f
00000500: 4fbd a4ce 3df0 b33f 3365 b716 1306 b5bf
00000510: ec4d 9146 2d85 963f 9ce5 08f8 630f b2bf
00000520: bd90 3c8a d50d adbf 276f e2d4 f909 bcbf
00000530: 62b0 499b 0eb6 bcbf 5969 693a bea5 babf
00000540: 806d 03ca 0127 9dbf ff38 cf26 b706 76bf
00000550: c2d5 8d1a 709b acbf f500 b521 5d2c ad3f
00000560: 58cb 0464 d93f 97bf edcd a0ae 31a4 c0bf
00000570: 5423 29e8 1609 aebf 22df 1c99 ee5b bfbf
00000580: b288 0377 a584 b6bf 1813 9114 e085 91bf
00000590: 2931 50d5 e6be bdbf 4fe5 ae5e a5d2 95bf
000005a0: c91f e916 49e7 babf 5da4 debd 9937 c8bf
000005b0: 2845 8e4f a6e2 b4bf df3c b64a 0691 9c3f
000005c0: b9ed 4430 eb5a b8bf 1b33 73f8 a304 a73f
000005d0: 05f5 41ec d7f2 c4bf 8ccb 21a5 082a 823f
000005e0: 4f2c 3891 d2c7 c7bf 9551 e722 0cc9 b23f
000005f0: 5d13 7c1c 5064 c3bf 8482 43ec 6249 b6bf
00000600: 609b 13a6 a1a9 a73f 3726 b26f 6aca 9dbf
00000610: 3dcf c48e 59e4 b4bf 5a46 4ba0 85c8 a33f
00000620: 79a4 7502 8e56 bbbf 20f8 70b2 6ad5 c4bf
00000630: 4780 a6a5 d215 a43f 0c7a 7982 4dc1 b5bf
00000640: 8d4d 5f71 8f6e a43f af32 e487 380f b1bf
00000650: f8f4 ce93 6790 7b3f 6d0f 60c7 927d b0bf
00000660: 2e34 c005 5606 b13f bb98 f7fc 5fca aa3f
00000670: 4105 6fee 84ab 803f 03ab c29d 6ebd ae3f
00000680: 366b 8562 da8d bdbf f6ab a583 723d ae3f
00000690: 5e46 8a52 7407 b5bf 2901 c332 4ed3 ba3f
000006a0: d786 efdc 5c9c a33f 5608 8b4b 6375 ab3f
000006b0: 15ca be91 0396 b53f 9b64 cd5c f2b6 a83f
000006c0: e9dd 9214 fb8d 5dbf a9c9 d9b4 7b73 9b3f
000006d0: c2fa 1405 09eb b03f ae7d b34b 572e a3bf
000006e0: c730 e2c1 b71b 8f3f 5a4b fa02 0df0 a13f
000006f0: 826c 0c7a 4022 c03f 8804 3b53 71fc b23f
00000700: acc8 e864 9b6c b1bf b8e8 1b7f 04cc a3bf
00000710: fa8b 2206 6c31 a63f 8125 61e0 22cb b23f
00000720: bdad 26b0 0fab ab3f ab33 957f ace4 b3bf
00000730: 756d a0be daa4 a3bf e036 be81 2ad4 a03f
00000740: d16f eec1 b0ba 9c3f 1ef8 2656 948f a43f
00000750: cb8c ad1a 82db 85bf c7a0 bb9d 676a b4bf
00000760: 2663 dec8 ed38 813f 3058 7617 0ddd a93f
00000770: 67a4 21d4 efab a3bf e17c 45b0 bfd7 a53f
00000780: 92c9 2b3f c759 babf ab30 0d4a 053c 963f
00000790: dddd b034 3896 a53f 36da da55 9db9 a33f
000007a0: 9ab7 2d6a a082 5abf 21ec 8bb5 a7e5 ad3f
000007b0: 82b1 af22 3a0b b5bf 5400 a3f1 8948 b63f
000007c0: 6300 c7ec 1f51 aa3f 120a f2a3 2953 b13f
000007d0: 1f31 7ac8 ebd1 863f c052 7e57 c775 a03f
000007e0: c5e8 56d4 1d79 9dbf addc c26b 6ce3 a23f
000007f0: 27d9 d2f1 e795 a33f 8b15 875c e943 90bf

linear_afunc_stack.2.bias f8 [200]
-0.2356276881111773 0.014199330417268435 -0.009329400030008086 -0.16568145012549967 0.03297236143499696 0.0023558174997965267 -0.14718737071619165 0.04797984034306564
0.037629128989843656 -0.049402033437344846 0.013197546657590185 0.0423700454785483 0.07718848417365673 -0.10193075239284219 0.00013998038227870917 -0.08978441044157537
0.03130223327353829 -0.07745471774122344 -0.05543175693251554 -0.04197328847096759 -0.08820224799138537 -0.046420522696061596 -0.04128624155338555 -0.06092529450118367
-0.027519988313033802 -0.14261843657255924 -0.08916153726820511 -0.1389681546802606 0.02255367906363921 -0.05648393544649444 -0.06898811587774716 0.02647984114005963
0.004918562395188351 -0.06308458684723221 -0.015125080230212772 0.006036901208530849 -0.13870723829485168 0.07008763927287157 -0.03686018037117369 0.07574945478119914
-0.037708530015376364 0.05026774026243919 -0.11092790298704422 -0.130421948978014 -0.09377356168735296 0.00012283799053158573 -0.040340924440817924 -0.08224029189956567
-0.11202501580062674 0.015904525899033985 -0.07102089953438327 -0.058163743097957264 -0.18196508534126177 -0.0038300451833954267 -0.0578952589565015 0.046545038368934206
0.043442243288087025 0.02524654256725895 0.0065710291636873926 -0.0044095990113832565 -0.007423917551230148 0.021169511922462088 0.0557327701742612 -0.01710501895016692
-0.05411739919129063 -0.03000123422558291 -0.08015359293965786 -0.17638892733597886 -0.15709463513502372 -0.010202220953979272 0.043984674730630814 0.014144614472812364
0.02626505462871875 -0.05772385239159836 -0.04963596679384879 -0.0007159628095344566 -0.005355252335358909 -0.014768599768345218 -0.041942329729697386 -0.057548422523061485
-0.062774664375162 -0.01921818803852145 -0.009712966749261089 0.02975486151814185 -0.18545914539133507 0.04450783364585633 -0.18748003482266723 0.030566127109347203
-0.13983550440788012 -0.003969516043266073 -0.1604813293161353 0.05673704464375116 0.06385876241668724 -0.02989572415070843 0.02931132398535763 0.010821407405238662
0.043608986537136615 -0.10204778494347676 -0.08450630410522171 -0.042509197170921956 -0.023521009425078093 -0.06665295820508216 -0.039809527976194664 -0.22376206428576503
-0.027633098720968176 -0.07161738321358875 0.06509985843387962 -0.11515676816424254 -0.08765888448111982 -0.0388200126827975 -0.056515859947812844 0.06606244383109083
0.07628871929886709 -0.21365479298451226 -0.004070613806262414 -0.04717808527388631 -0.0019213276964724676 -0.10866859709186137 -0.06915465765836076 -0.07914252840267835
-0.025411228354684907 0.0360284572476754 -0.04697888585383876 -0.0805319586708613 -0.014956912074223392 0.026512689250244543 -0.05474637284532451 -0.08785192728068751
-0.06451186881826487 -0.08230698389937778 -0.08869342383807828 -0.1316157922171872 0.06328935849521844 -0.016527997897262295 -0.02393173260737897 0.025148826590381992
-0.04331712274999002 -0.03970984229476408 -0.044655642295383415 -0.03947453043527027 -0.025727465917111482 -0.02611646316010718 -0.018645752034022856 -0.08036250721038757
-0.13530527634502346 -0.03959572443747347 -0.07649172078281487 -0.12201186166330139 -0.10062296720044042 -0.04709091569876057 -0.010017812952830234 -0.026339677540117148
-0.05689210497232845 -0.007937488826325088 -0.12995015915488123 -0.04797914716542949 -0.04219074158661558 0.007136194673191988 -0.12596718143087413 -0.18095972994618437
0.055848771081741244 -0.04666929680190786 -0.11874031306907606 -0.12556713463439131 0.017828905536597727 -0.04433599403350169 -0.011951930981113006 -0.005002050776597618
0.04505365846411827 -0.2002145669800935 0.01195846710689523 0.0444891090641712 -0.0989418846826828 0.046250923949975 -0.1532411653854256 -0.06924565934124556
0.025473654887841025 -0.006411445540122362 -0.011941464291943654 -0.08153968022133938 -0.05335217896855771 -0.1321649036551001 0.05099174376913042 -0.0897681592366451
-0.05068733750764123 -0.06707002578585557 -0.0039925649167266795 -0.010649898647549005 -0.036100158032284925 -0.014851001844585978 -0.004003063420061625 -0.2456710399627653
-0.10045600207699275 0.002160253847609242 -0.03237555761204025 0.008806379952366735 0.03262892569779173 -0.07435524630795023 0.01981719541894963 -0.18156066367707
00000000: ac1b 3c4f 0c29 cebf 565c 23de 8914 8d3f
00000010: 5b57 29e0 4a1b 83bf 5ee3 ebbc 0c35 c5bf
00000020: 3406 12dc c0e1 a03f 1039 bee3 814c 633f
00000030: 5e1d ce27 09d7 c2bf ca12 484a d090 a83f
00000040: 07d5 c60c 2044 a33f 6147 f02b 394b a9bf
00000050: f217 41ba 5007 8b3f a31f 52cf 86b1 a53f
00000060: de56 27df 9fc2 b33f e6e2 fb3f 2218 babf
00000070: 60b2 f353 f658 223f 6886 8972 1cfc b6bf
00000080: 6c39 67a8 d806 a03f 4d95 9e87 12d4 b3bf
00000090: 1db5 5e1e 8d61 acbf 7fa6 93da 857d a5bf
000000a0: b482 8e2a 6c94 b6bf d584 af45 6ec4 a7bf
000000b0: 6e3b 7e62 7823 a5bf 1075 c3a6 9931 afbf
000000c0: dcc2 2927 332e 9cbf a461 7128 5241 c2bf
000000d0: 52c6 a05e 4ad3 b6bf 99c2 c45f b5c9 c1bf
000000e0: d365 eec7 4f18 973f 70f0 fb5e 76eb acbf
000000f0: ebf0 8185 34a9 b1bf 9fa0 cc0e 881d 9b3f
00000100: cb38 178a 7c25 743f 0bfa 63bd 4f26 b0bf
00000110: 8c4f 81e7 e5f9 8ebf 073c 2854 26ba 783f
00000120: 65f1 18a6 28c1 c1bf 62e4 8776 43f1 b13f
00000130: 630d 706a 56df a2bf eb9e f9f6 5064 b33f
00000140: 457e 644e 884e a3bf c026 f178 b1bc a93f
00000150: 2e10 8b63 c565 bcbf 6e44 c59a aab1 c0bf
00000160: f036 ad4c 8b01 b8bf ae1f d84d c219 203f
00000170: 1ed3 53ce 90a7 a4bf cc43 1f24 b30d b5bf
00000180: 4894 32e3 abad bcbf 7702 61aa 4649 903f
00000190: 5f2a d5f8 6c2e b2bf 335c d65c a3c7 adbf
000001a0: 18fc 46c5 a14a c7bf 9d9f c1d9 2f60 6fbf
000001b0: 518d 9f87 72a4 adbf b1d8 2b53 c0d4 a73f
000001c0: e5d9 5fcc 0f3e a63f 315f a7ca 3ada 993f
000001d0: 34df be35 39ea 7a3f f186 adb8 cc0f 72bf
000001e0: 61a5 73b1 8a68 7ebf e25b 84e5 75ad 953f
000001f0: 0789 6d72 0189 ac3f 4126 f463 fa83 91bf
00000200: 9ca3 5797 46b5 abbf 8ba3 5abf a4b8 9ebf
00000210: 992d 5524 f284 b4bf 1f6c 2491 e993 c6bf
00000220: e717 2450 ad1b c4bf 4252 c0ea e6e4 84bf
00000230: 2d8c fcc6 2885 a63f 8b20 9a04 daf7 8c3f
00000240: dfca a1fa 39e5 9a3f fc2c 7114 fb8d adbf
00000250: f77a 2bac e269 a9bf 19b4 116d ee75 47bf
00000260: 5c6d 469a 63ef 75bf c21f 1ae8 ff3e 8ebf
00000270: 74a2 030d 7779 a5bf 728b 58a1 fc76 adbf
00000280: f939 821a 0012 b0bf 558f 74c4 eead 93bf
00000290: 211d 4854 64e4 83bf 163f 78f4 0e78 9e3f
000002a0: 1a96 1912 20bd c7bf 537a d913 bbc9 a63f
000002b0: 9eaf 1b85 58ff c7bf d239 3311 ba4c 9f3f
000002c0: 7231 203b 21e6 c1bf 4b6e 63d9 5642 70bf
000002d0: 2605 84f6 a68a c4bf 9de6 6e4e a30c ad3f
000002e0: 5b88 2440 0c59 b03f 68f3 1116 fc9c 9ebf
000002f0: 20a4 ada7 c903 9e3f 95b0 37b7 8829 863f
00000300: ae37 fac5 ea53 a63f 2723 f6ba cd1f babf
00000310: e510 7084 34a2 b5bf e2b3 41f7 c3c3 a5bf
00000320: e89b ff38 e415 98bf d427 ac13 2b10 b1bf
00000330: 3433 7419 ea61 a4bf 03ae 183e 3ca4 ccbf
00000340: 1abf 2cdd d94b 9cbf 053b ba4e 8455 b2bf
00000350: 459f f262 62aa b03f 95b0 2df9 e97a bdbf
00000360: 49dd 0c0a d070 b6bf 984b ce79 37e0 a3bf
00000370: a2c2 5c94 a5ef acbf 5095 bfe3 77e9 b03f
00000380: 633e 7152 a887 b33f cf45 404e 0a59 cbbf
00000390: 9bbc c212 59ac 70bf fcb0 adda b927 a8bf
000003a0: 1388 c2e7 a17a 5fbf 579b 9c86 b4d1 bbbf
000003b0: 7c3c 02a1 1eb4 b1bf 5256 364b af42 b4bf
000003c0: 6230 f0aa 6605 9abf 994c 356b 5272 a23f
000003d0: aa83 b0d4 9d0d a8bf 3230 c610 be9d b4bf
000003e0: dfda a9c1 baa1 8ebf c505 0975 2426 9b3f
000003f0: 37fd e371 b707 acbf c3a5 8fc2 767d b6bf
00000400: 003e c78e d983 b0bf b389 140c 1212 b5bf
00000410: 6d3b c1ba 9cb4 b6bf a7df 9a49 c9d8 c0bf
00000420: f8f9 eb3c bb33 b03f b496 bf29 b7ec 90bf
00000430: 928e 8a63 8f81 98bf 6430 f42e 9dc0 993f
00000440: 23d4 2273 a92d a6bf 167d f833 d954 a4bf
00000450: dd28 7bb6 1add a6bf 9027 7d72 0136 a4bf
00000460: 9a4c e402 4d58 9abf 7faf a32c 46be 9abf
00000470: 0025 c83c df17 93bf c40d 4b24 a392 b4bf
00000480: 2d66 70ec ae51 c1bf cc6e 0a0b e445 a4bf
00000490: d14c 2d1f f694 b3bf 8a65 915b 2b3c bfbf
000004a0: 1235 5a41 6dc2 b9bf 31d0 baed 4c1c a8bf
000004b0: c92c 1418 3884 84bf a7ea 7cd6 c9f8 9abf
000004c0: b274 8344 f620 adbf 9217 5fb7 8741 80bf
000004d0: 1e11 d7f1 34a2 c0bf ce54 ee07 b990 a8bf
000004e0: daf3 9d5e 069a a5bf c1f6 d3ab d73a 7d3f
000004f0: 23b5 4e4e b11f c0bf 6c84 013d b029 c7bf
00000500: c0bf a2ca 3598 ac3f 6aa7 fbbe 09e5 a7bf
00000510: 3036 59e1 c365 bebf 8d83 5a78 9512 c0bf
00000520: 5309 d098 bd41 923f 58af d118 35b3 a6bf
00000530: 36e1 8005 417a 88bf 5585 f9c7 077d 74bf
00000540: 144b 56eb 4511 a73f f25f ae84 a1a0 c9bf
00000550: d843 1349 ae7d 883f d9e6 eac8 46c7 a63f
00000560: 8eae ea5e 4154 b9bf 12c3 8c7b 33ae a73f
00000570: 3a9c dd10 689d c3bf 1db7 4262 15ba b1bf
00000580: 5d89 9c0a c415 9a3f 4c79 a34e e342 7abf
00000590: c34f cd34 c474 88bf d77f e0d3 c8df b4bf
000005a0: 113b ae0f fa50 abbf b356 7091 c7ea c0bf
000005b0: 7277 b5ff 961b aa3f 24bd 24cc 0bfb b6bf
000005c0: f350 d5d1 b0f3 a9bf cbc8 4a4f 802b b1bf
000005d0: ca76 e9fb 815a 70bf a0ed 2c33 9dcf 85bf
000005e0: cd18 424c b87b a2bf fbf5 e1b9 336a 8ebf
000005f0: ff51 9127 8465 70bf 0071 1b0d 2672 cfbf
00000600: 258b 9b0b 7cb7 b9bf 539d 0c74 61b2 613f
00000610: 1057 4472 8793 a0bf ebec 214f 1409 823f
00000620: 4e1f 8d11 bdb4 a03f 62bd 2d07 f208 b3bf
00000630: 772d e478 f54a 943f 43d5 5d3c 613d c7bf
