data/models/ann_005_021.pth (torch, 659063 bytes, 8 tensors)

linear_afunc_stack.0.weight f8 [200, 5]
-0.5493376608049243 0.37404939007344484 0.2296626342024632 -0.3442848595123579 -0.039787191097379625 0.3534397271852393 0.04298104310344087 0.10465167182919648
0.04313781928687416 0.1521545772548812 0.160983649418929 0.1314864411815441 -0.11748588115186512 -0.30531413606846824 -0.07899838569078711 -0.46932769985203854
0.04849848210783181 0.014403403009554333 0.15382799061717775 0.34325364528605906 -0.009127096497947256 0.1286106726376905 -0.05428183003856994 -0.003189162123704359
0.060608830353294944 0.19526968870456934 -0.509312806440793 0.1523712623596939 -0.15689838408459936 0.13027978455955355 0.3179292978051645 -0.13938797301754538
-0.32747375632438164 -0.013589374561897138 0.13277327065837263 -0.10866048583984583 0.2513930290947887 -0.22399100158124408 -0.13066559981026554 0.11638385968758425
-0.02589968199630343 -0.28457001006758254 -0.14425114301495748 0.17048979472718204 0.08892429690766634 -0.12703253483481805 -0.28251766245245336 0.1804033924955487
-0.37825848336546647 -0.10721711071613428 0.37206555889692383 -0.27527718616414365 0.23218641931023495 -0.26924206263355344 0.36636439861822495 0.07671915129156551
0.27542742471391723 -0.24797353723259496 -0.29588440376143726 0.22858656722291715 -0.06750234117164158 0.14142717428905968 0.12410929642042119 -0.21526053196787576
-0.052646543430428405 0.10989974657018359 -0.306810155722321 0.27648334714826805 -0.20316573548587935 0.0666819524722809 0.17626198113965794 -0.33840248564231434
0.16030048324899765 -0.25069431578254614 0.006513895271983968 -0.16216259276823466 -0.09662791891998809 0.2244585441458515 -0.020584383280105163 -0.2042172717816848
-0.17137002780749286 0.144653277021875 0.3018689761037172 0.1758019475960666 -0.2966631936306996 -0.20111577979086248 0.28200051079199867 0.08526835333252161
-0.1387246525989277 -0.2719861563535752 -0.3926446455200566 0.2707071847885444 -0.18729226638106372 -0.13521667566183365 -0.2846113250485682 -0.19144135111852778
0.2612954020590655 -0.3517072761761938 -0.20529301597999847 -0.03339366743343771 -0.31612717375051647 -0.16738905196301282 0.05485527511185702 0.23074808012926587
0.26813150619426546 0.32428854697167414 0.17163368628828543 -0.2211817502344127 0.041061292092069095 0.08910885915428411 -0.25718827197406013 0.2240795845733222
-0.030376738022989454 0.19188549290117127 -0.12178422725419466 -0.1605977029884658 -0.2913602929207937 0.2109351152603341 0.36478030156260727 -0.19915855713438388
-0.17449375369119535 0.16328327627944733 0.15984221476494984 0.22930256246256575 -0.04513814472931923 -0.19592340629806365 0.14732993954370466 -0.31146057714490527
0.3592919914311236 0.09626853121596977 -0.46852626745586345 0.32738174079623383 -0.00692348921829143 0.08304663150623778 -0.07352574098812778 -0.0757374041599017
0.14472532596905602 0.0273906769397289 -0.24100420368590558 0.008895683048562721 -0.11462001647610122 0.28146294332191235 -0.2230431103189599 -0.3076473970290543
0.16228239135804573 -0.13404294985279747 0.03499251956581232 0.28993406307341607 0.4185245203657023 -0.06582720571616094 0.29385695891579827 0.2266762643520449
0.35196908512092895 0.33039526215800524 -0.1753686373327366 0.14817604059796333 -0.033191528285650154 0.17777910224852173 -0.19521882525881948 -0.17047437811211036
0.07814756514075306 -0.5532987410574974 0.22363390643133416 0.16188284793502553 -0.0007616007381726545 0.06780361722909457 0.028097898728689463 -0.04648419558873869
-0.08413235516481966 -0.15902088040656284 -0.017154038489669645 -0.36426085931912006 -0.00398149482793047 -0.29795883818039204 -0.1948419905191144 -0.18312166036675898
-0.16721955102378727 0.4133735311503758 0.46294516946569764 0.4284161972321795 -0.24514362061846737 -0.283067749096328 -0.0583536947317263 -0.1589015621596954
0.25241519461973133 -0.3420334305987932 -0.3903539172536615 -0.1465643743397882 0.11633498209276719 -0.06259485977590147 0.23543323164415297 -0.39035624388616785
-0.07441566907665406 0.05671743499105458 0.18536694332521794 0.20975422901895324 -0.41609546461950186 -0.016435278401682924 -0.1578028387658705 0.07294098038668449
0.3584292078313184 -0.08087674462985547 -0.2612012842804423 -0.12710673089366356 0.1365162309540514 0.2625520078370182 0.2311207465279814 0.02791340428111808
0.28292742470865656 -0.07824101678226639 -0.10078017197604293 0.1866327543194945 -0.34819448720401974 -0.22347263181989319 -0.2751668581315474 -0.3231711681406809
0.3779971318912856 -0.2596628213065814 -0.2084537358582162 0.10680758981992652 0.3586499876444552 -0.26424916466552584 0.1004678388630423 0.0032008259775501797
0.17400629637545995 0.016966118397326115 0.07496386632941596 0.22496700415627494 0.06273151952333583 -0.23411718033410905 0.17195856893925968 -0.21573156827575535
-0.3986218314443511 -0.3313411633858584 -0.3929856903365669 0.23566181700623637 0.12295653640175655 -0.3736560082044625 -0.374947813194517 0.10186608605222197
0.35115081798360365 -0.0351747818907287 -0.22795902608197727 -0.4021118596640387 -0.009739695584652335 0.2668621613889224 -0.016213209851618213 0.30754400310921004
-0.3041418414426841 0.25515673897752567 0.03325096254840634 0.014551650932276781 0.350188852287931 0.35668938434167224 -0.1042513280620871 -0.18906736869786328
00000000: 0ac9 f392 2c94 e1bf 7e11 5dda 6cf0 d73f
00000010: 1ea3 81cf 9565 cd3f 1a44 075d c308 d6bf
00000020: b33a 2099 fc5e a4bf 7689 57a9 c19e d63f
00000030: 7159 f47c 9c01 a63f 4b66 fab3 73ca ba3f
00000040: c8a2 1d06 2916 a63f b38a 9f1a cd79 c33f
00000050: baf6 b8ba 1c9b c43f 15ff 5e36 8cd4 c03f
00000060: 22fc 4901 8e13 bebf 8aea 5a4d 448a d3bf
00000070: b98d fafa 3c39 b4bf 932b 7e0c 7709 debf
00000080: 4018 1e05 cbd4 a83f fd63 0407 887f 8d3f
00000090: 8f80 74b6 a2b0 c33f 5021 2f23 def7 d53f
000000a0: e99c ba27 3ab1 82bf de9d 7284 5076 c03f
000000b0: 86bc 90f9 d3ca abbf 1a06 bc60 2820 6abf
000000c0: 97b3 6ee0 1e08 af3f da6f 71df 98fe c83f
000000d0: 221c e35e 4a4c e0bf 0cb2 57ca e680 c33f
000000e0: 1524 380a 3f15 c4bf cfb0 010b 02ad c03f
000000f0: f9db 2020 f458 d43f 9175 c810 77d7 c1bf
00000100: 1789 6d7c 54f5 d4bf 0613 88fa bed4 8bbf
00000110: 885d a1eb b6fe c03f 2cb3 0c71 2cd1 bbbf
00000120: 3be3 99c9 d216 d03f 98e2 31b5 bcab ccbf
00000130: 32db f27e a6b9 c0bf 08f3 2327 55cb bd3f
00000140: 9e8b 9a3c 7285 9abf fc68 aa21 6536 d2bf
00000150: 5576 d44a d276 c2bf 0bd7 530e 9cd2 c53f
00000160: d8c8 0923 bec3 b63f 015f 5223 9a42 c0bf
00000170: 52a4 31f6 c414 d2bf f48b 6d57 7517 c73f
00000180: af4f df11 6335 d8bf b9ef 18a0 9472 bbbf
00000190: 3689 db0f eccf d73f d03b fa33 249e d1bf
000001a0: 7fa3 c1da 48b8 cd3f 1cff 6d0f 433b d1bf
000001b0: 97f9 9ea9 8372 d73f b22e c6c5 dda3 b33f
000001c0: 7456 6459 9aa0 d13f d4fd 57cc 98bd cfbf
000001d0: 3951 6323 c5ef d2bf b47f 431b 5342 cd3f
000001e0: 9252 bc5b d547 b1bf 7b29 2b20 491a c23f
000001f0: f559 4179 a0c5 bf3f a0f6 7538 a88d cbbf
00000200: c0f0 8fdc 7cf4 aabf 6c8d 5bc9 6322 bc3f
00000210: 431d 3a10 c7a2 d3bf befc 7835 e7b1 d13f
00000220: 9831 cab6 5501 cabf 5614 1a85 1112 b13f
00000230: a7f1 42aa c08f c63f a201 2ee6 62a8 d5bf
00000240: 4231 8bea b984 c43f 8110 e52b 600b d0bf
00000250: 6f95 9a72 50ae 7a3f 397d 496c bec1 c4bf
00000260: ce52 a477 9bbc b8bf a704 35bd 0ebb cc3f
00000270: 454b fc93 1214 95bf b853 caa3 ca23 cabf
00000280: 4351 79fc 73ef c5bf 2bba 08a3 ff83 c23f
00000290: d8b7 0241 d251 d33f 68c5 bf9f ad80 c63f
000002a0: 8087 a49e 87fc d2bf 38a5 7470 29be c9bf
000002b0: bba4 d3de 4b0c d23f 826b f294 25d4 b53f
000002c0: 82da 07bb bac1 c1bf db36 a09f 3868 d1bf
000002d0: 6e52 dd01 1721 d9bf b260 5d3a 4453 d13f
000002e0: f23f 7367 31f9 c7bf 7ab3 ebaf c74e c1bf
000002f0: abe8 496b 1237 d2bf 10fc 1373 2681 c8bf
00000300: 3d16 9c59 10b9 d03f 9a49 3c3c 5f82 d6bf
00000310: 339b dda2 0a47 cabf 8b4c 0a8b f918 a1bf
00000320: 08aa 2878 6d3b d4bf e9dd f123 016d c5bf
00000330: 2aad 3c99 fd15 ac3f d98e e230 2789 cd3f
00000340: ff6b 880c 1129 d13f 1d7c edbf 24c1 d43f
00000350: 9703 c0b6 17f8 c53f b94a ddff ae4f ccbf
00000360: 2f79 5555 fc05 a53f 3ffd d993 d6cf b63f
00000370: 1cc6 42cc c575 d0bf abca b8cb a3ae cc3f
00000380: 9fba 7861 141b 9fbf f72e 4b2e b48f c83f
00000390: aeb3 3949 402d bfbf a1f7 122d 778e c4bf
000003a0: 94a8 5ca4 a5a5 d2bf 0a81 cffe ebff ca3f
000003b0: 3dee 5b7a 8f58 d73f 472c ce10 077e c9bf
000003c0: 14e0 bab2 cf55 c6bf 864e cd65 77e6 c43f
000003d0: f7c3 77ae b575 c43f 3836 554f c959 cd3f
000003e0: b33e d4ce 581c a7bf ee19 49a7 0414 c9bf
000003f0: 50eb 071c b5db c23f 6c29 3558 f8ee d3bf
00000400: 2f54 3ad6 a3fe d63f 27e0 34f1 0da5 b83f
00000410: 708d 0299 55fc ddbf 7cc0 818b d2f3 d43f
00000420: eeb0 44fc cd5b 7cbf b6bc 5c46 8b42 b53f
00000430: fe4a f53c 95d2 b2bf df61 f3c9 8663 b3bf
00000440: 1253 f806 5c86 c23f 2e8d af36 4d0c 9c3f
00000450: 3cc6 83ca 39d9 cebf 8e3c 275e e637 823f
00000460: 9959 3bc6 bc57 bdbf fe9f 2626 7d03 d23f
00000470: c282 3538 ad8c ccbf c01d 3cb5 7eb0 d3bf
00000480: bebb cc5d abc5 c43f e645 f0c2 5128 c1bf
00000490: 6594 471e 8aea a13f ea63 b999 478e d23f
000004a0: a2dd e211 1bc9 da3f f6eb bc3f 0dda b0bf
000004b0: 21b4 0f6b 8dce d23f 2cf3 1553 ba03 cd3f
000004c0: 1809 7357 a986 d63f e734 6e2b 3225 d53f
000004d0: c249 0bc1 7a72 c6bf 79a2 35b8 6ef7 c23f
000004e0: ea74 fbe0 7afe a0bf fee9 0833 77c1 c63f
000004f0: eb6b 0633 eefc c8bf ea12 66bb 1ad2 c5bf
00000500: f1a3 8a94 7a01 b43f 4c51 b88f 9fb4 e1bf
00000510: 671c 332d 09a0 cc3f fd06 d5c0 93b8 c43f
00000520: b1fb ab21 c5f4 48bf a1a9 8cee 935b b13f
00000530: f310 8110 b2c5 9c3f 9a43 abc7 c6cc a7bf
00000540: 41e6 f7b1 b289 b5bf a518 5dd4 cb5a c4bf
00000550: d7d5 3a09 d490 91bf 3743 7fc7 0c50 d7bf
00000560: 39d5 3361 e64e 70bf fe7d 62f2 c111 d3bf
00000570: cb64 9514 95f0 c8bf 1273 3bd3 8770 c7bf
00000580: 7011 7343 7367 c5bf 6aaa 5441 b674 da3f
00000590: fc90 acc6 e4a0 dd3f e216 0cc5 2b6b db3f
000005a0: 7f8e b0bc dd60 cfbf aff2 3a31 c81d d2bf
000005b0: c872 f214 89e0 adbf 8f2d 61ea e256 c4bf
000005c0: 25ef 790f 9227 d03f 46df a32f e0e3 d5bf
000005d0: ed13 1eff 8efb d8bf e027 4615 9fc2 c2bf
000005e0: 3a1c 781f 21c8 bd3f a59c a27b 3706 b0bf
000005f0: 38d0 2617 ad22 ce3f 90f3 51c1 98fb d8bf
00000600: 1683 fec0 e70c b3bf 7896 cc50 110a ad3f
00000610: 9baf ab9f 1aba c73f bcc3 ea00 3ad9 ca3f
00000620: f87f 23df 4ea1 dabf 658b f1dc 68d4 90bf
00000630: 6791 db27 e232 c4bf 6f8a 4c95 42ac b23f
00000640: ce44 640f 81f0 d63f 3e32 319d 56b4 b4bf
00000650: bc17 6a97 85b7 d0bf c916 258a 0845 c0bf
00000660: 1411 a925 5d79 c13f 2b2f caef a6cd d03f
00000670: 7fe4 e157 5d95 cd3f 599b 07da 5495 9c3f
00000680: bff8 10a1 7b1b d23f 7a1e 4970 9a07 b4bf
00000690: 97ec b8b6 bacc b9bf a612 1504 95e3 c73f
000006a0: 9114 cc87 d148 d6bf b8d6 9b4e c09a ccbf
000006b0: 6c8e 2774 559c d1bf 6a28 8b1f d6ae d4bf
000006c0: 981c dde1 1a31 d83f 4fed 5fcf 509e d0bf
000006d0: 52ba 1ead 9cae cabf 1ebd 3d01 be57 bb3f
000006e0: 0633 e913 1ff4 d63f ccf5 0e54 75e9 d0bf
000006f0: c570 37a2 42b8 b93f 96b9 995c 9e38 6a3f
00000700: 0c87 1d9c d645 c63f 6756 a0ee 905f 913f
00000710: 163d 44fa d430 b33f c5e0 c302 b8cb cc3f
00000720: 04f7 c740 2c0f b03f e6bd 7b40 8df7 cdbf
00000730: ed37 ee06 bd02 c63f c4c5 3a8f 179d cbbf
00000740: 719b 6124 0583 d9bf 0ae5 2391 b134 d5bf
00000750: 8fa8 f273 ad26 d9bf a196 7a9a 2a2a ce3f
00000760: 5acb ac5e 147a bf3f f14a cce3 fae9 d7bf
00000770: 8423 d81c 25ff d7bf dc72 2a54 e513 ba3f
00000780: a901 cd47 4179 d63f 88ae bad3 6d02 a2bf
00000790: 30d0 ece8 c22d cdbf 77cf a561 33bc d9bf
000007a0: 2997 12d0 67f2 83bf 9023 ed07 4514 d13f
000007b0: dcb4 4d18 329a 90bf b4d6 db0a cdae d33f
000007c0: e2db 9557 0f77 d3bf 7ecc 50ee 7c54 d03f
000007d0: 246f 6929 4506 a13f 9f01 db86 41cd 8d3f
000007e0: 2f07 0081 7e69 d63f 9bfb 24b6 ffd3 d63f
000007f0: ed5a 970c 37b0 babf 0a28 a60a 5c33 c8bf

linear_afunc_stack.0.bias f8 [200]
-0.42785027821980987 -0.1308214904147211 -0.3072261369061717 -0.32879956975716507 0.23838932826025286 -0.290265614320227 -0.33720400754479657 0.14843276719749002
0.12947873401546292 -0.49407260349435084 0.3704187995888326 0.3307090162802342 0.2047549978900633 -0.26501720430979264 0.20242789746075066 -0.543631473910423
0.06391379102870173 0.1394918231752318 0.08283459613384658 -0.12164829872929195 -0.4840452770875581 0.05892058197191186 0.17160794923909076 0.21865386663415487
0.3802531435052696 -0.4332554214825372 -0.08902648909540874 0.22926242140716813 0.0561998792855957 -0.439409347140459 0.21896853788540976 -0.4415078635990872
-0.3534821550582529 0.37607317348732355 -0.365019037847708 0.2015779937683139 -0.09475901632768512 -0.4770413940181973 -0.001614651050826239 -0.2141575864839251
-0.43849935553357494 0.21779938226423518 0.3255219165912697 0.27843300217970846 0.29313516822730395 0.32018087659613187 0.3873015000167838 0.2953393311239113
0.09160055505672007 -0.24135460787051438 -0.5479000596496463 -0.3088815135765962 0.16787165486678662 -0.48109341725265947 0.10189109755283937 -0.08420142240383953
0.009191240607189842 -0.03449873142117854 -0.3909151946710408 -0.4496819246536808 0.16803839843763393 -0.35386755459030467 -0.17393574962349137 0.06697987813453216
0.06936706338973307 0.4076248570670586 -0.01633428873880053 -0.20196139474674654 -0.3589207150261996 0.49563747323789875 0.08106474399677102 0.270118482038636
0.017177355165006188 -0.26986433726583264 -0.356212561291876 -0.31398522992646327 -0.06172235319462923 -0.356428793514099 0.34309730403300337 -0.3358617117049652
-0.0808124101656482 0.06615428243858763 0.0185131449002055 -0.2831369335664799 -0.30845394240823704 0.2359006089868199 -0.4615867600073723 -0.33561098195678657
-0.26679074775165296 -0.3225461381590876 -0.3409230891704761 -0.41114857863032006 -0.23317448043124575 -0.18670031544995178 -0.25471435589423375 0.11247976247073076
-0.3899548890198649 0.08590978458007927 -0.5434620010495892 -0.215341254493475 0.33492782659339815 0.22574742496955746 -0.06982089170810966 -0.45717737186203866
-0.42769549136054313 0.26689558621299525 0.009370431506545351 0.045349752628478526 0.06668872660660535 0.118484812728782 0.3751191853375552 0.25575696969115946
-0.2941763141468086 -0.3434278863731195 -0.23800559548445877 -0.3542646733184184 0.2878345514280755 0.29822652757851575 0.029609235969755007 0.11448064512735495
-0.2509300956465649 0.16982868149633232 -0.34472827191586614 -0.5951672952394191 0.2851282597556239 0.28980628275487497 -0.4459995452535209 0.18665081120255003
-0.27729253643355295 -0.22285611145583173 -0.002636577818076259 0.27611822845026796 -0.06870997945427929 0.1463734360469982 -0.5448321870757614 0.011648071539780223
-0.18098663493079475 -0.03576381147361194 0.1380379408875108 0.02485836903184843 0.07591895964043421 -0.17111892294285955 -0.46946896271938654 -0.12976180851464153
-0.12624669658283383 -0.31883088852810904 -0.446777007916876 0.09242753917655087 -0.1037903268931647 -0.16279971204681926 0.03926956517512178 0.33932076763110564
0.08487909976479348 0.08034906646804248 -0.10861358291274753 0.09828720236222818 -0.46705668146254997 -0.1882149075194077 -0.1328628395435193 0.24345813779255635
0.3324944085281482 -0.43021842019906675 0.2594150222460157 -0.012780903020208949 -0.28939477593229823 -0.31992182610918635 -0.05816335106840277 0.04370443891585208
-0.34540307362619205 -0.33516123318504476 0.18975823590466678 0.1440659043273228 -0.44034472984020223 -0.20009151035727452 -0.47514412595924677 -0.1651655514084437
-0.3718023124917866 0.2831681894860772 -0.3847074507688536 -0.31659601752850836 0.03454182617642334 -0.4202131598010156 0.10522008071526291 -0.10349958650906302
-0.5126487276427982 0.1305686141728366 -0.32181147429817114 0.04675576185084241 0.19675060257761426 0.16879195141598288 0.05520268308280135 0.0833695522252716
-0.32973357279907045 -0.09943800968375208 0.02921685968724196 -0.2790019422828591 -0.04557601323938442 0.09790610657225518 0.01573260516145454 -0.023398957960780842
00000000: 2b78 2222 e661 dbbf 77fc 7833 c2be c0bf
00000010: 5f42 9fd0 97a9 d3bf f0ef c259 0d0b d5bf
00000020: cded 4ba0 8a83 ce3f 8a28 2a3a b693 d2bf
00000030: df0a 1f1e c094 d5bf dd4d 624c d8ff c23f
00000040: d3db 0f58 c292 c03f 65e6 76b2 e29e dfbf
00000050: f4af 830d f1b4 d73f b89e 5a26 562a d53f
00000060: feaf d069 6935 ca3f 83d3 58b8 0af6 d0bf
00000070: ed2b b247 28e9 c93f 7db0 30d5 6d65 e1bf
00000080: 8e4d 3b7a a75c b03f a86b 4c39 deda c13f
00000090: 104b 5fe9 a534 b53f 6006 a8c8 5724 bfbf
000000a0: ddf4 b70a 99fa debf 61e4 42a9 d62a ae3f
000000b0: 4196 dbd0 3ff7 c53f d037 2b93 d9fc cb3f
000000c0: e09a e347 1156 d83f a742 85f2 74ba dbbf
000000d0: a579 24a3 70ca b6bf a0a1 1295 7858 cd3f
000000e0: 753d 2407 3bc6 ac3f 5099 e161 481f dcbf
000000f0: 0e0f 893a 2907 cc3f 246f c532 aa41 dcbf
00000100: 8f77 ec9d 739f d6bf b9fb 4137 9511 d83f
00000110: 6b4a 7ecf 785c d7bf 7502 6ac5 4ecd c93f
00000120: d7e7 207c 2042 b8bf bd5e 89a0 d887 debf
00000130: b8c9 4b5d 5674 5abf 8fc2 110b 8469 cbbf
00000140: ab5c d599 5f10 dcbf 6efa f4a3 d9e0 cb3f
00000150: f001 79e0 59d5 d43f de4a 9fa7 d8d1 d13f
00000160: a7ff 3502 bac2 d23f 693d 72ee d77d d43f
00000170: 97e2 103b 8cc9 d83f ea94 19f0 d6e6 d23f
00000180: 7299 434c 2273 b73f 4679 c531 b5e4 cebf
00000190: 677e b5b4 6588 e1bf 26a1 c9f7 b6c4 d3bf
000001a0: 0604 ca81 d17c c53f 8ff2 5a0b 3cca debf
000001b0: a434 bef3 8815 ba3f d74c 8073 398e b5bf
000001c0: 5f56 8a6e dbd2 823f d036 6a56 d1a9 a1bf
000001d0: 31c8 272a c104 d9bf 715a ffb1 96c7 dcbf
000001e0: 7984 e140 4882 c53f b32c 8519 c4a5 d6bf
000001f0: 5d7b 1ed2 8643 c6bf 04f0 13e2 9725 b13f
00000200: b7af ad34 0ac2 b13f b3f0 8891 8616 da3f
00000210: 0a0c bf8f efb9 90bf 0bf4 bef8 ded9 c9bf
00000220: e23e 3997 8ef8 d6bf 7ca5 8e3c 86b8 df3f
00000230: 6a22 53b8 a8c0 b43f b4ab 9907 9f49 d13f
00000240: 2273 a9ca f096 913f 3776 ba11 7545 d1bf
00000250: 7b12 4bc5 2fcc d6bf 4e84 7d81 5518 d4bf
00000260: 4b62 ce80 129a afbf 0fbb dfb6 bacf d6bf
00000270: 9fb8 0a65 4ef5 d53f 0917 f01e c27e d5bf
00000280: cfbb c542 1fb0 b4bf 9d67 90af 7cef b03f
00000290: 5fe9 911f 1cf5 923f df4b 7d5f ea1e d2bf
000002a0: 23cd bd9a b5bd d3bf 5939 5abc fd31 ce3f
000002b0: 92e3 9f31 a38a ddbf b9b3 eb7b a67a d5bf
000002c0: c1ff 1d80 1913 d1bf 4e0a b68e 98a4 d4bf
000002d0: 2a10 9c13 afd1 d5bf 2ae7 c020 4250 dabf
000002e0: 1b64 db4f a9d8 cdbf a755 81c2 cbe5 c7bf
000002f0: cccb 1871 3d4d d0bf 0f0d 4645 79cb bc3f
00000300: 3b5c d059 05f5 d8bf 4987 2d03 2ffe b53f
00000310: f40d 246c 0a64 e1bf 29b9 c35e 4d90 cbbf
00000320: d84b 6f1f 756f d53f 6042 b3a7 4ae5 cc3f
00000330: 67c1 762e c8df b1bf 9098 27e1 6442 ddbf
00000340: 5d92 02e9 5c5f dbbf eed1 8e39 d114 d13f
00000350: 33cd f506 ce30 833f 028e d730 1538 a73f
00000360: 8c89 c92b 8312 b13f 5a28 be4b 0555 be3f
00000370: 2720 48e6 f301 d83f c40b 237b 525e d03f
00000380: e52c 21e4 c8d3 d2bf e871 20f5 b8fa d5bf
00000390: ec74 6fa4 f776 cebf 7ef7 81bc 45ac d6bf
000003a0: ebb6 429c e16b d23f a2f5 afb7 2416 d33f
000003b0: 6f3c 9930 e251 9e3f 1cd3 d882 9a4e bd3f
000003c0: e295 981a 3d0f d0bf c78a 793c f2bc c53f
000003d0: c7a7 782b 0710 d6bf 7477 9648 9c0b e3bf
000003e0: 0736 b499 8a3f d23f 8ee1 a6a6 2f8c d23f
000003f0: 7e43 39ad 418b dcbf 6983 f17c 2ce4 c73f
00000400: 430c da31 29bf d1bf cc50 358f 8c86 ccbf
00000410: 1c5b 10f0 4d99 65bf b17e 41ca ebab d13f
00000420: ea3a aa2a fa96 b1bf c299 6960 5dbc c23f
00000430: b78d 29e9 436f e1bf 8c3d 99b2 f1da 873f
00000440: ba3a 05ef 912a c7bf 6da6 5161 a24f a2bf
00000450: 8209 dc2c 3aab c13f b741 18e8 7874 993f
00000460: 7450 cdc8 6c6f b33f f716 e290 39e7 c5bf
00000470: ca79 578c c70b debf aa8b ebf1 089c c0bf
00000480: 3491 860c da28 c0bf d0b3 cbab b967 d4bf
00000490: d0e4 6697 fe97 dcbf e756 03ca 54a9 b73f
000004a0: e8b4 a5bb 0092 babf fa07 85f7 9ed6 c4bf
000004b0: fb81 4ff4 231b a43f d811 f573 6eb7 d53f
000004c0: b18c 9afd a2ba b53f 358f bea4 c191 b43f
000004d0: 84fa 828a 19ce bbbf b6d7 c29f 5929 b93f
000004e0: e2a2 10b5 41e4 ddbf c72f 3514 6d17 c8bf
000004f0: dcb7 5847 a601 c1bf bdcd e1e1 a229 cf3f
00000500: f7cc aea0 9647 d53f e212 39d7 b288 dbbf
00000510: e5d0 2877 419a d03f bc93 e1c3 df2c 8abf
00000520: 4acc 90aa 7185 d2bf 7198 1a65 9979 d4bf
00000530: c240 5435 96c7 adbf 81cf aa9f 6d60 a63f
00000540: 5a64 4a7e 151b d6bf ceac da19 4873 d5bf
00000550: a0b8 ad74 ff49 c83f 64fa c665 c070 c23f
00000560: c24b 68a9 9b2e dcbf ea8a 983e 999c c9bf
00000570: ff69 78e8 c268 debf 2ccf dc10 2524 c5bf
00000580: 6bae 2eed 9bcb d7bf 0d0e 4778 6d1f d23f
00000590: ba1a e5ff 0b9f d8bf d50a 55f1 1b43 d4bf
000005a0: 9330 8b5b 77af a13f 826d acbc c5e4 dabf
000005b0: f9f5 8d05 b4ef ba3f 0ab9 34eb f27e babf
000005c0: 82fa f14d 9e67 e0bf e8d0 e0eb 78b6 c03f
000005d0: e6a4 6527 8f98 d4bf b10d 1908 5ff0 a73f
000005e0: c102 c5ad 1f2f c93f fb6f 9483 f99a c53f
000005f0: 78f2 fbac 8643 ac3f 252a 4afc b457 b53f
00000600: f02c e4d7 5a1a d5bf 1a30 92f7 c474 b9bf
00000610: bde3 6443 06eb 9d3f e305 68f6 2adb d1bf
00000620: 8fc0 b03c bd55 a7bf 8878 cee5 5f10 b93f
00000630: 74e9 9842 351c 903f a0e1 ce7c e5f5 97bf

linear_afunc_stack.2.weight f8 [200, 200]
0.10816766127795785 0.01717373868739648 0.03172070103584288 0.08340831241223616 -0.13182560996704829 -0.13528015850215916 0.04019988990751246 0.03127847675102423
-0.042694081406270186 0.0688507238341801 -0.10749486920330216 -0.01025119570191907 0.010458020660768062 -0.027423457235315207 -0.06020126778918552 0.03380726854773836
-0.018306492730033957 0.02880264831199325 0.038984630284478024 -0.0029864622126119966 0.004824451805774963 -0.055991684969179424 0.003436849222813368 0.03230542179008552
-0.02704909858829944 -0.03312960808032695 0.06773877990746921 -0.07300163644860029 0.042578914177559754 0.13709749639182725 -0.09022989253384607 -0.04863104335558373
-0.04107313566782898 -0.0777689890404894 -0.017060600482998917 0.023863859335436808 -0.0014845137240715898 -0.06998326921997768 -0.12230007325966438 -0.05039966454861645
0.07357021437828892 -0.07693840096291371 -0.11782090114515234 0.04970901966171512 -0.16053140916993616 0.010598603783662109 -0.1491749496374465 -0.06919048164001784
0.0067274806998572755 -0.1411969761775582 0.04048344761715099 0.13445769282631373 -0.019185317552424735 0.054968032666388826 -0.1324013986733733 0.050518932783920535
-0.10770216838158284 0.01641976376951448 0.06750141332629128 0.1263382756130656 -0.05328824868353045 0.03946450629554844 0.020955261357839348 -0.03599899294998091
-0.11580102307341027 -0.11052266116373764 0.007250854989428184 0.0076261590432733645 -0.0045521449717880426 -0.06186253234941291 -0.06386739945908894 -0.049980281576186746
-0.056355035737306755 0.051599178857707824 -0.01603610688688613 0.012702647821985127 -0.06851351859995408 0.12629015010749264 -0.11831471922821223 -0.06856425774398432
0.028708071376376952 -0.01844113944983481 0.001432436781899448 -0.08864630522502273 0.09363689101309088 -0.03514543780326023 0.03475677197262567 -0.010016802022419164
0.008282229606665158 0.12164759525171388 0.02839764451158358 0.06180241036365516 0.14839835108674224 0.08668830690571606 -0.024387980642974563 -0.11651401578963888
0.10335872200238565 -0.07359240625467783 0.010088163528003007 -0.05912140527542146 -0.09499941269699524 -0.014768757133694889 0.026174524231310607 -0.09879813584793902
-0.0351288679978682 -0.06307557099716442 0.009521063998816002 -0.04302549658356673 -0.030330237292728896 -0.03845182761261595 -0.06167280745069448 -0.042424694386647345
-0.07032314412675426 -0.05625359157321994 0.030432313720578936 -0.08472026382821855 -0.008038877535817836 -0.07687810189523407 -0.12289448407000333 0.05065110665958625
-0.04063967544921696 -0.047504143537335904 -0.08192980619726306 0.07465529246648983 0.054141744637536716 -0.03309153069589673 -0.003679077869742206 -0.005962755305240442
0.00939115549609737 -0.06665055768497218 -0.04783570067113875 -0.15064111931909951 0.09612697971558228 -0.08821256854019069 0.05443217403460371 -0.033653197848429885
0.0368244358404585 -0.04684764828991999 -0.05776583311907478 0.0032388972467981684 -0.031614166984514115 -0.06118821035566945 0.11765963746918306 0.10123822088158474
0.013846832246282121 0.0035268246198420484 0.11460636020455486 -0.04571816681856701 -0.01625954663534577 0.013028668305092053 -0.00997804712031154 -0.016827947600602612
-0.016164342239227237 0.07117434317546507 -0.029445240851894212 -0.01719851607061354 -0.1067239151660287 0.034320264151094564 0.03700319958780333 -0.17836228050368605
0.05400643365887311 -0.10828236369863228 -0.0573426647550669 -0.11195574231690718 0.05499195020748022 0.10297931352483532 -0.0819022986900825 0.054946692114601244
-0.0013734621389818033 0.07566541500941083 0.038917057775272726 -0.007343130045407298 0.09232880336916459 -0.14880769335859276 -0.03667004064837375 -0.040052401518638626
0.1344785618600336 0.042813134950470934 -0.0283493063394196 0.005570664089162047 0.04775353511998303 0.048795516631219435 0.0302627077341526 0.09892026261781163
-0.15990033581820332 0.011568060503574392 -0.007548193623934691 -0.07779556373826632 -0.147413999389686 -0.005049848428496654 -0.10031625398657736 -0.055026226140192494
0.04670734587039799 -0.07770540070250749 -0.03632630996117809 0.046222434372958164 0.0586385377706597 -0.007427430590149703 -0.10389571517098321 -0.05640499691231644
-0.08363921670274414 -0.010684097445136946 0.0027018810569903275 0.057259866114317055 0.004253916205376214 0.007686858350847142 -0.026443785439238428 -0.03406318085839237
-0.0562997344705833 -0.07093968687645368 0.05315323267608669 -0.0695175101289412 -0.030393144926445497 -0.01717103363669435 -0.05251442813274745 -0.08577577333342862
-0.05617593748406388 -0.08229627915391989 -0.10757523570480779 -0.022780095154295056 -0.020212346185983807 -0.002686492140352086 -0.0764822859888986 -0.013747856115950297
0.016033229714266555 -0.07379021833357521 -0.07411237157683793 0.04143175549258497 0.02173238568613891 0.07148522728921364 -0.0016351665308185599 0.07869082260883038
-0.03226088872059511 0.02418011055030526 -0.011738517566553424 -0.03201971958611258 0.01829746287580244 -0.064174981362905 -0.0035374029482472718 0.04383111581702155
0.027260673329739252 0.030298709791715606 0.028840342648217512 0.010312377902749472 0.05630124528531669 0.011808113003806372 -0.05666172377536291 -0.05189069137937111
-0.03911655530365384 -0.009619128664654225 -0.049007206694864004 0.052815353560338216 -0.0275320453365536 0.03369538184874108 -0.06421507393972777 -0.031904114333037796
00000000: 5073 ac37 e0b0 bb3f 44b7 0c18 fe95 913f
00000010: 1d3b 1c1b b23d a03f 4b6d 0646 3f5a b53f
00000020: 78b7 ca5d a9df c0bf 8d40 4838 dc50 c1bf
00000030: 0240 e978 1495 a43f aebe 6d85 bb03 a03f
00000040: 81d1 bea6 ffdb a5bf a779 2c77 33a0 b13f
00000050: 7d4a b7a3 c884 bbbf 60f0 4632 94fe 84bf
00000060: ff49 c0c5 036b 853f 1330 e00f e514 9cbf
00000070: eb21 aa58 b3d2 aebf 192b 8fb1 2f4f a13f
00000080: 68e0 51ee efbe 92bf 101e 2702 717e 9d3f
00000090: f9a9 3c20 cbf5 a33f e9c6 15b1 1077 68bf
000000a0: 0a83 a1eb cdc2 733f 55c4 942f f1aa acbf
000000b0: baad 6c60 9827 6c3f 7bd0 2414 568a a03f
000000c0: 4bc7 4a47 c2b2 9bbf 61f6 772e 5df6 a0bf
000000d0: 269f 5f24 5457 b13f 8be9 1939 3cb0 b2bf
000000e0: 4e9b c847 e7cc a53f 69e5 ae27 698c c13f
000000f0: 51f1 8d65 4e19 b7bf aaaf 9009 2be6 a8bf
00000100: 8eff dfbc 8907 a5bf 0467 9220 abe8 b3bf
00000110: b597 7f84 5578 91bf c9b1 9b7d c46f 983f
00000120: cc6c 4d79 8052 58bf c924 916c 6cea b1bf
00000130: 8edb f2be 0e4f bfbf 616d ee1d fccd a9bf
00000140: d8e6 b660 7fd5 b23f 4037 f12b 3cb2 b3bf
00000150: 4224 34b5 8229 bebf 9ccd 86eb 7573 a93f
00000160: 49ce 2e10 4b8c c4bf 1a9e 1285 b8b4 853f
00000170: c5a2 092d 2a18 c3bf 189f d6a7 77b6 b1bf
00000180: 6e1b 7259 468e 7b3f 9f04 7d15 be12 c2bf
00000190: 4609 1717 3fba a43f 993b b1e0 e835 c13f
000001a0: 2bdd cddd 50a5 93bf bf54 411d c524 ac3f
000001b0: 0497 9f6e 87f2 c0bf 7582 4518 9edd a93f
000001c0: 2e3d e88a 5e92 bbbf 3faa 97b1 57d0 903f
000001d0: 3492 abca c547 b13f 0ade fe44 da2b c03f
000001e0: c2b8 b6ea 9848 abbf 12ca c817 b134 a43f
000001f0: 291e d8c8 4b75 953f e475 d1c2 756e a2bf
00000200: 4b92 f1c6 22a5 bdbf c746 2a8f 364b bcbf
00000210: 451a c390 12b3 7d3f 1092 f57a 9b3c 7f3f
00000220: 1bd9 7c1c 45a5 72bf 68b2 9322 72ac afbf
00000230: 3915 f527 9d59 b0bf 6312 a1f5 0397 a9bf
00000240: 36cd e936 91da acbf 917c 6323 356b aa3f
00000250: 748f 89ea c46b 90bf 6e87 be87 d803 8a3f
00000260: 2c7f b819 1a8a b1bf df61 4290 462a c03f
00000270: d778 b899 df49 bebf 6757 af5c 6d8d b1bf
00000280: 3666 c50e a665 9d3f da20 5aeb 3be2 92bf
00000290: 9628 7048 1378 573f fa4a da35 86b1 b6bf
000002a0: fdaf 9958 96f8 b73f f7ec ef33 95fe a1bf
000002b0: c9b8 dfbd a3cb a13f 7d3d c668 b083 84bf
000002c0: 0c83 630a 46f6 803f 793f 3efb 4b24 bf3f
000002d0: e8bd d7a9 4514 9d3f 7bd8 a6c6 90a4 af3f
000002e0: 4354 5998 b7fe c23f a10c 1b73 3431 b63f
000002f0: c7b4 1bad 29f9 98bf 9c95 57cf dcd3 bdbf
00000300: abb0 c19a b775 ba3f 9408 19b2 f3d6 b2bf
00000310: 7c8f 6f63 1aa9 843f 0591 4d2c 2945 aebf
00000320: bc3c acaa e151 b8bf d460 2207 153f 8ebf
00000330: 9e52 3f96 7ecd 9a3f dd66 5faa d54a b9bf
00000340: 5287 6436 69fc a1bf 2ffe 9b7a b825 b0bf
00000350: 32fb fb93 c77f 833f b6ef 7019 7007 a6bf
00000360: 253e 02c5 e30e 9fbf 789e 223c f5af a3bf
00000370: 0042 1b06 9493 afbf 85ec dd85 b0b8 a5bf
00000380: 4322 2d94 b200 b2bf add5 2d50 45cd acbf
00000390: 559d af00 a629 9f3f 7360 732a 3ab0 b5bf
000003a0: 2131 e7e0 af76 80bf 7328 6b85 48ae b3bf
000003b0: 4680 f04d 0376 bfbf fcdf 371d f1ee a93f
000003c0: ede9 f239 b9ce a4bf 91ae d58d 7652 a8bf
000003d0: 2e53 2f0e 5af9 b4bf 70ec 9df7 9b1c b33f
000003e0: dd19 227d 77b8 ab3f fb16 3a84 5ff1 a0bf
000003f0: 13cc 28e4 9523 6ebf 4d1e 7bf0 666c 78bf
00000400: 40b1 d18d ab3b 833f c761 84cd 0210 b1bf
00000410: 6275 edc3 eb7d a8bf 5845 744c 3548 c3bf
00000420: 3945 241a c79b b83f 52ed f950 1995 b6bf
00000430: e858 a8ae 88de ab3f cd63 54f0 fd3a a1bf
00000440: 34c0 4107 a7da a23f 7774 993a 6afc a7bf
00000450: 6e2e 25b8 7b93 adbf 1dd7 00b8 7588 6a3f
00000460: cdd9 936a bb2f a0bf 8fb9 c1a4 0f54 afbf
00000470: 8846 fd26 f11e be3f 50a8 ca7f bfea b93f
00000480: f734 355d ba5b 8c3f 7b93 d48c 49e4 6c3f
00000490: 22fe fda8 d756 bd3f 123c a31e 5f68 a7bf
000004a0: 1ab7 2fb4 57a6 90bf 2e15 3f42 c6ae 8a3f
000004b0: 273c 7ad0 5e6f 84bf 0adf 6972 583b 91bf
000004c0: 3d86 1da5 628d 90bf 45be 4054 7b38 b23f
000004d0: 524a eda9 e426 9ebf 2887 40e0 7c9c 91bf
000004e0: f4d3 562d 4252 bbbf cff1 3cf8 6c92 a13f
000004f0: 6569 2758 15f2 a23f 4339 cd40 93d4 c6bf
00000500: cb49 ad34 bba6 ab3f 4eb7 d19a 64b8 bbbf
00000510: d2b6 938b 045c adbf a7bb d9ab 21a9 bcbf
00000520: 1968 5ea7 e727 ac3f 5df2 c02f da5c ba3f
00000530: 2a54 578e 8cf7 b4bf f1a9 4f0b f921 ac3f
00000540: bcb7 07be b780 56bf 0958 e702 cf5e b33f
00000550: 4a7c cdc4 efec a33f 6725 5376 d413 7ebf
00000560: 570a f346 dca2 b73f 2b26 2f68 210c c3bf
00000570: 9fcf a762 6ac6 a2bf 4d31 4c95 bf81 a4bf
00000580: bcd9 99f0 9736 c13f f52b e76c 9aeb a53f
00000590: 8a4d 5ebe 9907 9dbf 667c 47c1 43d1 763f
000005a0: 6fa9 37bf 2673 a83f d6b9 3ed8 b9fb a83f
000005b0: f8bf 06f0 2ffd 9e3f 81f0 da9c d652 b93f
000005c0: 6db3 7a3c 9d77 c4bf 7ef8 53cc feb0 873f
000005d0: a188 23cc daea 7ebf de9c 07fa 68ea b3bf
000005e0: 43f6 2c41 76de c2bf 0437 9a5d 26af 74bf
000005f0: 1d2c 2176 53ae b9bf f28b 63c3 652c acbf
00000600: a81d fe75 06ea a73f 7d66 bd4a 80e4 b3bf
00000610: 5905 89b2 5c99 a2bf 735c f287 77aa a73f
00000620: b93e 05d4 de05 ae3f 6de6 a5b7 396c 7ebf
00000630: 7399 dada e898 babf c985 23a2 1de1 acbf
00000640: 6bbe 6634 6169 b5bf 69c2 e948 8be1 85bf
00000650: 15ea e058 4122 663f 592d ab48 2a51 ad3f
00000660: a255 b6ef 8d6c 713f f92c 9d53 417c 7f3f
00000670: e26c 9366 1414 9bbf b6ad 91af ba70 a1bf
00000680: 1a37 a69c 51d3 acbf 0773 1f73 1a29 b2bf
00000690: 297b 0a88 e636 ab3f 84ce 8048 e6cb b1bf
000006a0: 5b3b ed6d 611f 9fbf bbe9 a18f 4895 91bf
000006b0: 03ed cbce 2be3 aabf 5495 41ad 66f5 b5bf
000006c0: 4ce4 a1ac 17c3 acbf 3f6f 8c73 5e11 b5bf
000006d0: 1a2e 36f7 0c8a bbbf eaf6 bf4e aa53 97bf
000006e0: 097e 6097 8bb2 94bf d7de 477c fb01 66bf
000006f0: f7ae 0bd5 5794 b3bf 7ad4 4303 d627 8cbf
00000700: 1b8f 16d5 036b 903f 4ee5 816e eae3 b2bf
00000710: f1c9 2644 07f9 b2bf e589 b605 8b36 a53f
00000720: c6e3 24b7 0341 963f 5cb3 5a19 db4c b23f
00000730: b10c 7fb1 62ca 5abf e5aa 99ed 1425 b43f
00000740: 265d fdcb 7f84 a0bf 0be1 1bc0 abc2 983f
00000750: 033a 6a28 5d0a 88bf 8c1d e680 e364 a0bf
00000760: 57fa 9af2 91bc 923f 78d2 2c86 c56d b0bf
00000770: 6a43 37bf 78fa 6cbf 6a6c f631 0871 a63f
00000780: a134 acd1 38ea 9b3f 4d68 aafe 9f06 9f3f
00000790: 7409 eba1 5288 9d3f 21bf b0ee a71e 853f
000007a0: e4f2 724e 84d3 ac3f 8b39 6e19 da2e 883f
000007b0: ccaf 19f5 c302 adbf a4e8 e1ac 6a91 aabf
000007c0: 1bd2 85cb 1507 a4bf d0e2 3e98 31b3 83bf
000007d0: 4da6 0bfc 7817 a9bf 8662 8930 9d0a ab3f
000007e0: 99fc 3f49 5c31 9cbf 1d16 2266 8540 a13f
000007f0: ed39 7b2a 6670 b0bf d723 566f bc55 a0bf

linear_afunc_stack.2.bias f8 [200]
-0.1319079962156325 0.006891376675522317 -0.022141502075100607 -0.07792426581858573 0.011890275994547499 0.048424677659266224 -0.07203408413617553 0.053934276353939124
-0.11595483824840157 0.04677874484930953 -0.09105753132782944 0.03377396352717244 -0.1576338965207722 -0.048527976953786287 -0.1462199355068547 -0.05028381678501252
-0.037562621873542604 -0.028769175290761773 -0.06275648448991486 -0.05149579824384161 -0.05121096120021527 -0.021758939415693374 0.0009034167652442058 0.04613608139816385
-0.12254211742302142 -0.06035354958297251 -0.1260264838402526 -0.044388181177272786 -0.012560392623688804 0.019894639483820687 0.02895183270449671 0.07494952028707742
-0.0990897687295673 -0.025612058253401074 0.014487133462877015 -0.08152999369746546 -0.08805262520400094 -0.15199748054618023 -0.17608207011278268 0.008846193397440168
-0.025711499012006978 -0.059410645375163114 0.0105876205755452 -0.04652969746867328 -0.08859628016770907 -0.02647266841326766 -0.05552997935886375 -0.00780823366977445
-0.12462393979861663 0.019116753006420264 -0.07058959377754408 0.03667842884427388 -0.0774206105731441 -0.062023554634015154 -0.04009394235751262 -0.07289748693787318
-0.05241338829079039 0.05805756256000372 0.06943427662157896 -0.006781470783541852 -0.02027036028772046 -0.0755767374903052 -0.07574048731218219 -0.12045982458926871
-0.08843134028340768 -0.10427312545013623 -0.10382724260852172 -0.29270658231060986 -0.06379885740412598 -0.09353441525903507 0.03358675224746491 0.061833460659663976
-0.05784710244869478 -0.09031621918770728 0.03995867825001975 -0.08155666852053951 -0.0337241444648447 -0.09214155521867792 -0.07958785114957478 0.028570145967012746
-0.05898299180109316 -0.06283838495837774 -0.07530963275220187 0.034508994376954386 0.013705598267357356 -0.02901530243369896 -0.08814348401112203 -0.04111271823577944
0.032257945585295426 -0.01913510050752044 -0.011231062149780705 -0.035468740294932646 -0.0298290246154744 -0.07760720393195622 -0.09190509449472346 -0.11899917896389543
0.04133772502692108 0.012294219940106677 -0.04848171592144727 -0.04864242552607922 -0.1056518309152005 -0.03785099520736716 -0.07444822338840894 -0.09700993342433907
-0.05709278440455524 0.06565699340888412 -0.01521545067320541 -0.10169480702401064 -0.15717342545934743 -0.026233242549778105 -0.05082653242945794 -0.10228842284410672
-0.09034699775384467 -0.1368313749985345 -0.07550612349740371 -0.02121780216202731 0.02458706763461074 -0.18635888487733185 -0.06905067273949127 -0.08215372922988148
-0.11838802379813318 -0.07000292848226254 -0.061544937343454245 0.014380812464325748 0.018234274911203906 0.005317379592384139 -0.011759317500559805 -0.05495722532710326
-0.09001178000181677 -0.020482173892736384 0.04221827097882885 -0.04674293913871322 -0.026322050343708707 -0.0691690515258029 -0.026459198188529497 -0.05640834477453163
-0.00035939947558260915 -0.03470764506458057 -0.09397196510361841 -0.17078670455496303 0.040004757928136944 -0.041806409613796246 -0.02595897766940277 -0.02443474056705042
-0.02505265575086362 -0.05505971765253879 -0.1354452220407796 -0.016802665630859363 -0.06505870982223576 0.03264229337940669 0.023845404583696626 -0.07083532054445309
-0.1635040634559022 -0.03835929676121845 -0.019292961284848305 -0.01110539733895028 -0.01235767924080756 -0.019265615279269954 -0.04152432263098271 0.03834771851566853
-0.020647065217619557 0.045845525993634575 -0.06463793718673168 -0.09477209052010449 -0.03113125409555644 -0.04722543429329041 -0.014507307778681575 -0.039686795417240246
-0.10325148302625375 0.04669248796109582 0.09047766180922019 -0.20825532824909615 -0.047869079057576716 0.018412276747739573 -0.07308364371167557 0.00277036782855122
0.03637942656822449 -0.0453679222575467 -0.06469204757959449 -0.16702056534938173 -0.02697454322293694 -0.07103993240639071 -0.1074754914873936 -0.035916068921090526
0.05192563213135571 0.02563758416663964 -0.17789011967663113 -0.06532061044316406 0.04100748526860803 0.052465304958059185 -0.09587533457443892 -0.033297877801154174
-0.03923008190810278 0.059886745471802214 0.045193291054095905 0.03608255677148568 -0.22083946249928 0.008563900960753225 -0.07999982915619389 -0.12379025580363658
00000000: 3bdc e978 5ce2 c0bf 09f0 21d7 213a 7c3f
00000010: 8aff 2f0d 43ac 96bf 6371 413d d8f2 b3bf
00000020: 3cc4 4bd4 ed59 883f f855 bb8d 1ecb a83f
00000030: 71eb 8f63 d370 b2bf 33ae 2502 469d ab3f
00000040: b700 175e 37af bdbf 3d2a 8d36 62f3 a73f
00000050: 9f86 1bdf 8b4f b7bf d16a 9c29 d24a a13f
00000060: 281d 26f7 582d c4bf 7e44 eab3 a8d8 a8bf
00000070: c638 83b8 55b7 c2bf 9628 38e9 ccbe a9bf
00000080: 2a6d ff70 683b a3bf cddf 06ac aa75 9dbf
00000090: 6e01 7f18 cf10 b0bf ea6b ad42 a85d aabf
000000a0: cd71 1ab7 5238 aabf 7883 beb4 f947 96bf
000000b0: 8390 0ebb 689a 4d3f 339a 8a01 269f a73f
000000c0: 6de7 b692 eb5e bfbf 3811 5013 a9e6 aebf
000000d0: 7c0a 43c5 a221 c0bf 797a f834 0cba a6bf
000000e0: 036c 595c 43b9 89bf 4d7d cba7 425f 943f
000000f0: 1514 809a 8ca5 9d3f f5df 7b4a e42f b33f
00000100: 3fcb 0f74 f25d b9bf 2190 5322 0c3a 9abf
00000110: c99b 7c23 6eab 8d3f 05de 9250 26df b4bf
00000120: 4900 94e9 9d8a b6bf 3c97 0248 a774 c3bf
00000130: cdef 4576 db89 c6bf 7153 b0fa f31d 823f
00000140: e002 8d7d 1d54 9abf 2956 d775 126b aebf
00000150: c856 ea60 f6ae 853f 5d69 d791 bdd2 a7bf
00000160: aa18 deed 3eae b6bf bc95 4ab4 a61b 9bbf
00000170: c476 96ea 6c6e acbf f9f1 04c4 86fb 7fbf
00000180: d0d5 bbc1 5ae7 bfbf 0786 df93 5793 933f
00000190: e364 b6dc 2812 b2bf e3aa b5d8 83c7 a23f
000001a0: 81b0 724e d6d1 b3bf 0833 7825 8dc1 afbf
000001b0: 7fee 6276 3187 a4bf 34d7 5be2 68a9 b2bf
000001c0: 97b9 2979 edd5 aabf 001d f688 b8b9 ad3f
000001d0: 2fa4 4fdb 71c6 b13f fdd6 be33 e3c6 7bbf
000001e0: e43a 0eda c0c1 94bf 05f7 db3f ff58 b3bf
000001f0: 382a fd83 ba63 b3bf 1ec2 177f 74d6 bebf
00000200: 466c 75b2 6fa3 b6bf 68f8 a8bf a4b1 babf
00000210: 48fd 6f13 6c94 babf a845 9663 b4bb d2bf
00000220: d3a8 1236 1f55 b0bf b989 9616 dff1 b7bf
00000230: 84a3 f664 4832 a13f 5ddc a9a6 a2a8 af3f
00000240: 97fa 5eaa 229e adbf 69a6 b5b7 f61e b7bf
00000250: d0e9 8cc0 7675 a43f 8d01 11d8 e5e0 b4bf
00000260: ecc9 1f83 4a44 a1bf fe4c 44c6 9696 b7bf
00000270: b8a9 d891 de5f b4bf d2f3 470a 7e41 9d3f
00000280: 06a3 9cc9 0433 aebf 9c66 5428 2d16 b0bf
00000290: 1496 bef9 7d47 b3bf caa2 88b4 29ab a13f
000002a0: 27b0 a442 ae11 8c3f 3828 25fc 2fb6 9dbf
000002b0: a7ea 2e45 9290 b6bf 8f6f 8be8 b90c a5bf
000002c0: 4765 a60a 1d84 a03f 83b9 8adb 2698 93bf
000002d0: a2ab 0fa5 4f00 87bf f2b0 316f f528 a2bf
000002e0: f7b8 c7f4 7f8b 9ebf 825e d2d2 10de b3bf
000002f0: edcc 309f 1787 b7bf a799 e6ed ba76 bebf
00000300: 3ad0 29e2 372a a53f ada9 9444 b62d 893f
00000310: 0554 ac70 98d2 a8bf ef4d aaf5 a8e7 a8bf
00000320: 3a16 8b96 ff0b bbbf a5c9 12a5 3461 a3bf
00000330: 1fd2 b2ec 090f b3bf 21d6 719b a4d5 b8bf
00000340: 61d5 b5f3 433b adbf 5ae1 718f e5ce b03f
00000350: 0655 4838 4729 8fbf 0d56 57be ab08 babf
00000360: ecf7 1241 421e c4bf 21ff 461b e3dc 9abf
00000370: 2772 1b6d ef05 aabf acf6 dff6 922f babf
00000380: 1e01 a518 fb20 b7bf c5bb 57c4 b083 c1bf
00000390: a0af 118b 5e54 b3bf c6ff 8399 1eba 95bf
000003a0: 87ad 942d 5a2d 993f 67ff eea1 9bda c7bf
000003b0: 6fd3 2e0d 4ead b1bf 6e6a 49dc 0608 b5bf
000003c0: 2078 7372 ad4e bebf 919e 7440 b6eb b1bf
000003d0: 22bf 3f6a d182 afbf 3623 cbf9 af73 8d3f
000003e0: 46bb a379 01ac 923f b000 3237 adc7 753f
000003f0: 3f9a b4e0 4415 88bf 54e9 ea7a 5a23 acbf
00000400: 11d0 5c13 030b b7bf 52c6 146c 47f9 94bf
00000410: 07a4 4b1a a29d a53f d4e1 d6c5 b0ee a7bf
00000420: 7e40 8fe5 2af4 9abf 89db 321e 10b5 b1bf
00000430: e3ab 97bb 1e18 9bbf e463 0ef8 8de1 acbf
00000440: d86f 6bfe b88d 37bf 1075 f250 33c5 a1bf
00000450: 9263 dcf4 8b0e b8bf f4dc 53b7 56dc c5bf
00000460: 8eb3 f8ed 807b a43f e3de 1b54 a667 a5bf
00000470: 56be 8280 fd94 9abf c1a5 7cae 6b05 99bf
00000480: aef9 8244 67a7 99bf 4d0f 4a8d c930 acbf
00000490: 0945 88df 4456 c1bf 510c 7bcd b734 91bf
000004a0: 23a7 0107 b0a7 b0bf ccdd 0f9d 7db6 a03f
000004b0: b630 6303 ee6a 983f c9dd 2379 4322 b2bf
000004c0: d931 a77e b3ed c4bf 368a 2c6a d4a3 a3bf
000004d0: 0fb1 0bb7 88c1 93bf e4fc 0933 6dbe 86bf
000004e0: 85c0 8ca1 fb4e 89bf e043 3f8e 5dba 93bf
000004f0: 4093 600f ad42 a5bf 2f51 cde9 4fa2 a33f
00000500: 71e3 7817 8124 95bf 2204 9f95 1079 a73f
00000510: 2544 4ca2 1c8c b0bf 987e 5bd5 fb42 b8bf
00000520: 0d41 e518 dfe0 9fbf 117d a89f ee2d a8bf
00000530: b815 b3e3 01b6 8dbf 89d8 cce0 d351 a4bf
00000540: 787b dc6e b06e babf 1008 86e9 13e8 a73f
00000550: dd38 7d46 8b29 b73f 2e18 0650 1ca8 cabf
00000560: ea77 15c2 4b82 a8bf 99e0 e7f9 aada 923f
00000570: c339 9d13 9cb5 b2bf f8ac 16e7 e1b1 663f
00000580: 042c b7fe 52a0 a23f 9e6b c4dc 763a a7bf
00000590: 0267 aa74 a88f b0bf e9ae f70c ee60 c5bf
000005a0: 0943 def3 369f 9bbf 673f 654a ac2f b2bf
000005b0: 6c54 0f89 8383 bbbf 8b7c d54a 9763 a2bf
000005c0: e116 a817 ff95 aa3f 8139 2d26 bd40 9a3f
000005d0: c775 257b 1ac5 c6bf 70af 9bfd d9b8 b0bf
000005e0: 0760 3de0 eefe a43f 5966 f081 bbdc aa3f
000005f0: 8c82 7d32 498b b8bf 4844 5d60 6b0c a1bf
00000600: b720 a11d f715 a4bf 06d1 87ba 79a9 ae3f
00000610: 16e3 2636 9323 a73f b645 94b2 6979 a23f
00000620: 50e1 8cae 7744 ccbf 07c3 6b54 f389 813f
00000630: 2254 e969 de7a b4bf c176 3ddc b7b0 bfbf
