data/models/ann_005_020.pth (torch, 659063 bytes, 8 tensors)

linear_afunc_stack.0.weight f8 [200, 5]
0	0x3fc3cd6ba2dc5202	0.15470643474749585
1	0xbfc048c59af1d7e0	-0.12722082200679008
2	0x3fc5622c830a2471	0.1670585288850677
3	0xbfdb58e3ce157b8d	-0.42730040669805974
4	0xbfac685ba638ea04	-0.05548368839341225
5	0xbfd74609320673a8	-0.3636496532943121
6	0xbfaad4bb5a9484b8	-0.05240426521982883
7	0xbfc05ee12bdfdfee	-0.12789549486456003
8	0xbfcc39a03d561afb	-0.22050860400141645
9	0xbfc427e2d6ee98c3	-0.15746722693183388
10	0x3fd41228a5517c15	0.31360832352032847
11	0x3faa7a9e9bcb15d1	0.051716763036477105
12	0x3fbec3861d6b67f3	0.1201709577393613
13	0xbfccbb59968cd7b3	-0.22446746684152927
14	0x3fa639a890be9e7a	0.043408649128932233
15	0xbfb949cc33ed1c40	-0.09878231303911011
16	0xbfc6278bf232f284	-0.17308186842082673
17	0xbf9aba103ea94eb0	-0.026100400757356368
18	0xbfc4dcd54ec3f96f	-0.16298929544423
19	0x3fbca815ab300429	0.11193976811775087
20	0xbfcb302fe9be161a	-0.21240805543145386
21	0x3fcf41cbe6269c87	0.24419544923623368
22	0x3fccf1c190f7c4aa	0.22612781122692144
23	0x3fc8b52b311dfba2	0.1930288305120174
24	0xbfd05ef89a2b46ff	-0.2557965760762357
25	0x3fb06f09e7b91104	0.06419431597993613
26	0x3f911c5ec0a50245	0.01670978594597929
27	0x3fd41ebdf3f12091	0.3143763429875515
28	0x3fdc44913c59ca2f	0.4416850175249775
29	0xbf93237c27388a93	-0.018690051931239692
30	0xbfc95e3286d208d0	-0.19818717558889043
31	0xbfaf7c8c601d8164	-0.06149710343629769
32	0x3f7554fa53ebe9a0	0.005207994311371783
33	0xbfa023ab97c9678d	-0.0315221426760238
34	0x3fc690c7929cd9fb	0.17629332217047974
35	0x3fcef70d7414a3f2	0.24191444557189318
36	0x3fc92325be341a99	0.1963851145485094
37	0x3fd4df6c32dd7342	0.32613663642205293
38	0x3fd90bb4debe910f	0.3913395095098772
39	0x3fcabf1f54a0624c	0.20895759231713595
40	0x3fd03e25d1f0f298	0.25379319669790723
41	0xbfc5d2ce3394cb5c	-0.1704957725392785
42	0x3fc2b2a52c0360ff	0.1460768189342687
43	0xbfd5d37982806b83	-0.3410323881559451
44	0x3fd0f2df5317faef	0.26482375254265283
45	0xbfa3228b6f7a75ca	-0.037372929914663525
46	0xbfbaf43713b4d3e2	-0.10528892737495668
47	0x3fd664240632e16b	0.3498621044668854
48	0x3fd4582fb9588f24	0.31788247204007036
49	0x3fd862587e413885	0.38100254373137715
50	0xbfcb96b880c39308	-0.21553713118841977
51	0x3fcd746dd2720eb2	0.23011563087140058
52	0x3fd1f858f269e735	0.2807829253502974
53	0xbfd8cb61c9318edd	-0.3874134506970515
54	0xbfadcdb312c27f64	-0.05820998767853672
55	0xbf528c0d98e05e9d	-0.001132024076928951
56	0x3fc9c79f5337675b	0.20140449107457922
57	0xbfd57a7ef9fcfb99	-0.33560156262313395
58	0x3fd60f4726190200	0.34468249054410194
59	0xbfd9a6325a1d70f8	-0.40076884079259356
60	0x3fad7a95c47587be	0.05757587454969791
61	0x3fc178cae7456bfb	0.13649879734552414
62	0xbfc8207bd2dee177	-0.18849132343690275
63	0x3fd39ac0d3c89dae	0.30632038766858727
64	0x3fd226815a7eb2a4	0.2836001762141598
65	0x3fc34372dc8a8f21	0.15049587029090453
66	0xbfd54dabc6894309	-0.33286566150950186
67	0x3fd0fffa082f3e08	0.2656235771109725
68	0x3fd584f344f17a2e	0.3362396405481459
69	0xbfd304813b4aad64	-0.29714995184141046
70	0x3fc33a6c3d9f9228	0.15022042283011783
71	0xbfa583fc30f05392	-0.04202259156605871
72	0x3f77302001a38855	0.005661129975324715
73	0xbfb5cf5bdd863089	-0.08519529493622903
74	0xbf7b3dbb64a80872	-0.006650669102329686
75	0x3fd5b8d2326a6a94	0.3394055836048804
76	0xbfb2ecef348945be	-0.07392783196089334
77	0x3fd71d66fd226a7c	0.36116957397613425
78	0xbf9ab9788c9f7127	-0.02609814031880933
79	0x3fd8e862e6712312	0.3891837358865341
80	0xbfcb2d69941e2e6d	-0.2123233769637979
81	0x3fca4a7f60303eea	0.20539848515226505
82	0xbfd6bdbcf36d6e65	-0.3553306939336152
83	0x3fd3875dce1939bc	0.30513711096582674
84	0x3fcb48f9d00c0c34	0.21316454561756049
85	0xbfc03790c1a4d354	-0.1266957231070146
86	0x3fb7dde4176c66fe	0.09322953769551742
87	0xbfc8d28445e312f4	-0.1939244595761448
88	0xbfc493e62df6170c	-0.16076352352336476
89	0xbfd0d8bffbc71e22	-0.2632293661849606
90	0xbfc9dba14372ff9c	-0.20201507371347993
91	0x3f96975da60921cd	0.0220617897596485
92	0xbfa2534eec8a8004	-0.03579184186423848
93	0x3faf9f80f013e1e4	0.061763791376453075
94	0x3fd212a6ba67026c	0.28238838389737597
95	0x3fd5104e161ec390	0.32912017975018504
96	0x3fd73e4fca0a80dd	0.36317820292062014
97	0xbfba31505ac94f66	-0.10231497017349298
98	0xbfaa60e69cb2fa4d	-0.05152054465132903
99	0x3fc352cca9afeb86	0.15096433911807255
100	0x3f9cb3c22d420298	0.02802947427017219
101	0x3fd2165a89078542	0.2826143587281714
102	0xbfc9fae5af78a3ff	-0.2029692751687264
103	0x3fd023542821aee7	0.25215629500483633
104	0x3fd5fdc358220c0e	0.34361346823442396
105	0xbfc16f56e3a144f4	-0.13621030916923582
106	0x3fcd987849ffbca9	0.23121551144820288
107	0xbfcbd09f17188bda	-0.21730412128189763
108	0xbfd040681ee1e6c6	-0.2539310742937285
109	0xbfd40bb50b81b667	-0.31321455119800706
110	0xbfc64b9959d8be05	-0.17418209921878272
111	0xbfa9f3b5659eb2dd	-0.050687473921561234
112	0x3fc76ecb34d321c3	0.1830686576779624
113	0x3fb7c3b975862a0d	0.09283026808967794
114	0x3f72381b3ff27151	0.0044480385251087365
115	0xbfc17a385b2e3859	-0.13654236271071588
116	0xbf982263b4a02f3b	-0.023568685435790142
117	0xbfbe0518822e1c9e	-0.11726525476670921
118	0xbfadff343f6002ec	-0.05858767770405912
119	0x3fc3e4fabe490ad7	0.15542539874339553
120	0x3fca1223c2b4cebc	0.20367857939856104
121	0xbf8be77f5ad4f171	-0.013625140151469069
122	0x3fc1c99fafde7e86	0.1389655693756035
123	0x3fc402c682b19d4c	0.1563346994546272
124	0x3fd011a4d351af8b	0.2510768951094568
125	0x3fae067e9afa9dad	0.05864329950173484
126	0xbfd48d972de51263	-0.32114200097956863
127	0x3fcc2acdc35fa694	0.22005626716354654
128	0x3fc3ce491ccfb133	0.15473283678819313
129	0x3fb0a50154318580	0.06501777940277087
130	0xbfd339058bd0d13b	-0.3003553262126563
131	0xbfcc20442643a64b	-0.21973468654987224
132	0x3fcc28c2a15a023c	0.21999390486236503
133	0xbfc97ff6d676c313	-0.1992176577746468
134	0xbf9f8625e70aaba7	-0.030785171724953788
135	0xbfa0ab5ec06f3f9b	-0.032557450285479926
136	0xbfca237fc63d7067	-0.20420834712683986
137	0xbf74b1b783fa8545	-0.005052296502669866
138	0xbfc33d2cf1b2f727	-0.1503044300242717
139	0x3fac7004edefd289	0.055542139096279426
140	0xbfbaa824bbb23d89	-0.10412816603115095
141	0x3fc7e9b266794389	0.18681936267469393
142	0x3fa251495e06adf1	0.03577641747264327
143	0x3fd8603084b5557f	0.38087094268606586
144	0x3fd0d52f7868dc08	0.26301180609465336
145	0x3fd2a44cfef6d875	0.2912781228909645
146	0x3fc8f31b82159e59	0.19491905071048413
147	0x3fd1fb0647578537	0.28094632117252466
148	0x3fd13fa7037525af	0.2695100339666067
149	0xbfbc2f926fe482f1	-0.11010089141610614
150	0xbfbeebb091e43fd1	-0.12078383981520281
151	0x3fcd5f48d57ccc3c	0.2294703524035827
152	0xbfc68fe00a973feb	-0.1762657214844688
153	0xbfcdccc36815d58b	-0.23281138021745237
154	0xbfc0bbf801cafca9	-0.130736351848076
155	0xbfa659bd25441d37	-0.04365340309055415
156	0xbfc486df7695eab6	-0.16036599436104887
157	0x3fd6c3d9628ed63a	0.3557036840896647
158	0xbfd70650451dba85	-0.35976034879323776
159	0x3f8ca440e1b57f31	0.013985163581935108
160	0xbfabe28d7e9778e1	-0.05446283502873129
161	0xbfc118030ee79c38	-0.13354528644342323
162	0x3fd28ba40847d63f	0.28977299507764437
163	0x3fbd4741a2caa906	0.1143685362282306
164	0xbfc783df4addcd49	-0.18371192126833538
165	0xbfa6790e9a86d51f	-0.04389234196006896
166	0xbfd59fe91858b887	-0.3378851640471869
167	0x3fcad0e75ed67aa6	0.20950023775818244
168	0x3fd231b76daf713d	0.2842844554086417
169	0xbf086ecd74622503	-4.6601910569663375e-05
170	0xbfd0996828796683	-0.25936321213303176
171	0x3fa99c9189195822	0.050022647844045545
172	0x3fa3c174cf262314	0.03858532932924255
173	0xbfa764788474c8f6	-0.045688406151741676
174	0xbfbe1ef34576cbf3	-0.11765976377391478
175	0xbfd2ef9ab7a2ff0b	-0.29587428982993974
176	0x3f9a4fded66dbb27	0.0256953066231588
177	0x3fd0b38ab6f86bdb	0.26095836513712606
178	0x3fd0c1b6ddaba64d	0.2618233837843931
179	0x3fce6d42d023f6d7	0.23770938075170164
180	0x3fa0ad5e7f036c70	0.03257270145851343
181	0x3f988afd3dc84646	0.02396770181264276
182	0xbfba28148a20f36a	-0.10217407581599294
183	0xbfc0b85613bb229b	-0.13062549556186273
184	0xbf7dcffc8b0cbc79	-0.007278429505091493
185	0xbfc2138c81732475	-0.141221583564661
186	0xbfd33f048f4298fe	-0.3007213019394753
187	0xbfac8e0ec758f290	-0.055771314463048616
188	0x3fc4931b18e89cfe	0.1607393142341848
189	0xbfa5f7212de190d8	-0.042901074267122474
190	0xbfc961af2945ecc8	-0.19829358592310187
191	0xbfd8249404e85f42	-0.3772325561453621
192	0xbfbc21dd6d752d0e	-0.10989173815066897
193	0x3fc6f501e24a30b7	0.17935203122431684
194	0xbf930bcb9ae5bd92	-0.01859968312186095
195	0x3fc143882571313b	0.13487340763311714
196	0x3fcba366f64de7d0	0.21592413927629517
197	0xbfd64f1e1815c7d3	-0.34857895233210207
198	0xbfb0fa97788164f2	-0.06632372562434677
199	0xbfc5099924de40ae	-0.16435541439250784
200	0xbfcac2f2f1979950	-0.20907437130444828
201	0x3fb96a69631e9b37	0.09927996320639641
202	0xbfa597d02e198266	-0.04217386782398051
203	0x3f9cae3de1041bf4	0.028008429392709602
204	0x3fc65198cc453262	0.1743651387609076
205	0x3f8b632f67619b20	0.013372774450727543
206	0x3faf43ddf526691e	0.0610646592860624
207	0xbfd770dba1231d1a	-0.36626330123950057
208	0xbfc2a6bf38f5942c	-0.14571371346679152
209	0xbfcac0af5f37edab	-0.20900528096522683
210	0xbfa9049c69643cd4	-0.04886330400960906
211	0x3fd0a21eb2d71d2c	0.25989501442787133
212	0xbfabec5aeb19a145	-0.05453762168764568
213	0x3fce04379a061a61	0.2345036985463649
214	0x3facc9eda3b1aff8	0.056228090507687456
215	0x3fc0114d397243a8	0.1255280046939593
216	0xbfd693225dbb2610	-0.35273036149428183
217	0x3fd3ba1b5b4ac8e9	0.30823406138655557
218	0x3fa3283093b4e451	0.03741599848803701
219	0x3fa23b97f067bfa8	0.03561091241488096
220	0x3fda2d8c7e611b4d	0.40903007833224053
221	0x3fd724ade0396a0a	0.361613720864313
222	0xbfcfe1c7017b1ad1	-0.24907767841633313
223	0x3fca91d4cb878ee6	0.20757541597333
224	0x3fd3e0595ee8ddf4	0.3105681826450273
225	0xbfd8e732a98ef057	-0.3891111999362286
226	0xbfc9195ced5c5e31	-0.19608651723750506
227	0x3fd5a17eb7eb2fab	0.3379818721848504
228	0x3fcda1aa072a99d5	0.23149609899446824
229	0x3fcb111982467b22	0.2114593397245353
230	0xbfd4b754546e8d80	-0.3236895393876793
231	0xbf863e571d3b11ec	-0.010861092166472873
232	0x3fd758f73154af16	0.3648050290819226
233	0x3fd65899fe3e1b3e	0.3491578085744783
234	0x3fd9b288ea6a0e67	0.4015219010545707
235	0x3f901ee56c4a8062	0.0157428595872492
236	0xbfcbbcfec7e3bf6b	-0.21670517692791277
237	0x3fc15997b1940076	0.13554664774710873
238	0xbfba7a3350d583ba	-0.1034271309231504
239	0x3fc8de09b43f8ee6	0.19427605916199936
240	0x3fd18c9665f4825d	0.2742057796149647
241	0xbfb1bf75e029d7c4	-0.06932770464649624
242	0x3fc634200bfc3aaa	0.17346573434084195
243	0x3fd86f3fc079010d	0.3817901019683781
244	0xbfce7af5bdbe77f0	-0.23812743916363344
245	0x3fd4c388d6434a6c	0.32443447994334096
246	0xbfd4fce541d5e41e	-0.32793551854371283
247	0x3fda20bd34cc9217	0.4082482352844478
248	0xbfd10f5608ed1234	-0.266561039654593
249	0xbfcc49bab5b4c760	-0.22100004074450919
250	0x3fd4c46f13941ac5	0.3244893733212105
251	0xbfd6e8674a84dcfa	-0.35793478276487145
252	0xbfda0c55b549aad1	-0.40700285629160954
253	0x3fd83ed4bad67daa	0.37883489843258167
254	0x3fc86a7f31a17afd	0.1907500259721572
255	0xbfb601e266872f74	-0.08596625331045776

linear_afunc_stack.0.bias f8 [200]
0	0xbfc204e84dccb559	-0.1407747630959573
1	0xbfb6a0ac84b97a40	-0.08838918915123717
2	0xbfd5ab9d2d326fb2	-0.33859948552867103
3	0xbfd75140974fcb7a	-0.36433424736531317
4	0xbfd7e720916d7af7	-0.3734818859283417
5	0xbfca0434525e2451	-0.20325330755102525
6	0xbf9f6671e110366e	-0.030664233552718682
7	0x3fbeace1af7bda16	0.11982546362182975
8	0x3fcaaaa120b80796	0.20833219621277682
9	0xbfc2e2d625c2bc17	-0.1475475010279019
10	0x3fc8cea3c0962f42	0.19380614188809814
11	0xbfb4df52fad9282d	-0.08153265594697308
12	0xbfcb939a8c4a6d96	-0.21544200754292991
13	0x3fcbe0bd9e032cf6	0.21779604163598493
14	0xbfca5369bfb87426	-0.20567056523660304
15	0x3fd35d31a9df2aea	0.3025631102470202
16	0x3f906bdc1324a8cc	0.016036451977165453
17	0xbf89b669869eb2c9	-0.01255495493008975
18	0x3fce57db11aa58f5	0.23705614435738878
19	0xbfc870dab59ced80	-0.19094404094526496
20	0x3fd4e71ea9fa0d20	0.3266064319543194
21	0xbfd4582c0c07ca8d	-0.31788159537169564
22	0xbfb5d9eac9c8596e	-0.08535640169461597
23	0x3f9f9daa0d69fb32	0.030874878948903013
24	0x3fc88a39775a48eb	0.19171827628867474
25	0xbfcb114e1bbb6bd7	-0.21146561006648198
26	0xbfcdb77abafe23ed	-0.2321618474054782
27	0xbfc96e7438714257	-0.19868328815438716
28	0x3f75900a66018302	0.005264320963846771
29	0xbfc535766cf9f057	-0.1656940490828471
30	0xbfd0c18a13cf2f89	-0.26181270536903206
31	0xbfdd16fb6ae3f459	-0.454527716050341
32	0xbfd9c989c0bd159e	-0.40292590925340643
33	0xbfcd3e5be0b7b558	-0.22846554253139106
34	0xbfdad3e5fbb5d970	-0.4191832502468946
35	0xbfa7a16c687a3a77	-0.04615343833312562
36	0xbfb8ead68c529451	-0.09733334470600254
37	0x3fbc7646c74c8835	0.11117975583741287
38	0xbfb21f5cb7aec02b	-0.07079104885519942
39	0xbfc3c8bd275afbd5	-0.15456356450701372
40	0xbfadbabed31951d9	-0.05806537939921314
41	0xbfbc3b33b120192a	-0.1102783496317882
42	0x3fd57e7fafa9047e	0.3358458724433787
43	0x3fd863143a26ef89	0.38104730299868855
44	0xbfb4b6389b766a1c	-0.08090547366592954
45	0xbfdca8933157f776	-0.4477889997359549
46	0x3fc92163cbefb068	0.19633147676302376
47	0x3fbd826c33437729	0.11527134181548306
48	0xbfcd6a5608fa407b	-0.22980761946064718
49	0xbfdc08ac740c04a7	-0.438029397322746
50	0xbfb959d70e792b74	-0.09902710059502146
51	0x3fcacd45bcd78379	0.2093894168929429
52	0x3fd599d7b9a06d45	0.33751481177906256
53	0x3fa665390a3e71a4	0.04374101877258177
54	0x3fd2d75db81b897e	0.2943949029851395
55	0xbfd6bca68463c817	-0.35526431015671406
56	0xbfcd9fe0d5de2e1e	-0.2314415973927319
57	0x3fc9cdeca1fd0dcd	0.20159681233972862
58	0x3fb805fa02a5b693	0.0938411957228829
59	0xbfd458f8a9f33a56	-0.31793037983599015
60	0xbfe0881b005b5255	-0.5166144377677236
61	0xbfc05965135e495d	-0.12772811361044037
62	0xbfd2dc2ce6f21ea5	-0.294688439877499
63	0x3fd9c380ea1c2999	0.402557591078812
64	0x3fd30c9e182fc7ad	0.2976451145360624
65	0xbfd6eeb88586fa3a	-0.3583203605630022
66	0xbfe069d84be03411	-0.5129205209683524
67	0xbfc05d47cf2ca294	-0.1278466950982603
68	0xbfb31260e566e973	-0.07449918366083867
69	0xbfc6f8c42374e48f	-0.1794667409065238
70	0xbfd09a808db7781f	-0.25943006362456517
71	0xbfded096fef28ec6	-0.481481312725219
72	0xbfe1b39b7c12b228	-0.5531747268010507
73	0x3fd051463f3f0713	0.2549605958594025
74	0x3fa6783b75add746	0.04388604938041722
75	0x3fbc60b279694a58	0.11085048164503897
76	0xbfd20a0c3773b66a	-0.28186326422915065
77	0xbfdc9a3809d68f47	-0.4469127746653964
78	0xbfd23cedf5445843	-0.2849688430009147
79	0x3fd1663369f2b1ae	0.27186284395682037
80	0xbfa1a2bb28359e81	-0.03444466462934504
81	0x3fd1aafb5396ac0a	0.27606089747376983
82	0xbfca3d070abe231c	-0.20498741173312218
83	0x3fd472f0b00a2419	0.3195153922211503
84	0xbfb8375539bea81e	-0.09459431323799136
85	0x3f9ce67934b082ed	0.028222936478530625
86	0x3fd453737f96cf4b	0.3175934549319563
87	0xbfc062a188af2d2e	-0.12800997900044692
88	0xbfb421a962f99e41	-0.07863863626845903
89	0x3fc4d336b19dd2ac	0.16269572899513685
90	0x3fc0c2913a56179f	0.13093772266819045
91	0xbfc40858e4258b70	-0.15650473728154735
92	0xbfd32bb1d28cb1a8	-0.2995419078968333
93	0x3fd3827a74aafefc	0.304838766034649
94	0xbfdd467bbfb5b537	-0.4574269649663906
95	0x3fb80686ad8d853d	0.09384958016518836
96	0x3fd2562796d86934	0.2865084622477696
97	0xbfc55cc451fa4b59	-0.16689352038209895
98	0xbfce8fa87618afa5	-0.2387590958254552
99	0xbfd1e8bb22603d25	-0.2798297725393744
100	0xbfda4483d55aba13	-0.41043182216063306
101	0xbfbf43d20ac3df82	-0.1221286083490423
102	0xbfde8167c91e3a50	-0.476648279575703
103	0xbfad954fd132bc60	-0.05777978352249913
104	0xbfb9253a0f399bd5	-0.09822428580956395
105	0xbfc17fbe5d1a09a7	-0.13671092554075168
106	0x3fd984625c24d3ed	0.3987050914614077
107	0x3fcb7e0efd1300ea	0.2147845016206767
108	0xbfa2e35020181ddf	-0.03689051048064206
109	0xbfd66d8387cbc289	-0.3504341913349341
110	0xbfcae08cb2b141d0	-0.209977710010675
111	0x3fb0d5aa2693ec9e	0.06576026384202513
112	0xbf3d1ba96e037f7c	-0.0004441536566570576
113	0x3fd5210aaed9da15	0.33014170718470953
114	0xbfd80ae604fc9ce3	-0.3756651924799838
115	0xbfdcd8ecf52eefbd	-0.45074008887945266
116	0xbfd630e8bfdce1d5	-0.3467351792965279
117	0x3fa34521d23a251f	0.037636811172953914
118	0xbfb699be5c2f4566	-0.08828344107248184
119	0xbfcb5806d048bf10	-0.21362385912060988
120	0xbfde4f0e36639898	-0.47357516585760484
121	0xbfa03e28ad0df2c1	-0.03172423470002662
122	0xbfc520a0a05dfb21	-0.1650582106630845
123	0x3fc7fa0d88c55da8	0.18731850794095561
124	0xbfccf59a972143fe	-0.22624523524657997
125	0xbf76f14e36eb49e5	-0.00560122063207522
126	0xbfca7e4e8eda9c0f	-0.2069795796898863
127	0x3fd7286bc4b0a340	0.3618421002197927
128	0x3fb8000640cde703	0.09375037271629698
129	0x3fd60d61fb5ee6fb	0.3445668177406415
130	0xbfdccc9975094cef	-0.44998775891617887
131	0xbfdc86c497d51710	-0.4457255823839299
132	0xbfdc382616c71c64	-0.44092704986946374
133	0xbfdecc5cbac9c95c	-0.48122328034437145
134	0xbfd2aca552d91fcf	-0.2917874630988963
135	0x3fb27c4725cdeba3	0.07220883057554643
136	0xbfd231cd2765beb9	-0.2842896351566924
137	0x3fc5a77c1482bc8f	0.16917372704981345
138	0x3faf14f02cf0cef9	0.06070662067977923
139	0x3fc944de267befc8	0.19741417769534864
140	0x3fc490b42318dfbe	0.16066600526550973
141	0xbfd9a57516bfba0c	-0.40072371694159936
142	0xbfda2fdd8392148c	-0.4091714653844256
143	0xbfd9f5dd89860c95	-0.40563143186609213
144	0xbfcd7349f8345e78	-0.23008083934177015
145	0xbfad727313910d31	-0.05751380552149
146	0xbfd8a5348eff1f22	-0.3850833317232959
147	0xbfb969876b5a77c8	-0.09926649447376612
148	0x3f9bd0165f61c124	0.02716097790875084
149	0xbfa39f4cfc3f713a	-0.03832474307248153
150	0x3fd1a86ab9af9d78	0.2759043515529451
151	0xbfc9f60d257c19ae	-0.20282139139471894
152	0x3f9560c8d54cfa90	0.020877016085473488
153	0xbfd5c61f7bd6ec39	-0.3402174672480132
154	0xbfc54c2078027da1	-0.16638570651865073
155	0x3fb7b746e3f8dcca	0.09264033380246697
156	0xbfd0850e142b02c2	-0.2581210324242812
157	0xbfc541f80b88ff29	-0.16607571185340333
158	0xbfd9c45e828c791c	-0.40261042355440835
159	0x3f60106ab9acafeb	0.001960953185877292
160	0x3fd048355b9133b4	0.25440725271328835
161	0xbfd1103cfcb56314	-0.26661610296791705
162	0xbfdee1c5d36e1389	-0.48253007552585153
163	0xbfd0270c61c02e65	-0.2523833231541402
164	0xbfd9ce813ead409e	-0.4032290565564923
165	0x3fc05e8fc79fe935	0.1278857922296283
166	0xbfdbc077a939ada6	-0.4336222794142607
167	0x3fd9580f0891e2b5	0.39599967800999575
168	0x3fc4c6376b80dc59	0.16229908703982934
169	0x3fbe5bda42c58ff4	0.1185890591637529
170	0xbfc91bb139fe99c5	-0.19615760165943477
171	0x3f951625491589fc	0.02059229143686457
172	0x3fcf05229b469644	0.24234421331236622
173	0xbfc92dd964dbb58f	-0.19671170639723498
174	0xbfc8e04ba2e7c6c8	-0.19434495405544383
175	0x3f99718f2251560e	0.024847256154620516
176	0xbfc401e5f05aca5b	-0.15630792842928795
177	0xbfcc85fb1f73a660	-0.2228387740681681
178	0x3fc92b303b4659bf	0.19663050550725633
179	0x3fc3d97b719cb753	0.15507453010053016
180	0x3f944d75ec6ef4dc	0.019826738887549364
181	0x3fd270954a0530e8	0.28812153080504155
182	0x3fcadd625d3b1f55	0.2098811106900437
183	0x3fc4eeba31482d76	0.16353537947029978
184	0xbfd9fd7f80e14185	-0.40609729371956177
185	0xbfc84c43981d5af2	-0.18982739379381247
186	0x3fc38617f44ec65c	0.15252971104705437
187	0xbfd9c9b8b6fbaae0	-0.40293710584107423
188	0xbfdabd55c2b6f5ee	-0.4178060914526601
189	0x3fc07caabe78cf43	0.12880453396211963
190	0x3fc210f6892f6f28	0.14114267061710817
191	0xbfca7cf8bab6a720	-0.2069388305365516
192	0xbfdf3502a6fab8bf	-0.4876104956300757
193	0x3fd2700d3cc31ac7	0.2880890935306692
194	0x3fbe8868ee479c01	0.11926894967437819
195	0x3fccb13e0e03ea8a	0.22415900883045864
196	0xbfd64cad40c40302	-0.34842997860691594
197	0xbfa5e1a270dd31a5	-0.04273707988486145
198	0xbfd5593a8e53401c	-0.3335710897345068
199	0xbfb4b44823aca70e	-0.08087588187177294

linear_afunc_stack.2.weight f8 [200, 200]
0	0xbfb0037547c259ab	-0.06255276681836246
1	0xbfb5e11532f3ce00	-0.08546574109987404
2	0x3f58e51da1158071	0.0015194691989890675
3	0xbfb8a0ee99d430a6	-0.09620562797153073
4	0xbfbead181abf4540	-0.11982870724684336
5	0xbfb7728e4749cf69	-0.09159173241078879
6	0x3fa2326f6fb42a03	0.03554104078837741
7	0xbfb263bd7c899535	-0.07183441439118073
8	0xbfb26fd1341f1376	-0.0720186950921525
9	0x3fadb6a1e14f107a	0.05803399920799364
10	0xbfbbb676539123b4	-0.1082529024144055
11	0x3fa2166315388867	0.03532704958003379
12	0xbfa0569e4bb3d006	-0.03191084550954319
13	0xbfa198712c391aab	-0.03436616577942194
14	0xbf86c29f98746a31	-0.011113402214097597
15	0xbf9843141dff288c	-0.02369338448605922
16	0xbf8848b326d3d553	-0.011857413885517564
17	0xbfa1aa83edc24907	-0.03450405385332727
18	0xbf825fb47112734d	-0.008971605015455042
19	0x3fb1fe59bd2daff8	0.07028733128180409
20	0x3f61a93f843fa2eb	0.00215589910111579
21	0xbf971dbbc6013466	-0.022574361763237148
22	0xbfa8f2d772addca5	-0.04872773432628578
23	0xbf8ba9a0fc88f024	-0.01350713511157415
24	0xbfb192c7eaa0f78f	-0.06864594915620457
25	0x3f6bdfd08a71bdbd	0.003402621561285206
26	0xbfa3a2e488102d82	-0.03835214768340746
27	0x3f724c9b8f304aa2	0.00446759000171207
28	0x3fa72c77e06acf8d	0.04526114096134313
29	0xbf97ce0a4745a3d9	-0.023246918296908923
30	0x3fb15755399ac155	0.06773884445533913
31	0xbfb9282d36caf7fc	-0.0982692965289686
32	0xbfb59f77a30721a5	-0.08446452837154668
33	0xbfae6970b87ce6ab	-0.05939819576310631
34	0x3fb5fb2a189e7ded	0.08586371518185106
35	0xbfb6ad1fcbe85f41	-0.08857916572776238
36	0xbfb0738b45e03ab2	-0.06426306205706103
37	0x3fa8d89a7bd97bb9	0.04852755319438224
38	0xbf9302f204e6993f	-0.01856592326080286
39	0x3fa0264c730ff6da	0.03154219536371068
40	0x3f8875e64134740b	0.011943625321288584
41	0x3faaaed21ccde7e1	0.052115026489403034
42	0xbf72a4cb8cec1b2f	-0.0045516921225104276
43	0x3fa01e4a43e4601c	0.03148109511147387
44	0x3f9f5c02b83a5464	0.030624430174232123
45	0xbfb8ddae6b43d01c	-0.09713258856555779
46	0xbfb97e86f55b7de4	-0.09958690157099387
47	0xbfac206bc104685b	-0.05493485194365696
48	0xbfbb3610c6aa5bfa	-0.10629372453909972
49	0xbf9e16d864b54243	-0.0293840228526412
50	0xbfc62340c83d3fde	-0.17295083787257587
51	0xbfa9d3614b577c5b	-0.05044082684229841
52	0x3f79ca6c575e1eec	0.006296561439633069
53	0xbfb2f6a4e98357f7	-0.07407599164011446
54	0xbfa443f1a8493cb9	-0.03958087138436767
55	0x3fb3eeb829f06076	0.07786131881619149
56	0xbf9f612561d3addb	-0.030644020172003166
57	0x3fa038cd4d757fb6	0.03168336458725156
58	0xbfa587f4eb217d40	-0.04205289240121113
59	0x3f847e87e90dcae5	0.010006963538875488
60	0xbfbfd58eb4bceca8	-0.12435237801121224
61	0xbf981df280364da3	-0.023551739764639767
62	0xbfa130e720119cd5	-0.03357622400727115
63	0xbfb603e42d73b8ea	-0.08599687680882409
64	0xbf9f572ef43caef8	-0.03060601583199138
65	0xbfb9f642efd0c4e6	-0.10141390185232843
66	0xbfb8a95f8ff6ed0e	-0.09633443131217609
67	0xbfa6d47bd730c0b7	-0.04458987237774308
68	0xbf91dc09616c4a0b	-0.017440935679653474
69	0xbf828f71bfd5dec0	-0.009062660853245474
70	0x3fa5dba2012e1fd4	0.042691290515960795
71	0xbf67d909d49738cf	-0.0029111091614374206
72	0xbfb9f505d7ef7ed1	-0.10139500161994454
73	0xbf82b765361dbee3	-0.00913886138343351
74	0x3f9be363eb52487c	0.0272346126917644
75	0xbfab352143f1a18b	-0.053139724296502676
76	0x3fb61d40f5d37fad	0.0863838768159428
77	0xbf8922d0dc5354b8	-0.012273437236596116
78	0xbf889ea26087f7d7	-0.012021320887466587
79	0xbfaea30ecb6b7988	-0.05983778222229136
80	0x3f9a1b2bfdd58e06	0.025494277351198157
81	0xbfbf57695d04411e	-0.1224275447932581
82	0x3f8209c0c73bd037	0.008807664947632172
83	0xbfb66f5fef1ab950	-0.08763694369802022
84	0xbfa035ce34a8a333	-0.031660503318852305
85	0x3f9729f3a2833240	0.02262097052953238
86	0xbfaa6ff939f6142d	-0.05163554031882032
87	0x3fb1f1b9c049ce03	0.07009468979395454
88	0x3f9162e9b9dedf38	0.0169788856216819
89	0xbf917ca1db06f4e7	-0.01707699679694921
90	0x3f74d08e5d8ef2d1	0.005081707110488679
91	0xbfc1b1b83953b183	-0.13823607253233314
92	0x3fb69891bbda3d8f	0.08826552234881134
93	0xbfa403f0f4ab231f	-0.03909256922412951
94	0xbfc0581c58a55338	-0.12768892601402526
95	0x3fb731118467cd74	0.09059247477107651
96	0x3fa4b00257d5cdc2	0.04040534326750446
97	0xbf88b0518399734c	-0.012055050686450429
98	0xbfb192d08b214f11	-0.06864646336299197
99	0x3f7711b09b42fe39	0.00563210474882641
100	0xbf54301f3c7bf9bf	-0.0012321763078372153
101	0x3f8748a36039cb0a	0.01136901509673784
102	0x3f97cbd1821c2f8d	0.023238442961016004
103	0xbfb7ea554c10e944	-0.09341939074594047
104	0xbf7aa47380f0e663	-0.006504489122613674
105	0xbfb6e0b9aa9d5a2a	-0.08936653533360386
106	0xbf91f0c10d69315b	-0.017519966548478077
107	0xbfb745ac7b08bffd	-0.09090688709034107
108	0xbfac1fe6a6a4ee77	-0.05493088516456351
109	0xbfc04e7c060f8672	-0.12739515586786215
110	0xbfb71ab0ca9dde31	-0.09025101610847554
111	0xbfa1ec7644adba38	-0.035007186778660715
112	0xbfb2cc7d8ce51760	-0.07343277635399437
113	0xbfa9f231d2f4e4d7	-0.050675923348941936
114	0x3fb3d8f139cb0515	0.07752902661288304
115	0xbfb3d18c0bf01813	-0.07741618434383239
116	0x3fa76bbba915947d	0.0457438129331331
117	0xbfa26f14bfb7c7a2	-0.03600373115831636
118	0xbfa7caa3f099a196	-0.04646789848340231
119	0x3fa89208f15253f9	0.04798915811367261
120	0x3faf27875c1a3313	0.060848455422364854
121	0x3faa90a3cace1b30	0.05188476420067045
122	0xbf8d258546938c38	-0.01423172113067582
123	0x3f9e86f2d42e217f	0.029811662865115714
124	0x3f972c4c468fae4f	0.02262992077514375
125	0xbfb3281bfc161109	-0.07483076958130054
126	0x3faf01d93541fbbe	0.0605609776985072
127	0x3fa99db36e1a53d7	0.05003128737477141
128	0xbf9c89f2b5a120ae	-0.02786998017862235
129	0xbfa395a39ca5cc84	-0.038251030799892255
130	0xbf801a9711c7f275	-0.007863216619619732
131	0xbfb7ce53f43b8c28	-0.09299206459722653
132	0xbfa67f65c7c09c95	-0.04394071639426859
133	0xbfbf1e7e5fe2f205	-0.12155904618243348
134	0xbf94301ff1be2ff5	-0.019714831476036882
135	0xbfbf2e5bc511a906	-0.12180112420324826
136	0xbfa79eea9d124e7b	-0.04613431136490661
137	0x3faaa9b6ffafeb80	0.052076071464361995
138	0x3f843ec8bd2f15f3	0.009885376237330745
139	0xbfa21397ead17c58	-0.035305735983222675
140	0xbfadf4525cac652f	-0.05850465184466668
141	0x3f8748f571d97da7	0.011369626557267433
142	0xbfb66ed0d8931f06	-0.08762841498821325
143	0x3f77153ca01a92ed	0.0056354873828794285
144	0x3f617e74ecbc2b32	0.0021354945837449785
145	0xbf9deeb1ccf38dc2	-0.029230859884490597
146	0xbf933227f57a2630	-0.01874601779721824
147	0xbf50cab04954cc93	-0.0010248872325291688
148	0xbf9ce011f64a08ff	-0.028198509843158522
149	0xbfb93235c9516613	-0.09842239537228918
150	0x3fa5f8de0e426d85	0.042914332619342445
151	0xbf678d0e941c63d0	-0.002874878381487346
152	0x3f9a408ad8910773	0.025636834591075307
153	0xbfa1a159c0758e7e	-0.0344341323314241
154	0xbfb5fd8c0bc0448f	-0.08590007101908469
155	0xbfa0be4c14189471	-0.03270185227692302
156	0xbfb01f138cb6c57e	-0.06297418771170801
157	0xbfad9baf98d7de13	-0.05782841435205568
158	0xbfc2164550a0a756	-0.1413046497048593
159	0xbfa4d267c1c719cf	-0.04066776504946611
160	0xbf8dad0cbd81ff6a	-0.01449022248584671
161	0x3f9f9247c24c6f68	0.03083145259289158
162	0x3f5454bb35a68df8	0.0012409046381457439
163	0xbf94b123a2bae9f8	-0.020206982428797787
164	0xbfb994a1ceee0a4b	-0.09992419530866774
165	0xbfb15523bbcd4be0	-0.06770537695892598
166	0xbf876de8571b0c9e	-0.011440100820783446
167	0xbfa5bda57843d183	-0.04246251195027908
168	0xbfa4aab06b90e959	-0.0403647548013903
169	0xbfb440b5c3628e7b	-0.07911239643231653
170	0xbfbbccee0e0fe57c	-0.10859573214829327
171	0x3f9170b16a420b57	0.017031452284310102
172	0xbf6af669c599d2f2	-0.003291327081394229
173	0xbfb9f84674918a62	-0.10144462915335731
174	0xbfba7f290394b845	-0.1035028108351251
175	0xbf82362f1f511c6c	-0.00889241041489993
176	0xbfb42eddaff00f1a	-0.07884011788706538
177	0xbfa6881b77ba2040	-0.04400716625701806
178	0xbf7d61d02a01d3ea	-0.007173360005357824
179	0xbfb4ee8e726702c5	-0.08176508229281428
180	0xbf948f75b343affb	-0.020078505579405697
181	0xbfb06226fa8ef102	-0.06399768464229186
182	0xbfa6a796364141b1	-0.04424733555117955
183	0xbfb8ca3968fb93e3	-0.0968356972985727
184	0xbfa4a1a2c9b87137	-0.040295683979112366
185	0xbfb6cb5d85dd5fbd	-0.08904060857946568
186	0xbfb54bddeb01a53c	-0.08318888652288065
187	0xbf98ec5a293172c5	-0.02433911205695229
188	0xbfc61b21e2389aa0	-0.1727030138583432
189	0xbfb11a8e4b50cc77	-0.06681145991096736
190	0x3f9127255c6d5323	0.016750892416285922
191	0xbfb678c66acb6ecd	-0.08778038127223482
192	0xbfb37ad25271f4a5	-0.07609285843678266
193	0xbfb0937d16b722bb	-0.0647504978616195
194	0xbf9066883e69c691	-0.016016129311941688
195	0x3f98aafe6645524a	0.02408978938304277
196	0x3fa0029e335deb88	0.03126997353589106
197	0xbfb6ffa916d83de7	-0.08983856971484948
198	0xbfb515fa84e251b3	-0.08236661667098737
199	0x3f7c770b7f4f5040	0.00694946757444731
200	0x3fc178893252338b	0.1364909644802562
201	0x3fb54ae647d2a70e	0.08317412618148642
202	0x3fc010a93b0c657d	0.12550845511649902
203	0x3f95623d5d18acd5	0.020882567221787014
204	0x3fa13e977c9b2165	0.03368066211766311
205	0x3f8efc67eed3641d	0.015129863716014264
206	0x3fa1704dc384c1f3	0.03405993472768278
207	0xbfaeb3e9eaf578a2	-0.05996638291502278
208	0x3facb3511ff9df6a	0.05605557933171108
209	0x3f97ba1b974713f4	0.023170882328276535
210	0x3f8680fabd2b6d75	0.01098819627571033
211	0xbfaf6d6d94b89a67	-0.061381744770461925
212	0x3fb06aa0bbc4770f	0.06412701210180337
213	0xbf897f375a5c2486	-0.012449676938120168
214	0x3fb0a6a5607b085f	0.06504281621440232
215	0x3fb8e8bc6491b600	0.09730126815130546
216	0xbfaed58f0a6caf75	-0.0602230739808353
217	0xbf9f34b468e20f1e	-0.030474490071824005
218	0xbfbbf9b8c0f5cff9	-0.10927920065824982
219	0x3fb65cfa38b45f43	0.08735622295750738
220	0x3f925a1f7520fd4c	0.017921916507700517
221	0x3fa84eaf4e31197d	0.047475317282578346
222	0xbfa1d1be0caacca1	-0.03480333237293932
223	0xbf92a9a985cf1de4	-0.018225334922844186
224	0xbf84767363016c6b	-0.00999155183688157
225	0x3f96156064475659	0.02156591999103905
226	0x3fab913fa8914f40	0.053842534377194884
227	0x3fa7a1ff7a58b5c0	0.046157821354749995
228	0xbfb08c36d9a444b1	-0.06463949979321872
229	0xbfa0e0fa9758397b	-0.03296645257443039
230	0x3fa13815de66910f	0.03363102283336349
231	0x3fb6518f1c3e596d	0.08718199195422978
232	0x3fa5bbf0fc1c9de6	0.04244950368439131
233	0x3fa42484abc0b229	0.039341112104328176
234	0x3f992eceef61eb56	0.024592622147319908
235	0xbfb960862abf2426	-0.09912909072512885
236	0x3fb5eb80d3d3abbe	0.0856247441439981
237	0xbfa2f5a526d3cd21	-0.03703037356344852
238	0xbfb5464dabb40d72	-0.08310399476981958
239	0xbfa99e717d85b1da	-0.05003695161107986
240	0xbf87be4c298d2ac4	-0.011593432443665626
241	0x3fb2782aabb3a166	0.07214609805999359
242	0xbfc0e5a1314a2155	-0.1320077410384878
243	0xbf9e82d4164a5efc	-0.0297959459881829
244	0x3f76e365dce32294	0.005587957288476848
245	0xbf72a5c4741cffc2	-0.004552619358776102
246	0xbf9a2c0624f4ec27	-0.025558563237819378
247	0x3fa4fc33f80da247	0.040986656217516564
248	0xbf8f513fa7567c88	-0.015291688246007476
249	0x3f94e1bb98408ff9	0.020392352264153122
250	0x3f8411ed0cab8d68	0.009799816083108495
251	0xbfb74ddcc122912c	-0.09103183474741589
252	0xbfa38cda589c89d7	-0.03818399745638928
253	0xbfb4f8a6982d831c	-0.0819191094901836
254	0x3fab660c6b01ab53	0.05351294332725467
255	0x3f928ed9c656b2ad	0.018123057108527508

linear_afunc_stack.2.bias f8 [200]
0	0xbf926c90e0e6c22f	-0.017992271162883874
1	0xbfb3120c3deadfcc	-0.07449413787514841
2	0x3f9bb95dbaf2050c	0.027074303183785495
3	0xbfaa60c9fde2e0ce	-0.051519691698048584
4	0xbf95fe3025ac0a94	-0.021477463054007176
5	0xbfb906ae029a5cb2	-0.09775817454861871
6	0xbfb691af954ef0eb	-0.0881604899904606
7	0xbf8d8333106c05b3	-0.014410399378450877
8	0xbf90fa4d497d7483	-0.016579825983502616
9	0x3fa0c48b06515479	0.03274950458641341
10	0x3ee97157503c7152	1.2132043145700895e-05
11	0xbfad56e33cfe7e42	-0.05730352515751892
12	0xbfa5f8cd00799310	-0.04291382437512514
13	0xbfb31f575f36aa59	-0.07469698023366202
14	0x3f933268b514be39	0.01874698262434846
15	0xbf93c15e0f435b8f	-0.019292325669848117
16	0xbfb957f585f36a61	-0.09899839897426822
17	0xbf95908901059f42	-0.021059170424819536
18	0xbfa7b92916495549	-0.04633453747798428
19	0xbfbae761d7cb4b1b	-0.10509311216746335
20	0xbfa9c67fc56adaf4	-0.050342552994541295
21	0xbf8044a35a4d3b44	-0.007943416779793495
22	0xbfb9a1bb500fdd29	-0.10012407974851513
23	0x3f830cc0360fcadc	0.009301664018470594
24	0xbfb01d31c59dc417	-0.06294547152153061
25	0xbfc445d228042d6d	-0.15838076547548088
26	0xbfa9eab8116462af	-0.05061888897234234
27	0xbfc828d4f5ac912d	-0.18874608989529787
28	0x3fa5b38d94c4bafc	0.04238550606748068
29	0xbfc44ae4f9bd32d6	-0.15853559679307833
30	0xbfbabce55c18baf7	-0.10444482325031489
31	0xbfb9d1f52a154783	-0.10085994985027295
32	0xbf76a4b242a1438a	-0.005528160409156943
33	0xbfc3bec9892b580f	-0.1542598647853883
34	0xbf989645bddfc450	-0.02401074382209273
35	0xbfb1d7a6373d9fd6	-0.06969679688120264
36	0xbfb4f66bdf95cfe6	-0.08188509186385282
37	0xbfa3ccb11e4c869e	-0.038671050022697204
38	0xbfa3c51a528b5b72	-0.03861315019246704
39	0x3f7603e4f56f43e3	0.005374807710681192
40	0xbfa241e39ec3ed01	-0.03565894425443084
41	0xbf9886b3e799bd7f	-0.0239513502223736
42	0xbfbb24152d7737c0	-0.10601932868959718
43	0xbfb6bbb6f13242ca	-0.08880179775793376
44	0xbfc27539db42df17	-0.14420245367158976
45	0xbfad1580d1c90a97	-0.056804681404647166
46	0xbfbb5ed62c324d43	-0.10691584185615448
47	0xbfc2ea2e9688c789	-0.14777166700656277
48	0xbfbef90f89f72beb	-0.12098786466883353
49	0xbf9682bb743ecc7c	-0.021983078928041952
50	0xbf843d9eca205fb5	-0.00988315634099011
51	0xbfb858ecf1802d1c	-0.0951068963624277
52	0x3fab9f69eccd6fe0	0.053950605541757346
53	0xbfb22edb08ac13cb	-0.07102745973322937
54	0xbfa3c402134366ae	-0.03860479817531136
55	0x3fb2103e112fbf20	0.07056034011452228
56	0xbfc3cdac28327287	-0.15471412623164246
57	0x3fa944c228d4199d	0.04935271023173302
58	0xbfa6f7ea510837d6	-0.0448601936260357
59	0xbfb1b68be1aebfbd	-0.06919168720082687
60	0xbfaf634cb69f413b	-0.06130447129510449
61	0xbfb620a21d3006f6	-0.08643544399822276
62	0xbfc1b8cc9a6e5d4c	-0.13845212498265835
63	0xbfaf32191da2770f	-0.06092909323454709
64	0x3f7c01f8a1551c5a	0.0068378173940067625
65	0xbfafb48bfab913c6	-0.06192433772643073
66	0x3f96d60d87817fd3	0.022300921817418228
67	0xbfc6db1dbb81c527	-0.17856189399348318
68	0xbf7d67246cf6a582	-0.007178442275667664
69	0xbfa68caff82784d4	-0.04404210952976376
70	0xbf9297915ba1024c	-0.018156310288988828
71	0xbfb1be92705bbc63	-0.0693141483604776
72	0xbfae5b94d2d3d5e4	-0.05929246018960635
73	0xbfc9220122ff45ad	-0.1963502331623607
74	0xbfc276d43127eef5	-0.14425136947817632
75	0x3fa9a6fffda8c35d	0.050102233614217374
76	0xbf6df7ebc9ba710c	-0.0036582570299527103
77	0xbfac6b63c2317be0	-0.05550681825183523
78	0xbfa78a14f4ca7043	-0.04597535598915716
79	0xbf9c674c7c0d7569	-0.0277378035274202
80	0xbfa99e0d7f14b305	-0.05003397156028736
81	0x3faca380f72e0832	0.0559349347813768
82	0xbfb4938bbd0f57a6	-0.08037637105675674
83	0xbfa93e57d80915a6	-0.049303765412825926
84	0x3fb308ffcf93cb03	0.07435606782727792
85	0xbfbc1d6ddaf879e3	-0.10982405277216105
86	0xbf8394855ec8e199	-0.009560625033473257
87	0x3f82c85c105ccdca	0.009171218156189282
88	0xbf771dd46e40ff5e	-0.005643682296124412
89	0xbfbf04c73b2a690c	-0.12116666025614026
90	0xbfb426863f863307	-0.07871283579715903
91	0xbfb825f9ab8bc11d	-0.09432945669300748
92	0x3fa1cc8ff6861985	0.03476381191562709
93	0xbf896e212e755cc2	-0.012417086820887827
94	0xbfb0985273734d8a	-0.06482425039876297
95	0xbfb3faa0e12cf287	-0.07804303643656328
96	0xbfc728208af27a15	-0.18091208252458615
97	0xbfa6303fdbbfbbe9	-0.043336864065956444
98	0xbfa8764f769ce547	-0.04777763674651197
99	0x3f8a74704492f14e	0.012917401402199016
100	0x3fa0c71bfcd34316	0.03276908360715518
101	0xbfb9517eb34a083c	-0.09889976384332128
102	0xbfc2ef645f8c5676	-0.14793066659392523
103	0xbfb5ff157b604d11	-0.08592352163423224
104	0xbfb899f5289d9bbd	-0.09609920732110218
105	0xbfc2d7b4ab6b3e1d	-0.14720781679214748
106	0xbfc49f7931632da1	-0.1611167422437179
107	0xbfbacd3954f012cd	-0.10469396899868429
108	0x3f7c2e93d21b906a	0.006880357193697598
109	0xbfbc95ceebce0f95	-0.11166089302974876
110	0x3f804515696321ab	0.007944266585028744
111	0xbfba9d090b1f233a	-0.10395866891407204
112	0xbfc1ef334b80e3c7	-0.14011231600468774
113	0xbf90eed0b66c3e03	-0.01653600800915279
114	0xbfb9c2dd8cddbc86	-0.10062966050257857
115	0xbfae08b9e00fbf39	-0.0586603246700847
116	0x3fa1b5d4de80bb62	0.03459038940524441
117	0xbf8771b240453d23	-0.011447327219370756
118	0x3fa6186137284b6e	0.04315475271518819
119	0xbfb07842fb486003	-0.06433504710037145
120	0xbf99090c215368df	-0.02444857552914292
121	0xbfbb28ca48619a94	-0.10609115855332113
122	0x3f88c8d4ec40be5f	0.012101806125513535
123	0xbfb228f1b0b9aed0	-0.07093725742896173
124	0xbfc358284e32c664	-0.15112785166052156
125	0x3f917e5ae4260774	0.017083568739969704
126	0xbfaf99fd029a4a74	-0.06172171265383933
127	0x3f9856daf0a4e41e	0.02376882642531452
128	0x3f7a3ac4c84a783e	0.006403702431866219
129	0xbf93a2924560afc1	-0.01917484806487813
130	0xbf9fb43d4e970704	-0.030960996553182532
131	0xbfa25271a79394dd	-0.03578524752246335
132	0xbf8f6817068fed5d	-0.01533525456215184
133	0xbfa5dbae617eb661	-0.04269165935634756
134	0xbf8081a29a3359a4	-0.008059759455517242
135	0xbfc0c82f1a454356	-0.13110913069479108
136	0xbfbccd58b5e60ef8	-0.1125083393181362
137	0xbfc5ef5bd3ec5aac	-0.1713671479016815
138	0xbf59fb8d668c3913	-0.0015858536591540392
139	0xbf84dea6fa2bbe07	-0.010190300473794002
140	0xbf7cc057eeb08dbe	-0.007019370542397705
141	0xbfc18a5fa7c20ae8	-0.13703532878215374
142	0xbfbbb97f6fc09cd0	-0.10829922178583051
143	0x3f86436e1557da27	0.010870800043432173
144	0xbfb35b11aff13774	-0.07560835404839655
145	0xbfbfb69dc3154a12	-0.12388025295994279
146	0x3f8bd012e54f4f3d	0.013580463049869368
147	0xbf95db99e640ddf3	-0.02134552448134559
148	0x3f9cdc7ce9b99514	0.028184844747007068
149	0x3fa0f516daa2479c	0.03311988276358521
150	0xbfb8988e613ab948	-0.09607782243503948
151	0xbfb6ac97c5a00fd4	-0.08857105803332327
152	0xbfb56da62ff712e3	-0.08370436354659776
153	0x3f8672f8d0b29b74	0.01096147906203069
154	0xbfb410052506305e	-0.0783694472685865
155	0xbfba0cd517ccbad6	-0.10175830679939266
156	0xbf90e268877b7ce3	-0.016488679188907517
157	0xbfa78b0c88506543	-0.045982734336755836
158	0xbfaabdc3ae67648f	-0.052229037322555454
159	0x3f9df20374e229b0	0.029243520745276974
160	0x3fa6487db86bce14	0.04352181316599171
161	0xbfbec9f50518b432	-0.12026912092615374
162	0xbfbf3059bee14e4b	-0.12183152113112176
163	0xbfa3f4552d967606	-0.03897348577013919
164	0xbfa559158dd4d17a	-0.04169528347339031
165	0x3fac740bcd701b24	0.055572861507292154
166	0x3f9caa524de52638	0.027993474964466553
167	0xbfc4793b2baf3eee	-0.15994968064341414
168	0xbf970cc7b801b388	-0.022509689908861513
169	0x3fa749711ab20385	0.04548219157096071
170	0xbfa413006c792ca1	-0.039207471124052214
171	0xbfa5782383e57506	-0.04193221077978575
172	0x3fa6af8deae7256f	0.044308123516723856
173	0xbfb3cb63631048de	-0.07732220810456478
174	0xbfbfe2efb631a825	-0.12455652425856607
175	0xbf8603116a99b188	-0.01074803930824754
176	0x3fb2280369dc00e2	0.07092305502374388
177	0xbfc2d5d022ae6653	-0.14715005582256654
178	0xbfac6b73f5c47fae	-0.05550730109302947
179	0xbfa0dbfeb291f11d	-0.03292842798052418
180	0x3fb2e6a1208eff88	0.07383162541282051
181	0xbfb71f459634f772	-0.09032092015419638
182	0xbfb62da561a27408	-0.08663400300652324
183	0xbfa4b8eeb88899ac	-0.0404734230290161
184	0xbfa60c0d4f894fb0	-0.043060699423818405
185	0x3f890b17442f61f8	0.012228185432761926
186	0x3f90918fb10bf474	0.016180272275040555
187	0x3f9736469f9bad10	0.022667983524042035
188	0xbfbc1ec3cec6be3b	-0.10984443472147458
189	0xbfb5bcf9fe91f505	-0.08491480317202978
190	0xbfa11fb0005c38ab	-0.0334448814811464
191	0xbfb070fd16f860a0	-0.0642240696983003
192	0xbfa83da3fd9fb33a	-0.047345280370655066
193	0xbf6d7a2edce208ee	-0.0035983004846126187
194	0xbfacf82263db242a	-0.05658061474748195
195	0xbf974b6c398af6cf	-0.02274865246976426
196	0x3fa78df9455f08bc	0.046005048483054506
197	0xbf8c50aa4a59b9dd	-0.0138257316532106
198	0xbf9cb9722822a49d	-0.02805117006270007
199	0xbf740b9a13be0ded	-0.004893876899476163
