models/onnx/extended_NH3_net.onnx (onnx, 662811 bytes, 8 tensors)

net.linear_afunc_stack.0.bias f8 [200]
00000000: d160 96de 7600 1fc0 87aa fa1d 5868 19c0
00000010: 17f6 9a53 c80c 18c0 b919 3188 fa43 15c0
00000020: aae2 8dba de8b 1bc0 42d7 2831 b370 11c0
00000030: f5ce dbd4 c1ff 1dc0 448c a101 a4bd 18c0
00000040: 1505 853e 0d53 18c0 cfa5 76c1 a692 12c0
00000050: 2894 b4d9 b0e4 08c0 335d e650 8a64 05c0
00000060: 0750 2675 cead 16c0 23d8 6a14 fb25 fdbf
00000070: 763b cbb3 e837 1dc0 1e4c d9f4 7999 17c0
00000080: d867 72b7 d2cd 1cc0 8897 4b5f a203 19c0
00000090: e5b0 e979 bc2e 0bc0 f7c9 00cd 8bdc 10c0
000000a0: 0491 1007 076d ffbf 43b0 0798 7316 f0bf
000000b0: 9f07 3a6e f92f 1dc0 aea2 14c1 fdab 10c0
000000c0: 4b78 98e6 55c7 16c0 73fb 1c05 4258 19c0
000000d0: 38cd 9967 a359 09c0 506e 3bb4 ce52 1dc0
000000e0: 44e7 20b3 d3ec 12c0 e558 e9e9 2bce 0cc0
000000f0: 30dd b1c9 01ce 0fc0 d88a 9dcd a179 f3bf
00000100: 14ea e4b4 2560 19c0 27c0 19ba baa5 12c0
00000110: eaf9 3320 3e5f 18c0 6642 545c e094 13c0
00000120: d6b5 db3c 3f74 04c0 e025 8bb0 7fec 14c0
00000130: 26f5 bf62 6343 10c0 bd57 43a0 2ac3 10c0
00000140: 57c2 9620 25b9 13c0 65d5 7271 7c78 0bc0
00000150: 7626 5e01 a326 14c0 ab97 b471 c935 15c0
00000160: 4f9d f127 7eaf 1fc0 f5a2 c3dd 6479 11c0
00000170: f66b 7ba0 c40d 15c0 f9ca 6b17 d483 11c0
00000180: 2048 9fa9 59b5 e4bf 5f12 89a1 c6e7 18c0
00000190: c73c f5f2 c4cf 1dc0 3533 b068 5fb5 17c0
000001a0: 0003 d6bd d9b2 14c0 b103 6acf 98d8 1fc0
000001b0: 583f 2745 2768 0cc0 75de 9a14 43ba 10c0
000001c0: f997 1f10 8428 15c0 72cf e2d0 feba 15c0
000001d0: 9b9e 9ae8 f7de 15c0 777a 951f 22af d73f
000001e0: 14b3 2bb5 322a 18c0 2ac3 6423 a65e 16c0
000001f0: 4008 b038 6032 f8bf 358b b61c 4824 1ec0
00000200: 8bd6 9611 c74e 1cc0 5abb fcc2 bc6f 1ac0
00000210: b10e 7047 d9e8 14c0 96d4 1a09 5929 15c0
00000220: ab03 a2e8 9a53 20c0 3e7e d2be 795e 18c0
00000230: 28ca cc82 0e4a 12c0 e9aa a156 ef92 12c0
00000240: 938b f314 24bf 01c0 d1fd 248a 3364 12c0
00000250: cdcd 78c5 8fc7 1fc0 1d27 f8c7 f6aa 0fc0
00000260: 9030 b113 83c8 16c0 3d22 19e4 8b5a 0dc0
00000270: 3443 590e 37a7 07c0 0ced 5e3c 433e 13c0
00000280: d852 8343 b7ff 20c0 d143 7121 7f23 13c0
00000290: f1ee e900 2618 18c0 33dc 072f 45e5 fcbf
000002a0: 4fee 5b23 f74f ffbf 10f5 064c 3c59 15c0
000002b0: 5916 77af 7550 16c0 3a79 99b5 b33c 16c0
000002c0: b14d 5bb7 7b67 15c0 a75f 861c 89ad 16c0
000002d0: 455a ef21 5b02 14c0 09fa 4888 e688 19c0
000002e0: 4a31 fc5b d2ee 18c0 538f 585e 8773 11c0
000002f0: 5e00 fae5 0402 16c0 bdc3 4f81 9af4 15c0
00000300: 782a d75d 4e52 18c0 f2b6 9eae d322 09c0
00000310: 806f 1e2a c985 e1bf e6ce 0d7c 411d 15c0
00000320: ad2c 048e 7764 25c0 0535 2cd2 a8d2 1ac0
00000330: 0680 4d7e da9d 12c0 960f f806 e7b2 13c0
00000340: 37c4 8807 2bc6 15c0 f607 2a77 990c 19c0
00000350: 4512 1860 8532 11c0 d69c a0f2 f729 1cc0
00000360: b0fc a055 71e1 10c0 61b4 f26f 70b3 10c0
00000370: 729e d9e6 8201 17c0 f24c 5199 1718 1dc0
00000380: 06d3 a803 c290 16c0 50bc fc3c 6915 0dc0
00000390: b0f6 b043 1388 18c0 c0df 81fa 7e89 11c0
000003a0: 9b2a fd0f 2958 fdbf 6565 4d9b 712c e7bf
000003b0: ef1b fa83 dd04 04c0 247e d58f acdb 05c0
000003c0: 43e5 350e df9e 10c0 0f1b aaa5 d130 0cc0
000003d0: f6c4 10a9 df81 06c0 50a2 7f42 5601 05c0
000003e0: 53bd f992 0bbc 0cc0 17d3 1d3a 674c 14c0
000003f0: 2f92 1095 8df8 14c0 3fdf f44b f8f7 0fc0
00000400: 649e 08fa e541 16c0 051c 6c17 75f0 11c0
00000410: efc5 16df c5a1 19c0 ef65 b6d2 0dff 20c0
00000420: 02cc 16f6 97fd 1cc0 c6f1 8a2b 9955 19c0
00000430: 6513 0c09 b163 1bc0 0378 95fa ab30 0cc0
00000440: 0cac a379 d2cc 04c0 340c b6d0 9852 ffbf
00000450: 3d63 fd67 9d7c 15c0 9782 6f34 cce0 0140
00000460: 7b7b b4fc 2d4b f33f 57a7 52b6 bf9b 0ac0
00000470: c686 b4df dff9 05c0 da7e 6345 ed3a 16c0
00000480: aba3 02fb 0dd2 05c0 8699 4d88 5120 09c0
00000490: b252 780a ed8a 18c0 e009 b453 cf19 17c0
000004a0: 5feb 890c 7e6d e0bf e227 7bcf 94b3 17c0
000004b0: cc56 6e25 1618 1bc0 6679 2ef0 f5d3 1ac0
000004c0: d3e7 b2bb 75a7 16c0 6c5e 2d2c 8aba 17c0
000004d0: 0074 ad55 f44a 12c0 be5c 92b8 116c 13c0
000004e0: 554e 759f 437b 11c0 5f78 31b7 ff2e 02c0
000004f0: 0fad 997d f294 12c0 1ce7 9f74 ea47 1ac0
00000500: 8eca 0fb0 61ae 18c0 4057 fad1 a7fe 1bc0
00000510: e2d7 f561 585a 05c0 9537 77c5 87b6 16c0
00000520: bfc3 f668 84c6 15c0 75d9 a54a cab6 1dc0
00000530: 14fc 6e57 9394 11c0 6c19 1188 d174 1ec0
00000540: 02b0 f7d7 ccb3 1ec0 c42a 5d37 d551 14c0
00000550: 499b aff6 0d78 0fc0 58ac 86b4 9537 17c0
00000560: 9640 8475 00e4 07c0 1563 ed70 e6ff fbbf
00000570: afcf 10c1 27b9 18c0 ffd6 83ec a090 21c0
00000580: cf9f b41f 253b 16c0 666c a9e0 64d9 15c0
00000590: 0177 7460 7899 18c0 a661 ba73 86ae 1dc0
000005a0: 998d 4273 af96 07c0 a6cc 130b f673 16c0
000005b0: be17 7799 2851 12c0 46bc b9ad 9563 15c0
000005c0: 9db6 4c75 02a3 05c0 446e bfcd 2dd2 fbbf
000005d0: 1800 4fe8 68fa 1bc0 da88 d828 37e8 12c0
000005e0: badd b083 a792 17c0 d2c4 55da 8f63 18c0
000005f0: 0e7f db9e 1c3f 1fc0 3361 f22d 58c7 12c0
00000600: bddd 925c 0904 09c0 21c7 6ffb 1052 10c0
00000610: 8363 3468 fb01 13c0 b673 208f 5dc0 0bc0
00000620: 9df5 fba9 40d2 19c0 a769 cd10 bb2a 17c0
00000630: bb3b 76ac 82c0 febf 6dff 3f0d e436 d63f
-7.750453451088291 -6.351898640083738 -6.012482935269438 -5.316385391232353 -6.886591830167768 -4.360058563344696 -7.499762845912973 -6.18519594715605
-6.081105210179222 -4.643214247576409 -3.1116654403908974 -2.6740919418622524 -5.669732885802666 -1.821772651439013 -7.304598626403154 -5.899879289400841
-7.200999132497564 -6.2535490884673735 -3.397820427364524 -4.215377047703888 -1.9641180301633208 -1.0054813326523948 -7.296849939624649 -4.167960183033456
-5.694663622909569 -6.336189346212325 -3.1687687009631667 -7.330866638305068 -4.731276320346129 -3.6006696962677887 -3.975589347591857 -1.2171953231669956
-6.343893839332413 -4.66184511930627 -6.0930104285930415 -4.895387117998871 -2.5567612413931142 -5.230955847256581 -4.065808814016497 -4.19059229289081
-4.930805691911323 -3.433831106488173 -5.037731191035723 -5.30252626099347 -7.921379684564569 -4.368548836770732 -5.263445384533943 -4.37873875232139
-0.6471374810155375 -6.226343654624173 -7.4528997385197675 -5.92712176871719 -5.174658743083228 -7.9615204246955935 -3.5508561518289916 -4.181896516754581
-5.289566280296634 -5.432612670749096 -5.467742571294049 0.37006428799023844 -6.041209059517104 -5.592430642151877 -1.5122987951622378 -7.535431336061085
-7.07693126185553 -6.6091185061221385 -5.227391353811684 -5.290378706228827 -8.163291234757557 -6.09226129684208 -4.572320979833002 -4.643491128556641
-2.2183305394004917 -4.597852858073979 -7.9448843817694526 -3.9584785101514073 -5.695812518777657 -3.6692121334238252 -2.956647979830814 -4.810803359311887
-8.499445066242899 -4.784664652383939 -6.023582472112808 -1.8059741818558563 -1.9570227986540834 -5.337144077229155 -5.57857393421508 -5.559279286854059
-5.3510578774907325 -5.669468351079479 -5.002300768121647 -6.383691911176819 -6.2332243321109875 -4.362821077494874 -5.501971810706975 -5.488870640271611
-6.080377069719013 -3.142005314081751 -0.5475812742838428 -5.2785701163699965 -10.696224630364975 -6.705722125957668 -4.654153798561316 -4.92470942391437
-5.443523519251406 -6.262304174366355 -4.299336911648941 -7.040984908154504 -4.220158899260397 -4.17523360174991 -5.7514759130786945 -7.273527522647088
-5.641365105799883 -3.635454632246855 -6.132885987926485 -4.38427344720543 -1.8340235352103835 -0.7241752656220056 -2.502375632353043 -2.7322627293613255
-4.155147764243625 -3.5238373701607837 -2.813414879631291 -2.6256528086853805 -3.5918189508881055 -5.074612529821727 -5.242727593552032 -3.996079057131197
-5.564353853965802 -4.484821668599584 -6.407981382145848 -8.49815233685055 -7.247649998799718 -6.333592110019202 -6.847355023729368 -3.5237655236114747
-2.6000108244966267 -1.957665267255618 -5.3716942070394085 2.2347644897966563 1.2058544036187573 -3.3260492557500743 -2.7470090367286017 -5.557545742223477
-2.727565728204771 -3.1407805107766675 -6.135669864267287 -5.775204952109988 -0.5133657688996712 -5.92537235440429 -6.773521981105386 -6.70699286731392
-5.663535054010896 -5.932167711514563 -4.573197687827815 -4.855536350186581 -4.370375148329534 -2.2729486762973887 -4.645456278328552 -6.570230314502421
-6.170294524158306 -6.9986870583578025 -2.669113889040987 -5.678252301598964 -5.443864479123419 -7.428506056187293 -4.395093313359229 -7.6140805492817485
-7.675586103909156 -5.07991491800448 -3.9336203834858776 -5.804282017440606 -2.986329000566978 -1.749975625154723 -6.180815712596014 -8.78247775182126
-5.55775880374854 -5.462298879948412 -6.149873263462497 -7.420434768915959 -2.9485768322644614 -5.613243268092594 -4.579256437200398 -5.34725066610469
-2.7045945323978473 -1.7388132130644331 -6.9945408151834485 -4.726772917000028 -5.893217141790439 -6.097228442654528 -7.811632616183273 -4.694672315519983
-3.126970980865478 -4.080142906854037 -4.751935604283861 -3.4689284498003543 -6.455324798587211 -5.791729223763844 -1.9219996201315854 0.3471002702135511

net.linear_afunc_stack.2.bias f8 [200]
00000000: a844 b851 1d72 fdbf af22 e32a daae febf
00000010: 4915 2f4f cdb3 fcbf 5881 9858 f23d ffbf
00000020: 9523 6d31 74a1 fdbf cd41 ef3a 3a0e f4bf
00000030: dd91 cf9e 11c6 e9bf 954d 0422 d67b eebf
00000040: 21fb d9d8 07d7 f8bf be63 4092 1ec2 03c0
00000050: 9b36 d421 7ebb e4bf 7d58 f7f3 fafe f5bf
00000060: 65d4 b71d 5d91 febf 19da d0d0 53a5 05c0
00000070: 43fb be57 68c3 f1bf 36fa 3f9f a701 01c0
00000080: f7bd 43e4 61e9 02c0 1544 08b0 f259 ebbf
00000090: 48b9 75d2 6e07 923f 3f01 cda8 4c4c eabf
000000a0: c27e 6a25 7333 f1bf 05a4 f504 702b f4bf
000000b0: 250a 5002 ea0a f2bf d3eb 2d6d 7194 e8bf
000000c0: 04af 68f7 cd34 02c0 a1a4 1524 32d4 febf
000000d0: 777d f6ba d4a3 f4bf fd81 e9c9 9e79 efbf
000000e0: ce24 62e0 ade8 e9bf 955d 49b4 591d 01c0
000000f0: fa27 7a5c ddb0 f9bf bccb 6162 0d69 02c0
00000100: 99d3 28e8 5969 f0bf b7ad cd69 2d05 febf
00000110: 3ac2 d2af 2abf 01c0 a548 b59d 7940 03c0
00000120: 1d32 a768 9732 08c0 09f4 014b 559c fdbf
00000130: 1d35 0139 6459 04c0 bb00 642b c0ed 00c0
00000140: 2aaf 0afe 3e0c fabf e611 a159 4643 febf
00000150: 2ac7 eef5 f12b f6bf 7ca1 98ba ecb2 fdbf
00000160: d362 7445 a523 fcbf 6f5c 3add f595 f3bf
00000170: 1f5c 1dac b281 fcbf eb37 ffaf 76dd efbf
00000180: 16f4 dc8e 519a fdbf 1007 31ef a367 fbbf
00000190: a19e 4cfe e420 e6bf e22b 8cb4 171c 02c0
000001a0: 7b32 27e9 6552 01c0 5805 f2f3 bb59 c8bf
000001b0: 7e56 4be9 d6c0 fcbf 93b7 794c 2ffc fbbf
000001c0: 9993 df40 dd81 04c0 33da 0fd5 d4ac fabf
000001d0: 2270 e10f c0ea fdbf 6426 0ed8 49d3 00c0
000001e0: 76d3 5a35 a026 02c0 9c70 f3f5 577e 03c0
000001f0: 7c25 dd13 d7b3 f7bf 556a df20 2537 03c0
00000200: 0aa7 bdf5 491b fdbf 1da9 316c d557 01c0
00000210: e2b3 108c 0b10 04c0 bffb d12d c135 f8bf
00000220: 1282 b88b 2b5b f4bf 7760 2d18 0726 f7bf
00000230: 5d6d becb 1f12 febf ace7 246c 6b25 fcbf
00000240: f240 101a 46c1 f9bf 1867 1261 8feb febf
00000250: 4b06 67d6 fbd1 00c0 f20c 5869 fd7b 00c0
00000260: 7bae b461 23b9 f4bf 6cff 8675 2c2e fcbf
00000270: 895d cc1b f2ad 00c0 239e 81c9 2fe3 efbf
00000280: 2ec1 b256 45b1 f7bf acef 037e 65a5 fcbf
00000290: afbc d4e6 a9a3 fbbf b510 7fc4 f65d fabf
000002a0: e3ff 34a5 62ab f4bf 5cf2 7f95 a2ad 07c0
000002b0: c9eb 56db 8f17 f9bf b11a 1010 cc74 eebf
000002c0: f315 8a6c 6319 02c0 b0c6 44ce c398 e8bf
000002d0: 145e 3afe 8132 fcbf 4a2d cb13 939f fbbf
000002e0: e965 26c3 18b8 fabf 691d 3faf 2bae e7bf
000002f0: a62c 1df2 d48a f3bf 89e0 c926 4e50 fbbf
00000300: 7378 d5ca 4a25 fabf a893 d2e2 4988 02c0
00000310: f9dc f59a 68a8 ffbf 1080 8e81 d28a e43f
00000320: d122 2479 e245 00c0 3522 eeee 019e febf
00000330: 7f4e c0af dae4 fbbf 32c7 d77c ff85 edbf
00000340: d8e7 7551 0530 fbbf c8b5 38c4 b72f 00c0
00000350: 3104 0622 863f fbbf 260a 2d22 550c f6bf
00000360: 4258 dd76 ea29 fcbf 4298 ac21 1155 f9bf
00000370: bc2c 0aae b382 fdbf 0384 e53c eb43 f2bf
00000380: 85e8 3298 7d95 f6bf 72c2 57db 694f fbbf
00000390: 793b a133 7c7b fcbf e27e 8b8b 0f33 ffbf
000003a0: 3c57 60d5 eb7d 01c0 096c 642f ff66 e8bf
000003b0: 170a ae7a 4fc1 f5bf b0fb 8441 2056 e7bf
000003c0: ce38 a574 e15e f2bf c885 3eae 6cbe fbbf
000003d0: 943d f270 0e95 fbbf c695 e6b9 8ed4 f8bf
000003e0: 3aba 5eef 4343 05c0 45e5 f5c0 49bf e5bf
000003f0: cbbc aa77 b2f6 edbf 8cc0 c7db 9aa9 0fc0
00000400: c07f 3d9c 5595 fbbf 3b75 8fa1 8575 00c0
00000410: 5f52 e42c a787 f7bf a886 b6a8 6d93 f3bf
00000420: f417 281a 3984 f0bf 3105 97c3 6bc6 01c0
00000430: db48 6925 e447 03c0 4f9d dc91 ab4d fdbf
00000440: 9922 214b b2e2 f4bf 5a4b 317f c3c9 f8bf
00000450: 56dc 0c15 a05b ebbf af33 56fd 354b f23f
00000460: b17a 315f 8365 ffbf 9f95 05a2 50bc 01c0
00000470: bbaa d8c7 609d f2bf 7b52 0b0e a183 f7bf
00000480: c920 d6c4 b7a2 e1bf a061 e6dd 107d 04c0
00000490: 4752 11c4 4e95 f0bf 2d04 d659 d951 00c0
000004a0: 960b 4f47 8bcd 01c0 1a76 5fd2 98fd 00c0
000004b0: f4b6 0cfb efcc fcbf c612 6500 5f81 01c0
000004c0: 163c 0d5e 35aa fabf ed98 307f e593 fabf
000004d0: 14d2 6dcf dd35 03c0 2dfe 0974 8ef2 fdbf
000004e0: 2909 81e8 88a6 02c0 182b 5c69 07c6 fcbf
000004f0: 622e 0c70 c6da fabf 1734 553b 1a09 f7bf
00000500: 9f41 833a 6c6e f5bf f8b6 2d51 c0c7 03c0
00000510: 3026 88ac baaf ebbf 8b63 b817 0700 03c0
00000520: 2fe4 3719 102a 03c0 ecb7 8917 7747 efbf
00000530: a9f0 e1ab bbe4 fabf cdd4 7534 d73b febf
00000540: d393 e69f 49ef f9bf 6d30 4474 61ec ffbf
00000550: d6aa 987a 9ff7 fbbf 2215 a045 d920 04c0
00000560: 9ea3 24e8 fb6a f5bf 16a3 6281 c630 f3bf
00000570: 4148 cff8 0679 0ac0 0fa8 98ce 8db7 04c0
00000580: a11b 8f0c 5432 0c40 760a f530 3c4a f0bf
00000590: 6644 3fab e924 f9bf 81a8 8324 1192 01c0
000005a0: ea8a dd15 cec5 e7bf 47d0 0e04 3908 0bc0
000005b0: 690f 382f 2a33 f2bf 5946 760b 3cc3 fabf
000005c0: 53bc 7e38 2a95 00c0 706b 14dc f0c7 e9bf
000005d0: 2751 c31b d51a 0dc0 d9ab eaef 30f6 02c0
000005e0: bc30 60a6 c3ed f2bf 9da9 5736 796b e03f
000005f0: 6319 06a1 7585 f3bf 545c 6c3e 3601 febf
00000600: 92ca 39a5 c79f 02c0 23d8 f0a9 068c f5bf
00000610: e165 7375 a525 00c0 0890 c919 73b8 01c0
00000620: 31a7 006c 9cb9 03c0 6b94 40f4 2012 ffbf
00000630: fabf e725 1977 fabf de38 5264 9694 fcbf
-1.840359992235145 -1.9176885295184254 -1.7938969700929468 -1.95262369735436 -1.8519174509731091 -1.253473501408837 -0.8054283239148919 -0.9526167549505994
-1.55249771792996 -2.469784872617736 -0.6478872929307785 -1.3747510461739971 -1.9104891930449182 -2.705726271985679 -1.1102069308833087 -2.1258079949759816
-2.363956244771312 -0.8547299802904741 0.017606479258966773 -0.8218138977900152 -1.0750609838068361 -1.2606048768741414 -1.1276645746553495 -0.7681204922113188
-2.2757834748098293 -1.9268056306412193 -1.2899977973209766 -0.9835962241741637 -0.8096532232749725 -2.1393312535180464 -1.6056798565282393 -2.3012950597853585
-1.025720507500614 -1.8762640126177368 -2.218343137378068 -2.406481964201776 -3.0247028518699737 -1.8506672792420906 -2.5436481908315174 -2.1160891904729318
-1.627989761686829 -1.8914245129718608 -1.385728798556054 -1.8561827935137378 -1.7587025368758773 -1.2241114274709408 -1.7816645358304937 -0.9957841336670276
-1.8501754360761473 -1.7128028243464009 -0.6915154425414195 -2.2637170892025873 -2.1652334418379815 -0.19023847018619722 -1.7970799553926606 -1.7490685450861505
-2.563410288641944 -1.6671951601725936 -1.8698120708786594 -2.1031681899374224 -2.2688602608054067 -2.436691209308334 -1.481406285851647 -2.401926285570236
-1.8191623305560278 -2.167887540116807 -2.507834524402356 -1.5131236829617902 -1.272258325370903 -1.4467841095375016 -1.8794248541588197 -1.7591356491452457
-1.6096859949212186 -1.9325097839231997 -2.1025311231794936 -2.060541937827673 -1.295199758208496 -1.7612728682433625 -2.084934441732632 -0.9964827476187036
-1.4807790171290196 -1.7903799936748142 -1.7274569527469728 -1.6479404140127774 -1.2918421224021521 -2.959782760588764 -1.568252426905689 -0.9517574609497698
-2.262396667446177 -0.7686480549511625 -1.762331002309911 -1.7264586232366406 -1.6699454901739677 -0.7400110647949251 -1.2213944871498739 -1.7071057810954093
-1.634104530639459 -2.316547176410001 -1.9786153844013923 0.6419460802462726 -2.034123369612964 -1.9135760625087077 -1.7433726182252085 -0.9226071775758327
-1.699223821835849 -2.0232997255140823 -1.7030087784808183 -1.3780108771321777 -1.7602333682202844 -1.583268291034543 -1.8444096373012107 -1.141581762196666
-1.4114967293994891 -1.7068880622938676 -1.7801477448262786 -1.9499659968350262 -2.186484972956263 -0.7625728536253301 -1.3596949379140193 -0.729263427703577
-1.148164230009161 -1.7339903646865071 -1.723890725323007 -1.551893926787089 -2.6578444195540927 -0.6796005982170433 -0.9363643967862115 -3.957814900430156
-1.7239585974821097 -2.0573837873368155 -1.470618415221132 -1.2234932508803613 -1.032281019377021 -2.221885231062196 -2.4101031229739482 -1.831462449810562
-1.3053458151572725 -1.5492587059458942 -0.8549347315919344 1.1433620353666176 -1.9622834890830456 -2.216950670047211 -1.163422375345063 -1.4696360157587651
-0.5511130184613872 -2.5610673271114166 -1.0364520701306377 -2.039965345233688 -2.225363309001703 -2.1238266406424033 -1.8000335508945087 -2.1881694823117384
-1.666554801358648 -1.6611075371125097 -2.4013019757642358 -1.8717178852820198 -2.3313158192041965 -1.798346911966922 -1.6784119011744214 -1.439722282189228
-1.3394586835530402 -2.472534784515002 -0.865201317764507 -2.375013528170205 -2.395538517969292 -0.9774737796521982 -1.6808430399096699 -1.8896095322827933
-1.6209198232765984 -1.995210127034649 -1.747954825298327 -2.516039413402397 -1.3386191433039367 -1.199408059512455 -3.309095329118492 -2.589625944169718
3.524574373357112 -1.0181238090887326 -1.5715119065610224 -2.1963217594794178 -0.7428961207445728 -3.3790149991055247 -1.1374914021007163 -1.6726646850333025
-2.072834435813584 -0.8056568430359743 -3.638101784608938 -2.370210527752971 -1.1830479144146429 0.5131193219543096 -1.2200828828805121 -1.8752958715829395
-2.328017512155676 -1.3466860426247045 -2.0183819938508667 -2.2150632872235327 -2.4656303823184307 -1.941925958738717 -1.6540767174410562 -1.7862762373729804

net.linear_afunc_stack.4.bias f8 [200]
00000000: 8341 ffaa c657 0ac0 e57e 063b 872d 00c0
00000010: 0682 321c ca23 fb3f eef0 405c 5451 04c0
00000020: 5ec0 243d 93a0 02c0 4dcb 37e7 fbfc 06c0
00000030: 34e9 2096 c5c4 09c0 66d8 af8d ff2b 08c0
00000040: b4cb 9050 202f 02c0 043b c888 9fff fbbf
00000050: e664 e6a4 0e11 02c0 ad79 aa75 f208 03c0
00000060: b048 d70d 9e9c 02c0 5edd c364 40dd fcbf
00000070: fd94 734a 4f91 f3bf af76 58b1 6354 09c0
00000080: 5f97 7443 fb79 0ac0 7af8 b5c0 660f 06c0
00000090: 3ea4 b65f 6dc3 0cc0 2351 2850 87ba 0bc0
000000a0: bdc2 e87e bc6b 0ec0 d0fe b55e c948 05c0
000000b0: 0fda 50ab 32f6 05c0 5859 7ce6 b935 00c0
000000c0: 324e c5d8 26a2 0ec0 7790 642a f777 0bc0
000000d0: 2f10 9168 22ca 05c0 0179 ebed 41d3 f0bf
000000e0: a93e 8ba3 442d 07c0 682a 3485 3820 06c0
000000f0: fb62 c060 a825 fdbf b19b a84e 5550 01c0
00000100: 5d8e 1ac8 979c edbf 7c19 e8a5 b556 05c0
00000110: d8ea 716e 01d7 973f 6a96 1b2d 53dd 04c0
00000120: 7077 5f48 1fbd 04c0 baf2 aaff 5463 04c0
00000130: 4778 2c57 604b 05c0 be3f df79 5b6d 05c0
00000140: 2052 f41b 7a34 04c0 1e4d e6ae 9a69 04c0
00000150: 5310 274a e5e1 0bc0 b957 c525 a653 01c0
00000160: c597 dd41 213c 07c0 f807 eee9 8e46 dfbf
00000170: c2a1 ccb1 8b72 04c0 b2a2 7324 a43c 01c0
00000180: 590d cccb 2cc5 02c0 62b8 4cbb cf0a 04c0
00000190: 8042 9cd0 231d 01c0 5c3e 0b28 a09f 12c0
000001a0: 0fd3 94b0 87b3 05c0 b640 36d4 4e52 fcbf
000001b0: ebe2 fc79 8276 0dc0 6257 c64b 8c15 04c0
000001c0: c7e2 9ad4 342e 04c0 cca2 b053 b95d f6bf
000001d0: 76ae 7a12 eda6 03c0 d460 81c6 73e8 05c0
000001e0: 54fd 7266 1c06 07c0 a1bb c991 ce46 0ac0
000001f0: 840b c945 7d48 fdbf 3691 c557 6ed5 f6bf
00000200: cb3d 2a3c 8b63 eebf c774 ed34 a373 10c0
00000210: 262f 0cc9 3b0e 00c0 c3f0 078d a607 0dc0
00000220: c7a1 7239 72e0 05c0 71fb c5e5 8f82 febf
00000230: 584c dc42 1aa8 03c0 098c 7897 7b22 09c0
00000240: af72 bde0 ca3e 01c0 bdf3 a2a3 1507 0ac0
00000250: 3acf 855c a9e7 04c0 dc4b fdbf e13b 01c0
00000260: 7c44 a066 c2f5 05c0 3a0a 27aa 3a89 10c0
00000270: 2f0f 3487 8d80 08c0 eddd 5062 4453 10c0
00000280: 059d fed1 5e1a 06c0 a8ac 658f 136a 0fc0
00000290: 688c 3959 e639 06c0 aa63 5e87 0da1 07c0
000002a0: c473 d0b6 648f 09c0 afea e9fc 9569 09c0
000002b0: f5b6 5620 7ba5 04c0 fe30 32b4 efbf 00c0
000002c0: 3835 3737 8790 08c0 e948 ebc5 9b59 06c0
000002d0: 32f3 6877 33ca 07c0 6f90 de73 c850 05c0
000002e0: 41d0 9c04 c0b5 00c0 85fb 2a70 16ba fdbf
000002f0: d3dd 8a40 16d9 05c0 2d40 d7ee 8741 11c0
00000300: 0f7e 4a00 baec 07c0 5c3a f006 c6e2 01c0
00000310: c4a6 d6ec cd07 fbbf 1771 4ac6 3e6f f6bf
00000320: daaf 70e3 04ef 13c0 1a9a 007c 0a8e 11c0
00000330: d37d 3670 72d0 f5bf 94e9 651a d1b2 f9bf
00000340: f261 12d6 3dd7 0ac0 4439 a77a 5554 08c0
00000350: f08c 9f29 5886 11c0 17e4 e457 dd7e fdbf
00000360: a130 1a98 c57e 0ac0 b6f3 4b2b 0c1a 0ac0
00000370: 4845 3fa4 55f4 02c0 380f 36b2 32a9 0ac0
00000380: f0d3 99ad d180 0dc0 8b05 a79a 7ff4 0cc0
00000390: d619 251c 6cd8 04c0 f9d3 9bf9 7513 03c0
000003a0: 70dd 7681 1221 fcbf 9a91 12db f08e fbbf
000003b0: 9105 2cef 79b6 07c0 ef7a 8754 e901 06c0
000003c0: a2a9 1619 a73d 0fc0 459e 3ffb 1ecb 0ac0
000003d0: fd69 5060 d977 11c0 df91 ef6c b340 00c0
000003e0: 7e39 4286 1ac3 ffbf b96a 580f a233 f7bf
000003f0: 2c68 1e32 ad22 643f d992 2fd9 cc49 0dc0
00000400: 478b 9262 8a69 02c0 0be8 1fc6 ac9d 05c0
00000410: fcc1 3f5c e1ae fcbf de36 38b4 106b 0cc0
00000420: d098 ec40 863f febf 66e5 58a9 d186 febf
00000430: 961c e432 d996 ffbf a1af 9769 841a f8bf
00000440: 8e54 2c93 bb39 08c0 e440 3e60 440a 03c0
00000450: 421e 09e5 99fc f1bf b0f2 243d f965 08c0
00000460: 0522 310e 8588 11c0 4d30 3f59 eb2f 01c0
00000470: 683a f805 938e 04c0 f745 a28e 3309 fabf
00000480: 6718 a0f9 9fa5 0dc0 ae3f 012a 7e59 04c0
00000490: 1e76 3484 8af4 f8bf b238 15af b905 04c0
000004a0: 0bc1 9275 fb5f 0bc0 5417 8425 5035 f1bf
000004b0: 931e 7e26 17ed 07c0 1570 ba70 4a5e 06c0
000004c0: d84e 2f05 052e 02c0 dca9 5099 16a1 08c0
000004d0: 8aaa 2f5a 88bb 01c0 3171 6cb7 b9c2 03c0
000004e0: faf1 ecb1 1045 07c0 5143 544d 6228 04c0
000004f0: 6b40 3128 d480 0ec0 a917 ce40 8667 05c0
00000500: 2a63 628f 1f57 13c0 d7ba 3211 2a0f 12c0
00000510: 1a63 0f5f 9c9d 0440 9652 307e ea30 06c0
00000520: 5d0a 2a21 5edd 00c0 0d51 aa55 8d21 f2bf
00000530: d99a d09b 924e 0dc0 490a 770f 4d34 09c0
00000540: 63ac ec66 0c73 04c0 d0a8 3155 47f7 fbbf
00000550: e8ea 4b5c c672 f0bf 6b78 6738 80c4 08c0
00000560: d2a0 5e70 241c 10c0 f65d a0d7 9a02 0bc0
00000570: 9733 c52e 63d7 0bc0 5c42 9fd9 86d3 05c0
00000580: b862 1fb0 7176 0cc0 b3b0 1d58 4978 03c0
00000590: 11fb 7dee d1ed fbbf 9d01 ebff 06f4 08c0
000005a0: b803 b031 7a6f 02c0 6e72 1a9c 0a4d 01c0
000005b0: 2e31 c85d f1da 06c0 09c6 ed63 19a4 f9bf
000005c0: b8f3 6cf2 9526 05c0 05c5 24ed e6ea 06c0
000005d0: 2a3c f96b eeed 08c0 5434 674d 09df a83f
000005e0: 69a8 4646 929c 05c0 2add 873b b934 05c0
000005f0: 61d1 eb08 091a 04c0 e634 e98f c50d 02c0
00000600: 85c6 f66d 815f 10c0 a7f4 3c09 42c7 f1bf
00000610: f238 f617 feda 06c0 0ab5 07d8 44c9 02c0
00000620: 4147 af65 daf2 07c0 34a5 55e6 6745 fbbf
00000630: fa76 e50b 3e8d 04c0 8cfd 95f5 e46d 01c0
-3.292859397806923 -2.022230588088734 1.6962376691300292 -2.539711685878607 -2.3284058358040474 -2.873527342214777 -3.2210799912255883 -3.0214835233010033
-2.2730108541668077 -1.7499080031445269 -2.258328712731429 -2.3793687050485546 -2.3264733392071193 -1.8040164886604866 -1.2229760082494174 -3.166205773842044
-3.309561278338989 -2.7575202041180633 -3.5954234578717026 -3.466078401785255 -3.802605620840352 -2.6605403327265336 -2.7452138313340195 -2.02623348299964
-3.8291756568158 -3.4335768997134966 -2.723698441435793 -1.0515765470259455 -2.8971035744542246 -2.765732803968877 -1.821693780837619 -2.164225210686219
-0.9253653438831396 -2.6673386537033235 0.023281118742015078 -2.608068802265554 -2.5923448232778625 -2.5485019659084545 -2.6618048487135044 -2.678397132993239
-2.5256235298095504 -2.551564566043125 -3.4853006165667835 -2.1658442450379565 -2.9043603082418223 -0.4886815342398445 -2.5559305086682977 -2.1546099517621196
-2.346276847996404 -2.505279029158417 -2.1392284677206703 -4.655884385763411 -2.7126611514489762 -1.7700947083977048 -3.6828660517024807 -2.5105214996246312
-2.5225617036597643 -1.397881819643021 -2.4565068668069285 -2.738502074073134 -2.8779838565675764 -3.284573687523747 -1.830197594260171 -1.4271071842750422
-0.9496513533685457 -4.112927271836447 -2.006949968990642 -3.6287356393860093 -2.7345928657634633 -1.9068755126497445 -2.4570813392142945 -3.141837294927886
-2.155660396367544 -3.2534592422584567 -2.6131160000167286 -2.15423917762517 -2.744999696508385 -4.134012850411233 -3.0627699435007325 -4.0813155519349325
-2.762876167853053 -3.9267951205161644 -2.7782713862121007 -2.9536390853576977 -3.1950163156857077 -3.1765556105504724 -2.5808012510741443 -2.093718917638511
-3.0705704034541235 -2.7937541449001526 -2.973730976953811 -2.6644448330208017 -2.0887451515536957 -1.857931554942952 -2.730999473798627 -4.3139951056364625
-2.990589144013718 -2.2357292692243345 -1.689405369901963 -1.4021594758733664 -4.9834170854118955 -4.388711869751683 -1.3633903868975394 -1.6061564475226975
-3.3550984119758533 -3.041178663471472 -4.3811956885940475 -1.8434728082049838 -3.311900318431143 -3.2627185232690534 -2.3693039733704246 -3.332616226458324
-3.6878999292916816 -3.619384010526749 -2.6056749533483794 -2.3845023632698 -1.758074289054857 -1.7223976666947238 -2.9640997586545343 -2.7509333232732085
-3.905103870395764 -3.3491801861562487 -4.367040161998827 -2.031592227040377 -1.985132717559821 -1.4501057242802473 0.0024579413156518206 -3.661035248531658
-2.30153347978322 -2.701989696358401 -1.7926953891256963 -3.5522779540686846 -1.890508893594916 -1.9079147925497977 -1.9743282306606367 -1.5064739346225695
-3.028189801969865 -2.3800132292745833 -1.1241702028945757 -3.049791791620315 -4.383320066212495 -2.1483981106194165 -2.5696163622263164 -1.6272464343677464
-3.705871534536573 -2.543697670138463 -1.5597024120573972 -2.5027955702163007 -3.4218663392458715 -1.0755158868282324 -2.990766812061176 -2.7960404211899097
-2.2724705128729106 -3.0786563852063704 -2.2165686651035843 -2.4700807886094016 -2.908723249476904 -2.5197187463130963 -3.8129046573667913 -2.675549036302034
-4.835081329708183 -4.514808911057762 2.5769584108896995 -2.773884759759606 -2.108089694114183 -1.1331914278317214 -3.663365571311584 -3.1505376060679606
-2.5561759987809167 -1.74787076262378 -1.0280212025961024 -3.095947685868898 -4.027482753539703 -3.3762719007315765 -3.4801696447306756 -2.7282845498778396
-3.5578340301111346 -2.4337336429653873 -1.7455615345094808 -3.1191539758294327 -2.3044322854843493 -2.16261789279661 -2.8569056822508605 -1.6025632766217106
-2.643840688657715 -2.8646982695432848 -3.116177409690427 0.04857663221228195 -2.7014508714974466 -2.650743928035486 -2.512712545105544 -2.2567244761508958
-4.0932671720380585 -1.1111469612945173 -2.8569299575821043 -2.3482758405067488 -2.9935806221118644 -1.704444789642662 -2.568966000499924 -2.178659361495823

net.linear_afunc_stack.6.bias f8 [2]
00000000: c1fb 7124 fa56 0240 70ab f653 15cd efbf
2.2924692961964586 -0.9937845840371278

onnx::MatMul_45 f8 [5, 200]
00000000: 82a1 abc5 c27f e33f a615 a4af fb11 bb3f
00000010: 1815 c2fc b24b f4bf faa9 678f 3a90 e53f
00000020: 0ea0 2e6e 0aa0 ea3f 96f7 0085 c232 b1bf
00000030: 9df5 0167 296f f1bf 65b0 7346 972e cfbf
00000040: bb90 8ac9 ef01 9ebf bd86 97a5 48a7 d8bf
00000050: 0561 5bc1 5806 f3bf 90f6 5c3d 9694 e33f
00000060: 022d 6581 7c5b d93f eaa6 041c ea27 d83f
00000070: c9dc a95c 6ef8 d93f cfa5 dbd8 b0d5 e7bf
00000080: 469d c9f1 b788 e73f 3f43 65ee 0dd3 e1bf
00000090: 9630 5b76 2d3a cabf 8497 3c87 ba55 f4bf
000000a0: d596 cda8 9cb5 c9bf 1baa 82d9 f10d c13f
000000b0: 4924 a56a 7076 d1bf d1ed e435 0f49 d43f
000000c0: 6bfd b736 0b01 e03f 75d2 c62f 84dd e4bf
000000d0: 631b 9bb0 1b52 b73f 066a 8cf3 b0b1 d93f
000000e0: 3da9 509e a673 eebf 059a b3ab e94e 81bf
000000f0: 7423 3a32 2c88 e3bf 9f29 590e 3108 49bf
00000100: 96c0 4b10 8d27 ce3f f09b 890a e89f f03f
00000110: 432f cfe7 da6a dfbf 243a b81c 3d1b c93f
00000120: 3acd b11c 32d8 d0bf 389a 50e4 e3b7 8f3f
00000130: 379d 86af 73eb ea3f fbfa 00df eb0a e93f
00000140: 6122 fde4 e5df fb3f 4ab5 603b df7f e43f
00000150: 6696 cd30 4b7f ab3f 2b17 de27 b334 f0bf
00000160: 0b21 d69b 34c5 af3f e051 723b 5647 83bf
00000170: d82f 5ed2 1b2d fcbf 0dae 1177 2edb f0bf
00000180: 98d6 14fa 46c6 d93f fbcb cf7f f5ef bebf
00000190: c268 0adf 0d37 c43f 28a2 1424 2cf1 dd3f
000001a0: 388a 05c1 df33 f13f 7ad1 cfc7 7a5d e1bf
000001b0: 209d 34c9 f2a7 b03f b2e5 d3fb b2c4 a2bf
000001c0: 8deb aad5 22f2 f7bf 7585 6807 fef8 d6bf
000001d0: 624b f4ed c5a8 f43f f0c7 c8f3 181c fdbf
000001e0: 7a16 4d0c 730e ce3f 13b5 5ea3 29c6 df3f
000001f0: 3d38 346d fb88 d3bf d8d2 1429 652e eabf
00000200: 41d7 8f60 a11d e0bf 75ff 58f4 a633 f0bf
00000210: abcf 766e 7c75 f7bf bd6d aa9d 16e3 ef3f
00000220: 5f17 819b bb84 d8bf fd30 a765 4582 cebf
00000230: da64 4109 9fac e73f fc2c 1c5a 2da3 bfbf
00000240: 1505 f472 c55c f9bf 4b93 6c21 45d4 d13f
00000250: 2176 4da4 0944 cebf b248 ef38 8bf5 e9bf
00000260: 674f 0c85 a622 d7bf ef23 faae a099 d73f
00000270: e62a 40f6 8816 6c3f ca83 5ca6 2e78 e23f
00000280: d912 2b74 cc1b c53f 1bc0 3226 e733 c13f
00000290: e975 92a4 f714 e73f 7eb5 2dcf a09d e4bf
000002a0: 1763 9405 3c5a dfbf 6a8b ceb7 1999 d0bf
000002b0: a75f 5e7e 68f7 a63f 260b 0418 a08a d23f
000002c0: c9df d6d6 5af6 ed3f d1fe 4a02 5210 01c0
000002d0: 31f5 851f 990a edbf 19fd 46d5 7eda a5bf
000002e0: 74ac a164 651a d93f 93ac ca18 d741 d1bf
000002f0: ac7e 674d 48c9 6c3f 96d2 b62d 9ea7 d13f
00000300: 5bbe c33d fcff f53f 9832 3b8a 5192 f03f
00000310: f659 e952 b8a6 fcbf 7c45 57b7 eb8c b33f
00000320: 22ff b47a 38cd cebf 6b0d ff2a 0bd8 fbbf
00000330: 7964 1027 fc96 e2bf 532d 08eb f8f3 cebf
00000340: 9c1f f104 de38 e8bf 4b3d f841 164c c4bf
00000350: 992d 15bc fa6a edbf 3d0c e3f5 5cd1 b63f
00000360: 4096 55dd 7560 e9bf 7e2a 5115 aa28 eebf
00000370: 0806 d405 ed35 cfbf dccc b69a 0f24 e2bf
00000380: f53d 847a 100f a5bf a05e f00c 46dd dc3f
00000390: bb74 3b57 6b96 a33f a30c bcd0 6629 d83f
000003a0: 95ce 693e 5c30 c2bf 0e3d 00f5 137a e83f
000003b0: bf6a fb23 1b08 f1bf 00e2 6698 7d45 c7bf
000003c0: f9cf e4c5 ded5 e73f 3d52 a3f2 d9af e0bf
000003d0: 6d94 5f46 6bda e6bf 4665 4a33 3edc db3f
000003e0: f472 d591 e8c3 dd3f 60f3 15a7 aa16 d6bf
000003f0: 0c54 6205 3d96 dfbf 2dd7 ad30 cb24 e43f
00000400: 9ee2 edaa 7375 e43f 6cc7 bebe 31a0 e0bf
00000410: cce2 ef76 fab9 c83f 6d7e 3f6d e0a0 b63f
00000420: c613 4438 0c42 d0bf ca7f af1a f356 ddbf
00000430: 72dd 96fa 5701 e83f 294c 66b5 c333 e53f
00000440: 74ee a882 efcb 913f d582 0f03 f5a1 e43f
00000450: b978 ad15 1f0a e0bf 6313 29b7 3b92 ff3f
00000460: 4678 fa86 3e3e 753f 651e 55e3 16a9 de3f
00000470: 3822 b348 49e9 c0bf 2647 f5fd b51f e0bf
00000480: 7b87 42d7 c80f c7bf c9c0 eb8f 5d7d d83f
00000490: b8c5 1829 24ca de3f a82a 31c2 2432 903f
000004a0: a665 17b8 3f20 c3bf d390 6efb 8ec6 dcbf
000004b0: 04f4 b58f 5602 0340 8bcc e95b 842e fcbf
000004c0: 2c74 40a6 ae67 c1bf 50ba b85e 8a50 e63f
000004d0: 11ad 69e9 4c26 d93f 26b8 3568 cd6e e03f
000004e0: 7121 bf43 cc82 d63f a33d 66ab d5ae de3f
000004f0: c691 e381 ae28 c7bf 1d17 b048 a2a5 aebf
00000500: 8c1f 614f 5ddc e33f a60e 430e 766f cebf
00000510: 9d54 3aec 9574 e53f 4c7c ab2f 343a cfbf
00000520: 360a 94df 1bd5 f3bf 8140 ba94 3305 b3bf
00000530: e97b e6c0 0d93 f6bf 7fdc 7576 94e4 a4bf
00000540: c1d0 fc11 758d cbbf b9a3 5fe0 8a1e b9bf
00000550: 9eae 501e c75d f3bf 786d b5f5 488c e4bf
00000560: b41a 4e73 c803 e5bf 3b4b 8674 511d d1bf
00000570: 4e24 98ca 1671 d03f fdbf 4e15 99de f03f
00000580: da09 4128 c889 ec3f 814e 5893 131b 843f
00000590: 0beb 3115 1fab e83f 90fc e12a e14e d73f
000005a0: 0478 5b80 97ca b83f cf40 5843 2543 edbf
000005b0: 9231 9956 b6f3 e73f 9014 8e26 64be 9e3f
000005c0: d2ec 833a 77cf e5bf dad1 c5f9 0d4b d4bf
000005d0: eb7a c9d7 0b72 cc3f f499 6222 9ff6 e0bf
000005e0: 4e0f 7c1a 51e4 f2bf b141 c3b1 9e39 b3bf
000005f0: 5d64 ed3c 2e5f 0140 e8e6 2e68 e599 d83f
00000600: 3fb3 8147 7a82 cf3f b7c4 cf6d 46ed e43f
00000610: 11ef d397 ed5d f63f 32c0 e0d1 32c5 f73f
00000620: 9196 9142 57d7 ccbf 436f d585 19ff ca3f
00000630: 5469 def2 640d 9bbf 1888 2adb 85c2 f73f
00000640: 1867 6ecd 9821 bfbf bdd0 e84e 8764 d2bf
00000650: 936c 35ca 381e e9bf e5e5 248a c434 febf
00000660: 9026 ed77 9be8 b1bf 6816 09b0 5e8e a73f
00000670: 368d 7550 c6b7 e9bf 3979 322f 15e8 a9bf
00000680: c8d9 7beb b8f6 03c0 14ef 1129 bcac eabf
00000690: cc53 3839 b5ad c83f 1d4c 9ce2 16b8 d63f
000006a0: 3e18 3f95 7481 e3bf f189 ddbf 7889 d6bf
000006b0: eff4 c6f9 29d4 ef3f a53c 6149 4a7c 7c3f
000006c0: f5a0 d6d3 705e 00c0 a9b9 ed00 ff3c bb3f
000006d0: f407 1521 f259 a13f 395a 74a9 bc0a c43f
000006e0: 82da e470 f902 873f 5bb3 1eb9 659e dfbf
000006f0: a509 3c3b 7bd9 b93f f6fb 2f58 8115 e4bf
00000700: b5e8 9a25 3a21 e5bf a30e 37ec 7387 f6bf
00000710: 7e42 6259 fb75 863f 45b4 528f 417f 00c0
00000720: 7352 4a6e 4238 c13f 2c63 8450 77d3 adbf
00000730: 36ad 7806 09dc e0bf 74ae a535 24a5 993f
00000740: 3b39 911f 9b7d b63f add2 9cde 0329 dbbf
00000750: d61d 5add 794d b73f 6e4c fe20 db55 cbbf
00000760: d5e1 ad9a 7084 e3bf 6585 0d72 bf05 f2bf
00000770: c147 affe d633 f7bf 1381 7250 4dba d23f
00000780: 5e3c f4f6 df00 d5bf 5069 cb74 763b a33f
00000790: 09b2 99c6 cd68 d03f 9e91 7f40 4eba b03f
000007a0: c33f 6375 63e2 e4bf b56a 08ac 08f0 a13f
000007b0: 9afb e0c3 1e4c d23f 4103 8498 24d0 b23f
000007c0: 2695 8660 efc4 d4bf 4d9a 3331 4ef9 cc3f
000007d0: 1699 f42b 9b7e d53f 3074 9c97 d7d4 e1bf
000007e0: 100c 7918 6d12 e9bf 4896 20d0 6cef fdbf
000007f0: 9ea0 8aeb 476a e5bf cb8a 7696 5a61 a6bf
0.6093458042860649 0.1057431510744978 -1.2684812425007461 0.6738560486676868 0.8320362236017915 -0.06718078372156663 -1.0896390937553868 -0.24360934200319942
-0.029304262806036912 -0.38521019145091967 -1.1890494874006106 0.6118880461214804 0.3962088836312462 0.37743618713521576 0.405788031093334 -0.7448353038318433
0.7354392740643696 -0.5570134788668851 -0.20490043906318495 -1.2709298403437694 -0.20085485689485574 0.13323805924058338 -0.27285395063933443 0.3169591928778717
0.5001274174427811 -0.652040570558326 0.0910966211477962 0.4014704111483812 -0.951617535790582 -0.008451295425811809 -0.6103726368902316 -0.0007639159709438742
0.23558200164507487 1.0390396510717856 -0.4908969177019921 0.1961437597496608 -0.26319554140282586 0.015487461476436967 0.8412416866530411 0.7825831752341793
1.7421626038432338 0.6406093749734876 0.05370554896107364 -1.0128661687208005 0.06205143358516992 -0.00941340798298368 -1.7610128610131053 -1.0535111094603764
0.4027268831444899 -0.1208489834823893 0.15793012037904047 0.4678449966764071 1.0751645603092026 -0.5426610853742624 0.06506268894428446 -0.0366569454581155
-1.4966152521508065 -0.35894728396859615 1.291204385289085 -1.8193597338508845 0.23481596089020568 0.49646988824936605 -0.3052357260174892 -0.8181634714479413
-0.5036169897054849 -1.0126103920774459 -1.4661831202510978 0.9964707450303006 -0.38310136972392245 -0.23835055793313834 0.7398219280977643 -0.12358363580658599
-1.5851492395743823 0.27858093513559784 -0.23645134470545862 -0.8112236129766386 -0.3614898967073174 0.3687516888390396 0.0034287142789300893 0.5771706818815059
0.16491084739950315 0.1343964516177046 0.7213094915675217 -0.6442417189079348 -0.489882474373688 -0.2593445105541635 0.044856324601993784 0.2897110209016084
0.9363226123887155 -2.1329689196717045 -0.9075437179268758 -0.042682612929178805 0.392236088059412 -0.2696435682398228 0.0035139476924398085 0.27585558380386865
1.3749964153938865 1.035722293821129 -1.7907031286937332 0.0763690302476529 -0.24063783637574782 -1.740245025591174 -0.5809307826012989 -0.24182044483346007
-0.7569418045541059 -0.15857198926139868 -0.9193090127459299 0.08913212779138831 -0.7930249522148145 -0.9424639145230029 -0.24383318695622358 -0.5669019719847728
-0.041130557017932924 0.4510054708821176 0.03825698318335343 0.3775269545005335 -0.14210084006810023 0.7649020943808027 -1.064479008250302 -0.18180818501947726
0.7448572030175448 -0.5214662302992746 -0.7141624807815227 0.4353175640950052 0.46508230439739795 -0.34513346020667335 -0.49354482198515437 0.6294914198649387
0.6393373812162115 -0.5195549703114302 0.19317560965989455 0.08839228312671717 -0.25403123373717695 -0.4584319840050709 0.7501640219042385 0.6625689070664339
0.01737951502785369 0.644770151117053 -0.5012355254546242 1.9732014803605231 0.0051863138648098935 0.4790703983348748 -0.13211933183471714 -0.5038709602469893
-0.18016920576797787 0.3826517014958993 0.48108772290569446 0.015816282608549642 -0.14942165840947758 -0.4496190505399344 2.376141665210982 -1.761356696163406
-0.1359766303802713 0.6973316049605476 0.3929626731321188 0.5135256800983867 0.3517332707965784 0.47942105997295864 -0.18092900602563428 -0.05985743653586282
0.6206499624613442 -0.2377765245092764 0.6704816449952379 -0.24396374061231751 -1.2395285352255434 -0.07429811841052648 -1.4109017882508346 -0.040806426487443474
-0.21525443437861294 -0.09812229135390184 -1.2103949722467529 -0.6421246336935118 -0.6567117931416164 -0.26741443995813413 0.256902406545639 1.054345210297469
0.8918190752231638 0.00981726926241966 0.7708888448681547 0.36418942630548035 0.09684130557749887 -0.9144464793517048 0.7485000316024062 0.030023159840784575
-0.6815754073026261 -0.3170809687792634 0.22223041569210208 -0.5301051780305088 -1.1807414087824841 -0.07509795989904579 2.171474910730963 0.3843930737890404
0.24616936198744985 0.6539642472036097 1.3979316645408668 1.4856441686970467 -0.22532168150353418 0.2109100249753003 -0.026418282817396957 1.4849909363915739
-0.12160639777576099 -0.28738577562331696 -0.7849391888988911 -1.8878827472930138 -0.06995555570497403 0.04600807093497111 -0.8036834308117367 -0.05059877587449297
-2.495469894139408 -0.8335858156346796 0.1928011445421859 0.3549859250062484 -0.6095526614160531 -0.3521406053243075 0.9946489218197295 0.00695446985453355
-2.0461136388658994 0.10639947674437757 0.033889357126568515 0.15657766603608694 0.011236141927480906 -0.4940428073703537 0.1009747523894818 -0.6276251528178125
-0.6603060469126577 -1.4080695368910845 0.01096721998718064 -2.0621367642511665 0.134529403546043 -0.05825398309588645 -0.5268597723383326 0.025044027113308734
0.0878540947025827 -0.42437836398611745 0.09102594045736309 -0.2135576163387642 -0.6099169751242309 -1.1264032797992851 -1.4501562069531106 0.29262097221546063
-0.3281783973370177 0.037563039548063615 0.2563967170197264 0.06534279894510184 -0.6526353161552766 0.035034438133341984 0.2858960068587578 0.07348850940253461
-0.3245199625619811 0.22635819818897787 0.33585242550397376 -0.5572317086367828 -0.7834992864594614 -1.8709533815357577 -0.6692237472934897 -0.04371150099475115

onnx::MatMul_46 f8 [200, 200]
00000000: a5fc f9ec cc33 eb3f b98e 9dff bb64 e53f
00000010: 3ba2 129a ebdb e03f d22c 2671 778d ec3f
00000020: fbf8 27f6 ece7 d53f dad7 05fb 49f5 b43f
00000030: 0a12 35ef 275a e53f ddef 7531 294e 1040
00000040: 6020 d6aa cd4e b93f 639e 42b3 4611 dd3f
00000050: 9776 6c25 6172 0f40 a738 3151 8344 e53f
00000060: 9d65 806d 816a d43f 3faf 71e2 1cb1 e43f
00000070: 0b45 99e8 d07c d83f a78b c4e2 0ba7 b3bf
00000080: 3472 e02d 38cd e43f 643e 6206 e870 0240
00000090: 17ae b567 818d e43f 38b4 842e 9528 c2bf
000000a0: 2868 818d fca4 0cc0 97e8 d218 f17a fdbf
000000b0: 13da 93fd 589c fa3f 8dc4 e8c1 3ac7 e13f
000000c0: 10d1 cd1a 2546 f13f 272d 0771 be4a cf3f
000000d0: 3cf3 b3a0 9ca8 d33f 3129 9326 e814 c53f
000000e0: fdef 828b 4c4b ebbf 7690 14ce dfb0 ed3f
000000f0: 2b8c 4c88 373a ebbf 356a a980 43f3 e73f
00000100: 117d f221 54d8 0f40 64f2 7ecc 16ae c43f
00000110: 4032 905b b5e1 c4bf 7fdc 14ef e3f3 b93f
00000120: 0887 483b e2dc f43f 6643 ee84 11f4 f53f
00000130: 19c6 ba8b 3f9d e73f df1f abce e4bf ed3f
00000140: 17c4 5e11 0b75 c5bf b945 b2ab 8178 e83f
00000150: d4ed b429 d4ea da3f 1c80 e99f d9f0 f9bf
00000160: a5a4 371b 0396 f53f 08bd e255 eb39 ffbf
00000170: 61a5 ad4b 2ff6 c53f c544 080b 500c 01c0
00000180: 9109 9bf9 b801 ef3f 91e4 4422 1183 e13f
00000190: e01b 8a5f dabe 14c0 5383 0702 34dd c0bf
000001a0: 7718 7e31 f35d da3f 6db6 908a a94b 1f40
000001b0: 5d55 e665 96fe d93f 731a a9f9 bda2 ec3f
000001c0: 4d36 0735 5d20 eb3f 905c fc1c 0768 e53f
000001d0: 6c20 1761 b075 eb3f 3f2c 545c 8dbd 0dc0
000001e0: c0d4 4ddc ec59 c13f 2ff0 199f 3666 f03f
000001f0: 1e34 08bd 3fa9 dd3f bcac 78c2 6bcc d13f
00000200: 3581 9092 b48e ee3f 96e1 c3d1 379a b7bf
00000210: 4b5f 3a0b 0dbf ed3f 2965 941f 521c f83f
00000220: ad94 b709 bbaf e23f 700c 283d 3bd4 ef3f
00000230: c0af 9d4e d943 eb3f 26d9 6cca 4479 f13f
00000240: 46d0 104c 6f3e e63f 0b9b 156a cac6 08c0
00000250: 94dc baac 154d ecbf f123 5999 b501 df3f
00000260: 560d 7f1f 4939 e93f 834a 4d26 ee09 f23f
00000270: 8a7b 990b ddb2 fc3f e7c1 77d5 d5ab e53f
00000280: d35a 1df0 385f c53f 2a98 6d37 24da d63f
00000290: 7808 0231 cbba bbbf e0fe 4b62 16b0 d7bf
000002a0: 553b d36d e4a0 f03f e06b d503 3199 e93f
000002b0: 7f72 73cb e7e4 dc3f 561e c25d 7c57 f23f
000002c0: b71e 54e4 7d2a d93f 744f a95b e79c e7bf
000002d0: f5f5 6e35 98af ed3f 77d5 d0d1 836a ed3f
000002e0: be83 8b4e defc e73f 1233 6c57 d342 dd3f
000002f0: 5142 41c4 d8a8 da3f ad7d de16 9694 d33f
00000300: e2b4 acd4 7c9b f23f f6b3 48e2 3b63 f53f
00000310: f52c bc0f d6aa e63f f998 5a5c 4b48 13c0
00000320: a37d 1b10 2e24 e13f 1858 8032 cd25 cf3f
00000330: 7f03 a7dc d5cd e53f 1c9a 4fc8 e13a fd3f
00000340: 6c11 e0b7 2423 f83f 022b 6ad4 2ecb e43f
00000350: 7f67 9748 e387 ec3f 8487 de75 7b58 ed3f
00000360: 10b2 c942 460b d13f 8e27 913f bc84 f13f
00000370: e5b8 edcc 4c26 db3f f147 152c 3864 d53f
00000380: 5922 6e6c 45a1 f3bf 855a ce4a ba82 f13f
00000390: 33f9 89a2 9e09 7cbf 901a cb70 74dc d93f
000003a0: 813c 2a9b 90db f53f 2d8d c0a9 4da6 d33f
000003b0: 5396 604d 3dc6 f13f b3d2 70e9 b23a de3f
000003c0: 5a13 bd0b 74e3 10c0 f80c f988 b642 f33f
000003d0: 4442 e8c6 0ea4 e13f 3a22 2c55 02a7 db3f
000003e0: 01d4 da5c 2d2b f63f 4811 c7e4 740f f83f
000003f0: b036 293e a9d4 0ac0 adad 3355 dbc5 d03f
00000400: 2f27 0731 a111 ed3f 27ea b4fa 669a f93f
00000410: 9b5f e812 1c87 0440 e33e 4dfd b696 0840
00000420: 3523 6454 eb45 ebbf c908 1e8c 6211 ee3f
00000430: a8c9 72b7 7cc1 f23f 14d8 1d20 3fe8 e23f
00000440: bd9d 9df4 a1ad be3f 0b23 26f5 1ede d6bf
00000450: 48ab 112b 7b27 e23f 3c28 551e 5792 e0bf
00000460: 45d2 6d7f e12b e13f 7806 3305 cd26 e2bf
00000470: b530 d429 f6be 0240 2bc2 8a09 320b fa3f
00000480: 74f7 acb6 2836 fd3f 3062 dc06 ca4b ee3f
00000490: 0e0d 231b 2a01 ce3f 1053 76b6 1802 f23f
000004a0: 84ab e0fa e035 f33f 0a0a 056b bd53 e93f
000004b0: cde0 fb55 46a2 fb3f e17e 976e 9a1e cc3f
000004c0: dc4d e5e1 382a 0340 7f27 6545 daa9 e03f
000004d0: 06b8 8483 5733 c33f 8631 589f 66af f63f
000004e0: 59cb 48e2 acba ee3f 58bc 945f e556 e43f
000004f0: fb3c d37c 7bd0 b13f 0054 a68d 90a0 0d40
00000500: 8c4f 5741 d205 f2bf a4ff ffdb a0fe f03f
00000510: 50bc f1bc c5fe e33f a3ff 1950 6fb7 0240
00000520: 1f7e b904 0a38 f53f bc52 4779 9bbe ee3f
00000530: 848f 5de8 4233 ec3f cdac 794c efcb f03f
00000540: 0ab4 17d8 c355 c2bf 683e 6a25 5967 e93f
00000550: 7df7 ff45 9c3e e03f 7380 3474 719d ef3f
00000560: 5ca0 bb8e 4127 11c0 d12c 8c21 4a31 d73f
00000570: 2571 b78c 2b5f ed3f cf06 1fd8 72cc f23f
00000580: 9539 a8cf 8025 09c0 b55a 4a97 e0e7 cbbf
00000590: 7e52 0d28 313b e93f 1384 f774 dfd2 b1bf
000005a0: c977 7aed c200 e83f a9f1 a9e3 714b 1140
000005b0: 8756 b816 f0f6 ee3f 46f8 db5d 8aa3 ee3f
000005c0: fc64 7535 3d48 f33f 7a60 7937 9ea5 fa3f
000005d0: a97f 294e 55ec fbbf a2b9 2595 069f f13f
000005e0: 4635 1c62 f6d0 e03f 3ece 6e09 9dae df3f
000005f0: ba4f 210d 619e 97bf 2ddd d079 b0b5 e93f
00000600: 32c2 744f c982 0540 51fd d932 4a5f e73f
00000610: 2b39 8458 02d7 f13f f720 21f1 1488 f33f
00000620: 3e1b 0e26 2516 d7bf 5981 9ea3 3a59 0340
00000630: 1095 0dca 7904 e53f be48 d33b 712e db3f
00000640: ddc2 90f8 96d0 c23f c741 7f94 b46f b83f
00000650: b057 c346 b9c9 d53f d2fa d002 efdb c5bf
00000660: f24b e90a 2811 aabf 1360 8211 c846 943f
00000670: d92b a5af b4b3 ea3f 3e96 dd2c 2a13 c5bf
00000680: 0678 a0a6 284d d53f a84d 143f 4f65 e43f
00000690: 9b03 f3a8 bc48 df3f f33d 12be 77a6 cc3f
000006a0: 4f90 422c eb2d ef3f 8200 774d 4038 f13f
000006b0: 45b2 8fc0 1429 e83f 0f60 c06b 2e20 e33f
000006c0: 0782 8a84 ff0c bbbf 2a56 ae54 4f79 d7bf
000006d0: 0662 5527 0805 c9bf f2bf 3148 b77b d53f
000006e0: ba49 2687 948c d03f fe9b 5e41 c583 f2bf
000006f0: 1077 7005 b449 e23f cc78 cabd 9a3e c8bf
00000700: 78f3 ada6 0002 ddbf 92ba b3a4 51aa b53f
00000710: 6d41 3842 7362 b63f 1e2b feaf 7e47 e63f
00000720: f762 d19e 1734 d23f c74d 4cd0 264c cebf
00000730: 15d7 782d 146d d23f 7565 92d2 4fef d63f
00000740: 9cd5 c945 e145 da3f 3875 373d 7c83 923f
00000750: 3703 15a0 d570 fb3f b312 3783 463b e73f
00000760: ace5 3ffa 599a d63f 6265 d766 5ab0 b53f
00000770: 10c1 9595 9003 e13f 714e dc75 2a00 fb3f
00000780: 3408 684a 8720 cebf 8119 bfb3 3872 b8bf
00000790: 59a1 8272 bde0 f83f 2390 6dc1 adf5 e43f
000007a0: b49a 604e 501d a13f a302 3bb4 2e84 eb3f
000007b0: bb27 8ea9 51c7 b43f 11a3 0647 9eaf c8bf
000007c0: d472 3d72 6198 dfbf 0507 2176 5596 d43f
000007d0: 8891 c594 c449 b63f 3c76 7626 5ae7 d73f
000007e0: 0512 b155 7f1e d2bf c1cd ed20 4d24 d5bf
000007f0: fccb 905a b925 ef3f 3c98 440b 6830 e2bf
0.8500733021209227 0.6685466759194788 0.5268457421526088 0.8922688684409883 0.3422806171291907 0.08186781290518699 0.667255370332499 4.076329014609624
0.09885869427501026 0.4541794539058854 3.9308493541455607 0.6646133981501138 0.31900058454047003 0.6466202185378974 0.38261816706388235 -0.0767676762230126
0.6500512023954514 2.3051300524455645 0.6422736192302548 -0.14186348697094942 -3.5805598311535682 -1.8425150842363445 1.6631708054898169 0.5555700099267981
1.0796252295522812 0.24446850317904387 0.30716624921460656 0.16470052608048882 -0.8529417729218945 0.927841093540805 -0.8508565580453981 0.7484452736783341
3.9806292202116613 0.16156277642393768 -0.16313807459700236 0.1013777216620486 1.303926688743049 1.3720870201688853 0.7379453400701009 0.9296745335095656
-0.16763437603143025 0.7647102693028308 0.420582810143711 -1.621301293045696 1.3491240561655016 -1.9516404490385089 0.1715754622958157 -2.1310120450876604
0.9689602732762969 0.5472493810003859 -5.186379902653215 -0.13175058459367026 0.41198425133951083 7.823888936121517 0.4061637873758935 0.8948659778769311
0.8477006946283808 0.6689487043503437 0.8581163307471917 -3.7175547803103934 0.13555680043251606 1.0249544348616941 0.46345513782654446 0.2781018637785555
0.9549200880610785 -0.09219693061084508 0.9295716494843672 1.5069142564373783 0.5839514913356162 0.9946571535550799 0.8520323310344722 1.0921066195711062
0.6951214299829267 -3.097065762314178 -0.8844097493773853 0.48447933173571217 0.7882428755914741 1.127424382798069 1.7936678364855845 0.677225987366964
0.16696845745419484 0.35706429875279133 -0.10831899591906502 -0.37012252425482295 1.03928034687461 0.7999501299740324 0.45147127979524976 1.146358839267028
0.3932184915324614 -0.7379032888661485 0.9276848834630856 0.919252309605027 0.7496177229005452 0.4572037080513819 0.4165555874397216 0.30594398721037913
1.162960844764989 1.336727031633243 0.7083540255856905 -4.820599978475223 0.5356664957616214 0.24334111181150386 0.6813763913743144 1.8268754791876125
1.5085799391391346 0.6498026036000228 0.891587869434474 0.9170510580190556 0.2663131382203412 1.0949060900770493 0.4242126466041454 0.3342419081210429
-1.2268728480868474 1.0944159433471736 -0.006845111529967962 0.4040804959771913 1.3661047040111785 0.3070253522621041 1.1108983061361826 0.4723326949781878
-4.222122367301234 1.2037873602392306 0.5512765774638599 0.4320684272538845 1.3855413081303143 1.5037735878587046 -3.3538384300544166 0.2620762188004971
0.9084020574166284 1.6001958649855028 2.5659715153851272 3.0735912121962072 -0.8522850654854667 0.9396221863428532 1.1722380796387402 0.5908504130627557
0.11983692380964946 -0.357307185557645 0.5673194733802598 -0.5178638069567181 0.5366065491530853 -0.5672364331769151 2.3432429569130258 1.6277332661376345
1.825722421242486 0.9467516073228293 0.23441053700489828 1.1255118491582756 1.2006540107638282 0.7914721575000965 1.727117858767133 0.21968393707265135
2.3956163070777006 0.5207339625714978 0.15000432893560872 1.4178224777598145 0.9602875156036631 0.6356074206177125 0.06958743855942721 3.7034007135757747
-1.126421218145853 1.0621651262044702 0.624850148231312 2.3395677812513482 1.3261814293435987 0.960767495033529 0.881257490004359 1.049788759929288
-0.14324234057804147 0.7938657503854758 0.5076428763565982 0.9879691381102148 -4.288336019708449 0.3623833968747024 0.9178674457903396 1.1749142114862712
-3.1433120940411734 -0.2180138338778385 0.7884755880609899 -0.06962391477237899 0.7500929487466631 4.3236766407466485 0.9676437801123975 0.957463439291822
1.205136498282001 1.6654340903242244 -1.745198540993423 1.1013246370381258 0.5255081096853835 0.49503255768943066 -0.023065105844878288 0.8034288768020922
2.6888605315691843 0.730382060355547 1.1149924714732815 1.220723096763377 -0.36072663036650343 2.4185688765284508 0.6567963548992868 0.42470961420361764
0.14699065339075093 0.09545448899667185 0.340437239746616 -0.1707743419410322 -0.050912143070171015 0.019801260060006664 0.8344367437906569 -0.16464736166669697
0.3328343989577437 0.6373668891923687 0.4888145112891437 0.22383019238303312 0.974355303235379 1.0762331987353098 0.7550147782290614 0.5976783852120223
-0.1056670855127849 -0.36677916783932807 -0.1954660598810422 0.3356760220549396 0.2585803336925455 -1.1571705392359486 0.5714969736324935 -0.1894105364526183
-0.4532472255448776 0.08463011046453975 0.0874397312802608 0.6962274014816534 0.28442945966303007 -0.23669896288684653 0.28790764275196185 0.3583564335218264
0.4105151349570748 0.01807970164906189 1.7150474789816152 0.7259857714457979 0.3531708663791402 0.08472218523765698 0.5316851541120133 1.6875404933861342
-0.2353676904022578 -0.09549288166372173 1.5548681710298153 0.6549900796785589 0.03342677075152292 0.8598855514647606 0.08116636647733248 -0.19285944431364802
-0.49367557674649487 0.3216756490329405 0.08706310875056122 0.3734956145870887 -0.28311141365364306 -0.3303406545230381 0.9733549851283665 -0.5684089870526416
