models/onnx/NH3_net_uniform.onnx (onnx, 662853 bytes, 12 tensors)

mean_in f8 [5]
00000000: 1827 85f3 1c45 8a40 3e87 7168 a64f 6f40
00000010: c142 4dcb 0557 d53f 750e 9fd4 e052 d53f
00000020: cbae 1360 1956 d53f
840.6391363527828 250.48906347440237 0.33343644002620115 0.33318348659324865 0.33338007338055026

std_in f8 [5]
00000000: c836 abae 6c3a 6f40 f65c e8b6 d7fd 6140
00000010: 631a 7938 ef2f ce3f 9df9 4e33 0428 ce3f
00000020: dbbd c571 c926 ce3f
249.82576688232643 143.93258233436035 0.23583784348939493 0.23559620385453864 0.2355586820153651

mean_out f8 [2]
00000000: c300 0655 c4da dc3f bad8 967d 37c6 c83f
0.45085247328826145 0.19354909546172455

std_out f8 [2]
00000000: 5a09 3347 7019 d03f 2453 196c 5193 cd3f
0.251552648096682 0.23105829027431313

linear_afunc_stack.0.bias f8 [200]
00000000: aa30 728b c50d e8bf 6673 189e 4b08 e8bf
00000010: 9732 8d14 1352 e8bf cb1d 033e 1cc8 0cc0
00000020: ea4f 14b6 6611 ffbf df3a a146 6b35 14c0
00000030: fe16 b6c1 aa8f 63bf b8f5 ac34 ef45 12c0
00000040: 72ee c6af 92a5 0cc0 3681 29f3 0b69 0ec0
00000050: 147b 6b4f 3cc6 febf b363 937e 27a6 11c0
00000060: ae34 7580 fa23 11c0 e18f 8b2a c044 273f
00000070: 5425 9a02 292a 12c0 0867 7767 875b 14c0
00000080: b301 6494 b16e 0ac0 7f41 cb3f 4d66 d6bf
00000090: 3ac1 bbe4 c538 11c0 718a 3af1 fa1d 06c0
000000a0: d2fb 750f 3186 10c0 2386 55f6 8db0 13c0
000000b0: 8a85 b999 ff4e 11c0 0729 1609 9d78 15c0
000000c0: c469 a499 da16 e9bf 6568 0873 47f8 17c0
000000d0: d12f 6d18 53f1 12c0 8dfc 54f8 20b4 363f
000000e0: bb8f 4bdf 2585 0dc0 d369 5cd6 9f06 0bc0
000000f0: 4806 3266 295d 11c0 060b 59b9 44d6 12c0
00000100: 78f4 6d15 a34d 12c0 a7cf 98b3 562d 02c0
00000110: 8e29 df6b 7495 0ec0 e456 7ac9 04ad f5bf
00000120: d706 13ae 455a ffbf 8ce2 974e 3913 933f
00000130: 61c0 0313 2fca 0fc0 8642 1963 ccc3 11c0
00000140: e380 e782 0c6c 10c0 5bcd 55b8 4996 e8bf
00000150: ea6e c24b 0a0b 19c0 f987 97c9 26c9 12c0
00000160: 2088 844c 161f 14c0 7494 2f70 1420 1ac0
00000170: 7381 0ac0 a522 11c0 cebe 035a a471 9fbf
00000180: db62 fb18 4d23 08c0 99b8 650d 57b6 10c0
00000190: c86a 4bb1 58ef 8bbf ac4b a168 4194 11c0
000001a0: 866f 6911 8e91 11c0 736e f449 c768 1cc0
000001b0: 7b87 8998 8018 11c0 355b d974 cb82 1ac0
000001c0: 3272 0eea 6165 10c0 5b92 160b 9b90 09c0
000001d0: 930b e3ab 554a ecbf f630 6eab 6f2c d1bf
000001e0: fb20 8482 79d4 ea3f 83a4 7d8b d84b 0dc0
000001f0: 6489 d84e 13f9 f4bf f33d 9b3d 270a 353f
00000200: d1a3 8c76 9e25 14c0 da69 7f9c 214f f5bf
00000210: 9de7 3159 1866 fcbf 7149 a407 e627 07c0
00000220: f898 6ceb 148c 03c0 8b8e 557c f3e8 09c0
00000230: e3ff 5c83 6d2d 11c0 b73e 0939 4e25 02c0
00000240: 502d 0f35 2d6c fdbf fbb0 8d5c 5877 11c0
00000250: e8f1 ca14 d9ab 90bf d413 b0f7 543a d5bf
00000260: 51d1 cbea c79a febf 2ca5 efa4 9cba 10c0
00000270: fda3 48ce 0b18 e8bf 8123 5aab 3f1a 11c0
00000280: 5f26 63df 6c0b 6a3f f74e 3aed 8610 0ec0
00000290: 5faa 6a4e 615d f5bf 3bb7 2ca4 0cf2 7dbf
000002a0: 282c 57e1 5db9 76bf c4e0 49a3 accf 293f
000002b0: a89a 01f7 eff6 1ac0 e0f2 7ba9 4985 10c0
000002c0: cb3d d05c f6c7 10c0 7101 641b 6bcb 10c0
000002d0: 11dd 28d0 48f1 8cbf 80e6 c053 bbba 0fc0
000002e0: 2ed0 a30d a6e5 0fc0 c1d5 0dc0 6b37 1cc0
000002f0: ad1d e075 b876 12c0 10d6 5c0a b696 10c0
00000300: c6cf 9d04 d26d 10c0 a1bf bca1 1d6a 1ac0
00000310: b2fd a512 7152 1ac0 fd14 4285 5b3f 17c0
00000320: e018 d1b0 ad70 03c0 c40f 8eb2 5912 14c0
00000330: 01ee a28a 7d47 11c0 2b19 5d53 de94 893f
00000340: ee8f fcb7 046a 13c0 068b a179 e48e 19c0
00000350: 67fa 7789 4dcb 12c0 c950 62df 643d e8bf
00000360: 723c f9e5 17f3 f2bf 2d82 5332 4122 a4bf
00000370: 9d3f 78ba 921b 13c0 e509 a3f6 c3f0 f5bf
00000380: 76e3 d10f e59c 88bf 0b88 038f 0609 99bf
00000390: 0153 42c3 1840 02c0 8ad7 7b49 e1a7 13c0
000003a0: d002 ac3c 281a eebf e2ab 9c06 fdce e83f
000003b0: bfcf c7fd 78b6 10c0 2daa 9327 d2ee f1bf
000003c0: 3e26 7903 38fc 0fc0 da54 a66f a1aa 10c0
000003d0: 0cc7 95a7 1401 13c0 e94d 9758 b646 983f
000003e0: ebe4 cbe0 b09a 0ec0 85ea 584a f4e1 0ec0
000003f0: e135 0fd3 62e3 fcbf c4be a1f0 59c7 e7bf
00000400: 4599 c36c 0527 0fc0 8098 f5cd b916 e8bf
00000410: f819 c694 4bdf 0fc0 35f8 0fe0 059b 10c0
00000420: e390 c37d b009 e8bf 4bdc 3bbe de7a eebf
00000430: 6e43 e736 ca2c 12c0 58fc ad15 f0c6 0ac0
00000440: 3cf7 4815 9666 98bf 71c1 0373 4fac 55bf
00000450: ec3b 667e 50b6 14c0 4ed9 28dd 3a7d ffbf
00000460: 7173 0a26 4850 d1bf acac 767e fd29 13c0
00000470: 28c4 0444 1f77 09c0 182e fa54 e8a4 03c0
00000480: c88c cc1e 7b3e 09c0 5c93 9185 8f4e 13c0
00000490: 4f71 0b5e aed6 fdbf ce6e f4ce 1f76 11c0
000004a0: 1a60 9c61 8d5e a7bf 5a6a 385d 7480 fbbf
000004b0: 6e7b 8001 2db6 0fc0 936d 1e4e ed1f 12c0
000004c0: ce22 af43 d498 893f edd5 27cc 2b72 06c0
000004d0: f66d 74f7 3e28 80bf 3668 3a25 4400 14c0
000004e0: 5c5f acd2 8c88 11c0 1f7e a000 54cd ebbf
000004f0: c870 921f ee20 0cc0 fb2e c125 06a8 11c0
00000500: 7637 4c2b 0798 11c0 4ae1 12e5 a71e 0540
00000510: af75 2418 f3ba 14c0 af64 c690 81f3 0cc0
00000520: 1a76 940d 9beb 0cc0 a131 9290 30e9 10c0
00000530: 0e4b 3bce fdcd 13c0 41b3 9759 5121 11c0
00000540: fe87 9147 a822 efbf a204 d3ae 68f1 f8bf
00000550: 752f 5715 1b4e 09c0 f38f 319d 34f3 1ac0
00000560: 4a21 f34b a215 16c0 61a6 fe85 f8e7 14c0
00000570: 687f 9094 84a4 12c0 b043 8665 8f17 01c0
00000580: 3216 5568 6923 febf 71ec 451d cc0d e8bf
00000590: 71e4 394d e875 20c0 9c7e ea6c 364c 11c0
000005a0: e7db bf50 92a7 0ec0 a494 49e4 8b9b 09c0
000005b0: a227 50b9 fe07 dcbf f200 58f8 4f0e e8bf
000005c0: f293 14a1 e479 eebf d54e 17ab 26c3 f4bf
000005d0: 3202 362a 391b 18c0 5f64 f45a a904 e93f
000005e0: 5e7c e31c 6297 10c0 6907 a9a5 0c00 0dc0
000005f0: b08f 30b1 2a38 11c0 f2a2 cd17 0d74 10c0
00000600: 245a 7209 8aab 0ec0 7ce6 266d 81c7 01c0
00000610: 9fcf 437c f7a0 1bc0 283b 02b3 c4be 0ac0
00000620: e204 b5c6 47e3 10c0 3794 c648 36fc fcbf
00000630: 1ac1 d24d 2b27 f9bf f71a 0f38 211c 05c0
-0.751681110721184 -0.7510126197627016 -0.7600188638112567 -3.5977101177884143 -1.9417483437036887 -5.052167037573525 -0.0023878417102335394 -4.568295310074454
-3.5808461887916616 -3.8012923237839926 -1.923397360070969 -4.412260034318865 -4.285135275987313 0.00017752500323020475 -4.54117206636268 -5.089383713400601
-3.3040496438045124 -0.3499940035808535 -4.3054424037548475 -2.764638790701888 -4.131046525550987 -4.922416542978257 -4.327146913479178 -5.367786542871051
-0.7840397835564592 -5.9924600576287945 -4.735668546356423 0.00034642987187178607 -3.6900136418280147 -3.378234553046448 -4.340978237918144 -4.709246536311872
-4.575817427478903 -2.2721380263337383 -3.8229759623984085 -1.3547408933858884 -1.9595391082552192 0.018628020688967115 -3.973722599555956 -4.441209362427463
-4.105516476993418 -0.7683456993385492 -6.260781463377251 -4.696437024949767 -5.030358501042457 -6.531327965644881 -4.283835411683287 -0.030706947320992488
-3.017236895724961 -4.178066453298151 -0.013640110884286641 -4.394780764431669 -4.392143508968621 -7.102322726768409 -4.273928054231756 -6.627729249731421
-4.099006325847357 -3.1956082216513955 -0.8840740544477391 -0.268337170994314 0.8384368466513757 -3.662034120342072 -1.3108094291606784 0.00032103975318606355
-5.03673730119131 -1.3318191636268382 -1.7749255642106399 -2.8944817158709886 -2.4433992760197007 -3.2387456620797983 -4.294363071967356 -2.2682156043955177
-1.8389103005054785 -4.366548010013726 -0.016280547994698497 -0.3316852969003865 -1.9127883121228317 -4.18223817551306 -0.7529353169421708 -4.275633504273061
0.0031792761247729086 -3.7580698522013978 -1.3352978766585222 -0.007310914402109787 -0.005547873229669022 0.00019692404170590903 -6.741149768326672 -4.130163810911398
-4.195275736055417 -4.198650768259868 -0.014132088520553173 -3.9661776107066657 -3.9871331277481863 -7.054121971935673 -4.615938035777998 -4.147178804317733
-4.107246467716271 -6.603628661294267 -6.580509463673865 -5.8118725606520885 -2.43001878870119 -5.017920293732406 -4.319814840502205 0.012490975302750748
-4.853533625402617 -6.389543438420111 -4.698537967632183 -0.7574943888635285 -1.1843489631026185 -0.03932384242375906 -4.776926911916147 -1.3712806352856373
-0.012018003030094464 -0.02444849250685625 -2.281297231160693 -4.913945339378083 -0.9406930146215817 0.7752671364918309 -4.178195920296218 -1.1208058877915719
-3.9981537124010904 -4.166631454970423 -4.751055353657431 0.023707245976607814 -3.8255326807235313 -3.8603292282471693 -1.8055141682156022 -0.743084878906267
-3.89405331584854 -0.7527741453784671 -3.9840308783489 -4.151389599775986 -0.7511827904059171 -0.952498790312242 -4.543740136971662 -3.3471376126977184
-0.0238288355342242 -0.001322820269759797 -5.1780414342783665 -1.9680737151189365 -0.27052501406597346 -4.791006065362279 -3.1831651033358135 -2.4555212630127805
-3.1555082708524402 -4.82671936703704 -1.8649123834248547 -4.365355714482304 -0.04564325157679168 -1.7188609734936535 -3.96395302937838 -4.53117868481367
0.012498529735141341 -2.8057475995690226 -0.007889263083192138 -5.000259954156766 -4.383349696894438 -0.8688144695515269 -3.516079184204589 -4.414085950771319
-4.398464848067183 2.6399686714541177 -5.1825679561856495 -3.6188994703812436 -3.615041833966427 -4.227724322245565 -4.9511635039987265 -4.282536888011976
-0.9729806325742627 -1.5589377240251356 -3.163137594912707 -6.737505394125026 -5.5211269251961514 -5.22653397909889 -4.660662003821791 -2.136503976020741
-1.8836454463465881 -0.7516842433682439 -8.23028794604963 -4.324426366627133 -3.83182204328067 -3.200950416083815 -0.4379879769991196 -0.7517471170868062
-0.9523795267201633 -1.2976442988628396 -6.026585254236624 0.7818190361459861 -4.1478352083059615 -3.625024122448782 -4.304850357617326 -4.1133311957607805
-3.833759378244638 -2.2224148299690665 -6.907194081915718 -3.343148611550891 -4.221953491972473 -1.8115752070236917 -1.5720627822848372 -2.6387352351770192

linear_afunc_stack.2.bias f8 [200]
00000000: d9f4 44f7 e9c4 e7bf 1ee5 4584 abc6 efbf
00000010: f16d 72b2 dedb f8bf 8d6e 5465 0646 c4bf
00000020: cf9c 0bb8 339c e63f ed06 7641 4b0b f5bf
00000030: 97b1 d657 c70d e9bf 39a9 f4d9 ff62 e6bf
00000040: fb88 91c6 30bf e7bf c7e0 5002 781b f3bf
00000050: a2f7 7b6d 1ac2 e6bf a85f cb7f 52db e2bf
00000060: 657b 9744 4ea2 d2bf e600 9caf 8018 febf
00000070: ffcc 7df4 88be fabf cb32 daf2 9522 e5bf
00000080: 2279 0b37 e0bf e8bf 11a5 237e 501f f3bf
00000090: 6bfa 5f0d 8d8d e1bf 9b37 a4c0 1301 e9bf
000000a0: 1390 c732 77c7 febf 8a6a 7d33 39ba e6bf
000000b0: d932 0726 6ef9 f0bf 6c77 0f59 394c f0bf
000000c0: 61bb 28ad 6fda f1bf b4eb 4034 a5ef dfbf
000000d0: 5963 9515 9ac1 f4bf 51a1 833f ee6a f6bf
000000e0: fe7d 4475 fbe4 e5bf 4dc7 f87f 9484 eebf
000000f0: b226 e12a bb56 dbbf 343c 0d76 c12a d5bf
00000100: 378c 58ae a130 e3bf 3735 1f7e 4e70 f7bf
00000110: 70f2 3cb0 c35b f0bf 0201 5c50 2d30 f3bf
00000120: 05b7 229c abab dcbf f7a7 5f1d 4a39 f8bf
00000130: 4f21 79d0 ca94 f2bf e1b1 3694 9a09 edbf
00000140: d9cb 4114 8073 f4bf b628 4108 5c78 f1bf
00000150: 129f 6f15 3c81 f4bf 931a 66cd 4e23 ecbf
00000160: b623 fd63 be4a cbbf 51d2 e8a7 3c4d f0bf
00000170: 4623 b389 db7f f1bf add8 d0a6 8ce2 fabf
00000180: c4c7 a66e e79f ebbf 46f7 bbb2 dd1d f3bf
00000190: d632 cb0d bf26 e9bf f73f abfe 93f0 f2bf
000001a0: a331 96ae cf49 e5bf 4432 aba3 99d5 e6bf
000001b0: fa05 67e9 9dfc edbf b616 f260 d79b eebf
000001c0: 1513 6d37 1dfd efbf 59c7 914e bcf0 e8bf
000001d0: 93cb 65c8 c12b f1bf acb0 91ea e101 e6bf
000001e0: a859 80f1 627e f5bf c677 7cef 5a42 e1bf
000001f0: b619 2db6 c1e7 edbf 4107 9bdc e6a5 f4bf
00000200: bd2e 4ea5 eb6a ecbf def7 a334 aee8 f2bf
00000210: 0e12 b8c2 cfbd e3bf 3990 9f60 0343 f0bf
00000220: 97a2 f795 3394 fabf dff7 8d49 5cf8 e1bf
00000230: 37e3 ab1a b4d9 eabf 0eb5 f1c6 7daf efbf
00000240: 6abf 4318 66dc f3bf 0268 2c58 f60d f5bf
00000250: 2360 10f5 8813 f9bf baf3 c246 3701 e4bf
00000260: e9c6 f887 1598 f0bf 768a 9655 e9e2 edbf
00000270: 23d8 b71d b0fc e8bf 01a8 9507 260b d6bf
00000280: 08b7 3817 4af7 f13f 34d9 e151 0bdf f6bf
00000290: 6703 1834 ae3a f3bf 5039 e79c 2db9 f7bf
000002a0: d825 d0a3 4ce4 f6bf 6aee 31d9 6879 e3bf
000002b0: 61a2 c821 5152 eebf ce60 05bc 16db efbf
000002c0: ee8b 7235 5a0e f8bf 9fd1 d867 426c eb3f
000002d0: 8afa 13e6 3104 fcbf 9a15 de66 7e9f f5bf
000002e0: eeeb bc98 8189 f6bf c5ed 1b96 539f e6bf
000002f0: cf2c e78b d55e f0bf 47cd a0a4 12eb e7bf
00000300: 8799 7e84 f9ff efbf 01c8 8ad3 11a2 e8bf
00000310: 7ffe ae6b d8f6 eabf 32f5 db44 88ca e4bf
00000320: 7750 9956 9695 f4bf 0a8b 37a8 4ef1 fdbf
00000330: 149f 02f8 d586 f6bf 7d95 cab5 6800 f9bf
00000340: c3c3 f995 5b49 f4bf f770 7561 8829 e9bf
00000350: 592e d27a c194 f0bf 31c5 d43d 74d2 edbf
00000360: 6fbb 3729 3d8f fbbf 29f8 c2f4 4795 f6bf
00000370: c53f 50f6 a349 eabf ac29 5fbd dcfe efbf
00000380: 3d73 6ace a174 e8bf 61fe 2e34 f193 ebbf
00000390: 1e87 5480 16de fc3f 1179 bc92 fa40 f6bf
000003a0: 16a5 41b4 28df f6bf 15a0 d14b eca5 ddbf
000003b0: fd91 7402 f50f eebf 7e0d 3283 f6a8 f1bf
000003c0: 489f 053f 5f55 f1bf fc91 0fe6 a1e9 f4bf
000003d0: 76e1 2617 236a f4bf 9b4e 6c13 16cc eebf
000003e0: 25e2 74e3 0c9e e3bf e3fd 9313 31d1 fcbf
000003f0: 0b6b 1146 b4a2 f4bf c20b f2d3 91b6 f2bf
00000400: c072 611a d675 f0bf 82ec 4f48 94d1 e0bf
00000410: 173e 22a9 5c4e d53f cffc 863c 6707 fcbf
00000420: 7111 93a7 f0c7 eabf 6f68 34f4 9912 e3bf
00000430: edd4 b21e b421 fcbf 089f 6fbe 331e eebf
00000440: 56fc 99e5 f46b ecbf e262 5a94 59b6 f3bf
00000450: 1fb6 114c e77d febf 9a05 0666 1ace ebbf
00000460: 2d51 2975 292c f1bf 554f b93b 5414 ecbf
00000470: c5d6 a32e cdad f0bf 45ef fbce 0efe e7bf
00000480: 1968 2a6d eb03 f8bf fa38 a762 8297 f1bf
00000490: dafe 93fb de5a e7bf 1dfb 95bd 90e6 e8bf
000004a0: a350 b16e 23fa f7bf 3dce 956c bbc4 e4bf
000004b0: cd59 f143 9da5 d2bf 07ec 1a7f e57c f2bf
000004c0: a41b ba7e 0c7c f3bf cde8 f23f 38c9 f3bf
000004d0: 1deb ac35 d3fd f5bf 6c53 0c13 f93d f1bf
000004e0: d388 e783 7c99 e9bf 8f67 6600 755c f5bf
000004f0: 0082 2739 6153 f6bf bd58 2560 22e4 eabf
00000500: 6e99 9b1a c1fa f2bf 931d 3282 734c 01c0
00000510: 5883 6d05 0889 f0bf aacc adfa 258c e7bf
00000520: 99e6 17dd dbb6 e9bf 15de e9a9 439e c5bf
00000530: ccdc 1775 108d e4bf 2b79 dbea 0c12 f4bf
00000540: d807 ea91 579b e3bf 1a0c 03e0 85f3 f3bf
00000550: 495b 857c 4462 f7bf 472f 1258 a843 df3f
00000560: 32e5 5131 8deb f0bf e8f9 795a 211d f7bf
00000570: dc26 cb11 693f d4bf 01ae 6d1a 3d17 f2bf
00000580: 9f04 6a51 e823 e1bf e38b 14f1 73b4 01c0
00000590: e288 5453 6a3b f6bf e126 62a1 7128 f0bf
000005a0: 484a 6d25 278f f9bf d78c f176 cb73 f6bf
000005b0: 2cce 71c9 422c f1bf eb2c ad69 2539 f4bf
000005c0: 2df7 c79f 3a2a f3bf b6cf fa5f f9b9 ebbf
000005d0: 9afc a441 655f d8bf 19c7 62c6 1dcc f0bf
000005e0: ac4e db8a 28ad f8bf 9c8c f525 46e9 e9bf
000005f0: 01dd b121 d5a7 eebf 9049 3ba3 8f56 efbf
00000600: 5cf9 01c6 db39 e6bf c526 078c f5bb e8bf
00000610: 7e81 0ca1 3de5 e9bf 3171 87f5 ea67 eabf
00000620: a2e3 e9dc 524a f1bf f2b2 6c27 92aa e9bf
00000630: a30b 0cf4 3df6 e8bf e166 0419 a9d5 f6bf
-0.7427873448829373 -0.9930017074067654 -1.553679177340083 -0.15838699290985794 0.7065676302562681 -1.3152573163101196 -0.7829319682692127 -0.6995848900744824
-0.7420886877337404 -1.1942062464204797 -0.7111942423214155 -0.5892727371201447 -0.29115635584269334 -1.880982099508452 -1.6715173292585062 -0.6604718917093008
-0.773422343739899 -1.19514512322559 -0.5485291730145269 -0.781381489041212 -1.923697660787188 -0.7102323537504429 -1.0608960614655898 -1.0186093787119388
-1.1158291591670706 -0.4990017900742558 -1.2972660868747055 -1.4011061173460642 -0.6842019358045375 -0.95368409151545 -0.42716864764643525 -0.33073460129247967
-0.5996864705269961 -1.4649186064373916 -1.0224034199046876 -1.1992619647062956 -0.44797792670839015 -1.5139866969498124 -1.1613262313349713 -0.9074223418043027
-1.2781983176507679 -1.0918846437876204 -1.2815514409393853 -0.8793100368209984 -0.21321849710719015 -1.0188566740954637 -1.0937152270218617 -1.6803099170916014
-0.863269535175498 -1.194791505985863 -0.785979773465068 -1.183734888840261 -0.6652601632973084 -0.7135742375044818 -0.9370870169297512 -0.9565235990018752
-0.9996477205791928 -0.7793866667327435 -1.0731828525574414 -0.6877297955920958 -1.3433560784957113 -0.5393500020470519 -0.9345406110885992 -1.2905033700375983
-0.8880518177624804 -1.181806760432202 -0.6169203570466963 -1.0163606428477705 -1.6611820085619564 -0.5615674435246055 -0.839075138180397 -0.9901722798946666
-1.2413083026730996 -1.3159087604785786 -1.5672692845164498 -0.6251484281598245 -1.0371299086950165 -0.933949153103028 -0.7808456974441963 -0.3444304536884602
1.1228733927814023 -1.4294541548275221 -1.2018262896455896 -1.482709515479275 -1.430737151999315 -0.6085705034342486 -0.947548452361911 -0.9954942390713997
-1.5035039985457348 0.8569652584324564 -1.7510241496490004 -1.3514389055502307 -1.4085708586051129 -0.7069490367716119 -1.0231528725587855 -0.7474454131501397
-0.9999969089301864 -0.7697838908845825 -0.8426324942774527 -0.6497231812387894 -1.2865203268784435 -1.8714129038787086 -1.407918900289535 -1.5625998593544346
-1.267909608690602 -0.7863199141970928 -1.0363173291870196 -0.9319401939048132 -1.7224704370562127 -1.4114455758094755 -0.8214893160638829 -0.9998611162821383
-0.7642373115118982 -0.8618093508920986 1.8042206776521605 -1.390863965214127 -1.4294821778551685 -0.46325213817772354 -0.9394478843647104 -1.1037507176232277
-1.083342786960161 -1.307039164233287 -1.2759123710985398 -0.9624128703457758 -0.6130432550917858 -1.801072193600583 -1.2897227036507413 -1.1695726660843637
-1.0287686377043173 -0.5255834019038874 0.3329078342148661 -1.751807438311335 -0.8369067452372702 -0.5960206765769395 -1.7582284163630064 -0.941186782784798
-0.8881782993702341 -1.2320190234224175 -1.9057381602718875 -0.8689090721747335 -1.0732817246071804 -0.8774815718156598 -1.0424320051073874 -0.7497629206331814
-1.5009569420130957 -1.0994895795479906 -0.7298426545748626 -0.7781451895569692 -1.4985689472132797 -0.6490151520542394 -0.2913582957748105 -1.1554923024220913
-1.217785353686602 -1.2366259096148042 -1.3744690033624416 -1.0776301139896658 -0.7999861313112667 -1.3350725188852015 -1.3953563912001528 -0.8403484227990458
-1.1862193145148825 -2.1623296901268048 -1.0334549152396075 -0.7358579536506984 -0.8035716360311255 -0.16889234348830998 -0.6422197615601362 -1.2544068502534838
-0.6127126550566073 -1.2469538450684525 -1.4614910949801063 0.4885044918125811 -1.0575076986845713 -1.4446118864285555 -0.31637026536610136 -1.1306735069618983
-0.5356332388038431 -2.213111766280677 -1.3895056967817756 -1.0098739913977897 -1.597449442099462 -1.403270210860503 -1.0733058804443187 -1.263951695250223
-1.1978098145913905 -0.8664519190410747 -0.3808224812564248 -1.04983308310006 -1.5422749923790589 -0.8097258321180507 -0.957987371263613 -0.9793165386311546
-0.6945628039682492 -0.7729442343636143 -0.8092334886060113 -0.8251852794160525 -1.0806454305113466 -0.8020716447841478 -0.780058838514709 -1.4271632172807858

linear_afunc_stack.4.bias f8 [200]
00000000: 711b 05a4 0e90 f5bf dc53 4891 e972 f8bf
00000010: e730 435e 09fe f2bf ddd7 5c4a 1220 e5bf
00000020: e5d5 3c06 9b47 f3bf f8b1 fa90 5100 f3bf
00000030: 88a8 8e65 f076 f9bf 45f0 adf9 94a0 f3bf
00000040: b441 ab2d c2ec f2bf 7ce6 76c7 6bb6 f1bf
00000050: 4204 28f6 b685 f3bf 98b6 9590 1ac2 f3bf
00000060: b401 f2df 4652 f3bf 850f 4c78 6c2f efbf
00000070: 6c5d 697c 0617 f8bf 69b3 d74e a366 f8bf
00000080: ffe1 6cd5 35e9 debf df2c 7334 fc17 efbf
00000090: d658 59e4 c4a0 f4bf e0c6 f2d1 8f38 f6bf
000000a0: 8f79 dedd eb7b e4bf ac5d 7948 f19c e8bf
000000b0: 1efe c11e 4dc3 f2bf aa2d f550 3607 efbf
000000c0: 6811 fee9 a1c3 efbf f18b ec1c b43f e7bf
000000d0: 56a4 425b 32dd eabf 92b7 314a d1cf debf
000000e0: f615 8def 5e1d f5bf 428d 8941 6789 f1bf
000000f0: 06d0 baf2 5bf5 f9bf deac f5ac 93c3 d4bf
00000100: 0387 1f4d a083 eebf d03f 3a3d a3ad b5bf
00000110: b4af b9db acae 4e3f 4bc4 0a66 0469 f2bf
00000120: 92a9 8a1d c13a f0bf 5a86 cb79 bae7 e7bf
00000130: a10c 3608 d682 f3bf b0e6 9526 de38 b13f
00000140: 8247 8657 bffa e6bf 5da5 a574 a254 dabf
00000150: 07eb 9c8c 780b ebbf 6ae5 84c8 e678 f3bf
00000160: 1fe7 b9bc af68 f6bf 767d e9be 9b34 fdbf
00000170: 508a 9233 8608 f3bf 5b42 2585 c4cb e3bf
00000180: e948 285a 17de f1bf 5b8c 588f aba4 e0bf
00000190: 9f19 3996 58cf e33f 9948 2bf2 1dd8 f5bf
000001a0: 1007 7d7a 9621 f2bf c37a 1add 503c d8bf
000001b0: eac8 743a a736 fabf 96e1 843c d1ae efbf
000001c0: 1598 2959 3ad7 f2bf 8d6e 3f73 6561 ebbf
000001d0: 778d a246 f542 eebf 069a ba89 6813 fcbf
000001e0: ff0d 7ba0 d707 fabf 4875 d395 a0b2 f3bf
000001f0: 04cc d632 c751 eebf 9c9b dba5 c9a3 f5bf
00000200: 9350 d984 a08c f1bf 26e5 dd1f 080a ebbf
00000210: 1b7b e8ae 82c7 f6bf 97f5 edc6 6629 f1bf
00000220: 148d 9727 5b5e e7bf 05d2 7306 29bc ebbf
00000230: 82ab f8d5 44bc eabf dbc8 5c07 5861 ebbf
00000240: 13b2 2364 af7f e9bf 1102 4929 b50b f4bf
00000250: fe95 3e2a f8cc eabf 960c 0fe5 6fbe f6bf
00000260: 5ab1 5001 e2c6 ebbf 62ad c693 73f0 efbf
00000270: abfd 3edc d7e2 f6bf dbef 6927 1f0b f0bf
00000280: 9906 e7d7 5bae e6bf 6653 9e9c f318 f53f
00000290: 97db 5282 6ec8 f1bf 71a4 34e6 0668 ddbf
000002a0: 4378 4a9a 76c0 efbf d875 b014 982e f4bf
000002b0: cdba eb82 d36b e9bf 5ca9 931d 7ebd ebbf
000002c0: 2e4e b097 1078 eabf 272b 9366 d083 f1bf
000002d0: 5cc7 7408 da77 e8bf 55e1 f508 13d8 ecbf
000002e0: 3873 aed9 c2e2 f7bf 744c b2b5 0847 eebf
000002f0: 0e63 8c36 e284 f2bf c559 6d0b 4e91 f2bf
00000300: a66e f45f 11a4 f8bf 2539 5eeb 99f9 f1bf
00000310: 997a 8a4e 3fae fabf 54d9 9383 0136 f3bf
00000320: df92 51e6 a44f f0bf 8107 6cad 326e f0bf
00000330: 68d0 bc3c c279 eebf af32 0c38 b3dc f3bf
00000340: 44b0 dea5 dcf6 e9bf bc03 2338 de9e f3bf
00000350: bacf 93d2 20b6 e9bf 68b2 69cf c3a8 efbf
00000360: ec58 048b 24cd f3bf 53f1 844a dc8c f5bf
00000370: 9dc9 0116 ad59 e2bf a509 dc88 eb65 efbf
00000380: 5652 e579 24bc f5bf bd7e 3542 60ab f5bf
00000390: a6ea a908 caa7 e9bf fc34 3d33 11cb f2bf
000003a0: 1c29 c008 9b02 ebbf 0a04 fdf3 e57b f3bf
000003b0: f8f4 5417 78bc f1bf 42b3 d8dc 629b f1bf
000003c0: d746 7e31 a8c4 eabf 3286 f7ba 58e4 ddbf
000003d0: b6fa 2235 4f39 f9bf 8bfd 51e5 b39c f2bf
000003e0: b5ca 8316 a925 f9bf 598c 5900 fb40 f2bf
000003f0: 3fd6 8735 de8f e8bf 6c0c d364 51a2 d5bf
00000400: f24b b7d4 94e4 efbf 1a69 36b3 8122 f4bf
00000410: 2f33 a3c5 ed7f e7bf 9bc9 ded8 4550 f1bf
00000420: db2a 4b4c 5c95 e7bf 8f4a b805 8836 f0bf
00000430: 42e0 8a32 8675 e9bf 4fd5 ed6c 9ab6 e8bf
00000440: 2c5c a7a7 5f91 f0bf 5901 610f 76a0 f4bf
00000450: e040 aa2b 2f4f eebf 08c5 ad3d e12f edbf
00000460: e77e bda8 79dc e5bf d7d7 8f4e 933a f4bf
00000470: 64a9 96a4 22b6 edbf aaeb 29cc 53ae f7bf
00000480: 54e7 eb18 1fa4 e1bf 8528 a526 05e3 eebf
00000490: 9257 adf3 b85f ebbf c9c2 0e65 c608 eabf
000004a0: ac2a 3fa1 be24 eabf fec6 42f3 d0b1 e2bf
000004b0: 0102 4ee1 df2b f1bf 5cdb 4087 d832 f2bf
000004c0: e43b b9c9 d0fa f5bf 49fd 10a0 d9b3 f1bf
000004d0: cb91 ef3a 32d9 e6bf 083e 7080 fd96 f1bf
000004e0: 7630 75d4 4072 eabf c6b9 3d82 966a f0bf
000004f0: dbc8 bd0b e08e ecbf 52cd 8074 92a7 f0bf
00000500: cd44 4836 e4ea e6bf bae9 c043 bbcc ebbf
00000510: 40f5 60d9 f052 f3bf c5da 3f4d 02b2 f1bf
00000520: ddf3 fecc ddea ddbf b85d 0016 7fa4 f8bf
00000530: 8530 50cc d490 f6bf a9fd d766 282f f0bf
00000540: 0428 b9bb fcb6 eebf 6053 56e2 9a43 efbf
00000550: 3ce8 e0df d144 f1bf ff5a a966 0bc3 e8bf
00000560: 4c99 fb12 bb1f f0bf e578 5aff cab1 f8bf
00000570: 4c1a 1474 580b f1bf 45e2 d399 69cd e3bf
00000580: 1bb7 ad94 4cc4 ebbf 0a87 2b67 2d9f f6bf
00000590: 5548 7759 b49f ecbf 3244 ef07 0c76 f9bf
000005a0: 5dc1 8b22 b8f5 f3bf 13ca 0282 0752 dabf
000005b0: 1d5f f760 7fe7 efbf 7fa6 6c18 7d49 f5bf
000005c0: 183e 3f67 0618 b9bf afcc 1d68 411e f1bf
000005d0: 9e06 062a 1d7a e6bf 56c1 32f8 4437 f6bf
000005e0: afdc 570a f380 f1bf 39a3 631c 9d42 ebbf
000005f0: 889d d598 8c26 e8bf 0039 24c2 7bf4 f5bf
00000600: cdaf 8dd2 43dd e9bf 589a 7280 c13f e5bf
00000610: ab83 28a9 4377 fcbf 3279 3719 f7ef ecbf
00000620: 1109 6001 d96e ecbf cfbd 357a 48da ebbf
00000630: 509a 6961 eecd dabf f0cb d7d8 0442 e3bf
-1.347670212462358 -1.5280547785853207 -1.1870206529738938 -0.660164971580112 -1.2049818271310582 -1.187577787709527 -1.5915378539162095 -1.2267045739272515
-1.1828023704475585 -1.1070363799648524 -1.220145188854318 -1.2348886154026442 -1.2075871227135453 -0.9745390271714177 -1.505621419890157 -1.5250580863750776
-0.4829840263587641 -0.9716778778469254 -1.2892502708323739 -1.3888090325457867 -0.6401271184329732 -0.7691580214986309 -1.1726809693790368 -0.9696303921895624
-0.9926309175648784 -0.7265263142511441 -0.8395015509060026 -0.4814341759255224 -1.319670615908192 -1.0960457382251012 -1.6224021417265262 -0.32443706408112216
-0.9535676485358809 -0.08468075032055755 0.000936350253551313 -1.1506389604585532 -1.0143443254442883 -0.7470371607598267 -1.2194423981425546 0.06727398340253887
-0.7181088170493555 -0.41141568557084957 -0.8451502558085345 -1.2170169670847266 -1.4005582210651892 -1.8253438432219276 -1.1895811094806454 -0.618623981523409
-1.1167214891216253 -0.5201013374065825 0.619060796169652 -1.365262933705287 -1.1332001480772682 -0.3786813887799491 -1.63834307512712 -0.9900900060666114
-1.1775458796414615 -0.855639195531198 -0.945673597296646 -1.7547383670840886 -1.6269146221901563 -1.2311101772860003 -0.9474826806020933 -1.3524872282812117
-1.0968327702912901 -0.8449745771787647 -1.4237086136196868 -1.0726077814755166 -0.7302680753022366 -0.8667187810920615 -0.8354820422294866 -0.8556327956960347
-0.7968365627144202 -1.252858315725579 -0.837520678051703 -1.4214934299095936 -0.8680276895225163 -0.9981019865275977 -1.430381641708531 -1.0027152576067155
-0.7087840287060373 1.3185917013081165 -1.1114335146682828 -0.4594743011571785 -0.9922440541738599 -1.2613755043197354 -0.7944123799369095 -0.8668814256355222
-0.8271563494367393 -1.0946811682540074 -0.7646303334388267 -0.901376264096181 -1.4928616049939603 -0.946171145320831 -1.1574422961040827 -1.1604748197911345
-1.5400556324229142 -1.1234378046097586 -1.66754084281971 -1.2006850375888307 -1.019444369966713 -1.0269037985130753 -0.9523631273537037 -1.2413818539963974
-0.8113845100065267 -1.2262861435740282 -0.8034824478950136 -0.9893511820824417 -1.2375836782790044 -1.346889773455662 -0.5734467916320686 -0.9811914132154028
-1.3584332238725856 -1.3543398462569904 -0.8017320794309242 -1.1745769502188628 -0.8440680666838349 -1.2177485972208637 -1.1085129653359314 -1.1004360796752768
-0.8365059820809745 -0.4670621705864476 -1.5764915538453983 -1.1632574994872324 -1.5716944579586827 -1.1408643735565163 -0.7675620122451575 -0.33803210111745474
-0.9966529993638444 -1.2584244728555576 -0.7343663082225244 -1.0820978614325216 -0.7369824876890009 -1.0133133147652733 -0.7955962168844126 -0.772290432693504
-1.0354916142439476 -1.2891750908603028 -0.9471660473664336 -0.9120947079337904 -0.6831634803492904 -1.264300639040348 -0.9284833159083914 -1.480060384287507
-0.5512843596218127 -0.9652124171054913 -0.8554348716086102 -0.8135711644918838 -0.8169854306555258 -0.5842060805500464 -1.073211555573039 -1.1374135287603258
-1.3737342719866712 -1.1064087154953361 -0.7140132094469264 -1.0993628518225496 -0.826446928936561 -1.0260224425834266 -0.8924408177683988 -1.0409111548331862
-0.7161732731057328 -0.8687416384994358 -1.207749222884857 -1.105959226375192 -0.4674601079857988 -1.5401602610998975 -1.4103591900812102 -1.0115131394703474
-0.9598373095006996 -0.977002565445769 -1.0793017144446955 -0.7738091473682686 -1.007746767188638 -1.5434064841024846 -1.0652699026410515 -0.6188247684904772
-0.8677122978094504 -1.4138616590575475 -0.8944951770192896 -1.5913200674006132 -1.2474900578927965 -0.411256672824636 -0.9970089811203909 -1.330441565902589
-0.09802284260444372 -1.069886595444398 -0.702406484677528 -1.3884935088390953 -1.0939817813903507 -0.8518815569378609 -0.7547057137534674 -1.372188337674345
-0.8082598793384875 -0.6640326985114582 -1.7791172607178207 -0.9042926304353271 -0.8885312105997248 -0.8703958880341193 -0.4188190413755466 -0.6018089518751122

linear_afunc_stack.6.bias f8 [2]
00000000: 78b6 6454 6447 d93f a860 2156 0f1f cbbf
0.39498241654914734 -0.2118853731688024

onnx::MatMul_53 f8 [5, 200]
00000000: 162c b9ab 82df eb3e 6f26 7df8 fccb 283f
00000010: 4766 85bd d934 6bbf ed49 f13b 48d6 d83f
00000020: 634c 807e 38bf ec3f ada5 4bbd fda6 d23f
00000030: d824 75b4 1b76 9b3f f24c 5bb3 2bb4 f5bf
00000040: 1cc1 3627 6b27 b33f 23e7 ef5c b65d d33f
00000050: 20ea d444 4179 f53f b0f3 006f 40ab c9bf
00000060: 161a bc92 6d01 c43f 1bda 3fdc 4bd1 7dbf
00000070: 7941 6ecc e8eb e23f a235 486a 24b9 dcbf
00000080: 254e 4827 83f6 c73f d30f ce0a 54dc febf
00000090: 4705 a200 4bf1 f6bf 452c 8ced c33d debf
000000a0: 5533 06c2 568c c93f 2681 d21e f4d6 e73f
000000b0: e940 921d fcad cd3f 0481 c963 4ca1 e03f
000000c0: 8acf 7d4d e214 dc3f a3b8 66b4 2f0f c3bf
000000d0: b36b e451 45e3 e33f d27b cfa4 2278 77bf
000000e0: 8c0e bd83 aee6 dabf d6bf 9ac4 c1a6 e13f
000000f0: baf0 a0dc 4efe d1bf f070 df2d c69a c43f
00000100: 383e c51d 4f58 cc3f b3d0 6f77 b642 f33f
00000110: e4ba 8b27 ba88 ebbf eeca 8173 e2a7 e9bf
00000120: e74a 55be 2817 d83f 2716 7c36 d8bc 98bf
00000130: fcc7 aead 6d4e f4bf 2b82 6d8e 90a0 f03f
00000140: 08d8 6d92 48d0 cb3f b4f2 6a16 3e92 b73f
00000150: 33e4 583b 8cfa b83f abfd 2328 dfc8 e13f
00000160: a74c 549f f5b4 e83f d152 db8c 6208 c2bf
00000170: 1e4c c72d da79 be3f b56d 4bdb 4b1d 993f
00000180: 06b2 8d6b 6630 e93f e336 aae0 8132 febf
00000190: c132 6f2c 1200 a53f 20d3 eb8c abf8 dc3f
000001a0: b421 fbb0 cbab d03f c8a1 e0cb 344d b7bf
000001b0: 7100 18f9 7013 b03f 04b7 f1c1 bd01 c4bf
000001c0: 82a6 f9a8 1aba c63f 1cbb 82e4 6947 fbbf
000001d0: b787 b6cc 9077 d93f afc7 2fe0 17d1 c33f
000001e0: 591e 2c25 b7ed fd3f 210e c01b 58ce f43f
000001f0: 7cec ff4b a6bc 91bf 51b4 45bd 4d04 82bf
00000200: f11a 0a09 e410 e93f 0901 7616 8a17 55bf
00000210: 2026 4ecb f26c b9bf d588 d1ab b9f7 b3bf
00000220: 03dc 53fc 8afd ea3f 1a96 a1e9 8335 f73f
00000230: 059b f3f5 3920 d2bf 8c9d 03c6 0088 e53f
00000240: 99b1 6ddc f2e4 f43f af09 bc60 afe8 e83f
00000250: 5b37 47ce 1a16 a93f ea1e cfef 0a78 b3bf
00000260: 5ec6 690f 8aa2 f7bf 0e61 95d1 7553 ca3f
00000270: b3a7 6e86 c2d6 3bbf 351a 21cf f6fa fcbf
00000280: 3357 2218 c423 9a3f ad5c 92ad fb55 e53f
00000290: a553 a311 fbbc f53f 1726 84b4 2639 82bf
000002a0: 0271 93f3 259d a6bf 1604 a5da 95d2 593f
000002b0: 609b 0154 85ef c43f dd41 69f3 07dd d33f
000002c0: ac1a a871 16a1 d03f f8a4 16ca 1624 c73f
000002d0: c95c ef1d f53a 45bf d5be 5638 e063 bc3f
000002e0: 22b8 ff7a 8649 e33f 49c0 a89d 78b7 be3f
000002f0: 0c5a 8f4e bf94 da3f 63db b2e5 edf5 d43f
00000300: 43f1 b8f8 9628 d33f d6be 94e7 5ff0 b0bf
00000310: b869 dcc5 b53f d03f 4df5 88a9 415e f73f
00000320: 3f66 76c5 3fe5 cdbf 9096 fd4c d466 9abf
00000330: d1b7 d653 ad61 c63f 1bff 9e4c a4f8 9ebf
00000340: a9aa a681 8044 edbf e8d8 41a5 e8a2 ec3f
00000350: ebca 625d c077 db3f e9d9 3863 54e3 61bf
00000360: ad42 5c9a 8952 d33f 3e21 350d 8743 70bf
00000370: a8bc 2cfa 2c23 e03f ece3 be3a 5d97 df3f
00000380: 98ba 4175 5878 8ebf 4066 4128 a9bb 90bf
00000390: 33cd 0355 3912 f3bf b81e cd5d 2ff0 b33f
000003a0: 3da3 7eaa 08a8 afbf dd07 77f5 fdb6 ad3f
000003b0: 8b72 4ccd cba9 b53f 2a9e 9a79 9dcc cebf
000003c0: 59f1 dbe0 22f7 b0bf 6fc6 4816 cac4 cf3f
000003d0: 827f be0c e3bf d23f c59d 928d aa20 84bf
000003e0: ce85 89f6 de30 e53f 7147 7b07 f6ab d73f
000003f0: 44a7 3d74 0dce f23f 0f13 dfac 2a2c 6d3f
00000400: 487f 5c74 d083 f73f 3fc2 3a2a 8e45 18bf
00000410: 1330 ea33 941c de3f cd12 43b3 798e d53f
00000420: 2159 9504 8454 223f 8ba3 0f35 5ff8 c53f
00000430: 9045 9b33 aa41 c73f 8549 1ba6 788c f43f
00000440: 3da6 b6f9 ee68 90bf d236 d16f 6b85 8cbf
00000450: 92ba 9691 6604 edbf c694 29a0 8877 e83f
00000460: 9246 1aeb bc15 d23f 545c 3e7b 377d e43f
00000470: 48de 4c1d 293f e23f c220 cee8 44dd e13f
00000480: cbbd 92b9 8a6e c1bf 22aa be80 95df f13f
00000490: c18e 3810 2739 f1bf 31a1 a63b e1e2 c53f
000004a0: e4c5 bc04 a56a b3bf ef6f 4dca e29a f13f
000004b0: 490f 7d2f 816d ec3f 9d43 7395 7c99 c23f
000004c0: f812 bbd4 042a 85bf fb4c b336 b4ff ea3f
000004d0: 8ae3 169c fae8 723f c76b aecc dd42 f13f
000004e0: 238f 7482 1ad5 aebf 5912 f770 5176 e03f
000004f0: d52a 2dff e8c2 d83f ce7a d614 332d db3f
00000500: 9de8 6399 f40b c03f e4e9 0968 b7aa ff3f
00000510: 13c9 887d 275a e43f c8b3 c461 eff6 d03f
00000520: 554c b04e 71b7 e13f 037d 8273 541f e13f
00000530: 87ae 1dea 5f27 af3f d5d3 30f3 e53b c73f
00000540: 08e7 9373 a88e e73f 8be5 f77b d6d2 cabf
00000550: 2ff9 4c13 4cec fbbf d14b 4c3d e2a0 e63f
00000560: 0c96 1c1a 9425 f83f a32e 8026 cd33 aabf
00000570: acaf b9d5 e366 e73f 5292 6030 49c8 f43f
00000580: e5fd 743f 7e33 f43f 88d9 c213 c288 d43e
00000590: 5165 c6b7 cacd c23f 7d74 1c99 5eab b2bf
000005a0: 472e 10a8 5b5c f23f 86c0 816b 7faf f2bf
000005b0: a1f3 0a01 8e03 da3f bf15 1cee 6a25 e13e
000005c0: 3f72 1032 047f b1bf fafb d890 b3c6 d03f
000005d0: ffd3 8efb f804 93bf ac52 75a8 601f ddbf
000005e0: ac30 8af2 dd63 be3f da61 cc5e d0c8 dabf
000005f0: 40b4 8097 153b c63f bd2a 4093 930b c23f
00000600: b10f 9355 0e05 da3f 0f62 e438 61b8 dfbf
00000610: 042d 261a 7757 9dbf 3a68 3bd2 fbc2 e3bf
00000620: 7840 e89d dd6d d33f 8f9e ba8d 05b2 a93f
00000630: a9b0 9074 7d03 e73f d642 7918 3d26 c2bf
00000640: 4533 3f20 5777 143f d5ed d5f4 42d7 3c3f
00000650: e5c0 ee4b d627 6dbf a133 3995 e978 c0bf
00000660: 1e70 42c2 540b a6bf f1c6 69f3 7a01 d3bf
00000670: ffe1 2537 8f13 a1bf c2c9 f15b 3e72 e03f
00000680: 5b87 5030 9a54 9dbf 9a9a 02f7 41c7 ccbf
00000690: 9b5b a211 9129 d0bf 502f 9439 bf16 d8bf
000006a0: 714b 7e99 1ad6 e03f aa7b 3ca8 f8ec 94bf
000006b0: 13b7 00a6 8135 d9bf 3122 5680 5007 f4bf
000006c0: 5f98 ebc7 60bb c2bf 4cd4 d89d c91d d83f
000006d0: 5c8e 094d 041f cd3f b93b 1c28 a8ec bc3f
000006e0: 5daf e272 0889 a63f a9f2 a920 a154 d7bf
000006f0: 7684 2e6e ff8e e83f b1ea b61c 5fd8 f1bf
00000700: 1f29 df3a b191 aebf 8ff0 b543 8f3b 02c0
00000710: c6f5 c1a5 420d ef3f 6cf8 def9 6f76 913f
00000720: af08 e912 f5cb d93f 29bb 4ca4 f43a bf3f
00000730: f46a 0593 dab7 a1bf b48c 113c 4733 c7bf
00000740: 9a25 55e4 e7a9 ea3f a6f2 5093 dcac cbbf
00000750: a9b4 c42e 0cf4 ccbf d5a7 d318 f3e6 ca3f
00000760: 9ef0 e39e fdb9 e83f b02a 1709 e64f aa3f
00000770: dd53 393f 819c b13f e628 5101 08b2 e2bf
00000780: 9d2b c58e 4f64 a2bf ff56 0712 0d92 b7bf
00000790: 95c8 9836 d1c8 eebf 49b3 517c 1b29 fb3f
000007a0: beff dc21 2356 c73f eed3 3fbc 2ed5 c8bf
000007b0: f5fc 9690 f26e a53f 88ab 7fc6 3342 a9bf
000007c0: c844 8f80 09ce 943f 86e4 a904 8673 db3f
000007d0: 4851 e2f2 81b9 a7bf 64f0 ad29 8d8a ec3f
000007e0: eaa4 843f d5f7 53bf 3f1d e538 65d1 febf
000007f0: b41b 6e3e 4e89 933f 2897 fe39 f91b 81bf
1.329092389492328e-05 0.00018918478985545685 -0.003321099542671377 0.38807874540103066 0.8983423681951418 0.2914423321331821 0.026817734612710392 -1.356486988651167
0.07482022960062235 0.30259474826708493 1.3421032608736212 -0.20053868694404064 0.15629357971938934 -0.007279678658952206 0.5912975304400298 -0.4488001859579872
0.18721045892799384 -1.9287910863940751 -1.4339094185564407 -0.47251985738757113 0.19959530328596978 0.7449894525525778 0.2318720955268028 0.5196897458045275
0.43877465789341186 -0.14890095051436444 0.6214930152376524 -0.0057298043511470765 -0.42032969346130566 0.5516060676509322 -0.2811467318131339 0.1609733318317761
0.22144497827183485 1.2037872949122572 -0.8604403278712565 -0.8017437225338122 0.37641352259849586 -0.02415788490818307 -1.269147566269111 1.0392003596863428
0.21729380750520044 0.09207523391064393 0.09757305573374779 0.5557704719539535 0.7720897781276975 -0.14088088872690332 0.11904681794776237 0.02452581907242087
0.7871582127241374 -1.8873308921787888 0.04101616661464425 0.4526776195701121 0.2604855755166924 -0.09102182366826306 0.06279665070906205 -0.1563031384461554
0.17755444765798606 -1.7049349714467956 0.3979227065229866 0.15481852003682436 1.8705359890026527 1.3003769954674527 -0.017321203602460575 -0.008797271097785638
0.783311860709402 -0.001287350512797105 -0.09931867087848234 -0.07799873776233153 0.8434500625870672 1.4505652548044794 -0.2832169439192714 0.6728519313300452
1.30589567284469 0.7784039391847751 0.04899677055401127 -0.07605045656884682 -1.4771824457242455 0.20567200406618052 -0.0004247879900797183 -1.8112705317486306
0.025527061436682884 0.6667459859917436 1.3586378754600699 -0.008898069747846056 -0.0441676959833064 0.0015760863703493436 0.16355959512585638 0.3103656651556131
0.25983201121600064 0.1807888495216401 -0.0006478974208858009 0.11089898467502775 0.60272525809501 0.11998704766369984 0.41532881423827983 0.32751033240804456
0.2993524006776804 -0.06616782573541555 0.2538885528789723 1.460511839147631 -0.23355862752650755 -0.02578288764870834 0.17485586732567396 -0.03024536817224464
-0.9146120579001337 0.8948863246612548 0.4291840469333425 -0.002183594531540257 0.301912689917155 -0.0039706492855844915 0.5042939077592523 0.4936135362327707
-0.014877978399650701 -0.016340869028090177 -1.1919492073910305 0.07788368263310985 -0.06182887154802195 0.05803674336813434 0.08462213289426239 -0.24061935842222343
-0.06627099981046082 0.24819303596591477 0.2929618477301049 -0.009827930875259914 0.662215692060437 0.36987066965695364 1.1753057995469627 0.003561099386362072
1.4696812196124984 -9.258918958710784e-05 0.47049431867412855 0.3368210077863239 0.0001398478655498326 0.17164220896600244 0.18169143218851191 1.284294747213239
-0.01602528952722636 -0.013926352834598008 -0.9067871898203796 0.7645915153667822 0.28257677993051644 0.640285244665288 0.570210034586986 0.5582603976227107
-0.13618597088996717 1.1170859364598376 -1.0764532693510065 0.17098632252351245 -0.07584601751002357 1.1003139402810083 0.8883672645101593 0.1453090409982253
-0.010334050886180432 0.843713862263399 0.00461671728538072 1.0788248057713063 -0.06021960108253512 0.5144431310987542 0.3868963710744258 0.4246337607855083
0.12536485185393512 1.9791788162243558 0.6360051586000587 0.2650717215317937 0.5536428963554366 0.5350744491624088 0.060847279862028585 0.1815154492811916
0.7361643082979024 -0.2095592599214736 -1.7451897386486726 0.7071391293742356 1.5091744441973587 -0.05117646307925596 0.731309812004374 1.2988979234443332
1.2625715712346104 4.895737500890103e-06 0.14690526936900963 -0.07292739141526457 1.1475483479470243 -1.1678461265073863 0.40646696187814696 8.175927578966674e-06
-0.06834436628600658 0.26212777276299415 -0.018573656419636816 -0.45504013491635464 0.11871134921438181 -0.41850671060231337 0.17367811105342135 0.1409782856938672
0.40655859333878214 -0.4956286483370897 -0.028653965922370808 -0.6175517183394341 0.3035806695998029 0.05018632273759948 0.7191760327018716 -0.1417919511318561
7.807225489315807e-05 0.00044007668187592597 -0.003559034870214461 -0.12868995462704638 -0.043055199349709236 -0.2969653489191009 -0.03335235164826499 0.5139457507887573
-0.02864304466141419 -0.22483086167377025 -0.25253702852335785 -0.37638836501058837 0.526135730544736 -0.020435223835302864 -0.39389077388010313 -1.251785756410879
-0.14634332429631322 0.37681808867211397 0.22750905763233475 0.11298609713797604 0.04401422884379145 -0.36454036893682457 0.767455783079767 -1.1153250810299762
-0.05970529407166424 -2.279081849088534 0.9703686940626362 0.017053365350641433 0.4030735668822087 0.12199334155296228 -0.0346058182210153 -0.18125238831553292
0.833240457498664 -0.21621281808065368 -0.22619774135219942 0.21017302238698102 0.7727039435699401 0.051390827760390834 0.06879432481339572 -0.5842323327754257
-0.03592156045723203 -0.0920723122611342 -0.962013823160549 1.6975359779564363 0.18231619981270158 -0.19400581542836853 0.04186208739292311 -0.04933320806579561
0.020317219230325617 0.42892599540170584 -0.04633718576329443 0.8919130147983307 -0.0012187559605741313 -1.9261219236812648 0.01907846694987443 -0.008354136545516491
