models/onnx/NH3_net_loguniform.onnx (onnx, 726357 bytes, 12 tensors)

mean_in f8 [5]
00000000: 2dfa 86fb 6745 8a40 3a90 78ac 8812 5440
00000010: 8805 1b0a 7457 d53f 8ac8 9a94 3e53 d53f
00000020: ee31 4a61 4d55 d53f
840.6757727189157 80.28959190152901 0.33346272456045556 0.3332058383194939 0.33333143712005053

std_in f8 [5]
00000000: 918f a2fb 0f39 6f40 3706 0474 b935 5d40
00000010: 83ac 8634 972a ce3f 9f94 838e f721 ce3f
00000020: 0186 3df8 772e ce3f
249.7832010436073 116.83944416420933 0.23567476334332946 0.23541159113589047 0.2357931100951163

mean_out f8 [2]
00000000: 741b 4ec8 baa6 e03f 59d0 8942 7b69 bc3f
0.5203527366837606 0.11098451971503333

std_out f8 [2]
00000000: 4945 2975 b5cf cd3f 3f94 0064 0bed c73f
0.23290127011072517 0.18692152388499214

linear_afunc_stack.0.bias f8 [200]
00000000: 9a19 3e03 fcad 14c0 6484 4037 2ba6 16c0
00000010: f39a 0116 31ee 17c0 194b 7446 4251 13c0
00000020: 963f 1d88 f511 14c0 514d e417 3808 18c0
00000030: f610 0628 eb64 1bc0 b7b0 26eb 176f 16c0
00000040: 9ecd 734d 6897 15c0 50fa b162 0011 14c0
00000050: baf5 015d 1976 11c0 e45d 70de d9db 17c0
00000060: 3b37 f84e 94ed 00c0 0043 0e21 769c 14c0
00000070: cf7f 0dfe d9da 0cc0 b975 a650 1984 12c0
00000080: 313f c4a7 138b 12c0 794e db24 a7e7 0dc0
00000090: 176c 0d97 8155 14c0 4d4b ca94 7a2d 13c0
000000a0: 1737 a070 279b f73f a620 4db5 2440 18c0
000000b0: 2e07 4ec1 2e78 17c0 f5b1 27d1 a985 16c0
000000c0: 60f4 ada5 90f8 17c0 f5e3 8f12 d4fc 0dc0
000000d0: b60a b081 17f0 13c0 05d5 fe2b 7ab3 16c0
000000e0: 6a2b 8b86 fe3d 13c0 5030 f401 0a8d 15c0
000000f0: f6c6 4846 4a2c 10c0 9514 be23 2f56 1dc0
00000100: 9c2f 9a64 7ac7 0dc0 13f8 027d 14b4 17c0
00000110: ba4f 3726 4ad0 18c0 e008 4778 3f06 16c0
00000120: ba5a 1a02 8ae6 15c0 8d1c 576c 3910 15c0
00000130: e407 a508 323c 19c0 8eba 17d9 571a 14c0
00000140: ca4e e8ad a235 13c0 f75a 8825 0019 1ac0
00000150: 3d7b 1d0a cbde 12c0 b499 0e0b 4cad 17c0
00000160: 6dfc f453 7657 17c0 40f3 184b 982b 12c0
00000170: 49fa 6736 e1de 12c0 63b1 63a7 62b7 13c0
00000180: 5204 e124 30fb 13c0 7fc0 eec2 6a9c 1cc0
00000190: e1e6 240e 9a89 13c0 1c1b 8fd4 2fcb 12c0
000001a0: c6cf c80b 6edb 1bc0 4b3f b4e3 4c3b 17c0
000001b0: 74d2 c7d0 e86a 13c0 67a5 810f 268b 14c0
000001c0: b29e 65a1 ff6b 12c0 618b 80b5 78ba 1bc0
000001d0: d77f c54b 5004 15c0 d477 6581 8062 1ac0
000001e0: f195 dbbe 85e7 12c0 fb96 aa36 dd0f 13c0
000001f0: 2b00 c1e3 ec35 16c0 b94f 95a3 ccda 16c0
00000200: a569 190c d7c5 ad3f e67f 39cd bc84 0a40
00000210: e173 03e2 3e6c 07c0 efae d18b 4cdd 1ec0
00000220: 23a1 0ea7 91ce 14c0 09fb 05f7 f524 18c0
00000230: feec 8c87 90c4 0ac0 c0e6 a43f 62ab 18c0
00000240: 0430 b8d4 9228 0fc0 8e3d 9c82 754d 11c0
00000250: caaf 675a 8298 15c0 01b4 3e13 a2de 15c0
00000260: d3ea ea77 c9f8 14c0 a07c 8409 68fe 16c0
00000270: 8f06 5552 e159 12c0 197d 2739 758c 01c0
00000280: ed4d a276 34e3 13c0 b013 1b75 e8b2 18c0
00000290: a993 46c3 ada0 1ac0 cbb3 d88a 5ff0 19c0
000002a0: 56f5 1b32 268c e4bf e5f9 e0fc 5893 19c0
000002b0: 92f4 db1e a80a 1ec0 da19 432a 23e1 11c0
000002c0: 5c42 e4e5 39f4 1cc0 b258 e27d 1d1b f2bf
000002d0: 2b8e 14ca 6edb febf 3150 9636 d3c5 24c0
000002e0: 6028 3d5a e127 17c0 e809 c47b d6d5 12c0
000002f0: 8922 ea37 1bdb 18c0 9375 bf5c ccb0 15c0
00000300: effa 06fb 3424 14c0 ae98 0191 30ac 14c0
00000310: ddac e07e 5ad1 12c0 5e56 9585 b1a8 14c0
00000320: 1912 2ff7 92dd 17c0 9cf5 fd4f e129 13c0
00000330: 7112 5727 c525 19c0 0e4a 821c 181c 17c0
00000340: af5f 0c7d 955f 13c0 e797 defa 18ef 14c0
00000350: de92 616c a457 17c0 3aa1 0ba0 9f91 1cc0
00000360: de67 e5db a792 15c0 71d2 7749 401d d5bf
00000370: 2056 09fc d984 0bc0 3a20 519f ca81 1ac0
00000380: 1c03 fd7a 2aa8 18c0 cf8e ad24 15ab 13c0
00000390: 9cb1 803c 2e75 14c0 2c08 072d 605a 15c0
000003a0: 8210 11bb e80a 0dc0 730d 5bfc 4269 17c0
000003b0: 146f 6ce3 e08f 14c0 cc93 ce55 8f8e 0dc0
000003c0: 7036 b6e9 c0fa 06c0 c627 3a2a 9f73 17c0
000003d0: 9076 bae6 bfdf 15c0 b2a9 ba03 9acb 07c0
000003e0: c356 5adb 86a6 18c0 8b4f 4d16 6b6b 14c0
000003f0: 229f 3411 2e04 18c0 a33a 26e3 49e5 0ec0
00000400: 5cae d66f 9221 14c0 524b 1e28 b885 0ec0
00000410: 7c02 30ee d2b7 1ec0 e010 507a 3f0f 0cc0
00000420: c437 52db a43f 13c0 f38f 621b cbe4 1bc0
00000430: 79ee f581 97cd 16c0 4800 d2ab 0ca5 12c0
00000440: 05df d45f 16c1 13c0 d8a4 9f67 473c 14c0
00000450: dd8f a949 59f3 0dc0 3e0e c9fd 7592 12c0
00000460: 8396 b07d affe 15c0 588f d3ef 0618 1dc0
00000470: 7055 43cd 8a78 13c0 60ed a776 0de0 15c0
00000480: c442 abe5 ac55 15c0 7da6 d837 0f74 18c0
00000490: bd91 6d0b 0ae2 22c0 6153 9e8a da4a 16c0
000004a0: 201a 5098 8bf8 13c0 3322 2d19 bbb8 13c0
000004b0: 104c 7b32 6acd 15c0 3fd4 6ef7 aedc 15c0
000004c0: 686d f74d f667 1ec0 61a2 7dd5 9f6b 17c0
000004d0: a970 f67a b4a4 22c0 344c 815c 06d1 17c0
000004e0: 3f62 6fe0 0f98 08c0 be70 2fe9 e697 15c0
000004f0: 2114 caec 9eef 16c0 756b 302c 1bd4 13c0
00000500: bfda 24bd 8d29 08c0 7737 8e75 537d 1ac0
00000510: 2928 4d92 6730 19c0 3376 633f b372 03c0
00000520: d54c 299d 40a1 15c0 f8b7 5e13 8c2f 14c0
00000530: 5a0c 6508 a47a edbf 94c7 f978 195a 13c0
00000540: f686 c94e b51b 06c0 71ee c3c7 5a18 18c0
00000550: 7753 565c 329e 14c0 e772 76a8 14d1 01c0
00000560: 2085 07dc f276 f03f 7d62 4aa0 e6e0 15c0
00000570: 1be5 bd12 56ff 13c0 02f0 274e 7cb9 13c0
00000580: d35c b737 c595 19c0 22fc ba80 5c61 11c0
00000590: c4d3 f8c0 852c 11c0 8c83 7f59 55ba 16c0
000005a0: d13f 72fc 455b 16c0 4c32 8dd5 43d0 1bc0
000005b0: 3a56 cef0 5103 14c0 fdea 3781 cbad 17c0
000005c0: fb6c 4f36 efe3 f7bf 19ed 068d bb99 14c0
000005d0: 70ea 92d7 6663 15c0 2ecb 3746 6693 1ac0
000005e0: 5a24 8338 02a9 17c0 b0dd 09ea 4e43 13c0
000005f0: 7d78 3adf 55ea 1fc0 b602 2673 9331 18c0
00000600: 4cfb f5de 9098 1dc0 7cba 55d9 9eb4 f9bf
00000610: f1d2 ccb3 0541 14c0 c306 b13c 9171 1dc0
00000620: 66e9 a850 6318 16c0 eea9 86bb f39e 12c0
00000630: 918e 07a3 896f 17c0 8db7 8aea b14f 13c0
-5.169906664529117 -5.66227423030168 -5.982609123085001 -4.829354382369979 -5.01753819159048 -6.008026479062509 -6.848553300256972 -5.608489679562061
-5.39785882014567 -5.0166030331734675 -4.365331128353711 -5.964698291405032 -2.1160055322169717 -5.152794376845804 -3.606861099993672 -4.629002819213775
-4.635817166665036 -3.7381117705752414 -5.083502159303882 -4.794412922713332 1.4753794097372912 -6.062640030701152 -5.867365856540159 -5.630530612991142
-5.992739285223337 -3.7484513712083705 -4.984464670533887 -5.6752707361495185 -4.810541250461805 -5.387733488587472 -4.04325208491513 -7.3341641983762615
-3.7224014148286653 -5.925859406763283 -6.203407857061331 -5.5061014932018395 -5.475135834559007 -5.265844052140108 -6.308784613678629 -5.025725738595282
-4.80237838488001 -6.524414621779889 -4.717571409272577 -5.919235394254816 -5.835412322833787 -4.542573140523757 -4.717655992599767 -4.929087272128842
-4.995300842508259 -7.15275101263262 -4.8843767366431345 -4.698424645647517 -6.964286979800766 -5.807910497547549 -4.854403745838329 -5.135887377059908
-4.6054673403047435 -6.932101093264323 -5.254212554864316 -6.5961933344060135 -4.726096136238525 -4.765492300188039 -5.552661474852395 -5.71367126082253
0.05815002463050981 3.31481323558545 -2.9278543145469347 -7.71611231295877 -5.2017274954489805 -6.03609453176501 -3.3459787931329847 -6.167366976203709
-3.8948113077840407 -4.325643578325424 -5.398934757784398 -5.467415142728897 -5.242956041062558 -5.748443745337823 -4.587773596229126 -2.1935829606224044
-4.971879819542193 -6.174714879777568 -6.656912852461496 -6.484739465214214 -0.6421080568976929 -6.393894149047331 -7.510406953978547 -4.469860706658858
-7.238502113396489 -1.1316199223852377 -1.9285724538575646 -10.386377054070268 -5.788945589049121 -4.7088260019686246 -6.213971017518483 -5.422654580293414
-5.035358354855574 -5.168154016230046 -4.704446775878037 -5.1647396919630335 -5.966380941627471 -4.790898561358883 -6.286884894074874 -5.777435727550722
-4.843343690757975 -5.233493728481313 -5.835588162856508 -7.142210484227968 -5.393218456150832 -0.3299103467427705 -3.4398688974713565 -6.626749505354434
-6.164224549954067 -4.917072842686777 -5.114434190134855 -5.338257506899065 -3.630326711138026 -5.852794592912107 -5.140506318562775 -3.6946093276660346
-2.872438264725865 -5.862911853599092 -5.468505482798392 -2.9744148532237995 -6.162623813046312 -5.104900692433044 -6.00408198245694 -3.8619573350946026
-5.032785174825758 -3.815292657303339 -7.679515573196678 -3.507445293014925 -4.812152315991572 -6.973431041613355 -5.700773268352003 -4.661181149189424
-4.93856191384089 -5.0588661376179616 -3.7438226466056066 -4.643028226276838 -5.498716319945404 -7.273463961875528 -4.8677169868800405 -5.468801359176126
-5.333667362764292 -6.11333930263356 -9.441482884526403 -5.57309929457992 -4.992720012558976 -4.9304012235448225 -5.450600422645053 -5.4655111943621355
-7.601525514818924 -5.855101905625447 -9.321689455588357 -5.954125829116538 -3.0742490324012404 -5.398341792603047 -5.734004688104535 -4.957134905295665
-3.020289876639566 -6.622388684087006 -6.297270093879015 -2.431005950186568 -5.407473045011291 -5.0464327837526 -0.9212207950553293 -4.83798779511007
-2.763529410863039 -6.023783799489693 -5.154488985794948 -2.2270901833675114 1.0290402026078667 -5.469629768886645 -4.999351780739086 -4.931138249576181
-6.3962601380983015 -4.345079432881024 -4.293478980242927 -5.681966207893208 -5.5891341633541325 -6.9533837668828475 -5.003242266267586 -5.919721621549567
-1.4931480523580933 -5.150129512355556 -5.347071998922374 -6.643944832949996 -5.915047533993027 -4.815730721332713 -7.9788432006299645 -6.048414038844092
-7.39899013878205 -1.6065968026775002 -5.063498315216507 -7.360905597977481 -5.523816356954148 -4.655226640791154 -5.858923480354535 -4.827827133862127

linear_afunc_stack.2.bias f8 [200]
00000000: 4aa8 e2fa 8aa6 fcbf 8233 0c59 7f1e f7bf
00000010: b7c1 dc4a a0e4 02c0 f800 eb88 c1f7 00c0
00000020: 64c6 7c40 2c53 00c0 a6c3 08de d53e 04c0
00000030: b95a 6ea7 73f4 0dc0 36d3 9251 cfcf 01c0
00000040: 2891 7345 cb52 02c0 3c91 259d fccf 05c0
00000050: ee75 7c88 653a 01c0 b97e a537 02f9 f63f
00000060: c621 7349 d2bf ffbf 9975 8b50 31bb 03c0
00000070: 106e 8797 56fb 02c0 7245 7f1d 8a92 05c0
00000080: 1d0e 6b2b 5c7a 07c0 2136 d8c6 525e dd3f
00000090: ea8d d2cf d8fb 05c0 3568 7d1e 754f fabf
000000a0: b282 bd06 3268 06c0 a38b b710 8e31 01c0
000000b0: 7241 38c1 c2d2 05c0 80bb 1ede b95a 00c0
000000c0: 8398 f5a6 5c4f b5bf 9bbf f167 b585 00c0
000000d0: 2f39 b420 a0e8 0ac0 c56a e607 f354 02c0
000000e0: 1484 6674 f094 11c0 db99 6944 9a45 ffbf
000000f0: a6a3 d250 0cfc f5bf 518b e2ef 21c2 04c0
00000100: d60f 95db f768 01c0 4a42 5837 8ee6 f3bf
00000110: b510 1cc5 7d68 02c0 9951 4b91 cb75 02c0
00000120: e57e c1ac 7ddb 00c0 379b 47f2 09cf f8bf
00000130: a508 3785 43dd 05c0 d0ee 2dd3 1f10 00c0
00000140: 7884 a749 a79f 00c0 7a28 cfc7 06a9 00c0
00000150: 7119 4ffa c555 e8bf fdbd 3ba5 ba14 04c0
00000160: 15ac 840b c5e2 13c0 e486 f5ee 933a 00c0
00000170: c8f5 4d32 8a99 04c0 2451 3b9e f6d5 f9bf
00000180: dca1 0a4d aa7e ffbf 9b26 09ac eedb ecbf
00000190: d269 78a9 3091 00c0 ca74 be35 93d8 f4bf
000001a0: ed84 499d 076c f9bf 7a1a b13f 34af 03c0
000001b0: bccd 1b3a aac2 02c0 a85b 7f0e 465f 12c0
000001c0: ac4a d16d 2e13 fabf 1561 836e b152 03c0
000001d0: 0418 668c 3602 fbbf ca7e cb11 0fd4 fdbf
000001e0: 6b3d 573d 59f5 04c0 162e d822 1828 0dc0
000001f0: e9f4 bf16 5781 06c0 3ab3 31e0 5b95 04c0
00000200: e471 899e 273b 03c0 e57c 17e2 7336 f2bf
00000210: a216 bc80 b7cc f8bf 182d b70f 6f75 04c0
00000220: ca6a fa27 9c53 02c0 41dd b117 e04a f7bf
00000230: 9e95 c23c fa37 a93f 3d7a 5ab0 0380 02c0
00000240: 4728 93f6 5854 02c0 9ea1 97e3 5038 04c0
00000250: 4ed0 8574 8329 e6bf 2c00 2644 01f3 ffbf
00000260: 7d16 21cb 5008 f6bf c59a fbfa 3056 fcbf
00000270: 9057 017b ba6d 00c0 911f 4b08 e220 ffbf
00000280: 4a31 ab92 c16e 08c0 1656 b256 0b92 05c0
00000290: 7d42 e70a d2fd 11c0 fb6f 3487 8e8a 01c0
000002a0: 3c28 f62a 6d1e 00c0 87e7 d0b3 4dc2 03c0
000002b0: 9d37 8c36 0eeb fbbf 6d33 ebe6 4f45 fabf
000002c0: ed78 8922 8a6e 04c0 ad60 5aca 5210 fdbf
000002d0: 005a 0610 5de7 00c0 4b2e bee6 cfcd 07c0
000002e0: 0f1c 4e35 6b09 f3bf 8099 786d fa99 ffbf
000002f0: 90e1 6d4b d845 03c0 46d9 0737 1b2d f9bf
00000300: 688e e74e b068 04c0 0fd4 223d 6040 fdbf
00000310: d609 b9e6 b8b3 fbbf 9d27 9348 0486 0ac0
00000320: 924e dca1 d252 0bc0 ffa4 692e 9a97 fbbf
00000330: dbd4 cd85 a110 09c0 99c5 47d2 01a7 fcbf
00000340: e026 239b eb7b 11c0 de26 23ee dc18 f9bf
00000350: f0dd f120 f754 07c0 e7ec 0985 9f15 02c0
00000360: 87ce 9a83 2f37 03c0 3705 a1ed f746 0dc0
00000370: da73 b755 035d 04c0 1e9d ba90 5429 04c0
00000380: 0bce 58f9 47d4 02c0 2892 32fd 0319 febf
00000390: 9519 3255 f830 febf 2707 d6d3 d16d 03c0
000003a0: ee25 7378 c87b f4bf 95ea 8e35 c156 03c0
000003b0: 97a3 f579 ed8f 03c0 aebd 8282 7f71 fdbf
000003c0: 52a7 1493 5724 00c0 3b14 ac41 e984 03c0
000003d0: f8ea ae15 5e70 02c0 caf1 476b 9aa8 fabf
000003e0: 7270 5372 083d f1bf 2f5b 520d e0f4 febf
000003f0: ca14 a34f c94e 01c0 01df 599d 400e f7bf
00000400: 77f6 0660 fc09 0dc0 2d9f a373 d603 06c0
00000410: 2c69 d605 faff 00c0 d433 a7bd 45c4 febf
00000420: 8d5f f89d 57a4 11c0 0d83 9673 1bf0 01c0
00000430: 9c62 7743 5285 0ec0 5b50 5537 9eca f8bf
00000440: 561f 3677 bad6 ffbf 9b82 14c6 c92d 02c0
00000450: 94a0 e4bf f927 fdbf 26d4 4356 b643 fbbf
00000460: 3327 825f 98fc f8bf d388 943e e347 f5bf
00000470: f101 a9ed 7d87 0fc0 afe2 d1d1 0cca 03c0
00000480: 0ff3 fca9 4e72 febf d1f1 e42e 5561 00c0
00000490: 01b3 f2f8 20a4 04c0 8c21 2b18 e259 00c0
000004a0: c083 7317 7a12 f9bf 1ab9 9660 717a 00c0
000004b0: d312 d529 d6f2 01c0 97bf 9ffa 8579 05c0
000004c0: f90a 2ac1 9e4e ffbf 526b 119f 33fc 03c0
000004d0: 3cf0 56ed c8b6 04c0 71fd 4f9a ffa9 04c0
000004e0: c3b7 2d1b 9f93 02c0 08c6 93dc db33 f9bf
000004f0: 6233 8307 301e 02c0 eb24 baeb d307 01c0
00000500: 8e70 3bf8 544b 02c0 8dfe 3ced 111b f0bf
00000510: 6e56 dafa 2537 08c0 082b 0753 906a 01c0
00000520: b10f 9351 08fa f5bf f719 cc48 653b 05c0
00000530: 782a c916 2980 dfbf 07df 84ee e1c9 03c0
00000540: 4d0d a265 1264 03c0 37d5 2179 ca35 00c0
00000550: 2b70 67a9 503c 02c0 bbcb 3806 b630 07c0
00000560: 9851 3524 ec60 04c0 a399 5d10 4b11 eebf
00000570: 299d 3baf d6b9 00c0 fb46 46a4 c881 f5bf
00000580: ec6b 398e db96 febf f9d2 3e07 20e0 fabf
00000590: 7f3f 5ab4 ac46 00c0 2425 3895 2d01 08c0
000005a0: 42c0 b1b3 57d3 09c0 acbd f25d 75c1 02c0
000005b0: ca2a 682d c0de 03c0 d34f a19c 3253 fcbf
000005c0: 2408 283a 1fa1 e6bf 75b4 5d58 2cf5 0cc0
000005d0: abf1 9e12 d601 f6bf 0a98 888f a220 01c0
000005e0: 697b cae4 22c0 01c0 c7b7 4191 9e75 04c0
000005f0: e06c 960a 5f1f f9bf d1a0 2394 3cf7 06c0
00000600: a72b b051 c10b 01c0 d559 6252 6e39 03c0
00000610: e583 50fe 9c8a 00c0 6aa1 2a12 4cd2 02c0
00000620: 264f f91e 7aa5 f5bf 436a 556c aa24 01c0
00000630: 221d 1e69 3d8b 00c0 2de9 a589 3f52 01c0
-1.7906598854265376 -1.444945667116571 -2.3616338585490797 -2.1209746071546043 -2.0406117475584313 -2.530681357042755 -3.7443612175514684 -2.2264696476871917
-2.290426771725965 -2.7265560414399754 -2.1535139716131573 1.4357931302728686 -1.9843314046030271 -2.4664026539382573 -2.372723754711622 -2.696552496382247
-2.9347461120648988 0.45888204019942874 -2.747972129452809 -1.6443988028536414 -2.8008766676506065 -2.1491967493070248 -2.7279105277340756 -2.044299826920394
-0.08324221683651171 -2.0652874107981467 -3.3635866694450196 -2.291479169577857 -4.395448511845661 -1.9544928238261636 -1.3740351826802253 -2.5947912922869496
-2.1762540011277265 -1.2437879716782327 -2.301021137160286 -2.3075171805487114 -2.1071732994604297 -1.5505465950061088 -2.7330389411373113 -2.0078732012169453
-2.077955794739463 -2.08253246403643 -0.7604703797194771 -2.510121622930227 -4.971454791996639 -2.0286024731329793 -2.574970620159295 -1.6147371464658784
-1.9684241303858618 -0.9018472061226989 -2.070893596636986 -1.3028747653364001 -1.5888744491606375 -2.460548875419872 -2.3450512447104455 -4.593040682338064
-1.629682949995792 -2.415377486595512 -1.6880403026893882 -1.864272183905927 -2.6197991173027524 -3.6445772859785945 -2.8131543900805025 -2.572929145352103
-2.4038841615385866 -1.1382941085537877 -1.5499796894741071 -2.5573407390380787 -2.29082518799746 -1.4557801175668177 0.04925519935322174 -2.312507035981325
-2.2911853088053564 -2.5274980335854726 -0.6925675655206847 -1.9968273794220393 -1.3770301756607346 -1.7710428051010905 -2.053578339556175 -1.9455280612910182
-3.0540801485532585 -2.696310689275161 -4.4978715613984805 -2.19265466336037 -2.014856658589478 -2.4698747680785718 -1.7448866015215352 -1.641921903635388
-2.553974408932041 -1.8164852051177534 -2.112970471566996 -2.97549419658552 -1.1897995073538856 -1.9750923420156994 -2.4091039555461933 -1.5735122823367234
-2.551117531243836 -1.8282167804839025 -1.7313775074586508 -3.315437857619101 -3.415440811668142 -1.7245122731204103 -3.1331205800475863 -1.7907732214046972
-4.371015953083514 -1.5685700704802268 -2.9164869855701383 -2.2605581658987037 -2.4019460946672697 -3.6596525730862157 -2.545416516934421 -2.520180826849937
-2.3536529045320598 -1.8811073198822985 -1.886955578609194 -2.4286228704157966 -1.2802204804487434 -2.4173607048263173 -2.4452771690452653 -1.8402094934534534
-2.017745160167501 -2.439898026527343 -2.3048669523244563 -1.6661628904977186 -1.077400633416826 -1.9347839851740891 -2.1634699079173503 -1.4409795900846236
-3.629875898563849 -2.751873877936211 -2.1249885994012825 -1.9229180725408144 -4.4104904826016424 -2.242239859610328 -3.815098311501357 -1.549467292924439
-1.9899239212699817 -2.2723575091370782 -1.8222596641371966 -1.7040313119625892 -1.5616687517926493 -1.3300507015742837 -3.941158158035471 -2.47365726396341
-1.902907051101639 -2.047525755273661 -2.5801410149637154 -2.0438882721102285 -1.5670109668792378 -2.0597865625378633 -2.2435725467824823 -2.6843375759126036
-1.956694368884824 -2.4981453349295544 -2.589250425544405 -2.5830070548687947 -2.322080814678857 -1.575160848264547 -2.2647400462068825 -2.1288221756154733
-2.2867831605090663 -1.006608893119764 -3.0269279096490243 -2.1770330893099334 -1.373543089533069 -2.6540017783438503 -0.49219729638267706 -2.4735754617976258
-2.4238632145003636 -2.0262650931787465 -2.2794507250491924 -2.8987846838076314 -2.5473254040500244 -0.9396109885827183 -2.0907415094440194 -1.344185487458559
-1.9118304782521092 -1.6797180445693682 -2.0345090951959146 -3.0005752237090224 -3.2281946219082167 -2.3444621410087247 -2.48376498674529 -1.7703119390835027
-0.7071682105890926 -3.619713487968108 -1.3754482962968761 -2.1409350598869468 -2.2188165544788956 -2.557431349580813 -1.5701589978769377 -2.870721013390814
-2.130739820660398 -2.4030424534096064 -2.0676822536774915 -2.352684156347256 -1.3528996667782365 -2.1429031814161887 -2.067988225203991 -2.16516025102205

linear_afunc_stack.4.bias f8 [200]
00000000: 5bd5 0002 8dd9 07c0 63b5 9ce4 3feb 03c0
00000010: 0c6e fe1e 4207 07c0 36fe 6650 c39e 04c0
00000020: 8561 f3e4 1e42 04c0 13c6 7370 af3e 0bc0
00000030: 2116 b32c 28f2 11c0 9e14 7e42 d343 10c0
00000040: e532 91c5 993c 0fc0 8aea a6a3 027d 05c0
00000050: 4c46 7aca acc7 00c0 fac7 6486 994b 06c0
00000060: fba5 887f 5c03 02c0 b442 b38d 26fc 05c0
00000070: b1da cbde 1c1f febf 8db8 2aa8 c397 06c0
00000080: c025 b8e8 9d91 05c0 26f4 e854 09fe 06c0
00000090: b74a 28ab b3a8 08c0 2b6e 588f 0ad9 07c0
000000a0: f69b 93bd d45d 07c0 6b8d 4e80 867a 05c0
000000b0: f03d 583d f60d 07c0 90fa 2243 8b78 06c0
000000c0: b801 3d12 c8e0 06c0 4fc6 592a c1b6 05c0
000000d0: ae16 e181 1248 04c0 36d7 edd5 8b3f 06c0
000000e0: 8d60 e375 09e1 06c0 49c6 007d f308 06c0
000000f0: 6147 733d bdb3 06c0 dce3 4da1 7adc 06c0
00000100: 06cc 8d08 230b 04c0 0212 9a76 be0e 0dc0
00000110: aa1f 1bb8 7ee7 05c0 a77c 9f6a 132a 05c0
00000120: 209b b104 e640 09c0 218a aa00 abdf 13c0
00000130: 87d9 7948 daab 05c0 9623 9851 14fa 05c0
00000140: 3656 2cb9 3c4b 06c0 fde7 de93 6645 06c0
00000150: d9fd 61ff 1780 f8bf 9b9b 074a 6b4f 06c0
00000160: ce1f a37e a477 05c0 ab13 6e8f f111 1ac0
00000170: 4721 bb2e 3a7f 08c0 7969 2366 8f32 08c0
00000180: 5375 260c c151 00c0 8ea0 9436 00a8 05c0
00000190: 4007 884e 0967 04c0 5256 e21d 603f 06c0
000001a0: e010 9eed 71f8 05c0 cd6f 9001 f14a 06c0
000001b0: 4756 2571 421c 06c0 f926 e47d f4e5 afbf
000001c0: 1eec 0a40 8fae 06c0 f40e 5a52 aae5 05c0
000001d0: c262 0264 6dde 06c0 57c3 fdd9 87ca 04c0
000001e0: 5187 996a 8da3 04c0 f52f e59d 58f1 05c0
000001f0: 7668 c739 03ef 05c0 b823 424b 56a0 05c0
00000200: fbd5 0545 1671 20c0 1dc2 cc47 760a f9bf
00000210: efb9 934b d216 06c0 2544 e412 dd3a 03c0
00000220: dafd ab90 6a62 01c0 8408 4599 a480 01c0
00000230: 98ca 6aed ec66 06c0 b3aa c8f4 233b 06c0
00000240: b6a1 5439 3e9b d33f 959c 3054 ed43 06c0
00000250: 1da7 3fda 3f42 06c0 db25 c278 19b8 06c0
00000260: c1e8 17c4 9a1e 02c0 d5f8 9222 1c55 04c0
00000270: b911 5327 70c9 ffbf aadd ca7f f06b 05c0
00000280: 90c1 b511 1f2d 04c0 b44b 3cb8 6980 05c0
00000290: 94e8 12fc 50fe 03c0 6447 18d4 5a12 fdbf
000002a0: 286c a14d e171 07c0 26dc a5ca 14a1 04c0
000002b0: 1794 3ebf 62c6 fbbf 623d f662 b8e7 05c0
000002c0: cc51 b6b1 0aa8 06c0 ed15 8cdb 0f47 05c0
000002d0: 658a cea3 1b64 06c0 f97c e0f2 852a f7bf
000002e0: c1da 75a0 6e9a 04c0 b25d f2bc d9e1 06c0
000002f0: f4be 07f4 bb74 04c0 aecf b096 d296 05c0
00000300: 6388 6362 716a 06c0 7c70 9608 2944 fcbf
00000310: 55df 693d b570 05c0 52a2 caa8 ac16 08c0
00000320: 5f78 d50d fa98 d6bf 3741 6abd 6440 03c0
00000330: a4b0 8e57 66a6 05c0 55e6 55a3 c884 01c0
00000340: 7322 fa48 2f02 06c0 4844 8b73 48f8 04c0
00000350: 0fc6 ddc2 bdc3 05c0 8874 202f 9f98 06c0
00000360: 3742 6eac 0517 04c0 d267 fa50 1414 cdbf
00000370: 4fa4 e152 86dd fcbf 1a48 493e 9484 05c0
00000380: 862f 8644 ac94 06c0 87c3 2008 8102 06c0
00000390: 335b 5c62 947a 02c0 5091 e190 5b32 04c0
000003a0: eaf0 af0f ca63 09c0 3a5d 4ea8 959d 05c0
000003b0: 6c1b 960d 21a2 d3bf 66c8 863a 2dae 0bc0
000003c0: a4c8 5510 5fab 06c0 d485 6786 1673 f2bf
000003d0: e3d4 bcee 81a4 05c0 52df 117e 8e21 06c0
000003e0: 9c2d 492b 91f3 07c0 1f22 01b6 c80d 02c0
000003f0: e366 3d4f 45bc 05c0 f11c 59c2 4764 0ac0
00000400: 755c 21fd 8381 0ac0 b557 4041 3f75 09c0
00000410: dc36 7577 2833 c53f 6ab2 98b4 84a0 fcbf
00000420: afd8 40f5 ddc0 ffbf 3c03 1e33 0972 05c0
00000430: e327 7b89 2a83 04c0 70bc 233e 1db8 fcbf
00000440: 26b2 73ad 536d 04c0 6b12 8703 04ea 05c0
00000450: d0f5 7ad4 483f 06c0 94d4 c0b7 407f 04c0
00000460: 54ae f377 31f0 05c0 f1ae d877 b72d 06c0
00000470: 150f 3d96 aabb 07c0 7a8b b256 5a59 06c0
00000480: cf88 fa91 1f3f 06c0 931d ec56 9a37 01c0
00000490: 3198 a60c 13b8 f8bf 6c43 0291 1cd9 02c0
000004a0: 6073 4193 e3d7 e5bf 915c 0cdc a392 f5bf
000004b0: 3830 ae43 0ed0 05c0 114b dc2b 3201 06c0
000004c0: 0499 14f2 bdb0 16c0 e27d 65df 716c 03c0
000004d0: 93c4 9251 2b7c 04c0 11f0 4384 3c10 05c0
000004e0: ac8e 2462 ab80 f1bf 53fc 362c 2b25 febf
000004f0: 34ef 2d22 3f91 02c0 b6df a394 8372 06c0
00000500: fe1f b683 b086 04c0 ac08 3964 6318 02c0
00000510: 50ac 4862 0eeb 05c0 89c3 7f07 1549 06c0
00000520: 38ea 0edb 94c3 05c0 a339 b5ef 2f6b 06c0
00000530: a1e3 acdd d989 06c0 abe2 f9e4 86a0 04c0
00000540: c57f 03ab 2008 05c0 aa56 9a20 92a2 05c0
00000550: 7acf d3ac f29a f63f 6c5e 0f11 2b10 06c0
00000560: 00e9 7a08 ae0c 0bc0 c170 8781 280d 0ec0
00000570: d505 46df 1bbd 05c0 3dab a5eb e613 06c0
00000580: ed8e 1a70 68aa 00c0 6679 5c0a a5c4 04c0
00000590: aead 125f f8da 05c0 d19d fc3d 9b3c 12c0
000005a0: 8d94 54c1 a3f2 05c0 59a2 56b2 9f21 08c0
000005b0: c115 1ac4 6d0d f8bf fdf6 5944 885b 06c0
000005c0: 1237 0da0 9be4 08c0 657d 1ae2 79c2 00c0
000005d0: 1ce9 04e1 445f 01c0 33d3 5ad7 5470 06c0
000005e0: cd20 cae5 068e 05c0 4137 f068 ad34 debf
000005f0: 67a4 dbda 3ed6 06c0 4cdb 28b9 6cd7 05c0
00000600: 2019 e91e eaa4 04c0 a334 8100 30fa fabf
00000610: 06db 24ce 2d39 06c0 8d90 a9e8 c087 0dc0
00000620: e73d ba78 fd64 05c0 cd44 d532 c2a7 04c0
00000630: 15c6 0e6e 1f1f 06c0 f29e 5155 7946 08c0
-2.9812259823326435 -2.489867960007062 -2.8785440846820673 -2.5775209695273373 -2.532285488774678 -3.405608061345228 -4.48648137896592 -4.066235579438539
-3.9045901713310394 -2.686040190249803 -2.0974975412907835 -2.786913919401738 -2.2516412700249453 -2.74812040999708 -1.8825958922367756 -2.8241036546742806
-2.6961019688794465 -2.8740412362663106 -3.082373940627203 -2.980977172743015 -2.920815926615883 -2.6848268531772894 -2.881817321067267 -2.808859371666877
-2.8597566056125423 -2.714235621323304 -2.535191549951228 -2.7810284341057026 -2.859881325723171 -2.7543706670628905 -2.8377632904820733 -2.857655773343579
-2.505437914683628 -3.632199217392782 -2.7380346663739674 -2.645544846527247 -3.156688725156883 -4.968425760659131 -2.7089124357400496 -2.7471090673975125
-2.7867369143157488 -2.783887057533319 -1.5312728858842688 -2.788778856618092 -2.6834192174464766 -6.517523041814381 -3.06212269314361 -3.024687574344338
-2.0399189900623838 -2.707031656656972 -2.550310719991927 -2.7809450468728665 -2.746311050783433 -2.7865924951747503 -2.7637986030120234 -0.0623012927699857
-2.835234165509532 -2.737141269086232 -2.8586070836284714 -2.598891928726896 -2.5798595741370396 -2.7428448043410705 -2.7417053712825306 -2.70328959270088
-8.220873028719316 -1.565054207294572 -2.7611432938058367 -2.403741977301723 -2.1730548193442987 -2.187813947123745 -2.8002565906729835 -2.7788771747339864
0.3063502845639293 -2.783167512639532 -2.782348351542977 -2.8398923334359387 -2.2649436301990993 -2.541557569608907 -1.9866792236435755 -2.677704809549785
-2.522031916007286 -2.6877016442681114 -2.4991779034872454 -1.816981152053324 -2.9306055130851014 -2.578652938067097 -1.7359340162740915 -2.7381446582218567
-2.83205164754529 -2.659698214733672 -2.798880843868846 -1.4478816497210671 -2.5754063163725225 -2.8602785836662514 -2.5569991173614373 -2.6986438534458648
-2.801974075949191 -1.7666406951384763 -2.6800331876692476 -3.0110715090598115 -0.3530869612785689 -2.406442146115434 -2.7062498894138844 -2.189835811671211
-2.751066751607419 -2.6212319399715263 -2.7205767845087006 -2.824522369554476 -2.511241290201976 -0.22717527345667904 -1.8040831792407237 -2.68973587666643
-2.8225941995096404 -2.751222671031829 -2.3098533329424753 -2.524588710674074 -3.173725245053096 -2.7019456051745268 -0.30677057577889033 -3.460047204244847
-2.8336774135760425 -1.1530976534053154 -2.7053259517075374 -2.7663850640491683 -2.9939292318064883 -2.256730482015214 -2.7169290724385617 -3.2989649947590967
-3.313240029888727 -3.1822495553742223 0.16562372048286178 -1.7891890577840521 -1.9845866756636885 -2.6806816094907884 -2.5640459767064256 -1.7949497630432028
-2.5533822585041603 -2.739265468177384 -2.780900630953262 -2.562135158130852 -2.7422818537941485 -2.7723225939752116 -2.966633962381716 -2.793629338573223
-2.7808219341833147 -2.1521498480612506 -1.5449400419397643 -2.356011517411778 -0.6826036335074654 -1.3483007999073247 -2.7265897071393077 -2.750583975467983
-5.672599585063157 -2.427951569828779 -2.5606294987597464 -2.6329279263718566 -1.0939134439185336 -1.884074375833525 -2.320921198870474 -2.805915032626184
-2.5657663621859674 -2.2619083242326123 -2.7397735289028233 -2.7856846414437695 -2.720498763458888 -2.8023375250988507 -2.8173100775133695 -2.578382290721796
-2.6289685593073693 -2.704380278310812 1.4128290892667494 -2.757894643098373 -3.3811913168439105 -3.7564249152620452 -2.71733831818049 -2.7597177896435867
-2.0832070119957877 -2.596017914721574 -2.7319190433097083 -4.5591859517512185 -2.7434764007508137 -3.0164178784073497 -1.5032785091619731 -2.7946935024218633
-3.111624956515592 -2.0949590362867405 -2.1715180949805823 -2.80484932180334 -2.6943490936574563 -0.47196517227063245 -2.8546120737342338 -2.7301878419488386
-2.580524674881545 -1.6860809344973766 -2.7779193978307175 -3.6912859131571794 -2.674311583694123 -2.581913373120733 -2.765196666551456 -3.0344111123594013

linear_afunc_stack.6.bias f8 [2]
00000000: 6025 9f15 e0b5 eb3f c1bf 2e6d 2cc9 dcbf
0.8659515783594252 -0.4497786585079631

onnx::MatMul_53 f8 [5, 200]
00000000: a3a0 dd55 939b d33f f675 b293 ce52 f53f
00000010: e86d 90ba 836a e33f 46ee 4b4a 89d7 bd3f
00000020: a72a dc87 9327 993f ee91 aafa 3485 d23f
00000030: c127 add5 abc9 e83f 6d3e b918 af0f cabf
00000040: 8b16 c9cd ccd4 cf3f 64a7 8a26 f290 c7bf
00000050: 7ab6 ce35 97a5 e13f 9c8b e1af 31a2 e43f
00000060: 89fe 81e2 f16d e73f 9d3d 24e5 4551 e63f
00000070: 0198 d2d4 79a2 f13f 3877 f2c2 e44a dc3f
00000080: 53c7 6c0f d849 f13f 391b 0340 8cee df3f
00000090: 4854 5664 9f7f e23f 4d97 c21c 3854 a1bf
000000a0: b81b aaf8 b5e2 f33f c178 e2d4 fecb d03f
000000b0: 21a6 aa58 5e66 cabf 9e5b 627a 24d2 d03f
000000c0: b330 352f 2beb ea3f 16ae 2dd7 804b f13f
000000d0: d9ce 4634 d661 e43f 3af2 e767 cdb2 f63f
000000e0: c3d0 1ea5 27cd d13f 45e3 4b91 2580 de3f
000000f0: be6b d86a 43cb c73f 604b 03d6 171a c2bf
00000100: e1a2 4de7 58c2 b43f e6ca 0050 df30 e13f
00000110: ca33 8af2 a1f7 a03f fa99 6b42 451c db3f
00000120: 04e1 70d0 63ac 0340 7d83 2163 f43b e23f
00000130: 3bbc 506b 8dec d33f 1140 6660 da61 dd3f
00000140: 2cd1 1b8a 3815 a3bf 66c7 7b96 377b 9cbf
00000150: 584f c2fc 48b2 d33f 52ca 51cb 1eb8 96bf
00000160: 8d96 355b 1fa6 e13f 3514 aad2 0767 be3f
00000170: 38d9 e03d bf56 f13f 56dc ef73 5dff d23f
00000180: b77e 1fba a3cc d53f 4139 273a 1a2e b3bf
00000190: 74d8 93f3 f40b a0bf 1b76 bcca d052 d43f
000001a0: ccbe 8854 9de3 e13f 3d18 16f1 9ddf de3f
000001b0: de55 7253 dbf4 b63f 80c6 dd92 2689 c8bf
000001c0: 4f37 4808 8798 e03f 4ba3 24cb 6449 dfbf
000001d0: b640 8696 54c2 d93f 2f05 28b1 fc36 e93f
000001e0: c28b 9f99 87b8 c43f 7eee 91dd 1a34 eb3f
000001f0: 0f81 f692 2ddb d73f 15d9 01c2 b4e2 f23f
00000200: 2ef9 435b 0ac3 d83f a8e6 16f7 1add fe3f
00000210: 9da2 8495 83a9 e93f 445b 8f1e 9ba0 f4bf
00000220: 7744 db41 c589 e73f 8edc eb1c 66fc bdbf
00000230: a4bc c7dc 6caf b1bf 8911 ab79 58b1 e63f
00000240: 31ce 4f88 9d22 d03f 9112 93c3 1d27 e03f
00000250: af37 f807 8f0a e0bf b6f3 1ef1 5ede eb3f
00000260: 51f7 f392 1845 e03f 493f 1d55 dee0 efbf
00000270: 5e8b 3c16 aa97 d13f 8b33 1b84 b5d2 b23f
00000280: 83df 7ac4 bf6d e33f e2ca 1c05 f3dd ad3f
00000290: e020 2c8c 35c7 df3f e8de a16d 8f7c f3bf
000002a0: 0294 fc78 bf75 7a3f 48fc 9507 cdd2 eabf
000002b0: ac6f c528 3b3a d5bf 645e d657 cd8b d53f
000002c0: 50ea b929 0eef c53f 6b88 0d15 bd1f f03f
000002d0: 6df7 0717 487e f23f 13db 53ed 0fa7 d7bf
000002e0: 9074 b822 ef36 d33f f8aa 118b 0634 d33f
000002f0: a482 319b 0c3a d23f e866 2140 2c5c da3f
00000300: acb7 94d8 52ab b23f 8ed0 4007 9745 be3f
00000310: 8fbe d1e5 5af9 b33f a19e db56 a39e 973f
00000320: 678e 9e06 1f29 d53f 3bbd febb 2eed de3f
00000330: c308 aae5 a48f cd3f 1ecd 907f 644c e63f
00000340: 99f8 7cf8 e42b b0bf e385 85a0 6d58 e63f
00000350: a924 36b4 7ea7 d33f 0416 b6ca 5d9f f9bf
00000360: c5ca d2b0 384c bebf a61a 6b73 b316 f63f
00000370: 7431 c207 fced d03f ca33 2ca8 43ba c83f
00000380: d241 9898 41a2 a83f 4338 86aa 5058 71bf
00000390: 74e1 80c5 1322 e33f 632e 2fcf ed39 c73f
000003a0: b4c2 ecda 6b4e dd3f 20ce cf65 15ce d13f
000003b0: 0361 3767 6e18 d13f dc6f a2fb ae7c e43f
000003c0: d79a ad35 779f ea3f 0222 6a77 5314 ef3f
000003d0: b6f4 65f1 60a1 ba3f fa80 2b21 44a2 a83f
000003e0: 23a1 055a 4c34 c83f b267 503d feee da3f
000003f0: c6f7 7fdb 3b32 f93f 0d40 0ba3 edf0 f63f
00000400: 3bc2 b029 a4ed a1bf de32 0b88 0ed2 923f
00000410: 0cc5 2dd2 a4b2 01c0 093d 702a 0407 e83f
00000420: 591d a889 f05d ac3f 97bb 7ed5 67a2 b13f
00000430: b450 f083 16a2 dd3f 9c2b 80ba 5619 f03f
00000440: fe3f 1312 6ec3 67bf 3603 bf0c 6acc d63f
00000450: 102d f77b 8b92 7f3f aea6 4238 788e c0bf
00000460: 373c b307 b7e4 e63f 8d97 f1e5 2c2f e43f
00000470: 7eec cfe0 ece5 e23f 9937 248c 482f d93f
00000480: 4e06 f1bb 7ef0 d73f dd3e 2a9f 6fcd d63f
00000490: 1bda eb57 1944 b93f 73d5 52c7 6014 ee3f
000004a0: c563 6108 0a10 e23f dd5f 8800 c7fa df3f
000004b0: 8d5e f643 50da d63f 500b cf21 d138 a43f
000004c0: e8ad e12b 7e91 c2bf 9525 3386 0110 c2bf
000004d0: 55c8 f081 89d8 b43f 84a3 b7e3 72d6 c03f
000004e0: 1286 b047 b67f b13f 7a3c 2666 003c c33f
000004f0: 5e35 0133 d937 d13f d2b7 6be9 859e c43f
00000500: 0d89 3b68 b414 c2bf 1f96 0b9c c4e2 e53f
00000510: 428f ce33 8f15 f33f 9892 624d 3bd5 e83f
00000520: 97a5 dad6 1c7e f43f 50a3 1496 f2f3 ea3f
00000530: 2e38 f8bd 9de7 acbf 7684 987e fff8 e63f
00000540: 9e80 1251 1e71 e23f 47a6 bfbf 8121 e63f
00000550: 7bda c58e 2eb1 aebf a518 b24d 9b8e f13f
00000560: 9189 6020 7a53 b73f b01e 8fe6 1145 db3f
00000570: df48 6c4b 1daf cc3f 3585 4b63 fdf1 cc3f
00000580: 17e3 decc 8c8b c23f 64e2 3401 e34b e63f
00000590: aa60 124d 01cc e13f 6831 ab65 0b4b d63f
000005a0: 353a 4251 d257 f03f 944b 5a06 8df6 e13f
000005b0: 03cc 6d3b b9a9 b33f 4e30 ef2f 18e3 c83f
000005c0: 86ee a423 f5d4 f8bf 4465 2358 568b f53f
000005d0: b65c 9e1e 0d1a d73f b3ec 3491 3d09 d23f
000005e0: 41ea 25cd af1d e53f dfbd 5ea2 0ab1 c23f
000005f0: aa96 893a e2a6 74bf 53dd a6e6 4a70 af3f
00000600: fd3d 3cf5 5f73 e6bf 005d bb7b 1bb5 ab3f
00000610: e841 46d8 1941 bc3f b3b6 20f2 8eda c03f
00000620: a519 4a54 3517 d1bf 5086 4d4d 6571 e43f
00000630: be59 cf6e cf48 cb3f 53b6 6bff 232e eb3f
00000640: 6e08 e7e7 99e9 a3bf 8624 e4ed be60 c6bf
00000650: 5552 44ad f321 703f a13f 88a0 1f77 a03f
00000660: 9a8a fc63 3f32 793f 6507 3e0c 0487 f2bf
00000670: cd21 e44f 607d e0bf 7467 ea89 36ab ccbf
00000680: e5a0 45f9 1f67 f0bf e772 4e32 2b05 c83f
00000690: ce5e 9f6f 241e d3bf b8a1 9354 115f e7bf
000006a0: cbfa 971c 842a 14c0 f215 5eac b35f dabf
000006b0: 157a 664c 706a 01c0 babc 03d0 4007 edbf
000006c0: 8d9d 2a20 f888 13c0 fc2e c309 3e95 07c0
000006d0: 3e8d 0bec 2d65 8d3f 67dc ef66 5a2d a2bf
000006e0: 7ff8 e75a c7bd e7bf 1270 c7ab 9116 00c0
000006f0: de85 3cbb 6bec dfbf 28a7 22e9 a343 eabf
00000700: 2c6e 8f1b 4bfb ffbf 9ae7 513f fd44 fabf
00000710: 641c dfa8 c389 bf3f 524b b7eb fc3a d2bf
00000720: b378 18e0 5f31 e7bf 7a10 8dd3 b764 c63f
00000730: 2211 7c79 b5b3 a2bf 6242 6cdb b9d6 aa3f
00000740: 581e 68ec f7e8 9bbf 4b64 8bf6 4f1d f0bf
00000750: dbda b66b 3206 cc3f e936 3151 7aa8 04c0
00000760: 231e 3cc5 be0b d1bf fbf7 d7ae 6b25 f4bf
00000770: 88c7 f45b d3a9 f1bf d9db a27d 349d e5bf
00000780: b232 0f80 4735 a03f 045d 055d 41d1 dabf
00000790: 6ae4 eb92 4af3 b4bf d364 7077 4af3 5dbf
000007a0: 0d0b d155 2a04 02c0 bd60 0a38 b3f2 903f
000007b0: 13ad 7ca7 40af 01c0 e28e 2bd5 d2e9 ce3f
000007c0: 5076 b8a3 ee8f bcbf a819 02de a713 91bf
000007d0: 855e ad1d 4e04 c7bf 8a26 7038 640b 9bbf
000007e0: 0dd5 4310 8c56 c43f 994f 60f6 f953 ebbf
000007f0: 9f3e 3dad 84f4 dbbf e390 5b4b 030f f4bf
0.3063705767185729 1.3327165383737998 0.606752266295584 0.11657007278329798 0.024565034072149185 0.2893803069985371 0.7746180699698401 -0.20360363681037388
0.2486816410839093 -0.18411089784541013 0.5514637041976151 0.6447990832497115 0.7321710037212635 0.6974210238858408 1.102166968668371 0.4420711425571997
1.0805283167396353 0.4989348054045198 0.578078933688297 -0.03384566641879747 1.2428493226486648 0.26245089330212684 -0.20624903993056967 0.26282607986052564
0.8412071153666346 1.080933418789646 0.6369429608370992 1.4186529215650254 0.2781466591361658 0.4765714568052782 0.18589060513553862 -0.1414212985024177
0.08109050414135367 0.537215858703658 0.03313928685847818 0.4236004971156998 2.459174755520623 0.5698186813498151 0.311313013839882 0.4590974751854456
-0.037271277293174115 -0.027813786086830737 0.30775665935037955 -0.022186738166462945 0.5515286237175175 0.11875962155507198 1.0836784760591183 0.2968362457463106
0.3406152074439705 -0.07492221755749019 -0.03134122346266191 0.3175546626897316 0.5590349818284834 0.4823984960897894 0.08967371737738669 -0.19168550654608296
0.5186190759429595 -0.4888545974559306 0.4024859876599395 0.7879622898182442 0.16188139916547867 0.8501104667224835 0.3727525649246823 1.1803481653601626
0.38690432465218094 1.9289807941371837 0.8019426269794 -1.2892104333638637 0.7355676923999813 -0.11713255125128993 -0.06908302679197448 0.7091486336071721
0.2521127539796196 0.5047749347509854 -0.5012889056831592 0.8708948811905575 0.5084345693755755 -0.9961997663867602 0.27488186046155316 0.07352766490221378
0.6071471059321855 0.05833396375091639 0.4965337628241411 -1.2179102213394177 0.006459949436053771 -0.8382325313722356 -0.33167914372983875 0.33665784433239865
0.17135788953221942 1.0077486822488264 1.155830469098386 -0.3695716684009522 0.30022791281391736 0.30005038815458773 0.28479304462056576 0.41187578451864093
0.07292669093723586 0.11824935843543669 0.07802360640357107 0.02306609361303791 0.3306348385469619 0.48322647436994587 0.23094617094108658 0.6968252650753219
-0.06316977564435645 0.6982944617449757 0.30709807966975206 -1.601407806244766 -0.11835054699876497 1.3805422314195908 0.2645254207389123 0.1931843348651497
0.048112916829385136 -0.0042346144695227265 0.5979098184098306 0.1814553510324571 0.45791145686511503 0.278203343797232 0.2671161659213938 0.6402201571213442
0.8319660232926606 0.9712312061611217 0.10402494328987441 0.04811299233347373 0.1890960158882616 0.42083698260978075 1.5747641157354209 1.4338203781990189
-0.03501618393818658 0.018379427960826138 -2.2122284336297806 0.7508564785838711 0.055404202274128074 0.06888436281472675 0.4630180633987593 1.0061862263853305
-0.002900805455830379 0.35622645611515524 0.007708115444482702 -0.12934782740676581 0.715419306792575 0.6307587138260132 0.5905670538771941 0.3935109489983631
0.37405365327513074 0.3562888197275081 0.0986953582431415 0.9399875538862673 0.5644579089813467 0.49968123485586863 0.35707480084372706 0.039495978714987445
-0.14506508963255205 -0.14111346295093755 0.08142909452797771 0.13154445761690792 0.0683549809478097 0.15026860225450261 0.2690337179272627 0.16108774087427818
-0.1412568577716872 0.6839316413649533 1.1927635215478891 0.7760292540957208 1.2807892220247135 0.8422787600767183 -0.05645459121670658 0.7178952667783409
0.5763084014361259 0.6915901894655655 -0.05994554035981011 1.0973160777080377 0.09111750879723092 0.42609069362195395 0.22409406836283716 0.2261349425162195
0.14488372806024394 0.6967635177198415 0.5561529641445493 0.34833035400949663 1.0214408086936946 0.5613465427471618 0.07680852604771364 0.19443037357848642
-1.5519915954927526 1.3465178912068305 0.3609650420198237 0.2818139951738871 0.6598738676833095 0.14602787903048317 -0.005041965203962976 0.06140359941076192
-0.7015838422539101 0.05411611447714826 0.11036836176049969 0.13166987249990356 -0.2670415232791135 0.6388422498532211 0.21315949354784708 0.8493823994337596
-0.03889161067810752 -0.17482744804172884 0.003938629019348901 0.03215884050962293 0.0061514354891040405 -1.1579628446783883 -0.5153047142385333 -0.2239750073829857
-1.0251769768893209 0.18765773731583765 -0.2987147417129393 -0.7303549434555441 -5.0415195911179564 -0.4120911772991739 -2.17697200477347 -0.9071353972230078
-4.883759024239578 -2.947872234601048 0.014353140607858191 -0.0355022669463601 -0.7419163489828547 -2.011020032905443 -0.4988049820404664 -0.8207568696427403
-1.998850925118755 -1.6418430779872097 0.12319586632576002 -0.2848503400720591 -0.7247771622530962 0.174948671623614 -0.03652731998411897 0.05241947940351534
-0.02725589161312167 -1.0071563368458267 0.21893911609159641 -2.5822645514625617 -0.2663418699380335 -1.2591358976201252 -1.1039613334691882 -0.6754400686103238
0.03165648878311823 -0.41902193149640277 -0.0818373306937176 -0.0018280245983588919 -2.2520338730258858 0.016550827308123617 -2.210572536938011 0.24151072891901665
-0.11157123086055631 -0.016676543164544505 -0.17981888245661906 -0.026410642571170352 0.1588912085932538 -0.8540010273013535 -0.4367992107190534 -1.2536652511271817
