models/onnx/NH3_net.onnx (onnx, 662811 bytes, 8 tensors)

net.linear_afunc_stack.0.bias f8 [200]
000000 4c c8 e2 73 10 cd a8 3f 4c a6 96 11 4d c7 d2 bf
       0.04843951620695516 -0.29341437070488463
000010 c7 56 ec 94 27 50 d1 bf e9 62 55 62 ca 46 c7 3f
       -0.2705172495201222 0.1818478565353623
000020 46 1e 36 db eb 9a c4 3f a7 7c b0 8a f9 5c c2 bf
       0.1609778232925569 -0.14346236488288364
000030 54 c7 4d d5 2a 0a d7 3f 6b 9a ec 3b e8 04 92 bf
       0.35999556379748765 -0.017596844346508805
000040 fc 84 4a c5 fa ea ce 3f 9d c2 b9 ad 45 9f e3 bf
       0.24154600747446142 -0.6131924050406102
000050 90 f6 ef b6 9b eb d3 3f b4 5f a1 01 ce ec cb bf
       0.3112553869722001 -0.21816420631034605
000060 77 58 b2 cc 52 48 d1 3f 07 4e 8f b4 0c 27 d7 3f
       0.27003927221210894 0.36175840027610245
000070 8b 41 2b f4 1e c1 a6 3f 3f 2b 9f 68 a3 23 ca 3f
       0.04444214563921197 0.20421259506687225
000080 3e de a7 6c 70 7a cd bf ce 59 62 ea 04 75 b2 3f
       -0.23029904656844907 0.07209807131071175
000090 9b b3 75 1f b9 4b d3 bf f2 25 fe b4 5d 6b 90 3f
       -0.30149677345507947 0.016034568950578483
0000a0 d2 77 df 55 38 ac c8 bf 66 c7 31 ce 3a 14 dc bf
       -0.19275573914541028 -0.43873472343613285
0000b0 dd 59 45 7a b7 d2 bc 3f ba 0d fa f2 da 71 c2 3f
       0.11259028182153182 0.14409958709812348
0000c0 4d 73 41 44 3d fe d2 3f 5d b8 96 fd cf d8 d1 3f
       0.2967675367888674 0.2788581825688022
0000d0 84 be 4c 9e 73 bb d1 bf e1 1c 13 aa 12 5a b7 bf
       -0.27706613978350725 -0.09121815349782338
0000e0 58 a5 69 c8 47 ca d4 3f b9 9c 97 68 3d 64 d3 3f
       0.3248462159304686 0.3029931565674349
0000f0 0c a3 4f 1d 4b 27 ce 3f e4 f7 a1 a4 84 16 d3 3f
       0.23557413989262732 0.29824939801608097
000100 eb 75 42 cb 73 db c8 bf 29 c9 21 5b 9a ea b9 bf
       -0.19419715332780582 -0.10123600697423697
000110 4f 95 b3 c6 41 fb c9 bf b4 21 c0 6c 4f d8 db bf
       -0.2029802532407907 -0.43507753009955796
000120 cf f8 10 4f 73 e0 c3 3f c9 f0 94 70 bf 98 be 3f
       0.15528718338641176 0.11951824663714485
000130 bc 37 09 13 49 58 4f bf 2d af 08 ff 87 0e c1 3f
       -0.0009565693672557367 0.13325595810726423
000140 85 1c d7 f2 cc 3c cb bf a9 a5 72 37 7a cc d4 bf
       -0.21279298646388525 -0.32498031058147575
000150 c4 a5 20 7f 99 0f bf 3f 17 01 bc 7b 50 3e aa 3f
       0.12133178094577263 0.05125667105130754
000160 7d 2d d6 0f ee 46 ab 3f 20 ea 22 b9 ef 2f 62 3f
       0.053275527413542335 0.002220123490670703
000170 53 c5 5a 90 85 2e b9 3f 6e ad 57 74 57 87 8b 3f
       0.09836611532479837 0.013441737401953726
000180 5a 6d 98 d7 38 bd cf bf b8 ba 79 ba b4 de df bf
       -0.24796209838028 -0.49796789370058603
000190 a9 0f 21 96 43 6c db bf 5c 3a b0 ee ca 2e d0 3f
       -0.42848291073846184 0.2528560000363649
0001a0 c7 18 f3 fe 04 80 dd bf 03 6a c6 2e 91 0d d8 bf
       -0.4609386911146313 -0.3758280712878845
0001b0 da 10 8e d0 8b 28 c2 3f 35 2e bb 21 c1 01 d9 bf
       0.14186237033221155 -0.39073208135662024
0001c0 21 0b 3f 99 8c a6 c8 3f 26 df f1 cc 6c fe c9 bf
       0.19258267863013948 -0.2030769348818861
0001d0 3a a3 ae 85 ba a6 ba 3f e9 12 8a c0 46 ec c3 bf
       0.1041065765736108 -0.15564808274589062
0001e0 09 9e e8 53 af 28 d3 3f 6e 61 65 9c a5 7f c3 bf
       0.29935820764737336 -0.1523329747822219
0001f0 ad 07 ab e5 f5 b4 b9 bf 11 33 6f 9a 4a 5e cc 3f
       -0.10041748864298823 0.22162754574528568
000200 2b ea f9 1a 72 53 be bf 92 5c 25 8f 9a f5 71 3f
       -0.11846078070258474 0.004384616610273133
000210 b9 23 bd 70 bb e8 d8 bf da 61 72 c4 67 78 d2 3f
       -0.389204845520506 0.2885989588189922
000220 b8 63 82 a5 ce 7a bb bf 8b b9 b8 42 da e8 c1 3f
       -0.10734263935809352 0.13991859681977944
000230 e0 09 0c d3 ac 7e c3 3f 1e 5e f0 20 3b 53 d0 3f
       0.1523033171179824 0.2550800153416918
000240 d0 e2 89 6f 3a 02 d1 bf 38 53 53 2e 25 51 bc bf
       -0.26576100246851997 -0.11061317807191251
000250 6d c9 f8 ce b7 02 9c 3f 55 e5 f6 32 25 c1 d1 bf
       0.027354118354375446 -0.2774136541080073
000260 86 2d 63 f2 61 df c1 3f 75 31 f2 75 1b 69 ba 3f
       0.13962959609339637 0.10316630963843017
000270 96 88 49 4e 2a ff d6 bf 67 95 b7 28 07 83 b2 3f
       -0.35932405133474654 0.07231182807989499
000280 ad aa 2a fd d1 2c 87 bf 2c a8 9a af 80 a6 c4 bf
       -0.011315956629308255 -0.16133125852985708
000290 43 32 2b 37 80 17 d4 bf 50 77 fd 73 01 41 e1 bf
       -0.31393437755176395 -0.5391852631980587
0002a0 ea e8 48 7d 2a 0d ca 3f b1 1b ca 89 c7 89 c7 bf
       0.20352679364606924 -0.18389219501497459
0002b0 7a 06 56 67 46 1a d7 3f 3c a6 88 4d 7c 8b c8 bf
       0.3609786996022205 -0.19175676141576214
0002c0 4d e2 3d c9 f4 99 b5 bf 60 d0 5f a4 7c 52 c3 3f
       -0.08438043511513023 0.15095479990089
0002d0 94 44 da 78 03 2e dc bf 11 03 27 57 b0 0f d5 bf
       -0.4403084449960002 -0.3290825701806606
0002e0 b7 65 5e 19 72 b1 d8 bf f4 68 df 40 d4 cb ce 3f
       -0.3858304260007474 0.24059537093746253
0002f0 a8 7a bb b9 9f 42 d4 bf 8b f0 ee c2 d9 5b e2 bf
       -0.31656640184329854 -0.5737122351925036
000300 9a 79 31 e8 90 eb bb 3f b3 02 4a 6d 56 78 99 bf
       0.10906320256024174 -0.02487311403320076
000310 e4 98 45 b3 ea 86 c2 3f d3 51 fb 28 19 16 da bf
       0.14474233392247193 -0.407598772069176
000320 29 ae 20 15 0c 2e bb 3f 12 49 a4 a9 e9 d6 88 bf
       0.10617137447177839 -0.012128663529925397
000330 15 09 db 00 e7 01 d0 bf f7 1d 8e d8 6a a1 c1 bf
       -0.2501161106448689 -0.13773856710416485
000340 12 85 47 3b 4a ad de bf f2 1d ad 97 2e e3 d6 bf
       -0.47932678021432296 -0.3576160889828933
000350 2f 01 5c a2 c5 e5 d5 bf b0 b0 66 9a b7 00 81 bf
       -0.34214917045030097 -0.00830214919991365
000360 86 a3 fd 42 3c 0e c4 3f be 13 1b c0 36 4f c7 3f
       0.15668442984613423 0.1821049154297309
000370 30 1b 20 f4 b9 1b d2 bf 16 88 75 c1 03 40 e2 bf
       -0.2829422840153937 -0.5703142908571432
000380 b5 ec 32 5e ca 6d a0 bf ea 36 46 c0 68 2a d3 bf
       -0.03208763503922666 -0.2994634511640998
000390 80 f9 90 6e aa 3d ce 3f 58 3a a9 d5 78 af d8 3f
       0.23625688933129751 0.3857099615605981
0003a0 87 4a 4f 7d 00 aa c1 bf 9d 4f 61 fd b7 26 c3 bf
       -0.13800054663314062 -0.14961910125805114
0003b0 c5 a1 ff ca f4 7b d1 bf 71 69 59 2d f7 c7 d6 3f
       -0.27319068740919433 0.35595492771758247
0003c0 d3 d7 1a be 23 51 bf 3f e1 fb 54 59 32 96 c2 3f
       0.12233184233886556 0.14520863878166693
0003d0 cc 2c f0 91 ab 79 b6 3f f7 68 27 b4 8b d0 97 3f
       0.0877940398497003 0.02325647627899571
0003e0 bf 27 69 bb 93 3b d1 bf 4a f7 8f 21 17 c5 b2 bf
       -0.269261296289752 -0.07331986016648986
0003f0 e6 d1 49 49 65 49 d5 bf 58 fa 70 f5 60 23 c5 3f
       -0.3326047149378425 0.16514217361869288
000400 6c 90 45 29 a7 8d bd 3f fc d3 f7 96 54 d4 cd 3f
       0.1154427028428146 0.23304231044281198
000410 4f 9d 77 d6 98 66 c1 bf 34 6d a3 70 2b e7 db bf
       -0.1359435126498547 -0.43598447799532214
000420 d9 39 b8 be 50 41 b0 3f 91 1e 30 11 5d 9e db bf
       0.06349663406601937 -0.43154074362289757
000430 7b 00 f4 15 d8 3d c8 3f e1 27 d3 ae d1 88 c0 3f
       0.18938733169489183 0.12917538677567023
000440 88 a4 d6 80 17 c2 ce 3f 0a 76 8f 73 da dd c9 bf
       0.24029821196498724 -0.2020829262027493
000450 fa e7 c4 7f 5a 3c d5 3f 68 2f 9d b9 0e 4e d2 3f
       0.33180868604142655 0.2860142529141201
000460 54 ac bd b4 05 e3 e0 bf a5 e8 28 74 da 7f d1 bf
       -0.5277126817794717 -0.273428548276238
000470 08 a9 1f 61 6e d0 c7 3f 6c 95 95 83 a4 28 b0 bf
       0.18604831449858517 -0.06312015736110305
000480 ce d9 cf dd 00 51 b8 3f 68 13 39 15 ca f1 b0 3f
       0.09498601355867395 0.06618941324366079
000490 6c e5 ff ae 2a a9 d0 3f 38 8c 47 c9 6e bf d7 bf
       0.2603251179676451 -0.3710591283435778
0004a0 b1 6a b3 98 2e a5 bb bf 8b ae e7 4a b8 ea d3 bf
       -0.1079892275624086 -0.3112011653417787
0004b0 7d 1d 14 84 d9 7c d6 bf 7b 26 b9 62 ef 9b d3 3f
       -0.3513702192144235 0.3063925232023405
0004c0 ec 58 0e bf 7f c2 d4 bf ba ea 73 68 ad fd c9 bf
       -0.324371277406853 -0.20305411911234278
0004d0 e1 74 cc 9e 0f 34 b2 bf ff 29 09 e2 23 6b c5 3f
       -0.07110688807411548 0.1673321584406295
0004e0 b3 a1 56 2e 4c 6b 95 bf 4b 4f 5e 56 69 28 82 bf
       -0.020917120292922763 -0.008866141269926372
0004f0 62 e2 3a e3 84 e2 da 3f 8e 8c c5 6b 86 de c3 3f
       0.4200756281893857 0.15522842657364716
000500 c3 da f8 a4 d2 65 da 3f 6a cd d5 d0 ae 2a cc 3f
       0.4124647723250911 0.2200525779440839
000510 75 fc d6 f2 ce 44 bd bf 2e 22 bd 22 7c 37 d0 3f
       -0.11433118275361827 0.25338652985058985
000520 53 2f 25 53 84 1b e0 bf a4 b4 e2 25 3c 2c d1 3f
       -0.5033589958124857 0.2683248872734316
000530 1d 11 23 f9 37 64 ae 3f 44 fa 25 01 06 eb 9b bf
       0.059358357584218015 -0.027263730831231806
000540 6f 46 33 23 0d 30 f3 3e 38 de 70 85 ea eb d4 bf
       1.8298817121847917e-05 -0.32689917594277373
000550 24 34 2a 00 f1 51 dc bf df 08 64 69 2a 62 db bf
       -0.44250130668734955 -0.42786655704561655
000560 dc e2 c2 ac fc 49 d0 3f 5e 02 e9 61 be e9 d2 3f
       0.2545158087846582 0.29551658212225174
000570 af c6 11 93 ba db c6 3f b1 a8 d8 df 84 51 a2 3f
       0.17858059102177523 0.03577819092272828
000580 75 20 2c 55 e5 ec b5 3f 12 81 8f 34 61 29 c5 3f
       0.08564599351314135 0.16532530847963095
000590 b3 01 22 44 bb cb 8d 3f 0a 97 82 e8 09 ab d4 bf
       0.01454874326395914 -0.32293937402788286
0005a0 a3 99 3a f7 12 13 d4 3f 15 7d 15 2d b2 5a b1 3f
       0.31366418975303584 0.06779016113931775
0005b0 ef bc 6e 8d fb c4 db bf 7b 97 ee 3b 4c 03 63 bf
       -0.4338978654077001 -0.0023209084460686347
0005c0 30 e5 da 52 d4 43 db bf 07 40 90 57 35 38 d1 bf
       -0.426014977372307 -0.2690556864845352
0005d0 b4 c9 d5 6f 1c a2 da 3f a8 70 dc 39 f5 2f bf bf
       0.4161444751872765 -0.12182552969574323
0005e0 bf c8 54 8a 67 d4 c0 3f 55 84 2b af 9d 15 e0 bf
       0.13148206953480288 -0.5026386662758663
0005f0 55 f4 24 88 4b c2 87 3f 86 58 2b e7 2c de d3 bf
       0.011601057140632568 -0.3104355103981863
000600 c5 00 cd 22 24 40 c4 bf d2 bf 0c 2a 8e eb cd bf
       -0.1582074327398059 -0.23375107815945612
000610 cf 35 ea 7e 09 c0 c9 bf 32 83 da 91 9d f4 d4 bf
       -0.201173006982954 -0.32743014567863604
000620 7b 72 94 9d 9c 62 cd bf 7e 11 4d b5 98 e3 b8 3f
       -0.2295718926842659 0.0972228472356331
000630 7e 12 c0 6b 93 ff 94 3f d4 57 fb 7a 42 ca d8 3f
       0.02050619454532176 0.3873449517244556

net.linear_afunc_stack.2.bias f8 [200]
000000 36 e9 b6 58 e0 3e 92 3f 70 15 12 54 ee f1 b1 bf
       0.017817979254439474 -0.07009782364374018
000010 2d 5a 9e 94 c1 b2 9f bf bd 34 0c 34 72 e5 a4 3f
       -0.03095533818813061 0.04081303487155583
000020 1a 92 bb 4e b1 02 ad bf 49 8a a5 0f 0d 3c a4 bf
       -0.05666116796581751 -0.039520652923574824
000030 18 fd 15 39 c7 5c a8 bf 67 fb 34 b6 f6 fe b2 bf
       -0.047582841604702775 -0.07420293758785378
000040 d4 a4 95 fe 66 0a 6b bf 38 29 69 4a 51 15 7e bf
       -0.003300858651233621 -0.007344548741978145
000050 ac 8b fc 24 aa 95 99 bf 86 a6 1c 99 bc 2f 8a 3f
       -0.024984987742879092 0.012786363051037652
000060 bb fa dd c1 02 cc a2 bf 06 39 e5 4b 72 94 ba bf
       -0.03671272865812144 -0.10382761338152954
000070 fc 34 fd 7a 64 f8 bb bf 97 cc bb a7 ab b3 a6 bf
       -0.10925891878760646 -0.04433952734498197
000080 fb 3b 9d bd 67 dd c4 bf 26 82 0c 08 8c a2 a3 3f
       -0.16300675161843955 0.03834951017620751
000090 03 7b 54 8e 9b 8a b3 bf 0f 30 99 21 ef d7 cd bf
       -0.07633373474935116 -0.23315228596254697
0000a0 e4 60 1b 00 3c 98 a7 bf 3f 38 4f f8 58 ef b9 bf
       -0.04608333112054355 -0.10130840360872727
0000b0 ab 69 49 4c eb f3 ab bf b6 49 24 c1 3c 42 b1 bf
       -0.05459533029780358 -0.06741695132612943
0000c0 d7 d1 62 31 fd 33 d0 bf 9f 7c 8c c9 f7 51 93 bf
       -0.2531731588635728 -0.01886737029701335
0000d0 49 f2 32 2c 79 a3 77 3f 7f b5 42 9f c8 12 7e 3f
       0.005771134691880572 0.007342132263301492
0000e0 b6 33 7a 05 80 d0 b6 3f 4c 93 a3 1b 92 9e bd bf
       0.08911895879482654 -0.11570084738521053
0000f0 8e 57 43 01 ed 42 bc bf 07 7a db a9 10 f4 93 bf
       -0.11039620667301461 -0.019485721938389513
000100 d0 39 e7 58 12 c5 9c 3f 0a ba 78 76 a6 cf af bf
       0.02809551875707844 -0.06213112064539324
000110 7b 4f 77 36 39 63 bf bf d1 55 f8 bb 02 28 a8 3f
       -0.1226077802633067 0.04718025726848974
000120 1f 69 82 a7 3e fb b6 bf bf 91 46 44 77 17 c8 bf
       -0.08977119054398884 -0.18821612199566393
000130 13 05 30 71 32 83 a5 bf 27 d0 88 1d 31 7a ac 3f
       -0.04201657897648139 0.05561974988486922
000140 37 c7 07 c2 b1 df b3 bf 5b 5e e9 32 17 ce c8 bf
       -0.07763205515928183 -0.193789386614969
000150 0f de f7 60 db 0f 9f bf 3f f1 20 13 62 73 9b bf
       -0.0303339269575798 -0.026807339112779657
000160 77 07 8b cb 8a b3 ae bf dd 71 ab 94 15 79 c1 bf
       -0.059963548037116725 -0.13650769957793232
000170 bc 79 cd 46 a1 5b b2 3f e2 40 d5 23 dc 77 91 bf
       0.0717106626375203 -0.017058791815828374
000180 08 03 d2 3e d9 a6 a6 3f 91 ed df 56 ec b8 ab bf
       0.04424170390939791 -0.054145227055381835
000190 e4 6f b6 7d 1e 87 ab bf 83 cb 1e 2d d6 4b be bf
       -0.053765251966268385 -0.11834467507905626
0001a0 bd ea 34 fe 01 91 bb bf d4 0d ef a7 66 2a 87 3f
       -0.10768139320581845 0.011311342239315993
0001b0 af c3 5a ad cb 75 b1 bf a7 19 da ca a5 7a 61 bf
       -0.06820366842545299 -0.002133678258192623
0001c0 a1 48 27 56 e4 d3 6c bf 2f a5 0d 87 09 51 bb bf
       -0.003519006700323749 -0.10670527980041265
0001d0 fb 41 d0 56 64 2f b7 bf 77 27 d4 13 a4 60 b2 bf
       -0.0905668937632597 -0.07178712352847848
0001e0 78 45 13 c7 29 63 87 3f c5 cf 79 29 74 14 ad bf
       0.011419607532306073 -0.05679667478844367
0001f0 b9 99 4d 4a ed 14 c2 bf 9d 4b d5 12 13 44 ce bf
       -0.14126363876421325 -0.23645246905888664
000200 a4 09 22 c1 fc f2 cd bf ab 92 fa 07 62 1a a1 bf
       -0.2339778845817594 -0.03340441081426112
000210 2c 45 01 ae f5 30 90 bf 5c a6 7e 77 65 41 b9 bf
       -0.015811766381664302 -0.09865411918021877
000220 25 87 76 0e 7c 24 b5 bf 7d 1e 23 4e f5 a8 d3 bf
       -0.08258796074963166 -0.3071873915728032
000230 f1 1d 45 21 9f 5e 95 3f 6c 7f 02 06 5a 4a 9f 3f
       0.02086876526416676 0.030557066551977582
000240 22 31 73 23 ec ae a0 bf 14 26 d7 6d bf 60 a2 3f
       -0.03258455212344048 0.03589437690568445
000250 61 bd 96 57 8a 0d c0 bf 74 fe be 7c 6d 9c ba bf
       -0.12541322018430903 -0.10394939704473832
000260 c1 71 1a 24 e4 da b4 bf 92 a2 3b 97 df ee ad bf
       -0.08146501428058796 -0.05846308442216243
000270 ab e8 52 ff 57 a2 bc bf 02 25 e6 2c c6 de bd bf
       -0.11185216887943976 -0.11668051334540411
000280 b2 93 b7 29 d2 8b ad bf 02 ff 3f 1f 79 71 a9 bf
       -0.057707374184054486 -0.049693856301017206
000290 9b 81 1b c8 88 21 a0 3f 95 ea 87 7b 96 3f ac bf
       0.031505846430948746 -0.05517263658471908
0002a0 43 b8 fe de 98 1c a7 3f 75 e2 18 7b 44 ff a2 bf
       0.04514005395991252 -0.0371037864937919
0002b0 35 7b 13 c0 fb ca 93 3f c5 99 0f 5d e2 0f 30 3f
       0.01932900771941633 0.0002450873990355286
0002c0 92 94 bd 02 1d b5 92 bf fa 05 64 38 a9 7d 75 3f
       -0.01826901749827365 0.005246792809204143
0002d0 36 20 f3 2e 55 7e c7 bf 42 10 bf ba 7f 15 93 3f
       -0.18354286949602433 0.018636699460117485
0002e0 8d 35 da ea 84 02 66 bf b6 c8 ec 63 9b 3a a7 bf
       -0.0026867481272520644 -0.04536901087557636
0002f0 9d 0a 86 cb 32 e9 bb bf 1e 6c 80 35 bd 4a 8b bf
       -0.10902707547033193 -0.013326147265663887
000300 f6 b8 75 61 f1 0f c6 bf 23 0f 65 77 57 dd ab bf
       -0.1723615384939376 -0.05442307789283365
000310 3f f2 79 39 77 9b a3 bf c8 04 6e 65 14 ca c7 bf
       -0.038295484319835975 -0.18585448219895384
000320 77 42 b7 ee 85 ba 21 bf 84 a9 b3 2b 0a ef 8c bf
       -0.00013525853078856832 -0.01412780710093809
000330 33 11 6a d7 ab 71 a3 3f a9 5a 30 e9 76 46 af bf
       0.03797661785668751 -0.06108447643798815
000340 e1 e9 94 83 21 58 a2 3f a6 07 0a 0b 92 aa c8 bf
       0.035828635513514014 -0.19270539797804281
000350 12 aa a1 77 12 3d a7 bf eb 37 62 69 71 55 cd bf
       -0.045387818435148955 -0.2291700138634377
000360 7e 6d 14 20 e6 6a b9 bf 9a 81 bf 1a ae 29 b7 bf
       -0.09928739817808283 -0.09047973778752408
000370 05 a1 29 78 dc ef 74 bf 2c 4c 6c 0a 8f e0 b8 bf
       -0.0051115619740829165 -0.09717649464100536
000380 bc 6e fe 85 c0 d7 b8 bf 8c 1b 25 12 0f b5 c4 bf
       -0.09704211493811504 -0.16177547822936977
000390 66 22 d3 f0 3b 38 a5 3f c8 0c d9 2d 1c 17 88 3f
       0.04144465746646091 0.011762828969159492
0003a0 0c 74 e5 ea 40 99 c0 bf 42 be d5 0b ac 70 98 bf
       -0.12967692822977062 -0.023867309782359188
0003b0 55 60 b4 e4 31 49 a5 bf 1a 08 15 86 52 1f b9 bf
       -0.04157405773929727 -0.0981341912602435
0003c0 a9 1b ea 8e 84 9d bd bf f9 d5 9e 96 78 e5 a7 bf
       -0.11568478097079428 -0.04667260016087122
0003d0 d6 e8 18 03 7f 16 a1 3f 4d 01 af f4 d5 dd 99 3f
       0.03337475693520424 0.025260298785498226
0003e0 fd 3b e9 f3 b4 c4 b5 3f b1 32 06 25 de 63 9e bf
       0.08503275828228136 -0.029677840242174628
0003f0 54 1b f0 9f 47 be c1 bf 87 e0 a0 f7 4a 37 af bf
       -0.13861937818020442 -0.06096872589881835
000400 7f 48 57 ea aa c2 cb bf b8 2f 5e 6c f1 a3 a4 3f
       -0.21687828485898206 0.04031328628397496
000410 97 ee 4f cb 81 14 62 3f 19 c9 06 8f 83 33 77 3f
       0.002207044128679513 0.005664361859475408
000420 01 86 66 ef 37 b5 b3 bf 71 83 14 e8 59 30 a6 3f
       -0.07698392481554352 0.0433376403618756
000430 17 73 e3 3f 35 45 c2 bf 23 a2 91 67 a0 21 8f bf
       -0.14273706073336065 -0.015200856362029452
000440 a4 21 b3 3d a5 0d ac 3f 36 c7 d2 ba 39 c0 b3 bf
       0.054791606694894385 -0.07715187846295354
000450 e7 dc 6d ff 2f 03 c3 bf 39 67 93 a5 9e 9a cb bf
       -0.1485347745144516 -0.2156561192012363
000460 ef d5 20 6c 79 86 a5 bf aa 67 ee 6e af c7 cb bf
       -0.042041582535983106 -0.21703141132894405
000470 23 97 1a c6 71 57 c2 bf ba 8c b1 13 95 89 aa 3f
       -0.14329359219589674 0.05183091988944839
000480 66 65 ef 28 05 d3 74 bf 4d 1a 23 46 4f ec b8 bf
       -0.005084057002897912 -0.09735579931575807
000490 47 f3 ea d2 d9 cd 84 3f 0b 32 ba 8e 0b 19 ca bf
       0.010158254384231248 -0.20388931721790046
0004a0 d5 ce a3 5f 17 46 81 bf 51 b0 40 92 d7 63 a0 bf
       -0.008434469801137304 -0.03201173458396112
0004b0 2f 9f 8b 29 bd 6c c0 bf ec c3 b7 db 06 b4 c2 bf
       -0.12831844833930847 -0.1461189816323264
0004c0 16 9b bf b8 dc 60 a5 bf 40 a6 7b eb c1 59 b7 bf
       -0.04175462489347674 -0.0912133407506639
0004d0 26 02 eb fc 64 0c b6 bf d5 ac 9a e9 60 68 bb bf
       -0.08612662482028863 -0.10706144049861462
0004e0 a8 04 95 c7 84 ec b2 bf 0a e9 5f d3 76 c7 be bf
       -0.07392148850068969 -0.12023108158601672
0004f0 3d 11 e4 9b bc 27 a3 3f 0d 48 a1 32 e1 58 b8 bf
       0.03741254237141554 -0.09510619627079127
000500 64 f4 95 b6 f5 c7 b5 bf 9c 07 b2 75 e8 3e b0 bf
       -0.08508239467296758 -0.06345990060256529
000510 84 15 29 2f 46 b5 a9 3f c4 ec d9 38 09 06 bf bf
       0.050211137062926375 -0.12118585241289553
000520 3e 1b 3b 10 91 b8 a3 bf 57 18 42 24 20 99 b5 bf
       -0.03851750682001985 -0.0843677605172116
000530 f5 d8 dc e5 f6 21 b1 bf 2c f7 07 e7 59 66 b2 bf
       -0.06692450630075426 -0.07187425508888329
000540 db c5 e4 37 99 b9 a9 bf c2 de d7 41 4c 0c ba bf
       -0.050244129250483126 -0.10175015075207752
000550 53 ed 36 b0 45 8c b4 bf cd 72 57 b8 dc 28 b0 bf
       -0.08026538421738864 -0.06312350750472291
000560 9d 65 07 31 8a fc 9c 3f d3 5a a3 79 a2 be 72 bf
       0.028307112925039502 -0.004576334637212925
000570 ce 18 63 1f a4 07 9c 3f e7 b6 9d cc fe 96 a0 3f
       0.02737289849826468 0.03240200279001986
000580 8a 31 7b 7f ad 4e b2 3f 06 6f f8 a7 25 27 a1 3f
       0.07151302683195673 0.0335017936269804
000590 e8 7d 0b fb ad 86 b1 bf cc 78 63 3a 58 e8 a8 3f
       -0.06846129778886445 0.04864764893294335
0005a0 75 aa e5 31 09 d3 87 bf 36 a6 81 ab fb c1 af bf
       -0.011632987818946486 -0.06202684849342825
0005b0 02 f3 aa 80 28 42 b4 bf 53 c0 bb d6 c8 02 ba bf
       -0.07913449422171584 -0.1016049885035966
0005c0 79 ea 1b cc 20 78 b3 bf c4 52 b1 c1 2f 1b ad bf
       -0.07605175955897349 -0.05684804191029039
0005d0 02 6d 89 34 17 b2 b1 bf e0 42 dc 73 e5 f6 b1 bf
       -0.06912369759213635 -0.070173588548879
0005e0 dd 03 2d ee 54 f8 95 bf 20 41 3a 37 44 62 c1 bf
       -0.021455122983073827 -0.13581135460527438
0005f0 af c2 42 1b ad 72 b4 bf 49 7f 75 c0 cd 6f a3 bf
       -0.07987481990381683 -0.03796236967423156
000600 dc e8 ae 75 56 dc 96 bf 67 a8 e8 b2 00 9b bd bf
       -0.022324896748366338 -0.11564640396014313
000610 ca 36 01 c4 6f 56 bb bf 7d 9c f4 7f 1e af 8a bf
       -0.10678766761085537 -0.013029325752155646
000620 cc c9 a9 62 da e5 a5 bf b5 f4 22 51 42 7c ac bf
       -0.04276926473984907 -0.05563552132068975
000630 ff a3 34 6e ee 80 b7 bf 41 f5 66 e1 95 b9 b6 bf
       -0.0918110865647037 -0.08876930954916863

net.linear_afunc_stack.4.bias f8 [200]
000000 7d c8 31 bf 76 de b7 bf 17 f3 ac bd 5e 0d ba bf
       -0.09323827903588895 -0.10176651125670975
000010 81 c6 49 8c 43 7d ad bf dd 21 f8 53 1b f4 c1 bf
       -0.05759631240370045 -0.1402620468145547
000020 a9 70 2f a9 b9 8b b1 bf 2f 84 93 da 86 f7 92 3f
       -0.06853828793049623 0.018522364703020763
000030 02 ef 35 c9 e4 fa a2 bf 75 14 f1 b8 3b 6c a4 bf
       -0.037070416986322755 -0.03988825447644554
000040 64 48 0c 55 78 f7 74 3f 5c 76 6a b5 1b fd 75 bf
       0.0051188183285991486 -0.0053683359498371795
000050 24 d2 98 8b cb 00 b1 3f 14 08 c0 d9 57 57 b9 3f
       0.06641838224533864 0.09898900095143431
000060 9d 39 1a 46 53 b1 5e bf 79 ab 8c 6c 4e 8d 98 bf
       -0.0018733323308058665 -0.023976540923438237
000070 03 0b 48 44 bd 60 81 bf 56 82 3b e8 dd 2e 90 3f
       -0.008485296865733632 0.01580378274855073
000080 53 3f ce d4 d5 c1 ac bf 3a cf d8 a7 c5 b7 87 bf
       -0.0561663458130385 -0.011580986199170352
000090 7d 6d e7 56 4c 19 cd bf f7 f3 b8 33 b6 ae b3 bf
       -0.22733453982696608 -0.07688463938480071
0000a0 62 2d a0 4c 88 2a 89 bf d9 0e 7e 10 9c 49 89 bf
       -0.01228815540164047 -0.012347430470760855
0000b0 32 53 e8 d0 91 1e a4 bf b9 e6 10 f8 f8 92 9c bf
       -0.039295727492719826 -0.027904405728100132
0000c0 14 6d 21 4e e3 d5 a4 bf 95 4c 2e 01 e3 1f 87 bf
       -0.040694335257933784 -0.011291287873780123
0000d0 80 1b fb b6 92 76 b4 bf 0b e8 45 7a b7 33 b4 bf
       -0.07993428199107022 -0.07891413436109944
0000e0 14 8c 76 c3 58 60 b7 bf d3 3b 18 f4 ba 05 bc bf
       -0.09131388446853378 -0.10946243724195819
0000f0 3b da a4 9c 10 0a a6 bf d1 8e 60 b5 be 59 b0 bf
       -0.04304553901822713 -0.0638693993392352
000100 27 c2 e6 13 7b 1f b7 bf 78 4b 8e 67 ff 30 b7 bf
       -0.09032410846590065 -0.09059139517039039
000110 4c ba 3d e6 cc 54 c5 bf 28 5b 63 04 f0 5a bc bf
       -0.1666504024719465 -0.1107625971520575
000120 f7 b0 93 b8 f7 50 aa bf eb de 39 5b 67 01 89 bf
       -0.05139898422371119 -0.012209708663462012
000130 d4 0f 58 7b 0b 48 b9 bf e4 8c 93 56 69 6a b0 bf
       -0.09875556718185347 -0.06412371028595804
000140 11 81 cf 81 51 5a c4 bf ca 57 77 40 59 06 92 bf
       -0.15900629843145755 -0.01760234313936574
000150 38 91 92 28 62 d8 9a bf 76 6c 50 7b 80 c7 b6 bf
       -0.02621606228480397 -0.08898165712928283
000160 66 7e b8 ef ae c5 b5 bf e4 0d 6a de 88 a1 a5 bf
       -0.08504765846782333 -0.042248036527805316
000170 9d 4d 24 18 ef 22 b1 bf 06 94 66 aa d4 6e c4 bf
       -0.06693929995917931 -0.1596322853121423
000180 3e 65 e4 b5 45 97 a3 bf ee 86 10 49 bf f1 a1 bf
       -0.03826349110949899 -0.035047509831441434
000190 d6 d7 90 da d7 0f aa 3f d0 c7 58 2a fc 4e a0 bf
       0.05090212386168928 -0.03185260788849542
0001a0 f8 f6 28 b9 a0 da c1 bf eb 46 09 6a d8 24 a5 bf
       -0.13948449173943067 -0.04129673284900356
0001b0 9a f3 80 33 c3 0c a3 bf 59 c5 0e 87 a9 c2 b1 3f
       -0.0372067451830624 0.06937655970866298
0001c0 58 b5 3d 7b b6 f6 9c 3f 19 0e cb b1 06 4d a9 bf
       0.028284884712254182 -0.049415787890691294
0001d0 fd ee 43 31 f4 ed af bf 95 c8 f8 3d fa d4 a3 3f
       -0.06236231900581222 0.038734264435690204
0001e0 42 73 b2 54 e0 6f ad 3f 85 ad 83 96 df 59 a3 3f
       0.057494173373220395 0.037795054553352116
0001f0 ba 0d 27 03 5e 50 ae 3f c0 72 37 d4 d1 83 af bf
       0.05920690334780994 -0.06155257907423595
000200 1b e1 4d 78 e6 e0 bb bf 92 0b d1 8b d0 a5 a1 bf
       -0.1089004558288064 -0.034468190257505374
000210 91 71 db 33 ac c5 68 3f 14 fb 66 0a fb bd 9b 3f
       0.0030239451724424844 0.027091906080154507
000220 9e 31 b0 64 ff 6c c7 bf f4 62 f4 8e cb f3 91 3f
       -0.18301384369295887 0.01753156719232414
000230 f7 fb 30 b7 0d 2a a5 3f c7 d9 9f 5c d6 df af bf
       0.04133646832678289 -0.062254618460361004
000240 fe 40 d7 6d 09 98 b3 bf da b7 1b d8 d0 e5 c0 bf
       -0.0765386479536154 -0.13201342155610868
000250 99 d7 73 31 09 12 aa bf 96 73 f1 9b 6d 25 be bf
       -0.05091885307949368 -0.11775860840994165
000260 af 40 c0 54 89 d9 b3 bf a6 bc 03 62 f1 f6 a0 bf
       -0.07753809279552358 -0.03313402482478382
000270 70 c8 2d 4d 3a d9 a3 bf b3 eb 05 a3 98 a1 a2 3f
       -0.038766691132779196 0.03638913145092406
000280 ba 2b ca d6 b2 62 af bf 7e 93 98 31 ab 0b 97 bf
       -0.06129988548226302 -0.022505450155353206
000290 b6 e7 92 b8 e4 6d 7c bf 67 b5 1b 00 02 b4 b9 bf
       -0.006940740052579322 -0.10040295126574038
0002a0 b2 20 a1 9b a6 b6 a1 bf e0 51 d5 e2 67 ce 85 3f
       -0.03459664010785114 0.010647594079878198
0002b0 86 7d 9b 12 0a 8c b2 bf 64 dd d6 aa d5 cb b6 bf
       -0.07244933084756697 -0.08904776974565248
0002c0 91 fc 11 95 08 55 9f bf 42 82 7e 59 50 f0 b5 bf
       -0.03059781465389883 -0.08569814858356842
0002d0 a0 f4 97 ab 1c 63 bb bf f9 d0 4f dc 73 01 cd bf
       -0.10698107899948406 -0.22660682923709155
0002e0 f9 66 8c f8 6b b2 b3 bf c7 8c b4 18 92 8c b2 bf
       -0.07694125001981068 -0.07245743849903184
0002f0 69 ba 4a 4a 44 d8 5b bf 56 de a9 71 0a d5 b5 bf
       -0.0016995112320433942 -0.08528199458111749
000300 8c ea 60 56 01 80 72 3f 6a 12 1d c0 9f 8a b4 bf
       0.004516606544764056 -0.08024023475906863
000310 25 ca f5 1b 89 6b aa bf 0c d3 b2 65 34 c9 77 bf
       -0.051601681387996735 -0.005807118107601605
000320 1c e8 e6 f4 5d 16 b4 bf 39 02 d3 3b f2 b8 8e bf
       -0.07846629361202456 -0.015001194430056862
000330 65 de e1 24 53 48 b0 bf c3 8f 55 bf 54 65 ce bf
       -0.06360358858534594 -0.23746737806788873
000340 36 75 04 ad 48 1b a2 bf 5b e5 4c e7 c2 52 89 bf
       -0.03536440956143354 -0.012364885982253318
000350 f4 02 47 e6 45 26 87 3f 1f af 23 af d2 a2 a0 bf
       0.011303468790062145 -0.03249224079067247
000360 ea 58 c5 7d bf 1f 9f bf 5e 4a 3a 30 2d 4d 74 bf
       -0.0303945465578516 -0.004956413762232074
000370 2e 7b 90 7e ec de b0 bf 7d c1 64 07 33 00 94 bf
       -0.06590154733610795 -0.019532010389583732
000380 43 d1 ca 41 f5 49 b6 bf e3 6f 1c f9 8b 7a 84 bf
       -0.08706601005798568 -0.0099993644139928
000390 e1 0e 28 7d 02 3d ac bf 1d 14 78 53 74 02 bb bf
       -0.05515296724118258 -0.10550620115107319
0003a0 40 ee 2a bc d9 9d a1 bf f2 4b 8f 7f 4b 2e a9 bf
       -0.03440742895096749 -0.049181327172526226
0003b0 13 fe ec a1 c3 54 bb bf 1c 73 a1 d7 cc 70 ab 3f
       -0.10676214888825823 0.05359497196398008
0003c0 97 04 78 95 09 5c a5 bf 0a 5e a8 0e ee 20 83 bf
       -0.04171781491823728 -0.009340152571026845
0003d0 a2 84 bc fb 4d cd 8e 3f 27 11 c0 5d 7d bc b1 bf
       0.015040024990925997 -0.0692823747522807
0003e0 ee ea fe 02 37 3b b0 bf 5d 61 f1 d8 cb c0 86 bf
       -0.06340354750765773 -0.01110991721923032
0003f0 6d 1b 59 f1 b7 ef a2 bf 77 d5 47 25 a9 f1 cb bf
       -0.03698515721457949 -0.21831240005819172
000400 04 c3 6e 27 8b fc 8f 3f e7 c5 c2 91 71 4c b6 bf
       0.015618407383813267 -0.08710393723119801
000410 5f 5b f3 b0 1f 04 c1 3f ec 9f ef c9 32 bd b0 bf
       0.1329383481995263 -0.06538693838194803
000420 c7 73 60 08 ef 29 bc bf 50 cb ab 00 a4 39 80 bf
       -0.11001485781203178 -0.007922440786818946
000430 c1 12 c5 d6 e8 51 a2 bf ee 7a 62 32 d5 1a 84 bf
       -0.03578117009832261 -0.009816804504507694
000440 a6 c0 99 ec 05 65 b1 bf eb 79 43 0f 16 cf a9 bf
       -0.0679477408064054 -0.05040806709597575
000450 4c 21 98 e4 fc e0 ac bf 1a 82 d3 be b1 69 a0 bf
       -0.05640402117211582 -0.03205638365193782
000460 d3 01 89 1e 9a 05 58 bf 23 b2 d0 8a 76 0d 94 bf
       -0.0014661793776583512 -0.019582607481583147
000470 1f bc df c3 cf bf 89 3f f6 39 da 60 92 cc 72 3f
       0.012572882809733397 0.004589626112319048
000480 68 8d c6 0a 1c 87 bf bf 23 9d b1 19 f5 da 95 bf
       -0.12315535796237997 -0.02134306878397497
000490 2f 66 81 b3 cd dd b9 bf a6 4e 19 09 15 af 77 3f
       -0.10104070312936451 0.0057822057438731474
0004a0 14 6e 0a c3 9c 52 bb bf c4 42 ea 1f 44 35 93 3f
       -0.1067293144391715 0.018757881591741535
0004b0 15 c1 4d c0 a2 a5 b1 bf f7 77 fc 80 c0 81 b0 bf
       -0.06893365092196675 -0.06447985791280063
0004c0 29 f5 b2 6a 06 3e 86 3f 16 df be 01 73 15 ba bf
       0.010860490924069115 -0.10188978951088887
0004d0 6c fa 49 d3 eb a9 b0 bf 78 9f fb b9 2c 7e a5 bf
       -0.06509279163763332 -0.041978261664381955
0004e0 2e e2 d7 41 3d 73 9c 3f 7b a0 d6 86 57 29 bc bf
       0.027783352988963887 -0.11000582735016622
0004f0 bd 4e b1 45 cc d5 a9 bf 2e c4 24 b3 c3 a0 96 3f
       -0.050459273822210694 0.0220976427164638
000500 a3 a7 b0 9b 3a 70 93 3f 22 64 f2 ca 10 30 b3 bf
       0.018982806923453343 -0.07495217280155989
000510 05 e7 19 d7 7e 67 29 3f b7 fc 3e 79 79 b7 bc bf
       0.0001938192686344252 -0.1121745987902497
000520 32 56 85 53 37 06 b8 bf 79 59 d7 6a ae 91 bd bf
       -0.09384485043605009 -0.11550417049816088
000530 36 61 d0 fa fc bd 96 bf b9 b1 6d cd 55 78 94 bf
       -0.022209122475119268 -0.019990292228088544
000540 db 42 57 00 b7 04 9a bf 3e ca 71 89 b5 16 73 3f
       -0.025408610721401863 0.0046603289875855585
000550 0d 4d 5a 8e 08 c2 62 bf 31 90 5d 16 c3 22 9a bf
       -0.0022897879706050895 -0.02552323173530641
000560 c8 a3 17 2d 6d 9e a3 bf a2 e1 3d d9 64 03 b5 bf
       -0.038318073038517364 -0.0820830374121955
000570 6b db 98 0e 4e 04 90 bf 78 9d 89 b7 33 83 a4 bf
       -0.015641421929298554 -0.040063491968619525
000580 59 38 18 c7 b9 cc a1 bf 5e 69 d8 65 89 46 af bf
       -0.0347650580916798 -0.061085027391714716
000590 1d ae c3 55 e5 b0 b2 bf 38 c4 32 c0 99 c9 a4 bf
       -0.07301171630722832 -0.04060059043093428
0005a0 e2 be d8 6d e0 a9 a1 bf d9 28 06 32 f1 da 80 3f
       -0.03449918118383068 0.008230099047768768
0005b0 99 79 12 4c 69 0c a1 bf 41 2c d2 34 99 29 6e 3f
       -0.03329781583419162 0.0036819450675174285
0005c0 5e 25 68 2a 47 9a b8 bf 37 17 dd c0 53 fc 85 bf
       -0.09610409531901129 -0.010735182116728843
0005d0 cc 04 3a 38 e9 88 b5 bf db ae 01 54 2f 14 98 bf
       -0.08412034628601645 -0.023514499189714804
0005e0 6a 82 41 20 7f a9 c0 3f 74 3b 2f 9d 67 fb aa bf
       0.1301726253032201 -0.052699315965233945
0005f0 af 23 c2 5e d3 cb b9 bf 26 dd b8 6d 01 bd 9b 3f
       -0.10076638282238436 0.027088186571032534
000600 93 c9 9e 5d 03 37 7b bf 4b e8 49 2b 9f c6 b2 bf
       -0.006644261500627374 -0.07334322745183035
000610 25 fa 39 f6 0e b6 a7 bf 4c f1 71 a3 36 e4 bc bf
       -0.04631087070173504 -0.11285726061209295
000620 68 ba 74 3a 39 d1 a4 bf 93 dd 60 5e 37 3e b3 bf
       -0.04065874899457783 -0.07516809515151683
000630 b6 fb 15 25 83 1c b3 3f 6b 8b 9b 87 81 88 b4 bf
       0.07465381293694304 -0.08020791588527991

net.linear_afunc_stack.6.bias f8 [2]
000000 49 a5 fa 53 4e d8 96 3f 25 83 4d 3e 36 a0 b9 3f
       0.022309516788174198 0.10010088940681479

onnx::MatMul_45 f8 [5, 200]
000000 94 ff 99 db de 9f cb 3f 41 a7 d3 ed 35 16 d6 3f
       0.21581636164409856 0.3451056311156329
000010 c3 0e 66 34 47 97 d7 3f 0a e6 d3 17 bc ac d2 bf
       0.3686082851129237 -0.2917928917591729
000020 f6 75 c6 e5 42 d3 c5 bf 75 37 11 17 4f 26 ae 3f
       -0.1705096837949182 0.058886024061037746
000030 41 46 4d 92 ec 1e ce 3f 35 a2 dd e9 2f 10 97 bf
       0.2353187288631933 -0.022522686623604755
000040 f3 a3 fb ec 96 3d b4 3f 21 66 44 a3 ab 46 c5 bf
       0.07906478200642635 -0.16621919128446996
000050 5f f0 67 72 e4 f8 c9 3f 58 e4 18 9e a4 68 c4 bf
       0.20290809236746818 -0.15944345206824795
000060 8e 0a d5 fd cb 1b d7 3f c9 d8 48 84 2c b8 71 bf
       0.36107158458995847 -0.004326032536985555
000070 e0 27 4a 41 ee 43 bc 3f ff be 7e a9 87 bb c4 3f
       0.11041153997408015 0.16197295929077168
000080 ed 6d de 7c 04 ad c4 3f fc 40 46 4c 6e ca db bf
       0.16153007599937955 -0.43423039864229884
000090 95 af ae 52 d5 59 97 3f 0d 34 c4 52 82 42 c4 3f
       0.022803624316722077 0.15827969590500893
0000a0 c8 9a 44 2d 93 0e d1 bf 88 01 01 10 c2 69 b3 3f
       -0.2665145818777259 0.07583248987885416
0000b0 ce 1c 55 22 d2 8b c4 3f 64 4a 80 9f eb b2 d1 bf
       0.1605169932974832 -0.2765454347255967
0000c0 d9 52 ef 96 9f a6 da 3f a2 55 4c cd 15 d4 d1 3f
       0.4164198850606176 0.27856965111399223
0000d0 e2 33 e7 64 e9 b5 d7 bf 7c 0e fa 07 7a a5 b1 3f
       -0.37047800878354853 0.06893122381921474
0000e0 f2 5a 0e 5b 9e 58 c0 3f b2 47 6a 73 d4 f7 d4 3f
       0.12770442434403823 0.3276263358212602
0000f0 ed 1e d1 fc b1 c5 c7 3f 28 0c 98 2f a7 44 dd 3f
       0.18572068066190842 0.4573152508530165
000100 be e6 bd b5 dd 3d d0 bf 5c 8c 21 43 bd e1 d3 bf
       -0.2537760042974745 -0.3106530337883606
000110 b7 0f cd c6 47 55 9f bf 78 fe 6b d8 a1 d7 da bf
       -0.03059875632176531 -0.4194111455435414
000120 62 37 88 6e d5 41 d1 bf 22 f2 3b 52 7b cb b6 3f
       -0.269643171254634 0.08904238469762807
000130 21 28 eb 15 36 12 d4 bf 40 50 26 66 f3 b3 b2 bf
       -0.31361152782904084 -0.07305833095443948
000140 55 45 45 4f 95 ce a0 bf 06 4c 3d ea 81 60 c5 bf
       -0.03282610504778442 -0.1670076745745918
000150 bc 7c 6a 39 7c 9f bc bf 48 b1 21 48 0e 80 ca bf
       -0.11180855180508592 -0.2070329525189527
000160 6b 8e 2e 9f 9a 3a c7 3f 8e 8d 01 5f 2d 3f 9a 3f
       0.18147595188667096 0.025631627010068984
000170 4a 04 54 90 2e d9 bc 3f ef 77 e7 32 69 39 d9 bf
       0.11268893264424765 -0.39412908526526186
000180 fb 85 ef 5b 1c e0 c8 bf e5 ec 36 39 08 cc b5 3f
       -0.19433931817097502 0.08514453312720922
000190 af c1 91 b5 0b 70 d2 bf a0 57 c2 62 0a bd c9 3f
       -0.28808872920401546 0.20108156034683322
0001a0 67 5c 99 88 60 f2 a1 3f 8d 64 6f 69 95 69 b2 3f
       0.03505231540173597 0.07192357849216276
0001b0 20 b9 c2 2f 98 b4 d6 3f e5 db d3 8a bf 22 c9 3f
       0.3547726122295831 0.19637293127718106
0001c0 82 89 87 8d 79 f9 c2 bf ab 59 64 9e 30 60 83 bf
       -0.14823836718194278 -0.009460811456432369
0001d0 61 e9 16 19 07 8e cb 3f ea 79 3d 12 82 40 d0 3f
       0.21527184224198506 0.25393726140273876
0001e0 a7 14 52 9c 2a 8b d6 3f ba 6b 0f 4b 5a b3 96 bf
       0.35224404588400166 -0.022168551284135175
0001f0 43 66 e7 e2 31 8b d4 bf 2e ec 55 f2 9d 5b bd bf
       -0.32099578054985417 -0.11467921415707913
000200 bc b9 aa 32 ea 55 cf 3f 15 bd a6 da 7f b6 d2 bf
       0.24480941270799217 -0.29238888123195866
000210 f6 bf 22 54 8f 2f c8 3f f0 a0 67 e7 13 07 a4 3f
       0.1889514122790385 0.03911649894490832
000220 31 c3 1d 2f 29 9b 9e bf 67 06 ea 34 bb ca d6 3f
       -0.029888766766308087 0.3561237351169439
000230 af b4 08 77 f5 35 de bf 67 e9 fd 6c 54 f1 d9 bf
       -0.47204338669218776 -0.4053546013234581
000240 7f 8c 2a 82 54 6d c9 3f 4a 96 36 f9 8c 85 d3 3f
       0.19864899020931046 0.3050262864802319
000250 11 76 d4 c3 30 3c a7 3f 1a bb 7a e0 1c 6a b0 bf
       0.04538109198095353 -0.06411915283636596
000260 5a 64 e5 ff 12 45 c6 bf 79 a1 1d 11 a7 df ba 3f
       -0.1739829778187268 0.10497516792168494
000270 40 8a 84 b4 29 c6 da bf 0a ff 6c 40 40 3b cc bf
       -0.41834490421948445 -0.22055819650449165
000280 52 f3 3d 3a 51 ae dc bf 14 59 1c bf 34 cc cf bf
       -0.44813948333449105 -0.24841937381342716
000290 fa d4 44 7a 65 8e c8 3f a7 77 5d 78 25 22 d9 3f
       0.19184559316787625 0.3927091288986681
0002a0 6f 93 ea c2 f5 bd ce 3f 6a 2f f9 5d b9 24 cc bf
       0.24017211930654578 -0.21987073029083187
0002b0 8e dc 37 b2 c4 11 d2 bf a6 15 29 a7 f8 f7 b7 3f
       -0.2823344936763953 0.09362749177042548
0002c0 cc 40 4d c1 36 5b d7 bf 5d 4b 16 23 81 ee cf bf
       -0.3649422538483236 -0.24946607793080036
0002d0 19 34 10 25 2c 5e c1 bf 94 4e dd b6 28 ff af bf
       -0.13568641481143187 -0.06249358398659158
0002e0 b6 d8 2c e2 3e 48 d5 bf f7 19 0e ae 75 a7 d4 bf
       -0.3325345238439569 -0.32272092816893355
0002f0 28 07 db db c1 c2 b1 bf db d4 b5 dd fb 98 cb 3f
       -0.06937800996368237 0.21560619664857125
000300 ed 03 44 86 dd 8e c4 bf ac 9b 4f 0b 06 a8 c6 bf
       -0.1606099038690724 -0.17700267364781774
000310 39 03 65 f2 c5 25 b9 bf 92 5f 6d df ef 50 b7 3f
       -0.09823262374721943 0.09107875065580931
000320 53 6a ef bf bb 15 c0 bf 04 7d 84 15 31 5e cb bf
       -0.12566325065457082 -0.2138120036188199
000330 2d 82 a7 f9 60 71 a5 bf 9e a7 42 c7 80 3f bf 3f
       -0.04188063666856965 0.12206272949938898
000340 0e 7e fc 44 29 33 d6 bf f6 de 39 59 f4 02 a4 bf
       -0.34687263237899024 -0.0390850409430054
000350 8d 4f 9b b7 89 1e d4 3f b1 aa 51 10 ef 85 c3 bf
       0.31436388902988527 -0.1525248365099592
000360 51 f6 de 61 1c 42 d2 3f 21 d4 84 ea 99 85 c4 bf
       0.28528508718213624 -0.16032718611828137
000370 e5 b8 20 26 5e 55 78 3f 43 31 74 77 76 75 d6 3f
       0.00594078804901541 0.35091935792367596
000380 a6 c4 49 70 ff 3f a8 3f ec 58 1a 07 93 41 bf 3f
       0.04736326451973953 0.12209433482562176
000390 41 3f 02 95 92 0c d0 3f d0 a3 3b 85 3b 02 c9 bf
       0.2507673697627873 -0.19538063054576904
0003a0 de 9c 1a f5 0b 7c b8 bf ab ac 8c a3 6e 2f d1 bf
       -0.09564280256255439 -0.2685200307048016
0003b0 eb 5b 34 7c 55 db d2 3f 3d f1 c5 23 20 be b0 bf
       0.294637080472454 -0.06540108559960785
0003c0 9d 78 48 58 90 0c da 3f 22 82 d7 98 f6 59 d7 3f
       0.4070168363704257 0.36486592222175507
0003d0 c4 05 90 1e e2 ed a0 bf ab 73 cd ae 6c 64 cc bf
       -0.033064905386719384 -0.22181471381455017
0003e0 9f 47 7b 23 40 91 d1 bf 5a 4d ea 92 21 7c d5 3f
       -0.2744903894900918 0.3357013640135925
0003f0 8a d6 52 0f 78 ff c0 bf 00 10 0c 97 e8 c1 bb bf
       -0.13279629467222193 -0.10842755973504836
000400 17 0e 9a cf 22 2d cc 3f fd 05 7b dd 3f 3e 9d 3f
       0.22012744080358068 0.028557775395489305
000410 9e 86 c4 9c 6c b3 c2 3f 8a 41 64 e3 23 4d c9 bf
       0.14610059408828574 -0.19766663172823612
000420 05 58 e5 a1 c7 6c b7 3f d1 6b 59 3e 7c 43 dd bf
       0.09150359823738093 -0.4572439774398705
000430 1d 65 04 ad 03 20 c3 3f f6 b8 aa da 9e 4b ba 3f
       0.14941450069526577 0.10271637762591354
000440 9d 2c 12 8c 0b ba c2 3f 97 4c 5b 27 ce 95 af 3f
       0.1463026460590741 0.061689798645283726
000450 7b a5 49 5e 8c 48 de 3f 82 e3 57 48 23 0f d6 3f
       0.4731779976633203 0.34467393936898116
000460 65 c2 14 71 bb 30 91 3f f9 1b 38 f8 c5 d2 c4 bf
       0.016787461068079063 -0.16268229122235292
000470 7e 45 f0 c7 d0 2a da bf 24 74 91 d3 9c de d1 3f
       -0.40886325383424793 0.27921219502406047
000480 df 28 ae 05 d6 ee ba 3f 32 08 63 2e 69 1f a3 3f
       0.10520684851340743 0.03734902087445881
000490 14 18 56 83 62 f3 d5 3f 11 eb 0c 57 d7 e0 9b 3f
       0.3429800303059676 0.02722488850416044
0004a0 08 99 4d 28 9b ca cd 3f e0 bc fd 12 59 7f a0 bf
       0.2327455469887314 -0.03222158772302364
0004b0 b1 ea 99 ae 74 39 d2 3f e6 fc 3a 01 7f 11 a6 3f
       0.2847568230714997 0.04310223474521439
0004c0 3a f0 1a 3a 06 8f ca bf 27 a7 ec f6 ad 11 c0 3f
       -0.2074897559849676 0.12553953701836315
0004d0 be 75 7a cb e0 28 d5 3f 9d 0b 31 24 b5 ce a7 3f
       0.33062000151570803 0.04649892870704451
0004e0 fa 53 13 19 7c 3b b1 bf 2b 9b c3 44 49 84 d4 bf
       -0.06731391536898448 -0.3205741092228204
0004f0 27 55 b0 97 a5 52 db 3f ae d0 97 8e e6 84 da bf
       0.4269193631492549 -0.41436160969829927
000500 2c 0c eb 00 0e ed d1 3f 02 9e fb e6 8f 27 93 bf
       0.2800936707464554 -0.018705605004383237
000510 b4 22 6e dd 02 40 95 bf 62 02 45 14 da 1a 9a bf
       -0.020751995816257376 -0.025493056761890627
000520 5d 43 30 a9 c9 08 c8 bf 3c b2 c0 1b e4 c0 cd bf
       -0.1877681804767474 -0.23244906764138473
000530 b4 63 d4 b2 21 9f cf 3f 33 ac f8 b3 2f 63 ce bf
       0.2470438121024735 -0.23740192687668724
000540 a0 cc 7d 97 27 58 d6 3f 72 d1 8a c9 d2 b4 b5 bf
       0.349130533161949 -0.08479039593186657
000550 8a 01 f3 44 fd ab 9c bf e6 db 62 36 41 9e d9 bf
       -0.02799983723957803 -0.4002841025462075
000560 32 a9 b7 2b f9 c2 bb bf 73 eb 09 ca 1a d4 b2 bf
       -0.10844380681343038 -0.07354896004282611
000570 58 ed 2b b6 75 32 a0 3f 0c b1 3f a6 2e ef d4 3f
       0.031634977805846176 0.3270985244296447
000580 86 ec db 0e 1c 0d dd 3f f0 2c 96 fe 75 0d c6 bf
       0.45392514659005945 -0.17228579455363713
000590 1e 07 6d 0c 84 b7 ab bf bc 8d b4 d7 1b 5e d1 3f
       -0.05413448955233789 0.27136894288033964
0005a0 8d 3d 00 8a c5 aa d7 3f a7 24 03 e4 59 f6 d7 3f
       0.369798073545973 0.37441108004402185
0005b0 a9 a5 49 b4 77 66 c7 3f 74 9e 20 9c 22 b9 d1 bf
       0.18281456282720157 -0.27692475554292817
0005c0 9b c6 60 19 38 98 c6 3f 70 2b a1 f7 00 32 d8 bf
       0.17652035941278119 -0.3780519884355078
0005d0 76 d7 92 94 71 00 87 3f 11 7d 40 ad 86 23 d4 bf
       0.011231314989668322 -0.31466833991176296
0005e0 0c b2 7d a5 1d a2 c8 3f 8c 63 4b b2 c6 7c cb bf
       0.19244738178839815 -0.21474536615167172
0005f0 25 17 92 8b 26 67 d0 3f 64 ee 5a 36 50 82 ca 3f
       0.25629581098506754 0.2071018472105265
000600 46 7c 4c 31 ac 15 b9 3f a9 db 92 c4 90 97 c1 3f
       0.09798694804747851 0.13743791197131586
000610 5b cd c2 a0 d5 a5 d7 bf 99 d0 78 56 1a 97 ca bf
       -0.36949673365889674 -0.20773629400503493
000620 5c 93 75 c1 b2 a1 d3 bf 62 ec f6 5d 1a 3f cc bf
       -0.3067442788363246 -0.22067575061905403
000630 f8 e1 11 6c b3 88 d3 3f 25 3f 0d 00 26 e8 c5 bf
       0.3052185588235541 -0.17114710810209846
000640 45 02 34 e4 5e c2 b0 3f 13 c7 ce be c6 c8 be 3f
       0.06546586104742243 0.12025110395805098
000650 4a 93 56 67 da 75 cd bf 11 8c f6 d6 3b 69 c9 3f
       -0.2301590923863393 0.1985239791511906
000660 55 82 c8 0e d7 73 cd 3f f3 fb b1 09 ec be be 3f
       0.23009765836561039 0.12010073887539345
000670 c5 a9 80 02 29 8d 93 bf 1a fc 79 54 17 51 c4 3f
       -0.01909317090773201 0.1587247049792218
000680 5d eb e0 79 80 d5 c3 bf ec f5 1a 8a 8e 1d 8e 3f
       -0.15495305968382925 0.014704812612189998
000690 d9 0e cb fc 08 0d d6 bf 03 31 dc 12 ca a2 ae bf
       -0.3445455998118923 -0.05983573417879209
0006a0 f5 89 96 ee 48 95 c0 bf ec d1 8c fc 73 5d bd 3f
       -0.1295558133106877 0.11470723071835892
0006b0 02 6b 69 d4 87 72 c8 bf 40 df 71 20 a7 2f c6 3f
       -0.1909951960722865 0.17332924923152326
0006c0 bc dc ee 8a db 9f b9 3f 39 01 1d af 1a ba cd 3f
       0.10009548322601608 0.23224195051626298
0006d0 9b 73 3f f1 26 0a a2 3f 7a 94 20 04 91 59 cc bf
       0.03523370451851023 -0.22148335172201766
0006e0 eb 8e 06 b2 cf b6 cb 3f f3 92 12 9d ac 1b a2 3f
       0.21651645844132558 0.03536738793744645
0006f0 64 2e 6d 7f fe b8 cf 3f c5 da 89 48 e8 3c d4 3f
       0.24783307287212886 0.31621749004208893
000700 c4 b0 12 98 43 c5 cd bf c8 b4 1b 58 49 f0 cb bf
       -0.23258252072753838 -0.21827046205672773
000710 53 50 74 31 b5 8b d1 3f 26 75 82 e7 cf f8 bf bf
       0.27415208653952056 -0.1248903217514977
000720 0f da 3d ca 30 64 d2 3f 61 5a 6b 61 b1 81 dc bf
       0.28736514806897245 -0.4454158259735888
000730 c2 ee e0 cb e1 fa d0 3f 4a 39 55 04 ec 4b d2 bf
       0.2653126231195807 -0.2858839075387506
000740 46 be 95 d4 44 24 a7 bf 7e d4 d1 00 15 7c da 3f
       -0.04519858450919094 0.4138233669285184
000750 eb 1b bd 8d 8e b1 a6 3f f9 43 e3 ea df 64 d7 3f
       0.04432340126236752 0.36553190172440925
000760 f8 63 6b 95 41 76 b3 bf 4d 24 6c df c1 74 b4 bf
       -0.0760231962007224 -0.07990657524727958
000770 db 50 a2 60 8f c4 d3 3f 94 13 33 28 a7 22 c7 3f
       0.3088720744792803 0.18074502432696404
000780 9b 5e e8 f6 7c 6f ac bf de d5 95 4c 9f e9 bf 3f
       -0.05553808702478343 0.12465854282148522
000790 47 a4 63 6e 29 14 b4 3f 82 59 a1 d6 95 26 b6 3f
       0.0784326452736802 0.08652626504895092
0007a0 9a 3a 4c 64 db 72 d4 3f 44 c2 ca e3 d2 b3 c3 3f
       0.31951031489089987 0.15392528650910908
0007b0 21 d8 57 db 46 e0 c1 bf ad c4 9e 5a c0 b5 d8 3f
       -0.13965688428987824 0.3860932240450648
0007c0 b6 49 4c ba c2 59 c1 3f ce 4e 6b 88 af b9 c2 3f
       0.13555177780706423 0.14629167710392327
0007d0 0b 63 79 3e 06 eb c6 3f ff 00 8e b1 5f 1a c3 bf
       0.17904737520691358 -0.14924236459410875
0007e0 86 f0 31 4a 41 65 b2 3f c2 80 4d 5d 5a e4 c2 bf
       0.07185752927211028 -0.14759378009603635
0007f0 ba 47 52 b7 8e ff d5 bf d8 b1 51 10 6d 76 9d 3f
       -0.34372299101334713 0.02877207195381168
