models/torch/BatchNorm_NH3_net_uniform_001.pt (torch, 660526 bytes, 12 tensors)

linear_afunc_stack.BatchNorm.running_mean f8 [5]
840.1319043542604 250.89335968559598 0.33312975516139937 0.33415941272587163 0.33271083211272784
00000000: fdbd de23 0e41 8a40 6326 0d67 965c 6f40
00000010: 5b88 ef76 ff51 d53f 4db9 5329 de62 d53f
00000020: 43be bc5f 224b d53f

linear_afunc_stack.BatchNorm.running_var f8 [5]
62154.229289603456 20622.086726076242 0.0555492802478455 0.05550974792600776 0.05538352522903543
00000000: 8526 5756 4759 ee40 4b87 eb8c 8523 d440
00000010: 0830 f68b f470 ac3f d71e e70f c66b ac3f
00000020: 8e19 31bb 3a5b ac3f

linear_afunc_stack.Linear1.weight f8 [200, 5]
-0.08239195759452944 0.002205715120955387 -0.7276073113694836 0.9922446104950938 0.37484454166691716 0.9397924206553467 -0.5032375936022349 0.21605574523615648
0.5976554107115651 0.2105217900875923 -0.5922051314048417 -0.01306196884765919 -1.2651652967795108 0.8093752652884634 -1.1002491436949342 0.9473156644987168
-0.5131186143442769 0.5608746654583286 -1.0711642067270737 -0.21862621156182507 0.6692223746584086 -0.45649327897031433 0.19453032523848512 -0.06422092988739572
0.3552671527076442 0.39852703780458765 0.09719333748731736 -0.6263732485608976 -0.8018931713730859 -0.13656022091129402 -1.0783244359085387 0.46073895026179257
-0.9504075432729469 -0.11061637655994924 -0.15782969832689261 0.6719837855241495 -1.3732404515977166 -0.9095323658493422 -0.274120071488908 -0.732552486265818
0.5688700235937938 0.20175086070473805 0.6850741936606475 -0.26335555386152776 0.3449280515862857 0.16100966895420818 -0.019739567781839374 -1.1596883927145245
-0.0011494790771085202 -1.5314093928137658 -0.03351081335934574 0.4686085048085891 0.6546758917967344 1.265548905779207 1.3285007610097972 -0.5380877538617741
0.04906953904725588 -1.0911746819932164 0.5586025042472973 -1.0987355809052568 0.6951857379348988 -0.6291735887170659 -0.5231301999797494 0.1868123881953996
0.5804841099385326 0.1631781404911628 -1.5637750904156933 0.4224353448596303 -0.15905218110121352 0.33022639533216747 -0.5070375722989164 0.3316475876233788
0.7004938757747846 -0.7190532655145546 0.3017365801216734 0.3493401241523129 -0.649258336552656 0.5463101577797147 0.15311879165339912 0.8247329834910192
0.305186948322088 -0.18236226113076542 -0.2435611137833339 -1.4042565594835248 -0.6771047934224959 0.8961270168726535 -0.5957648128016574 0.8151665656953446
0.21815426134907326 0.3845167492572039 0.9744771515677534 -0.025591415442538797 0.533754419139885 -0.5007714312391089 0.24470170096226884 0.16692470706124934
0.02239979323915995 0.9384426064651928 1.0676415115613191 0.9960172053230764 0.9185733826673516 -0.636929717936786 -0.3424698262453667 -0.21433459095800655
-0.6697733471941317 0.430798875136833 -0.2258551413034378 0.14857032051331642 -0.9628518400266 -0.5241892031928094 0.02640647444563477 -0.005932332598818345
0.3473689431173077 1.040859587999278 1.1216382110212884 0.034040399005868915 0.04907938982423733 -0.11733390744285405 0.5229004808536889 0.6526098696125389
-0.6340086819397623 0.15852276140195556 -0.09497948870711909 1.4655814121686426 0.6332729497834142 0.2987776656202866 0.3659440224378566 -0.02160779522725594
-0.051692519512007366 0.48425683924701723 -0.581887655167074 1.1429211709765825 -0.22044292960025283 -0.2589495767880263 -0.33931022790320053 -0.8784208225772079
0.23437603394811776 -0.2078137489534895 0.6823918939433478 0.7876476750631176 0.29050895302599655 -1.7229906291136763 0.14609939402924438 -0.04528288340073108
0.06242205373463642 1.1079696894817317 0.05657850496297835 0.6713262184047178 0.1924244090362239 -0.04942372894986784 -0.8920838217097163 0.1550469639989222
0.2007990011497036 -1.8338301364387601 -0.05749055250845225 0.19355076571055607 0.13248768937947847 0.3035936964030024 -0.05853432095210846 0.2531321066651441
1.1703988470336506 -0.5645844729030585 0.7410559213079069 -0.863695055986014 -0.023143070902082764 0.9090731197419658 -0.20241247851793334 1.196255266532168
-0.5154504219631912 0.7810322211012921 0.50457671262163 -0.335055615137633 0.8816034186341325 -0.9838607803346496 0.482703392854988 0.4683941202283681
-0.24574168024891524 0.7369428057902758 0.513219807590117 0.5844214640960638 1.6560290444656418 -0.2877403703457024 0.4938560943193249 0.005650022270228635
0.0917359589620645 0.9703411340472955 -0.3431619135402806 0.5974732590139109 0.31576700579211114 0.30283074782016106 0.40456808199897076 -0.22621385367989744
0.557579089864134 0.33045813635780347 0.3654723258257283 0.03618865148080708 -0.10993575230937483 0.05155216712691428 -1.060892926194183 -0.393578403561514
0.42000116133273024 -0.20736067831348678 0.34784846877248765 0.10124124549330626 0.2783975738876369 0.1287818873000375 -0.0075943527977818765 -0.1760867685736214
0.7539642523553874 -0.33336679359710913 -1.3642996289755271 0.43690645966635494 -0.12874363306195002 -0.4446508361922882 -0.09419283543661024 0.3602604039095759
-0.39102383504806937 0.5540845202549735 0.36747711365841235 0.7062143881313068 -1.3482426005066026 0.2611299841932139 -0.24796564507015662 -0.009894911644022288
-0.009270609389090361 -1.7073827377788533 0.18326639822932295 -0.19059976184810448 0.6952538044408889 0.21412177222746842 0.345093676892929 -1.5687853277103236
0.03379151265414001 -0.06603607758846432 0.1152793203888472 -0.10830654703645458 0.38219202326171847 1.1399144872589162 0.5447316909884489 0.0262249094815569
-0.1519961641968036 -0.03859650170895358 0.9962519702122509 0.4554305060919285 -0.2390084888020098 0.658709297549893 0.23609604067559006 1.5089316688283008
0.25055811635225606 1.7114709669151789 0.29789307178098434 -0.22077006994896112 0.2768178778302907 -0.812446947779039 -0.4149521599206753 1.2596427034506141
00000000: 8869 52ab a317 b5bf 4ca8 e149 b811 623f
00000010: 8e32 d520 8f48 e7bf 8fad f6c4 77c0 ef3f
00000020: 02c9 e2f5 73fd d73f d8c9 f78d c712 ee3f
00000030: 7475 d4b9 851a e0bf 497b f3f3 b6a7 cb3f
00000040: 6b13 693d fe1f e33f 54c3 c2c5 60f2 ca3f
00000050: 9907 fd2c 58f3 e2bf 7a31 2dc8 3bc0 8abf
00000060: f03b 5bf7 1d3e f4bf 685e d3f4 66e6 e93f
00000070: adf2 99d8 9e9a f1bf fe55 c0f0 6850 ee3f
00000080: ed7a 72ba 776b e0bf 018d 296d aff2 e13f
00000090: f69d 4814 7d23 f1bf d56b 5a96 f1fb cbbf
000000a0: 2f19 9d0a 456a e53f 0e5d 0196 2f37 ddbf
000000b0: 7861 7da4 5ee6 c83f 62c7 9569 c870 b0bf
000000c0: 4e3b 8e70 b2bc d63f 4251 7c8c 7781 d93f
000000d0: 95a9 e59d a9e1 b83f 1311 35e9 3f0b e4bf
000000e0: 2edc 3dde 1ba9 e9bf 43d0 5f29 ce7a c1bf
000000f0: f346 ab1f d140 f1bf 8a89 d738 bf7c dd3f
00000100: 1054 8714 bd69 eebf de1c bad7 5a51 bcbf
00000110: fb65 5378 c333 c4bf 8e97 c823 e480 e53f
00000120: e080 d2fa caf8 f5bf ee3e bf9e e31a edbf
00000130: ef35 8ee9 2e8b d1bf 89af 63e9 1171 e7bf
00000140: ae52 60e8 2e34 e23f 7956 55e2 f8d2 c93f
00000150: c664 23b7 20ec e53f dc88 c340 d1da d0bf
00000160: 6e4f 421b 4d13 d63f 17c2 3fff f69b c43f
00000170: 9d9e 3df8 9b36 94bf ae27 846a 158e f2bf
00000180: 74a0 cac2 43d5 52bf e9c1 ae22 a780 f8bf
00000190: f7a9 e14e 5428 a1bf 3df1 b186 aefd dd3f
000001a0: 38e4 17db 1af3 e43f e8f6 9c35 b03f f43f
000001b0: 97f8 9303 8a41 f53f 82dc 26cf 0338 e1bf
000001c0: f321 e082 a41f a93f 2125 5695 7375 f1bf
000001d0: 4496 e65b 12e0 e13f c408 afc2 6b94 f1bf
000001e0: bb6e 2229 f63e e63f ff7e 61a6 3022 e4bf
000001f0: 99d0 8e8b 7bbd e0bf 11b9 e4e4 77e9 c73f
00000200: cb13 8169 5393 e23f 1a73 6a74 05e3 c43f
00000210: 5428 7a07 3905 f9bf 982e b641 2e09 db3f
00000220: 8ff5 1766 d25b c4bf 6e91 0ee4 6d22 d53f
00000230: 22bf dbdb a639 e0bf f3f0 a8cd b639 d53f
00000240: 1508 f021 726a e63f cdf1 6efe 7b02 e7bf
00000250: 4149 e8f1 a64f d33f 7d8b 1aae 965b d63f
00000260: c3c4 446b b9c6 e4bf 005e a470 5f7b e13f
00000270: 27f6 4685 6599 c33f 8fd8 006d 3664 ea3f
00000280: f966 8dd6 2e88 d33f 6266 ca85 a557 c7bf
00000290: ac6c 23b5 022d cfbf b1cd e2b9 d577 f6bf
000002a0: d2dc f6ab d7aa e5bf 79f6 d090 12ad ec3f
000002b0: dbe6 625e 8110 e3bf 5288 8e31 d815 ea3f
000002c0: 6118 fd94 7aec cb3f 28bb b423 ec9b d83f
000002d0: f9d8 15b5 ea2e ef3f 5245 89d1 a234 9abf
000002e0: 1ba4 c925 8414 e13f c22d fece 5106 e0bf
000002f0: 444a 74a5 6252 cf3f 1e79 dcee c95d c53f
00000300: 3af0 98ad f8ef 963f af1c fec9 b807 ee3f
00000310: 3e20 0044 0f15 f13f b3b5 6379 5fdf ef3f
00000320: 2909 b101 f464 ed3f b172 8c6e ba61 e4bf
00000330: 40cd e58f 06eb d5bf 7078 48dd 506f cbbf
00000340: cbcc bd83 c86e e5bf 3871 f771 3592 db3f
00000350: 8a0f c43e d2e8 ccbf 3866 e12d 5a04 c33f
00000360: 70d8 79a9 aecf eebf 2b24 946f 28c6 e0bf
00000370: 522e 9680 4c0a 9b3f 25c4 0368 804c 78bf
00000380: 586f 95f2 4a3b d63f 7cf5 2262 5ca7 f03f
00000390: 707c a4e8 3af2 f13f c82c f240 be6d a13f
000003a0: d2cc 670c ef20 a93f 9ccf 2d4f 9809 bebf
000003b0: 5d89 0aca 99bb e03f b40b e117 2ee2 e43f
000003c0: 8af6 4993 cc49 e4bf 294e f24d 794a c43f
000003d0: 5cb2 c965 9350 b8bf b03c ae7e 0573 f73f
000003e0: de5b 18a2 c543 e43f 9651 a75b 2c1f d33f
000003f0: de62 227a a06b d73f f5e1 5b97 5a20 96bf
00000400: cffa 8021 7177 aabf 8489 db65 10fe de3f
00000410: 4c70 1cdc d29e e2bf d401 b4b5 6749 f23f
00000420: f93d a252 7937 ccbf fc86 e73e a192 d0bf
00000430: 30b9 023f 42b7 d5bf 5c06 23fc 051c ecbf
00000440: 2ffd 62ac 0800 ce3f c90a b513 a499 cabf
00000450: 8859 7186 27d6 e53f 2c54 a5e5 6834 e93f
00000460: 5c47 1cdd b297 d23f 29b9 359f 5e91 fbbf
00000470: 4217 a98b 62b3 c23f 44a8 8c6e 512f a7bf
00000480: 35c8 ad8e c8f5 af3f 7388 d46c 3eba f13f
00000490: 22f4 f198 dbf7 ac3f 17dc 1f1f 817b e53f
000004a0: 6fa0 e1ef 5ca1 c83f a6db f826 114e a9bf
000004b0: ed15 f15e f38b ecbf 4617 dc33 94d8 c33f
000004c0: e7f3 801b c8b3 c93f 72c7 e644 5e57 fdbf
000004d0: b09e b4d5 666f adbf 34da 6b80 45c6 c83f
000004e0: aaf4 804a 5bf5 c03f 44a6 5441 146e d33f
000004f0: 96a1 5de4 35f8 adbf ae70 ec01 5133 d03f
00000500: f791 3424 f4b9 f23f 4c56 de74 1311 e2bf
00000510: 9ac9 50e8 bab6 e73f 81a8 65d0 63a3 ebbf
00000520: 3a23 9d32 d1b2 97bf a7dc de82 2017 ed3f
00000530: b9b6 c4ef a6e8 c9bf 59c6 f68f dc23 f33f
00000540: 6252 21e2 917e e0bf c412 d848 37fe e83f
00000550: 150f e10f 7e25 e03f f1dd 561b 8d71 d5bf
00000560: a569 625f 1836 ec3f eb56 6b9a c97b efbf
00000570: 18bf 7ec5 9ce4 de3f 0840 0155 2bfa dd3f
00000580: 7272 f79f 7674 cfbf ec88 3c14 0995 e73f
00000590: 7149 28f2 4b6c e03f e1ef 6ba4 94b3 e23f
000005a0: 074c b34f 187f fa3f 07eb 1796 566a d2bf
000005b0: e108 8297 569b df3f aff4 f44d 7a24 773f
000005c0: cdf8 9bff 017c b73f 414b 96d9 080d ef3f
000005d0: a8d9 f862 5df6 d5bf 8a60 763d 801e e33f
000005e0: 041c c2d0 8635 d43f 9817 8737 9461 d33f
000005f0: c439 4c86 71e4 d93f 7088 ba57 93f4 ccbf
00000600: fccb 7c1a b0d7 e13f e1a5 16e2 3926 d53f
00000610: 8aee c009 e663 d73f 705c 31a5 5187 a23f
00000620: ba75 d4dc bf24 bcbf 1630 b2af 0b65 aa3f
00000630: f6fc 68dc 6af9 f0bf 9559 ed78 6330 d9bf
00000640: ae30 0d8d 4ce1 da3f 4399 ea71 cb8a cabf
00000650: 54db 5539 2643 d63f 306a 663e f2ea b93f
00000660: 6f85 c80e 44d1 d13f 31aa 22c5 ec7b c03f
00000670: 8b82 698e 411b 7fbf 6119 24e0 028a c6bf
00000680: fb05 c7a3 7920 e83f 179b 04ad e155 d5bf
00000690: 3251 06d9 2bd4 f5bf 9b66 eb82 46f6 db3f
000006a0: d0de c8de ab7a c0bf 826f e5c7 2875 dcbf
000006b0: 85be b78b 051d b8bf da76 35a7 810e d73f
000006c0: ae3a dfd5 8806 d9bf f5e0 b675 0fbb e13f
000006d0: 2d3f 4cba be84 d73f b8a2 9fea 4e99 e63f
000006e0: 64ff 43d5 6692 f5bf b759 8789 5ab6 d03f
000006f0: 90ce 0d98 56bd cfbf 6159 438f c843 84bf
00000700: 63fe 1e21 78fc 82bf ed3d c88f 7051 fbbf
00000710: 3ee2 6cf9 4575 c73f e5a9 e1af 9265 c8bf
00000720: 46c8 0fe8 843f e63f 880d 8a9c 5768 cb3f
00000730: f6ef 13ca 0316 d63f 235e cfa4 be19 f9bf
00000740: cbbb 7603 1f4d a13f 113c 9989 bde7 b0bf
00000750: 04a7 f90e f282 bd3f 9fd9 7655 fab9 bbbf
00000760: addf 2c88 d575 d83f ed37 30f9 163d f23f
00000770: 3d7c bc27 716e e13f 2961 41e2 b3da 9a3f
00000780: 2bde 2b3d 9c74 c3bf 02f1 28b1 ebc2 a3bf
00000790: cf63 d4cf 4be1 ef3f f6fe 50fe c525 dd3f
000007a0: 667d 6f85 d497 cebf 9788 5185 2514 e53f
000007b0: e757 b522 6538 ce3f 9442 9888 9524 f83f
000007c0: 47bd dee8 2409 d03f 5e44 6f61 2f62 fb3f
000007d0: 9646 401a ae10 d33f dde6 2e93 3142 ccbf
000007e0: 93ab 0e55 62b7 d13f 9245 cebd 90ff e9bf
000007f0: 1fe3 1081 938e dabf 5672 7f1b 7f27 f43f

linear_afunc_stack.Linear1.bias f8 [200]
-5.055084856989945 -2.4802866811663877 -5.260689106579286 -1.4671433678736463 -4.32677824677857 -4.517692669974107 1.219399515923468 -2.179506883629454
-3.4826317267617815 -3.638191752885759 -4.540411364687068 -0.8802809237221675 -5.948696481932886 -3.80194368707868 -3.925756893866818 -4.341060329520305
-3.740565324004783 -3.936650009054537 -1.5745689622251382 -4.679568439750144 -3.511469972960177 -4.380937054710088 -5.028609478384341 -1.1771729821736916
-1.7744981065517267 -4.9897802528108794 -3.463134075957038 -5.148191513386581 -4.921144600299754 -5.338795824060018 -4.469607458519498 -5.831613391627443
-3.7967532069336367 -3.688212674005443 -4.049602464591596 -4.7184512496261695 -4.147443958196031 -5.040433216941979 -4.76942437412097 -2.8065830075355542
-4.503940877305493 -4.028535370489509 -5.495104047738026 -4.558561506499937 -3.9562253003831143 -4.195070070832176 -4.336344488843722 -4.146294331408354
-3.842192366784165 -4.676436585606981 -4.353330446323372 -2.9388380223072677 -3.7158194006357164 0.9344532264470327 -4.947880199677925 -3.9104794580517255
-4.221554064339935 -4.93860993672645 -3.0586661607624244 -3.876612926992523 -3.417192910095366 -1.2983514145934563 -4.61660479699569 -5.1650819894430695
-4.745108299136933 -4.303705532824519 -3.551145989447826 -4.858189186928294 -4.1591825424144115 -2.4155494303734124 -4.98682560519828 -4.17524020855611
-2.308433549429686 -4.258165128089857 -5.516276336841648 -3.8949789854988364 -3.4905847224971853 -4.72639720370462 -3.655611865037595 -5.458274221475744
-3.069359373904395 -4.370186191545901 -1.7230058121357303 -4.355205638719607 -3.8614067340360165 -4.550924641607554 -4.1355889471255205 -4.171387542579689
-4.829077045826906 -5.529474067897127 -1.557276679012946 -3.9502695671234127 4.761726891399483 -4.524376597552141 -5.29721007566219 -4.035795007291502
-3.584368988925453 -4.4468022110567516 -3.3527430810153938 -3.0090749176152682 0.38074455789238415 -3.478372512726868 -4.9971964144483945 -4.969254991992135
-4.663135804832956 -4.383958754334624 -4.744213019382623 -5.076332379235067 -4.284459955905412 -4.857383117520554 -5.4744845071937345 -0.5486538392285553
-4.127585852652357 -4.364829588628189 -4.6772269801552255 -3.336791049086315 -4.118677167568549 -2.905638207753442 -2.8727712625039983 -4.26920046272026
-4.008676307154758 -4.209758398699305 -4.614090879177988 -3.2020400198467636 -5.114747853747791 -5.467884753236073 -3.8687016744588574 -3.7655742037479554
-5.341472133039341 -4.410090283197665 -4.177618071092962 -4.585893219515722 -2.290039172585418 -3.5856707805209616 -5.335860093678147 -4.643455790330412
-4.090305835994352 -4.581307267293527 -3.691025743616708 -2.0503831178040435 -1.9352448752381504 -4.982240750240409 -4.208656868486362 -3.0914204150237072
-4.544181404563054 -4.389737989560453 -3.7919395018123616 -4.4604200955493445 -3.8664125214240324 -4.415496847525636 -4.026590440838448 -4.616648627170477
-3.76073797351468 -4.333141540554612 -4.636981514441468 -5.581123362396777 -4.393902176116423 -4.850048687065386 -4.216198322773075 -4.033690466767138
-4.87887254005658 -2.166633890781766 -3.733012911977398 -3.0708833834512292 -4.512638208175738 -5.639472024529222 -4.455425269912494 -3.976279960013578
-2.085143534488097 -4.703882325601656 -4.400989970666423 -5.163934257837205 -4.209803026856365 -5.187413603594547 -5.1848325749539 -4.458804615108044
-4.196908897395492 -5.078000230846144 -2.8023523280244875 -2.7884485641342396 -4.807872482300757 -6.7063218538135505 -4.892383500474278 -4.448994297896714
-3.95225255489119 -4.615310433140878 -4.0526876991179135 -4.028810696961049 -4.706106140219898 -3.986372190147598 -1.9383891304025826 -4.538824436844683
-4.116459333209648 -6.3855054738842725 -6.156678200529838 -2.5608160689273203 -4.57431872515356 -0.36347692740541704 -5.622264809913889 -4.100588401526999
00000000: 4a1b 2d2a 6838 14c0 1a83 228b a0d7 03c0
00000010: d9b9 cc15 f20a 15c0 40f8 f852 6b79 f7bf
00000020: 2cd5 ebf4 9e4e 11c0 bcab fb06 1e12 12c0
00000030: 7664 1a11 a982 f33f 58c3 144e a16f 01c0
00000040: 81a1 d305 6edc 0bc0 1ec5 1947 041b 0dc0
00000050: e9de c698 6129 12c0 7bbd 55e6 422b ecbf
00000060: 91ed 2e17 77cb 17c0 88e4 a973 616a 0ec0
00000070: dfa2 f93a f367 0fc0 c202 45eb 3e5d 11c0
00000080: ae37 3983 adec 0dc0 ac7f 255c 427e 0fc0
00000090: a9db 6039 6f31 f9bf 827b 00ca e0b7 12c0
000000a0: edff b591 7d17 0cc0 f041 ff5c 1486 11c0
000000b0: c210 98cd 4b1d 14c0 95bb 4256 b3d5 f2bf
000000c0: e741 6720 5864 fcbf 8632 60f4 88f5 13c0
000000d0: 7430 6fa3 7fb4 0bc0 1329 1e84 bf97 14c0
000000e0: 9fb2 b487 40af 13c0 c46f e14a ed5a 15c0
000000f0: 1832 11c7 e0e0 11c0 71d2 ff75 9253 17c0
00000100: cf1a 3625 c05f 0ec0 635e 7ca5 7581 0dc0
00000110: 3ae3 0cfd ca32 10c0 afa8 33af b1df 12c0
00000120: 6bc7 898c fb96 10c0 62c0 4153 6729 14c0
00000130: 1c61 aefb e313 13c0 08ff b6ca e173 06c0
00000140: 1d94 cc13 0904 12c0 7220 4c60 381d 10c0
00000150: b29b 348e fcfa 15c0 0be3 2c8c f73b 12c0
00000160: a906 4673 59a6 0fc0 439c da72 c0c7 10c0
00000170: 3118 8fb0 6a58 11c0 cef4 632e ce95 10c0
00000180: 093b 025a cfbc 0ec0 e3ff d3ca abb4 12c0
00000190: 538f de74 cf69 11c0 8468 5082 bd82 07c0
000001a0: f094 9c85 ffb9 0dc0 fc69 e773 0ae7 ed3f
000001b0: 1092 681b a1ca 13c0 8118 4074 a948 0fc0
000001c0: 2a8b 9211 dfe2 10c0 4fc3 97f6 22c1 13c0
000001d0: 18da cef6 2578 08c0 4378 65a3 4d03 0fc0
000001e0: 80dc 873c 6956 0bc0 c64e 0622 0cc6 f4bf
000001f0: e29c 763f 6777 12c0 3344 c740 0ba9 14c0
00000200: d315 83ab fdfa 12c0 db61 4c95 fe36 11c0
00000210: f2ff 7f3a bf68 0cc0 298d 6e25 c96e 13c0
00000220: 5e0e 97bf 00a3 10c0 159a 6a94 0b53 03c0
00000230: 64ba 5469 82f2 13c0 56c5 522b 72b3 10c0
00000240: 4f51 3e02 ac77 02c0 5074 7870 5c08 11c0
00000250: f7bb 79be aa10 16c0 1c99 0abe ea28 0fc0
00000260: 5757 d8ae b7ec 0bc0 ce44 27ab d4e7 12c0
00000270: f6a5 f96e b13e 0dc0 4c5a 67d6 45d5 15c0
00000280: 2ab9 9449 0c8e 08c0 547b c816 127b 11c0
00000290: da0d df8a 6e91 fbbf 3c9f e606 bb6b 11c0
000002a0: 30e9 b936 29e4 0ec0 530f d996 2534 12c0
000002b0: a969 36d4 d78a 10c0 4a49 4937 80af 10c0
000002c0: 6fc3 b692 f950 13c0 00cb 3673 2e1e 16c0
000002d0: 0bf2 72f3 9aea f8bf de6e 49ee 269a 0fc0
000002e0: 972d 5c22 020c 1340 c818 c52d f618 12c0
000002f0: 0d0b 8cd6 5730 15c0 55b5 4672 a724 10c0
00000300: ecd9 01a6 c9ac 0cc0 b313 d184 86c9 11c0
00000310: a8cf e6f6 6ad2 0ac0 c6f8 d2de 9512 08c0
00000320: f6c6 116c 1e5e d83f e9bc cbf7 b4d3 0bc0
00000330: 2efa 8e0e 21fd 13c0 255d 7061 84e0 13c0
00000340: ba41 8a12 0da7 12c0 3b85 d37b 2c89 11c0
00000350: eb05 4efa 12fa 12c0 0ec3 4113 2a4e 14c0
00000360: 988a 7e78 4923 11c0 be92 07d7 f56d 13c0
00000370: 4e6c 4344 dfe5 15c0 b3f7 097f 928e e1bf
00000380: ed4b a2dd a582 10c0 b715 3fe3 9575 11c0
00000390: 30f1 4efd 7ab5 12c0 3f4a 6b81 bfb1 0ac0
000003a0: 90f4 e581 8679 10c0 0379 a23e bf3e 07c0
000003b0: 16bf ea7f 6ffb 06c0 6cce 3d49 a913 11c0
000003c0: 40eb 1d71 e208 10c0 3de6 d9e7 cad6 10c0
000003d0: 8a5d 4b3d d474 12c0 e2cc 6d28 c79d 09c0
000003e0: 2588 1c76 8075 14c0 abc8 452e 1ddf 15c0
000003f0: f63f 0edd 19f3 0ec0 d611 3e5e e51f 0ec0
00000400: ea98 efde aa5d 15c0 24f7 0ab5 eea3 11c0
00000410: 6c17 fa82 e1b5 10c0 9c12 6364 f457 12c0
00000420: 9481 c60e 0052 02c0 8b7b 8429 74af 0cc0
00000430: 3d84 59b5 eb57 15c0 5690 1f13 e692 12c0
00000440: 4aef 1022 795c 10c0 b2cf 5736 4253 12c0
00000450: 0539 4c81 3887 0dc0 3be9 9943 2f67 00c0
00000460: 2c64 8e54 c3f6 febf 0253 ec84 d0ed 13c0
00000470: 55f0 6825 aad5 10c0 64b5 65a0 3abb 08c0
00000480: 37c2 dee3 3d2d 12c0 0aaf bc79 178f 11c0
00000490: 988e a560 e455 0ec0 f738 935d 78d7 11c0
000004a0: 92e3 22b0 69ee 0ec0 d6da 6e01 78a9 11c0
000004b0: 4126 4786 3a1b 10c0 3048 dbbc 7277 12c0
000004c0: 2291 68ca fd15 0ec0 067c 560e 2355 11c0
000004d0: 0abb d2e1 448c 12c0 2cbe b100 1253 16c0
000004e0: 1cf9 9017 5b93 11c0 75d0 bb29 7366 13c0
000004f0: a90a d717 63dd 10c0 adce f3c0 7f22 10c0
00000500: f494 c329 f783 13c0 dd80 3a26 4455 01c0
00000510: c2e8 a3df 35dd 0dc0 da05 ae4e 2b91 08c0
00000520: e92d cb07 f10c 12c0 5b3d 20c1 d18e 16c0
00000530: 3e2f 8000 5bd2 11c0 f0fc 1fde 6bcf 0fc0
00000540: e0bc c0bb 5fae 00c0 22c4 4287 c6d0 12c0
00000550: 2825 681d 9d9a 11c0 586b d061 dea7 14c0
00000560: b2cc cb9a d6d6 10c0 6d0e 095a e9bf 14c0
00000570: 5ea6 22c0 44bd 14c0 5992 84e0 d0d5 11c0
00000580: 946b 6a7c a2c9 10c0 3142 e24a df4f 14c0
00000590: 8ae0 85b2 376b 06c0 1a47 ec1e be4e 06c0
000005a0: c647 8bec 423b 13c0 3251 3a09 46d3 1ac0
000005b0: ac1b f8fa cc91 13c0 3c3a 4629 c5cb 11c0
000005c0: 2352 6696 369e 0fc0 21e9 2cf0 1376 12c0
000005d0: a373 a2c3 f335 10c0 04e4 248d 801d 10c0
000005e0: 3cff ee7c 0dd3 12c0 4ff1 521a 17e4 0fc0
000005f0: fb03 2052 a403 ffbf 5622 da97 c127 12c0
00000600: 31cc 8d1d 4177 10c0 380c 6bf2 c18a 19c0
00000610: 4f16 0d40 70a0 18c0 b9e9 9822 8d7c 04c0
00000620: 500f 3835 1a4c 12c0 24a3 03bb 3443 d7bf
00000630: 9320 80fc 327d 16c0 59a9 5ba5 0067 10c0

linear_afunc_stack.Linear2.weight f8 [200, 200]
0.4871812432643566 0.43746002264030276 0.5559820204341201 -0.04838208599485204 1.2541010294965078 1.1394114556651629 -1.6212236296788276 -0.20246529672887678
1.012356153470422 -0.5441386971531816 0.39967401455748414 -0.8625326070741616 0.6766231961448975 0.3913542714227171 -0.3162241657501859 -0.31826366704475506
1.4155839969732467 0.9389965690130149 0.6731171929548703 -0.8465113977110028 2.4408069345419885 0.3570634212315946 -0.1028821861215513 0.15455361239932802
-0.7737787988073094 0.4976624875044828 1.3717975193853436 0.08407982505356626 -0.08378343592470133 -0.09022588543356816 0.08690146054517292 -0.03879000655291047
-0.17811517903288404 -0.09905210024109667 0.7248173633868608 0.7110118791620653 0.7964347524575934 0.12755642135545064 -0.5226296911697147 0.6666464853416497
0.8232482729700379 0.4668115080696969 0.32261461049019546 -0.3108515160892345 -0.38250508740545475 0.2752832786191219 0.38703702204172336 0.3176304523398449
-1.0317393733685603 -0.4319632818994219 0.8971498439116241 1.4014426567003855 1.0478947607376954 -2.0390854583188633 0.20488361744123662 -0.43573294840520477
0.2979929808281619 0.36609378849158447 0.8938506667483807 0.1967568820085117 -0.09293759731390816 -1.294113732824083 0.3378176738725556 -0.35898197041314633
-0.579495637302242 -0.3417335300371237 -0.4396352729693711 0.25503772742277747 0.3878792359412878 -0.9810295555088069 0.48936498482196433 0.6624919521197989
1.6618148099277672 -0.19624552377426557 -0.5934031117204099 -0.2286732408866093 0.4813525983128437 0.5346488630361425 -0.6299175228752812 0.600562435531401
0.16069165938603602 0.18777926577297774 -0.6436876548744989 0.2755516380108116 -0.3929395336507473 1.0357804858481054 0.017345706789234215 0.9131840446129939
-0.22204780404883467 0.2984851629073056 -0.19974321376320986 1.8020667614583665 -2.0434668899568385 0.6976936106033383 0.2762503485515675 0.020205045440855898
1.2269460905307557 -0.1610981724101426 0.7337288260746255 0.5729556255483578 -0.16004244036899928 0.00202899119384044 0.8370363989541385 -0.2843333636502093
0.43882511374398936 -0.9040633262113202 0.03291001380772462 0.8790705068301741 0.7925578619281709 0.3944045301460881 -0.780768364201119 0.030608939592503707
0.890773174209866 0.39419826385742623 -0.2170499673288671 -0.512361988290168 1.5017306764158798 1.5814737219795318 -0.5427200434236589 -0.4595198509011769
0.5258538271285659 0.1711700164669654 1.440182260413435 0.7590313403686719 0.7447686158626879 0.7241021353861843 -0.3285594685447644 0.49917318695362156
-0.16984253612257014 -0.49636249600316995 0.26687760961565415 0.39101168184116397 3.1015405641581566 0.8199442166063968 1.130447519621427 0.10321175301547698
0.5655692691083561 0.8156098440659779 0.6802659396818364 -0.13343167491925267 -0.32786083228026625 0.9414872472455316 -0.18439662248471758 0.24899723344091404
0.20838822079294986 0.9469799901698979 0.0068485159273658424 0.8877580181458026 -1.072429408555158 1.7769923306241655 -0.008473156353842654 1.1827487815233142
0.7740413299408392 0.5557220083764578 -0.6254027387768312 0.5187461216884435 0.37969723147315937 0.1470646976500412 0.6096772576428657 0.04395460924864037
1.2323588981828921 -0.7261482850806293 -0.34252157106547354 -0.45989479291652857 0.2231995800416473 -0.5629416186914261 1.5681461760310749 -0.16119591420430368
1.7822749759473198 0.3720268571457877 -0.14710340789608609 -0.5278509038455187 0.3809266310293189 0.1621275250095386 0.9708560507679497 0.6928110007284171
1.9152040056639956 0.196597226009207 0.9769217852114428 -0.17467099390195037 -0.18778599296290707 0.38371930566037743 -0.03818962250521184 0.09392760542222761
-0.17345600714475753 -0.37745347337184726 -0.06928251366254642 -0.39770369627835744 -0.6322515770602107 0.268289991392831 0.6182804595255764 -0.2648530526650464
-0.17234619995667258 -0.2641289525982352 0.07636345038430972 0.3878145657582105 -0.46350412817721376 -1.4490983900359475 0.13907049536545746 0.4801254695963677
-2.72419311290426 -0.7506148729790011 0.8799553554841739 -0.7383379121810592 1.9368510655371922 3.424643493983774 -0.5434610479194605 1.2749816140683699
-0.85949187812401 -1.2752231581749893 2.7614833109803367 0.16055656200439503 4.02131067735178 -2.152909412730376 0.7800728497567729 1.5973998677879517
-1.038392947912146 2.42306710120997 -2.3340109969863954 0.783156646814794 3.62116804842101 1.8411692572899419 1.423886558090748 -0.3854037733658212
-1.700650382886997 2.9219861887653784 -4.068116570796215 2.0162232874598947 3.0451762607820707 0.8403608338635156 2.298075833181934 0.7680145710801847
-2.238718123686345 3.69670224918215 1.9133500928811897 1.3721110021938294 0.11617738033615839 2.672107629212971 0.10262750902564893 -2.2256539359966423
2.31725878881823 -5.118955500833888 5.796106756707134 0.8994236034096519 0.6302556530842939 -0.3030597757343326 1.0882870801650328 0.6451323017054034
-0.6227711899105004 0.3405571102593633 2.047891263934726 3.510794529147147 4.495590945069305 -0.09088049299610472 1.404256899559676 2.633950969830623
00000000: cde1 c23c fa2d df3f 910a a352 58ff db3f
00000010: aeb6 5dce 9aca e13f decb 1e6a 89c5 a8bf
00000020: 3414 b93d cc10 f43f 6650 ac81 073b f23f
00000030: 5391 4f30 88f0 f9bf 5342 0302 62ea c9bf
00000040: 05f5 b05d 9c32 f03f d059 988e 9569 e1bf
00000050: 8f77 6551 4294 d93f a1bf 63fb dd99 ebbf
00000060: d508 65b0 e5a6 e53f 4345 3ac9 f20b d93f
00000070: 0d86 8648 043d d4bf 9a95 5d92 6e5e d4bf
00000080: 5fdb bb67 3ba6 f63f 88f2 5e88 420c ee3f
00000090: 48ba 4311 2d8a e53f 2c85 1b12 9f16 ebbf
000000a0: afa9 3dc9 c586 0340 9067 3289 20da d63f
000000b0: 07a9 bba8 7c56 babf 4eec 5dab 69c8 c33f
000000c0: d9e5 66c1 cbc2 e8bf dbc6 11c3 b3d9 df3f
000000d0: 54e7 a7f4 e1f2 f53f 98c4 db62 4186 b53f
000000e0: 0c3c 3ecd d472 b5bf ea97 302b 0b19 b7bf
000000f0: 8a22 0493 2c3f b63f 56dd 1ca3 48dc a3bf
00000100: ae07 6f6a 7acc c6bf 40b8 227b 7a5b b9bf
00000110: 7739 ea2e b431 e73f c331 02fc 9bc0 e63f
00000120: c680 e6bb 647c e93f 0ce8 0ed1 c453 c03f
00000130: 99c2 efe6 61b9 e0bf b124 9102 2b55 e53f
00000140: 26a2 1cc3 0c58 ea3f 0992 2360 3de0 dd3f
00000150: 4819 51c0 b7a5 d43f 59fa e0c1 fde4 d3bf
00000160: 7471 3d9e f67a d8bf 9781 b3c1 3d9e d13f
00000170: efaa 00ee 36c5 d83f 3eda 40ad 0e54 d43f
00000180: e5d0 2925 0182 f0bf 942c 3552 49a5 dbbf
00000190: 22c8 e696 73b5 ec3f cef5 9b22 4f6c f63f
000001a0: 544a f04b 2dc4 f03f 5bd4 6909 0c50 00c0
000001b0: 84b9 325a a039 ca3f 1f29 cc72 0ce3 dbbf
000001c0: 750c c626 5112 d33f 24c4 35a4 146e d73f
000001d0: 9925 a6b6 6c9a ec3f 90a7 be5a 542f c93f
000001e0: a034 0825 c2ca b7bf ee8a fc99 b0b4 f4bf
000001f0: 65c7 5205 ce9e d53f 71cc b183 8ff9 d6bf
00000200: ea68 4c6f 3a8b e2bf 6a30 dd4f f6de d5bf
00000210: 2893 e4fb fb22 dcbf 3bba a1c2 8952 d03f
00000220: 4294 4a6e 03d3 d83f 543b 2a18 9864 efbf
00000230: 3c8b 6783 c151 df3f aef7 8652 2233 e53f
00000240: 185f 4a20 cb96 fa3f f265 4cc5 921e c9bf
00000250: a6e1 c585 28fd e2bf 4b06 8a2d 2a45 cdbf
00000260: 5c4a e620 7bce de3f 9dae b2ee d71b e13f
00000270: 3da7 fdca 4828 e4bf fe07 7ab6 ce37 e33f
00000280: 94c8 e656 8b91 c43f 7f50 aea6 2609 c83f
00000290: 0bcc 50da 1699 e4bf 1467 6756 a3a2 d13f
000002a0: 0878 95db eb25 d9bf 77d7 088f 8e92 f03f
000002b0: 4606 8bad 12c3 913f 23f0 dabe cd38 ed3f
000002c0: 06e9 44fc 0f6c ccbf 8dcc 4183 611a d33f
000002d0: 8aff 5a85 2f91 c9bf d0c1 daf4 43d5 fc3f
000002e0: 6e96 362b 0559 00c0 856c 058d 8153 e63f
000002f0: c467 22f1 15ae d13f a4da 87a5 a1b0 943f
00000300: ee8d 4c39 92a1 f33f 1135 f96a dd9e c4bf
00000310: 86ef 03e0 b47a e73f eb42 3909 a755 e23f
00000320: 50ae ad4b 457c c4bf a60b 495a 1a9f 603f
00000330: 703a e28e 00c9 ea3f 4984 8290 8432 d2bf
00000340: 1869 0cee b515 dc3f 32e6 7236 16ee ecbf
00000350: 4fb9 07d2 94d9 a03f fad6 b678 5821 ec3f
00000360: e769 254e a25c e93f d8c9 977f ec3d d93f
00000370: ded8 bfef 0dfc e8bf 6e67 0f2a f357 9f3f
00000380: e555 6cbe 3681 ec3f 8516 da5a 8b3a d93f
00000390: c23e a317 4bc8 cbbf 0e6f edf7 4465 e0bf
000003a0: d7b2 e9be 1607 f83f f32a b663 b74d f93f
000003b0: 136d ac6c f65d e1bf 39ef def2 c568 ddbf
000003c0: cdcb bf67 cbd3 e03f d804 642b e6e8 c53f
000003d0: b814 cc8d fc0a f73f 3eb8 f017 fc49 e83f
000003e0: 33f5 06fe 24d5 e73f 5051 ce3d d82b e73f
000003f0: c537 0c4b 1e07 d5bf a460 4018 74f2 df3f
00000400: 97dd 0e75 66bd c5bf d6d9 d233 67c4 dfbf
00000410: 735e 55d3 8514 d13f 0427 77dc 5506 d93f
00000420: a036 d27f f4cf 0840 54cd 5ba7 fb3c ea3f
00000430: c0e4 6923 5016 f23f 5da9 c3df 156c ba3f
00000440: 292d 4eb9 2419 e23f 9de3 d1d0 7919 ea3f
00000450: ad84 7013 bdc4 e53f 3cac 0304 4a14 c1bf
00000460: 0f1e 1200 acfb d4bf f4a8 10dd a920 ee3f
00000470: c148 88fb 4e9a c7bf 872b 362f 24df cf3f
00000480: 4db3 9618 77ac ca3f 28e0 f7fa a84d ee3f
00000490: b75d f27e 300d 7c3f fd55 d680 8368 ec3f
000004a0: 5b35 50bd ab28 f1bf b560 9482 8f6e fc3f
000004b0: dd1c 78cb 5f5a 81bf 7a6c 80fc 89ec f23f
000004c0: dd24 bb52 f2c4 e83f 4e9e 7485 79c8 e13f
000004d0: a102 bc9a 4c03 e4bf b884 7277 9199 e03f
000004e0: 06c6 e39d f54c d83f 82ca 6619 04d3 c23f
000004f0: 481d 56e1 7982 e33f 1176 76f2 3781 a63f
00000500: f414 caf6 bdb7 f33f 1ef8 0e54 9b3c e7bf
00000510: dea5 7998 dfeb d5bf f656 cb91 ea6e ddbf
00000520: 7041 61c8 cd91 cc3f 85c8 3a24 9e03 e2bf
00000530: 316a d671 2017 f93f a4ce e055 11a2 c4bf
00000540: 4dc4 e2c3 3284 fc3f 4930 2bbc 49cf d73f
00000550: 7b9c 05d3 48d4 c2bf 03c7 2594 27e4 e0bf
00000560: 8c91 9c17 1a61 d83f 1644 d940 98c0 c43f
00000570: 8381 65b5 4011 ef3f af00 cef9 812b e63f
00000580: c4eb 97f4 aca4 fe3f 8fd0 1810 192a c93f
00000590: 6b75 c779 f142 ef3f 4f31 2f7f 9e5b c6bf
000005a0: d716 3615 5f09 c8bf f5ed 296b db8e d83f
000005b0: 7eb6 6917 978d a3bf 34e5 7ab9 a30b b83f
000005c0: 01a1 fd72 ce33 c6bf 3b32 f99c 3228 d8bf
000005d0: f684 5db2 7fbc b1bf 1ee3 4034 fa73 d9bf
000005e0: 4b2d caa8 673b e4bf cd15 b8c8 a92b d13f
000005f0: ea61 2d1a f4c8 e33f 054c dc37 5af3 d0bf
00000600: 3daf 33b6 700f c6bf 8e83 551f 7de7 d0bf
00000610: eaa4 021a 8e8c b33f 5e03 362f f4d1 d83f
00000620: 8a41 0538 0daa ddbf 1740 1ecb 812f f7bf
00000630: c471 b7de 0fcd c13f 9827 792d 60ba de3f
00000640: 404c 3fc2 25cb 05c0 8bc0 6a7b 0905 e8bf
00000650: 9cd3 3722 9828 ec3f c0dd 46d4 76a0 e7bf
00000660: a747 fb8a 57fd fe3f b3f4 f87c ab65 0b40
00000670: dbd8 6e6c 0864 e1bf 90cc f61e 5366 f43f
00000680: 360c 771c f580 ebbf 256a f765 5067 f4bf
00000690: fce1 e88f 8417 0640 0bc9 7b0f 1e8d c43f
000006a0: 4220 5977 d215 1040 956b f791 2839 01c0
000006b0: d77d 4656 5bf6 e83f 2b8b ec29 f38e f93f
000006c0: 0ce0 7aec 419d f0bf c8ae 1d01 7162 0340
000006d0: c57c 24f5 0dac 02c0 b3dd 3687 9e0f e93f
000006e0: 9b4e 2af4 26f8 0c40 e35f 27e5 6d75 fd3f
000006f0: 976b 8345 3dc8 f63f de1d 9796 74aa d8bf
00000700: 5bdf 062d dd35 fbbf 4be3 804b 3a60 0740
00000710: a98a af59 c045 10c0 4197 c8ac 3921 0040
00000720: 9fea 145f 855c 0840 100f 4967 3ce4 ea3f
00000730: 72f4 1995 7562 0240 ee81 344b 9393 e83f
00000740: 0c90 310c e5e8 01c0 bb4b faa0 d892 0d40
00000750: 8692 abfc 149d fe3f f077 8eaa 2af4 f53f
00000760: 3529 1401 cdbd bd3f fae4 f6f6 7960 0540
00000770: 2c63 efe2 cb45 ba3f d68d 9aa6 23ce 01c0
00000780: 32be d2f9 be89 0240 1c0b 8778 cf79 14c0
00000790: 22ba 109c 362f 1740 42a3 3c02 14c8 ec3f
000007a0: 9db7 43e7 0d2b e43f 7ac5 60d4 5465 d3bf
000007b0: 877d 9fb6 9f69 f13f 8a5f 2d7f eca4 e43f
000007c0: b4cf b1d8 bded e3bf a6fd be0c b0cb d53f
000007d0: f7e8 a2d0 1462 0040 3e4d 2d71 1b16 0c40
000007e0: ca10 5531 7cfb 1140 833b 43a9 f143 b7bf
000007f0: 9da8 2c15 d677 f63f 2385 d5e2 5412 0540

linear_afunc_stack.Linear2.bias f8 [200]
-2.890457442953 -2.5293131068982744 -2.325673757724971 -3.1858745260650116 -4.23902544011087 -4.1094313655157855 -3.3053384375265478 -3.445592150387318
-3.386030545646054 -2.7967187462449825 -3.2872976801184777 -3.935144430324645 -3.070444971079794 -2.696156917682522 -3.8892719986243818 -3.548989432415524
-3.3002969055964058 -1.6049623420145667 -2.460057515490568 -3.404969172534769 -1.5483511600938016 -3.9546367585674815 -3.2822980783768507 -2.8578203199289822
-2.448668307925374 -3.2661307717241557 -3.491147340661659 -3.7971587627181616 -2.7149362369572536 -2.267517462360904 1.7629659543510117 -2.8812771250735723
-2.571746940139805 -4.107368773596445 -2.8658555261843115 -3.291590391585556 -3.596974287987462 -2.744860851273787 -4.7939788616737635 -2.681438763367087
-4.3088005024294915 -3.497218988316619 -3.888114273300162 -3.56780871081033 -2.984658950163935 -3.116559776366466 -3.3041216676551763 -2.3176891240825985
-3.3595824277092214 -2.8971879419226747 -3.5109539007074106 -3.014891870470166 -3.7187084726235615 -2.906401491792437 -3.23630834442407 -3.1626864714928393
-2.9239199024055003 -4.0498978833433465 -2.9318781348400837 -3.5563525023752445 -3.0853967727201246 -1.1350948445849196 -3.8690253374685506 -3.2735449325797092
-3.2981847898545333 -3.523758436652561 -3.0762308325991476 -3.069545206165878 -3.3442906959485668 -3.3104982144408095 -3.722651350271971 -2.7375029972875606
-3.2968529541629294 -2.474430846858907 -3.413211126125796 -2.745458894892379 -3.528702792871313 -3.335047701673796 -3.7411446126881325 -3.830067205566759
-3.3028580684649955 -4.271899863122933 -2.1939000833658895 -3.5201990943260566 -3.46599686966286 -2.818794609128656 -3.9606206649120708 -1.7446155199115607
-3.796157111283199 -2.4897257527532135 -3.302419539520648 -3.3035919100828295 -2.50099866891689 -3.303967476753324 -3.706830198959797 -3.213073510764092
-3.0916518824084673 -1.5493422515849036 -3.1086666318415976 -2.3517902296367157 -3.278462571386867 -2.9708864446461787 -2.9896492955077103 -3.1359961398961533
-3.758220457234239 -3.075885768723714 -4.295767788349585 -3.817899103436768 -2.731050122265416 -3.6097981444201883 -2.75152694968441 -3.3143131699141453
-2.9067385028660317 -3.8824853542861057 -3.9456650306418912 -3.017608297347469 -3.5790412764542485 -2.840941471216446 -3.3691625499051683 -3.3902702554520783
-2.6719323760369575 -3.611140253705958 -3.327698223902443 -1.5494361514486426 -3.212619970979732 -3.315720984961791 -2.9957866240939475 -2.080096929021775
-3.0584344458923414 1.4015350462526748 -2.8807441825575593 -2.627612342627062 -3.9721570133135407 -3.885249760626624 -3.578665527230921 -3.164982017282044
-3.1424181443175185 -3.9688454755241116 -2.1900388464151694 -3.534397853429355 -3.79030112373764 -2.9588434502658796 -4.480697228723945 -3.4618567419269626
-4.104749712874097 -2.424179345538469 -3.4744751192204517 -3.2262245836924857 -3.3497118310344924 -3.2558399374758538 -2.984585754241777 -3.6020075780158076
-2.2250295908197897 -3.0214136336775694 -3.2102576755996153 -3.844940005798876 -3.4262086148180373 -3.440182931709209 -2.3717314725638805 -2.2771938383478534
-3.746463425765465 -2.7082309159819467 -3.337162413329759 -3.2569750689476353 -3.756386508996854 -2.921560043855273 -0.9956625449195091 -3.041001972787536
-3.0635740744339848 -2.9073178282252923 -3.2352852503240843 -2.0735968696447866 -4.01267598341179 -2.3903184890580786 -3.797795178732403 -3.24171362871136
-3.014860579527311 -3.5122520342976777 -3.1200658062141025 -3.3142412520133036 -2.697175050862869 -3.2475964710035856 -2.480195648131246 -4.225039709466333
-3.568460400888672 -0.2174496018725324 -2.562900729949774 -3.005113693794892 -2.7947262876039662 -3.326781594085531 -3.3481106557396116 -3.5510530639720232
-3.974051059036635 -3.641646711945551 -4.043915061189635 -2.8378206023328745 -3.822438660730556 -2.8897433173370013 -3.1416020210388984 -2.8229720861788583
00000000: 10b4 df26 a81f 07c0 26c7 9b82 083c 04c0
00000010: e0c0 d4d7 fa9a 02c0 abde 94c8 ab7c 09c0
00000020: b6c0 c015 c3f4 10c0 0c30 a0c6 0e70 10c0
00000030: 291b 5b47 5571 0ac0 8c24 0a9e 9290 0bc0
00000040: 6774 c62e 9716 0bc0 ccdb f913 ae5f 06c0
00000050: b09a e2b9 624c 0ac0 493f ca00 2d7b 0fc0
00000060: 9fa4 f773 4590 08c0 10a5 d2b7 ba91 05c0
00000070: e3b8 3aa3 3a1d 0fc0 1f98 5092 5464 0cc0
00000080: 3303 6510 0267 0ac0 e139 24fe ecad f9bf
00000090: ef7c 7aa2 32ae 03c0 6e66 3f7a 603d 0bc0
000000a0: 8039 b5dd 0bc6 f8bf b0da cc98 18a3 0fc0
000000b0: 58d1 b27e 2542 0ac0 8e83 5fe6 d0dc 06c0
000000c0: 4154 ea68 df96 03c0 ad1d 882b 0921 0ac0
000000d0: 0946 2da8 deed 0bc0 2fc1 fcc5 9460 0ec0
000000e0: 58a7 637d 30b8 05c0 8a97 ff31 e023 02c0
000000f0: 6762 dec9 1b35 fc3f 2d3b 7705 db0c 07c0
00000100: 84e8 4b0f f092 04c0 5cd5 6c14 f26d 10c0
00000110: 0f2e 80a9 45ed 06c0 9c80 dd57 2d55 0ac0
00000120: 1bac 9b74 9ac6 0cc0 4555 229b 79f5 05c0
00000130: 9f6a 72cb 082d 13c0 481b 972a 9673 05c0
00000140: 30b1 eb32 363c 11c0 2229 eef2 4dfa 0bc0
00000150: e27a f7a7 db1a 0fc0 aa83 1a4b df8a 0cc0
00000160: a557 25df 94e0 07c0 322f 5ce4 b6ee 08c0
00000170: f5ab 4457 d76e 0ac0 51d6 7198 a08a 02c0
00000180: b2d1 79c0 6ce0 0ac0 3263 27df 702d 07c0
00000190: 6a6a aaff 6e16 0cc0 412a 05a1 7f1e 08c0
000001a0: e135 4a3a eabf 0dc0 605a e26c 4f40 07c0
000001b0: 1696 18a1 f5e3 09c0 ce81 9490 2e4d 09c0
000001c0: 1ea4 271e 3064 07c0 ae65 446e 1833 10c0
000001d0: 11f7 0786 7c74 07c0 d9fe d5f0 6873 0cc0
000001e0: 9222 d080 e4ae 08c0 5f9b 3536 5929 f2bf
000001f0: 1295 5e8e c3f3 0ec0 bd54 5b53 3830 0ac0
00000200: 05b8 04b5 ae62 0ac0 2a6a 6343 a830 0cc0
00000210: 78ae 27e9 1e9c 08c0 b29b 90b7 6d8e 08c0
00000220: 5354 fb7a 1bc1 0ac0 d9ea e37c e67b 0ac0
00000230: 79a0 5e6e fdc7 0dc0 996a b0f8 67e6 05c0
00000240: 60ce 0e71 f45f 0ac0 ddc7 5b66 a2cb 03c0
00000250: d36d 88a2 414e 0bc0 be99 3027 b3f6 05c0
00000260: 3d7d a587 c83a 0cc0 b44f 4a7d 2dae 0ac0
00000270: 22d1 083a dded 0dc0 7621 6b46 faa3 0ec0
00000280: 5718 dbd9 406c 0ac0 7899 efea 6c16 11c0
00000290: 40fc a57c 1b8d 01c0 5950 8c24 5e29 0cc0
000002a0: 41ec 1991 5cba 0bc0 19ca 2230 e48c 06c0
000002b0: e045 1de3 59af 0fc0 b9d3 a1f6 f1e9 fbbf
000002c0: 6d83 9b9e 875e 0ec0 1aac e055 f5ea 03c0
000002d0: ee4c 7fef 5a6b 0ac0 6016 6998 c16d 0ac0
000002e0: 5ab3 1297 0b02 04c0 16a0 1d80 866e 0ac0
000002f0: 2adc 6297 96a7 0dc0 6401 83e2 5fb4 09c0
00000300: 597d 6cfb b3bb 08c0 01e4 cd19 1bca f8bf
00000310: b968 6f9c 8cde 08c0 77bc 5a65 77d0 02c0
00000320: 1e22 aa95 4a3a 0ac0 9614 bf1c 60c4 07c0
00000330: 6fb8 f53f cdea 07c0 c7e3 e924 8516 09c0
00000340: 73d5 17e3 d510 0ec0 8d33 77ff 699b 08c0
00000350: d7af 48c0 dd2e 11c0 5682 65af 0e8b 0ec0
00000360: 22ef 76ce 30d9 05c0 ce91 7bd9 dde0 0cc0
00000370: 4da8 b78f 2003 06c0 e4dd 8b9f b683 0ac0
00000380: 3bab be1d 0041 07c0 c5dc 3e7b 540f 0fc0
00000390: 419f dcd3 b890 0fc0 09f7 a9d1 0f24 08c0
000003a0: a13d 8b64 e0a1 0cc0 4fcc a585 3fba 06c0
000003b0: 5d01 b67e 0bf4 0ac0 5c25 fe02 461f 0bc0
000003c0: 539e e114 1e60 05c0 677d 5780 9de3 0cc0
000003d0: 3cf2 143f 209f 0ac0 7264 db8f 7dca f8bf
000003e0: e3ac 6e19 72b3 09c0 0c93 48b9 9886 0ac0
000003f0: d538 42fa 5ef7 07c0 b944 d5db 09a4 00c0
00000400: 378a 907a ac77 08c0 3da6 3d03 b06c f63f
00000410: d6d0 219b c30b 07c0 8431 b19e 5905 05c0
00000420: ce11 9641 fac6 0fc0 2677 95d3 fd14 0fc0
00000430: 383c 5664 1ba1 0cc0 633c 8517 e251 09c0
00000440: 239b c11f ac23 09c0 6e07 820e 32c0 0fc0
00000450: ee94 3216 3385 01c0 e240 bc61 7246 0cc0
00000460: cc8f 4365 8952 0ec0 8c01 671d b6ab 07c0
00000470: b596 f2e4 3bec 11c0 7a1b 90f2 e1b1 0bc0
00000480: 113d 3c82 436b 10c0 afcf 0524 b864 03c0
00000490: 538a 7e9c b9cb 0bc0 6215 a4d5 4ecf 09c0
000004a0: 158a 6ab7 35cc 0ac0 7dc1 23cf f50b 0ac0
000004b0: 7f9b f47e 6ee0 07c0 2f2d 5c59 e9d0 0cc0
000004c0: 46a0 6950 dccc 01c0 63ab 42e9 da2b 08c0
000004d0: 7377 8393 9bae 09c0 e1e7 dfe7 6fc2 0ec0
000004e0: e055 ef0f e068 0bc0 6f96 ffa0 7e85 0bc0
000004f0: 4172 ac59 4ef9 02c0 9bda 3267 b137 02c0
00000500: 1695 0ad1 c1f8 0dc0 c844 71f8 74aa 05c0
00000510: b488 1535 82b2 0ac0 b723 e8f1 480e 0ac0
00000520: 7f37 ba5e 140d 0ec0 1145 4ddf 5a5f 07c0
00000530: 6a01 89b2 77dc efbf 358d a1d7 f853 08c0
00000540: 1b8a d41f 3382 08c0 6971 7ad9 2f42 07c0
00000550: 24fc ba3b dde1 09c0 dcb2 a1f4 b996 00c0
00000560: 09cb d8ee fa0c 10c0 893a cc4c 5f1f 03c0
00000570: 467f 4c70 e261 0ec0 9280 128e 07ef 09c0
00000580: 268e 3839 6f1e 08c0 a8f1 3498 1719 0cc0
00000590: a575 b80f e5f5 08c0 209c e3ea 9083 0ac0
000005a0: 6458 5883 d093 05c0 f785 ccdb 13fb 09c0
000005b0: e73d e3d0 70d7 03c0 43d6 41cf 70e6 10c0
000005c0: 691a 77f7 348c 0cc0 3d0e 4978 63d5 cbbf
000005d0: ff3a 1019 d280 04c0 f5e2 5c0c 790a 08c0
000005e0: 843e b474 995b 06c0 bf41 1cab 3f9d 0ac0
000005f0: 7353 4e3d eec8 0ac0 a7f6 4082 8e68 0cc0
00000600: 7592 1948 dbca 0fc0 f822 dbab 1722 0dc0
00000610: fe71 de11 f82c 10c0 4d7a b749 dbb3 06c0
00000620: 236e 76b8 5a94 0ec0 3260 8ebe 311e 07c0
00000630: ce46 8b3d 0022 09c0 d145 9d63 7295 06c0
