models/torch/BatchNorm_NH3_net_uniform.pt (torch, 660526 bytes, 12 tensors)

linear_afunc_stack.BatchNorm.running_mean f8 [5]
841.0467751191305 250.6927531224137 0.33323344392321846 0.33332287253039333 0.33344368354638626
00000000: 7537 a2cb 5f48 8a40 009f 9808 2b56 6f40
00000010: e75a e55d b253 d53f 5bb7 2175 2955 d53f
00000020: 9bed f82c 2457 d53f

linear_afunc_stack.BatchNorm.running_var f8 [5]
62363.93367387439 20715.30725102621 0.05545486525412866 0.05549515892553153 0.05557246103212934
00000000: 7408 a8e0 7d73 ee40 4f35 00aa d33a d440
00000010: dd54 5781 9464 ac3f 48cc 5789 dc69 ac3f
00000020: e3e8 615d fe73 ac3f

linear_afunc_stack.Linear1.weight f8 [200, 5]
1.231675333356793 -0.692599520605215 -0.10374602185290924 -0.1279845264963354 -0.26448643899505075 0.600091904696386 0.10156987336709095 -0.5668107159057257
-0.14730893121079308 -0.4958799079231739 0.7065038915115799 -0.021446897898206193 0.6252531110023059 -0.010852923430826633 -0.21188333967618034 0.08796697380911415
-0.053936109932383326 0.6946975275093102 0.6722835396734191 0.5809120053887955 1.2906879634074122 -0.2435221795118655 -0.428900760730671 -1.8841205954135887
-0.8797339625398798 0.05098364625880752 -0.02438292976656533 -1.842677965628804 -0.7384228712876696 -1.7009081513663729 0.2655364449930316 0.019904332439555573
-0.008745296077935 0.06460459601407924 0.303865793055054 1.0583215929303504 -0.06139321908788229 0.3787520405822268 0.2718439762666516 0.2913252355254148
1.1196819664129438 -0.04004726891692965 0.902446270609693 0.7863428799372588 0.8545268050201089 0.20517125202221906 0.05479615120586762 -0.6803430933385898
-0.7338594482272051 -0.43577969238714015 1.0877614266533526 -0.14974752027643304 1.0961378745085304 1.304802432337357 0.9681376183867612 0.36200958281899176
0.4057343268348142 -0.0642525754036819 0.27827698346923646 -0.5350915594270941 0.14966666571919457 0.012537533054721519 0.8564613302860403 0.8131093590625279
0.7925477743040272 0.085811786761076 0.021468277855436358 0.37202044100162174 0.43340709274818084 0.5871536996064686 1.1374314430995431 -0.2061522124529543
-0.35772259360901226 0.2979455693203065 -0.3608011435568825 0.610159849149169 0.24536183904423126 -0.2706262804945879 0.5338702838960219 0.1813471068774342
0.12132702379982736 -0.041829435031517655 0.7911979093453695 0.45192456923893787 0.9322233294383209 0.6801171058556053 -0.07179427643997023 -0.08707624263073432
-2.9859481904514618 -1.1426676779918554 0.06228195662231171 0.3021769697597712 0.15745993946974052 0.2139437420130635 0.13326079653203635 0.32572113963295524
-0.07860290114795164 -1.88840894803334 -1.1536208717034644 -2.040752550600847 -0.39180170333080655 0.059263726319382766 0.17515002559364587 -1.3002860479047786
-0.31882472026957853 -0.26564584427974286 -0.33652864387854947 0.05221181263091701 0.4002286658051869 0.6924477133332841 -0.08424688653216922 -0.5925346925283927
1.133749699051398 1.0996189972947887 0.7796480233630221 0.08146318533584407 0.0310011153576923 0.8117889183071602 0.7339057520135749 0.7036735102156003
0.07551560808341665 0.13060036353794452 -0.6098021438343263 -0.480377735411934 -0.6342059608916828 -0.6336763447558248 0.12377438027890772 1.0098125249229915
1.4175997508361522 0.9002021452417893 0.004449377511565361 0.11861637705384465 0.0931216145539013 -1.1387228887407579 -0.5210707012260237 0.24793947520270065
-0.36493280590858496 1.212496646622303 0.45158608293282415 1.2115653655279368 0.9622106772941611 -0.22894118600437255 0.38680983899756577 0.4857360783947362
0.6367611418781528 -2.4135424563677335 0.24629473546305586 -0.4389161867898995 0.012794060361887136 -0.192051888873322 -0.3837393546673715 0.06783648325772018
-0.4926026311700315 1.7064780617262776 -0.2711792448600231 0.14624457614240635 0.0198846289768231 -0.8967355581200294 0.004221007848408645 -1.1199905186164723
0.03031149881907327 -0.016346891801304473 0.22183693470552115 0.36544927352697565 0.35712437444804856 1.4557819629117201 -0.511955506959543 0.6509734960232159
0.28994868205609864 0.5776119711885241 0.3142728492772875 -0.09770033060973161 0.39353014266519526 -0.44087946413874274 0.7983280126672642 0.7437656805419698
-0.3847629662529351 0.2857571456560929 0.06825898100825302 -0.201235863353599 0.7609615158058121 -0.27783426970994196 0.14029518180557496 0.33326011622293444
0.2963467302329203 1.0674824086082133 -0.16253953975123633 -0.3333433778430935 0.5647188629295158 -0.6146771393853159 0.17824741410468242 -0.03903820816166616
0.08319210778102441 -0.297179119567749 -0.42418511417202 -0.6041597247579492 0.058751677927327696 -0.5855795654218858 -0.35766426137652046 0.07858988985029078
0.5365892814919236 0.5099789900077994 0.4868640523350342 1.462820316142387 0.9664979702060196 -0.3044233118085844 0.5854649602911669 -1.2902484772129972
-0.8912892319457131 -1.1176847010095619 -0.06595848420661207 0.0651439305370256 0.7211735631642858 -0.35846579002606 0.10406242469752208 0.869311939298259
-0.8339428631158543 0.23900514904508569 0.38881596080946934 0.5806987628679696 0.18599228342533522 -0.337764934996007 0.6099683128490038 0.49914989703725415
0.48922203941289416 -0.8458941644190607 -0.3203271275662387 -1.0816260794987835 -1.5012516744213706 -0.516976230169872 -0.3056488611798529 0.08674727566243855
0.009570730269941744 0.2826194752950931 0.44680598032114255 1.219290932276453 -0.2923514470957128 0.39295851961612754 1.5879874776604306 0.9619224470604413
0.11162734400090296 -1.5532664171741697 0.5948470670732753 0.25177826488603855 0.6610109473285082 0.8270934823553531 -0.38820458455103757 -0.35270156082656695
-0.852527084904634 -0.07962361724964827 0.15500806862899674 0.02565391331000362 1.0212736837690344 -0.13195395865331946 0.8962936020177057 0.1649890716268145
00000000: ccea c031 f1b4 f33f 8d30 4778 c629 e6bf
00000010: d6c6 f26a 198f babf 2c10 d905 cc61 c0bf
00000020: 1008 6e87 58ed d0bf 8e7d 28f0 f333 e33f
00000030: 34da 5eb4 7b00 ba3f 4dcc fa39 5023 e2bf
00000040: cec2 fae0 04db c2bf 6781 d114 7fbc dfbf
00000050: 393f 910c ae9b e63f 9f35 4bf4 2cf6 95bf
00000060: e844 efcf 1202 e43f ad73 9cb9 0e3a 86bf
00000070: 70fc 3c47 fe1e cbbf 4b63 a3eb 0085 b63f
00000080: f551 7788 839d abbf 2d77 284f f63a e63f
00000090: a12a 11c5 5883 e53f f6f4 1fc6 d496 e23f
000000a0: 96cf 026c a8a6 f43f 4453 6d1a bc2b cfbf
000000b0: 1156 242d 1c73 dbbf b357 30a3 5b25 febf
000000c0: b941 c9d6 c726 ecbf 57f4 9f4a 871a aa3f
000000d0: 2656 b6b7 d6f7 98bf e9f7 f6e3 9b7b fdbf
000000e0: 1191 5900 29a1 e7bf ece4 3977 eb36 fbbf
000000f0: fd08 c992 8cfe d03f 3da4 8123 cd61 943f
00000100: 5d44 30c5 0de9 81bf 4b40 0d43 ed89 b03f
00000110: 16da e282 8972 d33f 6c95 649f e2ee f03f
00000120: bd73 5b98 ee6e afbf ee02 e632 793d d83f
00000130: f882 eb46 e465 d13f a031 c599 12a5 d23f
00000140: 0ea2 3aa3 37ea f13f 4dac 955c 1381 a4bf
00000150: 364e 5500 d7e0 ec3f 43bc 188b b829 e93f
00000160: 4ebc 2399 4858 eb3f 1fe5 c134 0d43 ca3f
00000170: 5972 c0ba 3d0e ac3f e75b fee0 5ec5 e5bf
00000180: ede2 3fcf c67b e7bf c713 c481 d0e3 dbbf
00000190: 2639 9586 7867 f13f bd47 1f3f ed2a c3bf
000001a0: c9bc 2ede c789 f13f 4e15 ea83 78e0 f43f
000001b0: 72f3 1fbe fbfa ee3f 80f4 c23d 2a2b d73f
000001c0: c1af 271c 8df7 d93f 08e7 0a56 db72 b0bf
000001d0: bcb6 ce43 4acf d13f 3d5c 8355 781f e1bf
000001e0: ea5b 48fd 4628 c33f 8e56 8a33 47ad 893f
000001f0: 15c0 7b97 2168 eb3f afd7 27eb fd04 ea3f
00000200: 8ae8 6426 8d5c e93f a509 c0e1 c2f7 b53f
00000210: 5d83 29bd c7fb 953f dde8 e2d2 2ecf d73f
00000220: d54d 4d1a f1bc db3f 4820 318e f6c9 e23f
00000230: bcdf 1850 eb32 f23f c2e2 3d19 3263 cabf
00000240: 0cd3 254e ede4 d6bf 1b01 0e4b 8a11 d33f
00000250: e3ea fbad 5d17 d7bf f7b1 adf2 6d86 e33f
00000260: 5cd1 3049 0468 cf3f 6664 0ae4 f051 d1bf
00000270: 0278 3422 7715 e13f 51a3 a1ca 6136 c73f
00000280: 9d5d 57af 490f bf3f a9e8 f0ee aa6a a5bf
00000290: 73a9 2947 7e51 e93f d2f7 4807 55ec dc3f
000002a0: b22f 1005 c6d4 ed3f 2833 e3f2 84c3 e53f
000002b0: 0583 5915 1c61 b2bf 6089 5bee a04a b6bf
000002c0: b550 0cce 38e3 07c0 8ebd 32e7 5d48 f2bf
000002d0: 8dbe a5ad 6be3 af3f 0d3f ae12 de56 d33f
000002e0: 42f1 39b5 a527 c43f d2a2 902f 8262 cb3f
000002f0: 33d5 7895 b00e c13f 9ab8 957a 9dd8 d43f
00000300: af19 cdd9 511f b4bf 6c6e 144d ec36 febf
00000310: b530 bf28 3b75 f2bf 4a79 c012 7653 00c0
00000320: 88aa 9473 4713 d9bf e9fd c2ac d057 ae3f
00000330: 23bd e8e7 506b c63f 4823 33be f8cd f4bf
00000340: 42b5 adcc 9f67 d4bf cbfc 5f6d 5700 d1bf
00000350: d709 e86f af89 d5bf 00e9 6db7 81bb aa3f
00000360: fa84 a3b1 589d d93f 259b 5e1b 8828 e63f
00000370: 9c0b 7236 3491 b5bf a2f4 c450 0bf6 e2bf
00000380: d868 74b9 d623 f23f 1910 f716 0a98 f13f
00000390: f486 5769 e0f2 e83f 906e d874 c5da b43f
000003a0: 333b 67a2 c1be 9f3f 914d ecc0 2cfa e93f
000003b0: afd3 67ea 277c e73f 3500 2e4f 7e84 e63f
000003c0: ba4a 0eab fd54 b33f 12df 1e41 83b7 c03f
000003d0: 6392 19c9 7f83 e3bf f387 d441 82be debf
000003e0: 34a8 9e4c 6a4b e4bf ed33 1f9d 1347 e4bf
000003f0: 6e6d 6183 adaf bf3f bc2a 9a2d 3128 f03f
00000400: 5b8b 8a13 7dae f63f e747 b3ba 74ce ec3f
00000410: 6d4c 65ae 8239 723f 505d 3794 a45d be3f
00000420: 0e4a 0f71 d1d6 b73f 3c92 e57d 3538 f2bf
00000430: 076d 9576 9cac e0bf 3806 b110 7bbc cf3f
00000440: 535a a720 0f5b d7bf 140a 3ce2 6266 f33f
00000450: 439d 6150 c9e6 dc3f 578a 5e5d 9262 f33f
00000460: d1e4 da0b 6eca ee3f 5d51 4cdd f14d cdbf
00000470: 1bff 100e 7ec1 d83f f054 ccc6 4c16 df3f
00000480: 795e f7e6 5860 e43f fada ec58 ef4e 03c0
00000490: 6ad2 fefc 9586 cf3f 3aa6 fcea 3317 dcbf
000004a0: 45e7 b2b6 c533 8a3f e747 ec02 2895 c8bf
000004b0: 2402 9f82 2f8f d8bf 984b 1155 bb5d b13f
000004c0: 1f20 b32f cd86 dfbf 164b a7f0 bb4d fb3f
000004d0: 12c7 0131 005b d1bf cbdf df6b 24b8 c23f
000004e0: 451d 98dc a25c 943f 8c25 e9c4 0eb2 ecbf
000004f0: 1d25 a42a 0c4a 713f f19a 942d 7beb f1bf
00000500: e78e 7b40 fa09 9f3f 291f b656 3dbd 90bf
00000510: f173 cd15 2765 cc3f e84c 8959 8563 d73f
00000520: 04f7 3631 20db d63f 1800 0d07 e24a f73f
00000530: 2ebf ec83 f061 e0bf a070 7f5e c6d4 e43f
00000540: 71c0 bcea 848e d23f be0c c119 cc7b e23f
00000550: 00ab 6ade 0b1d d43f 99f5 c68c e302 b9bf
00000560: be2e 2f0d 992f d93f c70c fd7f 5e37 dcbf
00000570: cf5e 3c30 e78b e93f 0514 3aaf edcc e73f
00000580: f52b 31d9 f49f d8bf 123d cc56 d849 d23f
00000590: 21b7 16ab 6b79 b13f 8469 f1c5 18c2 c9bf
000005a0: 4ed1 fcf6 cb59 e83f 022f 8763 09c8 d1bf
000005b0: bb16 d248 31f5 c13f 3f46 0f3d 2254 d53f
000005c0: 931f a846 58f7 d23f fd70 206f 6814 f13f
000005d0: ffeb c47b 18ce c4bf 0927 8b76 7f55 d5bf
000005e0: 33ee f64a 2d12 e23f ce47 6864 6fab e3bf
000005f0: 128d 16af cfd0 c63f 7295 b2e6 d0fc a3bf
00000600: 3b6e 34f6 134c b53f 5a3e e691 fb04 d3bf
00000610: 1268 3452 d925 dbbf 03aa 6cc6 4655 e3bf
00000620: 0de5 902e b314 ae3f 2c2c 565b 11bd e2bf
00000630: 85d9 63a4 f8e3 d6bf 9e07 b48e 771e b43f
00000640: db8a ec48 bd2b e13f 2761 7775 bf51 e03f
00000650: d720 98d7 c728 df3f 4d18 9c46 b667 f73f
00000660: 75ed b526 8ded ee3f 84e7 16ea ab7b d3bf
00000670: abf1 2c03 21bc e23f 7c7f 5596 dba4 f4bf
00000680: 427b cffe 7085 ecbf af35 615a 09e2 f1bf
00000690: 4ea6 8fbc a7e2 b0bf df7d 30cb 45ad b03f
000006a0: 05f9 9094 da13 e73f 0964 397f 1af1 d6bf
000006b0: 6c7d d1c6 d5a3 ba3f 15de a945 67d1 eb3f
000006c0: 1c16 7af1 a8af eabf 2eb4 5c81 b897 ce3f
000006d0: 2eba f556 5ce2 d83f 100f 6b92 1595 e23f
000006e0: fb61 4f5b 98ce c73f 54c7 62d1 f09d d5bf
000006f0: 6f0c 6944 dc84 e33f dde9 e468 12f2 df3f
00000700: 01b1 f0f4 694f df3f ded3 81a3 9011 ebbf
00000710: 98ca 3a5a 3d80 d4bf e42a df25 574e f1bf
00000720: ca47 cb79 2005 f8bf 6f72 2cbc 118b e0bf
00000730: 68ef b43d c08f d3bf bfbd fcc7 1135 b63f
00000740: 95de 10ac d199 833f 0aba e6fe 6f16 d23f
00000750: dbbc 481c 7898 dc3f cafc 6635 3782 f33f
00000760: 16b8 0dd8 e2b5 d2bf d7e4 9b7d 3b26 d93f
00000770: 3125 b08e 6568 f93f 5e36 6d95 11c8 ee3f
00000780: 8cbe d20f 9c93 bc3f 78cf fbe2 2dda f8bf
00000790: 8670 66b7 fc08 e33f c5dd 6195 221d d03f
000007a0: 905d 226e 0027 e53f 8c6e 2ec0 8c77 ea3f
000007b0: 4c74 b30a 58d8 d8bf 7de3 3f91 a992 d6bf
000007c0: ead3 93e1 e647 ebbf ef92 13a0 3662 b4bf
000007d0: 5057 b0ec 4dd7 c33f d439 b9fa 0445 9a3f
000007e0: edda 0013 2357 f03f fb32 7f08 dee3 c0bf
000007f0: 76f6 88eb 6fae ec3f 2fd3 6aa5 5c1e c53f

linear_afunc_stack.Linear1.bias f8 [200]
-4.179742358095323 -2.8353322742451668 -4.187729489499143 -4.561610139432163 0.43191593537655487 -2.638200174378842 -2.324034826848173 -2.4265080890754622
-2.7543939292508473 -5.0340387816203975 -3.825580495010356 -4.199856671380905 -4.149872128155197 -4.103387340389718 -4.057230797112939 -4.485407051000812
-1.1979515209253198 -2.321071438406077 -4.940271203693439 -1.1356108355235146 -3.4738667978897877 -5.834976814588318 -4.695437584188447 -3.600222224394709
-4.3112341812663635 -1.2870055397645856 -3.4955334626328374 -4.1818657483432435 -3.619706218439394 -1.5040163738176453 1.6075011294257833 -4.183844599251934
-4.526585203156108 -3.589064646312469 -4.319123046051849 -4.710221524246568 -3.996678230950881 -5.71859892698101 -3.2781287648606328 -3.8686607074107537
-3.792118071726393 -3.078398603670882 -2.913044130825375 -4.36403631286869 -3.974728221165127 -5.3182866505647155 -3.554309689137212 -5.0967441892265075
-4.920574365978281 -2.82516109394608 -0.41001406797161627 -4.056402162036427 -4.19787522298382 -2.383634684029804 -4.409347757878219 -2.8592522651225942
-3.5064776017419135 1.0287159380297004 -4.075049135261696 -2.8965305353769653 -3.0190495558635573 -2.575928417819245 -3.9972691513534273 -3.797672038503688
-4.959655423026761 -4.553795903409913 -3.5377284714715027 -4.119027366004496 -2.160328005156863 -1.9062450945354197 -4.489785435536213 -2.9868942867313124
-4.634293703259738 -4.007074540202201 -3.560222429910104 -3.9210536990749496 -3.284958814714073 -4.6559337218355035 -3.892986377436091 -3.7580509978568046
-5.4867594394911805 -3.6431042860837377 -2.8203269476045145 -3.6359274496007346 -3.5154414091098722 -4.4968975210619 -0.6906582828439304 -4.015062074936308
-2.5050879337564487 -4.425771298482864 -4.122699191824502 -3.3851169275408313 -3.479545153820091 -3.4561982362048016 -2.6275192535356924 -4.161497592335466
-5.533372814296209 -2.8971516556096386 -4.788761171112053 -4.2438462637501475 0.46328699882659136 -4.7770664936077045 -4.389135473861697 -3.7070114064943787
-4.5567753725934885 -3.649078256363929 2.204352782362041 -1.9571905131997607 -4.164811560606137 -6.21586967662601 -4.224142261497007 -2.5032355062535574
-4.120713242562496 -4.3177191788649365 -3.617785664092858 -4.38029802610915 -3.734321529035688 -4.330222824516609 -4.308816020845593 -3.8757563014268124
-5.106178319904605 -2.9816195861737262 -3.887642263943326 -4.160385581209055 -1.679341781933155 -4.706156680102155 -2.319917664603496 -3.7025892106608524
-3.8902072452510583 -5.010323450265401 -4.673579335843638 -5.050997830412648 -3.441908388777584 -3.8207490262977832 -3.700981245270817 -0.9827426744790522
-3.7571562992289516 -3.3556686163268874 -4.653448216043102 -5.231920146781654 -3.8129947300372513 -2.4896731238819396 -4.394527491805855 -4.33653828218133
-3.799920363790388 -4.108664752976755 -4.360728629903816 -5.177710669366946 -2.136901377746363 -4.413059899784785 -3.318905144906905 -2.726281616834804
-2.244351381856321 -3.894251997253107 -4.2797166477002815 -4.522758501210511 -3.19893139725953 -2.9863679506735044 -3.9047870596374135 -3.6136100446821784
-3.256914335386373 -4.771802420372764 -3.349530196433569 -2.8425757782755228 -4.6741419878136785 -4.9376992363857175 -4.152859654527816 -3.6996927507048394
-3.9830841544430418 -5.033357999768588 -3.7040726518547813 -1.7347138731882425 -2.3693130307177688 -3.6177036192034207 -4.432753037273993 -4.29096912659192
-3.4231859261648845 -3.5876620931908456 -3.7402264111300543 -4.805780535116897 -3.5818509344063063 -3.5625758838647514 -4.135798948997399 -3.949676378616194
-4.4159823259263025 -2.9141422090601785 -4.61162857142717 -4.403002461762363 -3.9996941314349232 -3.770531284098822 -3.7150997083291597 -4.243935643642879
-5.466179078255957 -4.249801731255309 -4.13802205456611 -2.9846585836181436 -4.33553819483338 -0.8738706285413322 -4.207218868358404 -4.505693704620244
00000000: bee6 7661 0eb8 10c0 0d69 f9af c2ae 06c0
00000010: 0a93 c728 3cc0 10c0 41da 77ba 163f 12c0
00000020: 3f11 44bc 82a4 db3f a911 6ab1 081b 05c0
00000030: 989f 4092 9f97 02c0 f177 b012 7d69 03c0
00000040: 7477 33af ff08 06c0 d26b f70f db22 14c0
00000050: 9e47 52f2 c99a 0ec0 a6df 2d3a a7cc 10c0
00000060: b208 4414 7899 10c0 522d f75e de69 10c0
00000070: 43b2 c7b5 9a3a 10c0 672f c58b 0ef1 11c0
00000080: 5515 c936 cf2a f3bf fb11 fde6 8d91 02c0
00000090: 7def 5474 d6c2 13c0 5ee8 7844 762b f2bf
000000a0: 69c6 fcac 7aca 0bc0 e24c 7e29 0457 17c0
000000b0: 98fe 41ca 20c8 12c0 77dc 404f 41cd 0cc0
000000c0: d7be 572c b43e 11c0 a0f4 f01e 9397 f4bf
000000d0: 45a7 803f daf6 0bc0 5296 c503 3bba 10c0
000000e0: a999 aa88 28f5 0cc0 f01f 2379 7310 f8bf
000000f0: 39ab b21a 53b8 f93f 4855 35c2 41bc 10c0
00000100: b673 c826 391b 12c0 8822 7986 67b6 0cc0
00000110: 37c5 1831 c846 11c0 9537 ae4f 44d7 12c0
00000120: a88d b46f 32f9 0fc0 e94b a965 d8df 16c0
00000130: f139 e992 9b39 0ac0 ff31 8d62 04f3 0ec0
00000140: 6215 e5ff 4156 0ec0 4c8c 7672 8fa0 08c0
00000150: 0d99 cd14 ea4d 07c0 4e4f 69ef c574 11c0
00000160: ca23 434f 3ecc 0fc0 20b7 8bef ec45 15c0
00000170: 1e9a 15eb 396f 0cc0 3a39 a3e8 1063 14c0
00000180: 8ea6 ed0b abae 13c0 a270 430f ee99 06c0
00000190: 01a2 35a5 ab3d dabf 087b 057d c139 10c0
000001a0: ea9d 6dcd 9fca 10c0 8827 ac0f af11 03c0
000001b0: 8c1c 030f 2ca3 11c0 45b9 cda6 bfdf 06c0
000001c0: b01a fd20 440d 0cc0 6962 ebd7 9e75 f03f
000001d0: 132b 36ae d94c 10c0 ba79 8a33 182c 07c0
000001e0: 997f 1b74 0327 08c0 28f7 ba5b 809b 04c0
000001f0: 2dfb b23f 68fa 0fc0 b974 b2e0 a161 0ec0
00000200: e150 45e9 afd6 13c0 a837 f745 1637 12c0
00000210: 0fc9 b895 444d 0cc0 f945 514f e279 10c0
00000220: d040 960c 5a48 01c0 780a 33db fa7f febf
00000230: 98bd 2e50 8af5 11c0 3df6 f0d4 28e5 07c0
00000240: ba3c de49 8489 12c0 f535 5b8c 3e07 10c0
00000250: ad98 b7e5 557b 0cc0 0818 db66 515e 0fc0
00000260: 1f3b af7c 9847 0ac0 1982 ee16 ad9f 12c0
00000270: 66e4 b60a d624 0fc0 0df6 a30a 7d10 0ec0
00000280: 2089 0611 71f2 15c0 392d 25dc 1325 0dc0
00000290: 42e9 1f93 0790 06c0 8d4f 7521 6116 0dc0
000002a0: 680c d9be 9f1f 0cc0 84b2 29b4 d2fc 11c0
000002b0: 9fd6 3066 df19 e6bf 9e0b bd6e 6c0f 10c0
000002c0: 8eb4 e88a 6b0a 04c0 c83c 2a64 fdb3 11c0
000002d0: 0887 60db a47d 10c0 1764 072f b814 0bc0
000002e0: 91e6 04c5 1bd6 0bc0 a7f0 c742 4ba6 0bc0
000002f0: 7a5e 7cd0 2805 05c0 b1da f59f 5fa5 10c0
00000300: 2ae9 a77b 2c22 16c0 4c2a e3d8 5d2d 07c0
00000310: ab1f 2902 b127 13c0 153c c0d5 b2f9 10c0
00000320: 21d2 2783 7ea6 dd3f 2f73 a351 b71b 13c0
00000330: 3dcc 9787 798e 11c0 ab56 a698 f5a7 0dc0
00000340: 6c07 c252 233a 12c0 b105 ddf0 4f31 0dc0
00000350: 8abb 28b6 83a2 0140 38c0 e3ff a650 ffbf
00000360: 6d39 9b5c c4a8 10c0 2c3a c5f0 0cdd 18c0
00000370: df1f 8b8c 85e5 10c0 3a5c 4c56 a006 04c0
00000380: 0900 9440 9c7b 10c0 c325 2a2d 5845 11c0
00000390: 53bb 399c 39f1 0cc0 167d 83d8 6c85 11c0
000003a0: eda7 3ff7 e3df 0dc0 2ec4 9eee 2552 11c0
000003b0: fb0c 5844 3a3c 11c0 1227 0f85 8c01 0fc0
000003c0: 5523 6e02 ba6c 14c0 6bd5 9d5e 5bda 07c0
000003d0: cd78 f12f e419 0fc0 df2b 281e 3ca4 10c0
000003e0: 2659 037d 95de fabf 1190 9bbc 1ad3 12c0
000003f0: e413 17fe 308f 02c0 8d7c 9217 e79e 0dc0
00000400: d71f e8f9 241f 0fc0 4d16 053b 920a 14c0
00000410: ddd6 0ac8 beb1 12c0 3828 77c6 3834 14c0
00000420: b005 ed43 0789 0bc0 f161 91dd e490 0ec0
00000430: 4f61 1c0e 9c9b 0dc0 e0ac e8c3 a072 efbf
00000440: 9d30 39f6 a70e 0ec0 4fb3 9ac9 68d8 0ac0
00000450: 7f23 7687 219d 12c0 c8d7 9679 7ced 14c0
00000460: 8ba4 8a61 0381 0ec0 b96c 26be d9ea 03c0
00000470: 5ab7 ca03 ff93 11c0 8848 cf7d 9d58 11c0
00000480: b712 cfa5 3c66 0ec0 650d 21d0 456f 10c0
00000490: ceab 90d8 6271 11c0 4153 24c9 f9b5 14c0
000004a0: 7295 e1bf 5f18 01c0 7175 a32c f9a6 11c0
000004b0: dc35 ff23 1e8d 0ac0 90ee 7fbc 6ccf 05c0
000004c0: 4571 4e7f 6ef4 01c0 9fad 5497 6d27 0fc0
000004d0: ee13 780a 6e1e 11c0 d89e 2901 4e17 12c0
000004e0: a404 2b58 6997 09c0 d1b8 4fe1 14e4 07c0
000004f0: bfe4 77ff 003d 0fc0 a641 1362 ace8 0cc0
00000500: 48dd 621a 290e 0ac0 0fe6 a95f 5316 13c0
00000510: 4f2c d57c d6cb 0ac0 cdc2 a05e 98bd 06c0
00000520: aa14 fa46 52b2 12c0 170b 873a 34c0 13c0
00000530: a04c c43d 879c 10c0 5c34 4c83 f898 0dc0
00000540: b163 a439 5bdd 0fc0 a643 7899 2822 14c0
00000550: 53cb add7 f0a1 0dc0 072d 9455 63c1 fbbf
00000560: 0e5b e763 5af4 02c0 d6cb 5898 0ef1 0cc0
00000570: 8b58 b99c 23bb 11c0 926e 8bcf f329 11c0
00000580: 920b 884d af62 0bc0 25d4 fa2e 88b3 0cc0
00000590: 2483 1bd3 fbeb 0dc0 6252 5888 1e39 13c0
000005a0: 8460 7376 a1a7 0cc0 3dbd f5c8 2780 0cc0
000005b0: 9a19 33e1 0e8b 10c0 ab85 dfed ef98 0fc0
000005c0: 1a45 5645 f7a9 11c0 0b74 5eca 2950 07c0
000005d0: ca50 9ec2 4e72 12c0 49e8 65ad ac9c 11c0
000005e0: 0421 04a3 5fff 0fc0 9efe 4d4e 0c2a 0ec0
000005f0: 1939 2532 86b8 0dc0 7919 ef43 caf9 10c0
00000600: 4ac1 5c0c 5edd 15c0 27e7 6806 ccff 10c0
00000610: e3f3 49a7 558d 10c0 c4ec f2ad 94e0 07c0
00000620: 1579 1553 9757 11c0 baa3 5089 bff6 ebbf
00000630: 99da da2e 31d4 10c0 528c 0c92 d405 12c0

linear_afunc_stack.Linear2.weight f8 [200, 200]
2.4465262109397967 1.1190670472393438 0.36029784306416923 0.36790660880104165 -0.35254230073634535 0.06245582810808124 1.8310941701547507 0.20597464736876747
1.9415364020849815 1.6189946316015078 -0.146713240534527 -0.24630239271029544 1.1342951828160905 2.336678875336658 0.8314654000485149 0.8477632337778986
2.0824580776843247 -0.0325148437767269 2.1224466460270777 0.6212043091540527 1.9892224729497678 2.1214327992567537 0.2789446429137328 1.2445885902514602
0.387702741758755 0.5765634547342952 1.5969265798310142 0.3688423253799193 3.4257343779680705 -0.9095523591351882 -0.8103489787602736 -1.936753929741048
1.2971563113586186 0.855981981678443 1.880875217962351 -4.040174046829071 3.300826613147303 2.110282505986805 -2.5294255905285263 0.9218807397426367
1.6682648312132733 0.06803093402761141 -0.3471597636531625 0.28183650017554124 0.774258675219219 0.32306192804257367 -1.0714339759570597 2.193455965466898
-1.535347419393748 2.5277865433035496 -0.7283132143891721 1.5230766702485148 1.898070743849903 0.5434026618976014 0.23325341406543235 3.1009847864080844
1.371365420846036 0.20720631596395472 1.6531783168487604 1.2071301688387768 0.5248810740492643 1.4510736466264498 -1.9325388464971627 0.64372041797689
1.7977328012375517 2.2363152240075608 2.493912412935335 0.7183142315201617 1.7319089899194116 -0.10009507430210553 0.27430469735275764 1.5643559789347505
1.3933323649619151 4.149583851570957 3.039190389932741 -1.9486760508628076 3.4617835222229543 1.8966537127564873 2.6564178750666803 2.7545175089059417
-0.6728624498670627 2.1162532766540325 1.9042891770496277 3.398887337611719 -0.10756861299936328 0.04631336550713629 0.9999403796442029 1.2337926045284244
-0.7117366853616701 2.154475658798357 2.021721903223775 2.4410995275013483 2.0047086324139674 2.063098255334483 1.2107907357679821 0.3538346916994267
-3.7143941719197104 0.6347525051011286 -1.9356374444044973 -0.01217022540762891 -0.3801389784204501 -1.422109726651427 3.2600957056307993 1.6283524932628646
-1.639330228227317 1.0775041158589669 -0.942623321049816 0.17463276902371344 -0.7248648695082006 1.3778036733013808 -0.525929455015532 1.9792124530619366
1.0869861146156694 1.4707814560409946 3.4666591154741973 2.5973540913939686 -0.8766151378612814 1.2962343909427996 1.2983098766892927 1.380093525237114
0.41259569117826256 3.1292332765587667 1.0904701084453432 1.0299169180841967 1.868706854877014 0.33005518497489894 0.8698993211316547 0.9833122407641959
2.965303257848196 0.0362504858687622 0.012088107509086189 -5.953667957072382 1.6065147087726168 -1.399681851573957 1.5007818137897537 1.4355142054103167
1.1035444122503295 0.26202037756291663 0.05191934713792446 -4.211575903168236 0.5287454232317524 -4.2405970709449265 0.37129718344735924 -0.40480962519407665
0.7366135222831094 2.097513737837753 1.4428733828196252 4.793071478986285 -0.22995348759418008 -1.652207059062407 2.4806245206349655 1.7519076222981045
-0.5911290690623761 1.6828761083724166 0.5566985071847311 4.920511655383665 1.0664911459662176 1.4481064321902475 1.5190530477391004 -0.2593487466756348
0.9118159243668306 -0.02614700428069661 2.4931780360156957 1.5217794880582103 0.9909128588505338 4.505452243160552 2.9234658893985257 2.2463709319673395
-0.674186845841579 -1.948833046502107 4.439431541697134 -0.6263283439690989 0.03723949597284282 -0.9609050428698418 1.6107158968000412 0.8214511764738441
3.087116356549684 -2.282106308075805 0.33388329088582086 0.6959559389706262 1.9460362030766938 3.3746669056301735 2.3225462491073237 4.975678413316374
0.6625087340660276 -1.0509681055130595 -0.02989067708694845 0.9159991976731756 -0.05785585049312007 0.7511251879137946 2.251972124909093 0.9791471332958608
1.301751935202595 1.183360723049661 2.318632760307714 2.183538364009254 1.27265075729127 -1.600776054040325 0.8325478334812029 1.6222368714658777
-0.022266122781260757 0.280007855026698 0.21109520415504157 -0.047032762805948064 -2.2906537259529203 0.3746848017582653 0.2925541672908479 0.674048086489752
0.6897508741418209 0.9437657237930324 -0.21931693354702983 -0.6200772330882063 0.06748475783103244 -0.20195211573320715 0.32345915332133235 -0.05361618645852392
0.608207443951952 -0.22100093873049903 0.19142906847003582 0.7516202102817778 0.4401885940834148 -0.5551528480923594 -0.8503257086673213 0.09893688362487806
0.06895620165107529 -0.2010203722750902 0.45262904628089856 -0.10879894409766315 -0.2556052721100889 -2.411966743691407 -1.8242327179675528 0.10092409084530339
0.4095763314706654 -0.044532130245544276 0.11345037187211768 0.16591140654632053 0.3587755189903426 0.049985002072925576 0.17101076510062754 0.3940154006287914
0.491399839226538 0.48873379070631756 -0.0011146395740446173 0.5301284055371935 0.6479915792377527 -0.32476275710155394 0.5522982921246418 -0.5943277608152693
0.5071136975653354 0.6455563499650959 -1.6455363390183575 0.25655629244612926 -0.01765702657633072 -0.5515197971943412 0.4150422196817435 0.4234965244400526
00000000: 8658 8655 7c92 0340 cec9 1ed9 b2e7 f13f
00000010: a8ea 31af 1e0f d73f 6818 3229 c88b d73f
00000020: f9a0 0795 0d90 d6bf ce6d 56d6 35fa af3f
00000030: e75f 8b66 294c fd3f b482 2093 605d ca3f
00000040: 102d 6f79 8810 ff3f 780c 32ea 66e7 f93f
00000050: 6e34 fedc 7fc7 c2bf a102 cf38 d686 cfbf
00000060: 8649 a3b4 1226 f23f 9d99 b6b1 84b1 0240
00000070: 80d8 9e53 5d9b ea3f 0e79 7a5c e020 eb3f
00000080: c68f d7c7 dfa8 0040 a5a9 4f1d c9a5 a0bf
00000090: 8d87 a14e c5fa 0040 046e fedb e7e0 e33f
000000a0: 9799 9cf1 dad3 ff3f 84c1 6bc2 b1f8 0040
000000b0: 4c5e ada1 3ada d13f 1fad c1b9 d5e9 f33f
000000c0: c318 1b29 1fd0 d83f e3e1 c433 3573 e23f
000000d0: 24cc a7e2 028d f93f 3fca 38d7 1c9b d73f
000000e0: 023f f16c e767 0b40 6a87 8f8c 0d1b edbf
000000f0: 7cea 43fb 60ee e9bf 5032 4ab0 f1fc febf
00000100: 3a5d f1f9 26c1 f43f 1dc6 2853 3464 eb3f
00000110: 2c15 d09c 1018 fe3f 861d a562 2329 10c0
00000120: 75df 89c8 1768 0a40 2646 64cb dbe1 0040
00000130: 52e2 e77b 433c 04c0 a038 8009 0c80 ed3f
00000140: 290c b276 36b1 fa3f 19d2 c3ac 796a b13f
00000150: b027 d895 dd37 d6bf d1ac c4f5 9b09 d23f
00000160: 21bf 1621 bac6 e83f c3a2 e1ef 0bad d43f
00000170: eff0 e8f3 9724 f1bf e52b 27a4 328c 0140
00000180: d0b4 a474 c890 f8bf a20f b626 e838 0440
00000190: e779 a183 574e e7bf 8349 80a4 855e f83f
000001a0: 8f46 a56d 7f5e fe3f fb1a adfa 8d63 e13f
000001b0: 49b2 8b74 3fdb cd3f 5121 981c d1ce 0840
000001c0: 4f62 16de 1cf1 f53f 7e7f 4b8f bc85 ca3f
000001d0: e525 551b 6b73 fa3f 0fd7 52b9 6750 f33f
000001e0: 1997 ea64 d3cb e03f aa91 0500 9937 f73f
000001f0: 2e47 7fda adeb febf 5b4d df8f 5b99 e43f
00000200: 2430 4478 83c3 fc3f 6d46 753c f9e3 0140
00000210: 6b2a e559 88f3 0340 c92c 9420 6efc e63f
00000220: e2a2 7533 e6b5 fb3f 8944 9eae d49f b9bf
00000230: c03b 114a 358e d13f a63a 8d22 9a07 f93f
00000240: 2584 bfe0 164b f63f 2507 5a82 2c99 1040
00000250: fea0 180d 4350 0840 5e44 4ff0 c62d ffbf
00000260: f63b 2e8f bbb1 0b40 7804 4290 b158 fe3f
00000270: a15e cf03 5840 0540 5115 c879 4009 0640
00000280: cd55 1cd5 1688 e5bf 5a41 aa32 16ee 0040
00000290: e4e0 98ed f777 fe3f 91a5 2ed8 eb30 0b40
000002a0: 5989 e8da 9d89 bbbf 9312 71ac 62b6 a73f
000002b0: 91b1 90f7 82ff ef3f 9ef0 6750 9dbd f33f
000002c0: f3bc 5f03 8cc6 e6bf 3689 f4bb 5d3c 0140
000002d0: ba9f 7f88 7c2c 0040 db31 6730 5f87 0340
000002e0: a4d0 f1ad a409 0040 25c5 78a8 3981 0040
000002f0: adc5 461b 665f f33f 9283 4243 3aa5 d63f
00000300: 07c9 a64a 14b7 0dc0 57d4 4e7c e44f e43f
00000310: d915 0af8 5ef8 febf 40be e200 b4ec 88bf
00000320: 300b 1070 3254 d8bf 7da9 f420 f6c0 f6bf
00000330: 571d ac0e ad14 0a40 f7c8 0e58 bb0d fa3f
00000340: e749 5955 b23a fabf ebb6 aef4 743d f13f
00000350: 4663 0b62 f829 eebf 8e25 e2d7 5d5a c63f
00000360: 2fd3 91cf 1732 e7bf a735 52dd 7b0b f63f
00000370: 1c6f 2902 6ad4 e0bf 8fca 5bad daaa ff3f
00000380: c0af 578d 4b64 f13f 3b26 d422 5288 f73f
00000390: 58bc 3ac6 b7bb 0b40 e359 f594 61c7 0440
000003a0: 165e 8930 3b0d ecbf fecb d045 60bd f43f
000003b0: d544 c793 e0c5 f43f 3d09 c5f2 dc14 f63f
000003c0: 9e31 05c2 f767 da3f a5ff c274 ab08 0940
000003d0: f89c d0c8 9072 f13f be4c 8c29 8a7a f03f
000003e0: ec1f b828 39e6 fd3f 3cea 55c8 9f1f d53f
000003f0: 7f56 e219 37d6 eb3f a0d6 7a3b 4b77 ef3f
00000400: 2b71 19ea f0b8 0740 9c77 8a76 6c8f a23f
00000410: 875f 6053 a6c1 883f de79 3b55 8ed0 17c0
00000420: aa8a 6bc4 48b4 f93f b709 15cc 1865 f6bf
00000430: 7089 8aca 3303 f83f 4ce4 52be ddf7 f63f
00000440: 81c7 842f 1ea8 f13f d02b 211e f1c4 d03f
00000450: 815f f933 2c95 aa3f bdea 825a a7d8 10c0
00000460: ef14 9685 7beb e03f 2de3 1c14 5ff6 10c0
00000470: 6736 0043 55c3 d73f 0722 54a1 66e8 d9bf
00000480: 10ea 7f85 5692 e73f 1464 5748 b5c7 0040
00000490: b7aa 7766 0216 f73f b88b 06ee 1a2c 1340
000004a0: fbb8 68aa 1d6f cdbf 474b 4eab 706f fabf
000004b0: 4943 2eab 51d8 0340 bb22 7649 d007 fc3f
000004c0: 82cf 6a82 87ea e2bf 56de 8a7f 0fed fa3f
000004d0: e5e4 4263 79d0 e13f b2d6 7d9b 9aae 1340
000004e0: 1f60 1605 5910 f13f 5126 76a6 712b f73f
000004f0: 65db 8e91 0a4e f83f 88bf 4e7c 2b99 d0bf
00000500: dd14 e496 982d ed3f 018a 18c1 47c6 9abf
00000510: e857 7e53 07f2 0340 2cf0 ce72 3559 f83f
00000520: 725d 3ee2 8eb5 ef3f f541 d845 9505 1240
00000530: 7a81 8f15 4263 0740 cce0 bb52 91f8 0140
00000540: 220e c94a f092 e5bf 1673 818f 6b2e ffbf
00000550: 22ae 9157 fac1 1140 bbf6 3cbd e10a e4bf
00000560: 0051 a522 0e11 a33f 94ff b5ee bbbf eebf
00000570: b074 3e08 7ec5 f93f 88e8 46fa 5349 ea3f
00000580: dc9e 720f 6ab2 0840 7372 b9f3 c041 02c0
00000590: e744 c205 585e d53f f8be aa63 4545 e63f
000005a0: 1dbe 90db f622 ff3f d599 d45c 51ff 0a40
000005b0: 4be8 ba20 9394 0240 916d f23d 18e7 1340
000005c0: 2a18 4484 4533 e53f 2b15 a5ee c3d0 f0bf
000005d0: 37ca 2c62 a99b 9ebf 9664 a58c dd4f ed3f
000005e0: 561c 8033 489f adbf ce54 a9b0 3709 e83f
000005f0: cce7 1ff6 0904 0240 c04a 6f5e 2c55 ef3f
00000600: 9d32 53d6 f9d3 f43f 46e8 4da7 0bef f23f
00000610: 8fa5 2755 8f8c 0240 45d9 37f6 e277 0140
00000620: efba 5c0a c75c f43f 852b 055a c79c f9bf
00000630: 9609 a55a 3ba4 ea3f 16fb 54a6 aef4 f93f
00000640: eaef 9d34 eecc 96bf 249e fd10 a6eb d13f
00000650: c01b 18eb 2a05 cb3f 1424 2fa4 ad14 a8bf
00000660: 3d6d bb42 4253 02c0 1f0a 77f6 d5fa d73f
00000670: 31a7 341d 35b9 d23f a6f4 ec4a cd91 e53f
00000680: f572 da6c 7012 e63f e6db d82c 5433 ee3f
00000690: 5b91 85c8 9312 ccbf dc74 a335 acd7 e3bf
000006a0: 1ede dc5b ae46 b13f 1850 3722 91d9 c9bf
000006b0: a2d8 4605 8eb3 d43f 6c4e c0ae 9473 abbf
000006c0: eaa2 1e75 6f76 e33f 2acc 1d3e c249 ccbf
000006d0: f490 4a6a bf80 c83f 3988 c5d3 450d e83f
000006e0: 6645 eac7 0c2c dc3f 67d0 dae7 cfc3 e1bf
000006f0: ca92 b542 de35 ebbf 6f79 8977 ed53 b93f
00000700: b79f f216 1da7 b13f 3529 601a 09bb c9bf
00000710: 97c0 bfd1 dff7 dc3f b321 bd62 3fda bbbf
00000720: 0a79 1937 d65b d0bf bd8d 5938 b54b 03c0
00000730: da6b 7fa5 0e30 fdbf e721 8f45 29d6 b93f
00000740: 5e75 38a5 7f36 da3f f338 0d56 eacc a6bf
00000750: 96e7 e864 150b bd3f e02c 93c0 953c c53f
00000760: 0dd0 2a98 2df6 d63f a32d 635a a297 a93f
00000770: 4d81 af45 aee3 c53f 378b f45e 8c37 d93f
00000780: 7935 af4f 1873 df3f d728 e217 6a47 df3f
00000790: fd3e 1c21 2343 52bf d8cf 8ed8 cff6 e03f
000007a0: f51a 1dd6 58bc e43f 1570 2dbb e9c8 d4bf
000007b0: d4fb c977 6dac e13f c8ce f9a6 bb04 e3bf
000007c0: 2eb2 4c81 463a e03f 2f68 5aca 65a8 e43f
000007d0: 256a 87e9 1d54 fabf 9fe7 6815 6b6b d03f
000007e0: 7e80 c2fe ae14 92bf dd7a 81d8 0ca6 e1bf
000007f0: 6e82 ff3d 0d90 da3f e423 9c2a 911a db3f

linear_afunc_stack.Linear2.bias f8 [200]
-3.6655918275263066 -2.798386425514102 -2.4463724598548375 -2.8161236478634692 -3.2533111920004183 -3.2360865384080206 -2.6403904443436503 -2.6034374941256897
-2.36539872875274 -3.11193943745992 -2.4634931617370133 -2.844988228249304 -2.559054541778928 -3.3507088400012495 -1.4055406498410536 -3.483356221917602
-2.1918355912029193 -2.9333516768675234 -3.1959277073719745 -2.686853000247899 -2.306755958606186 -2.617815282197142 -2.4023844843797266 -2.8195188270479266
-3.54153800186501 -2.9879534840096555 -3.377436792663166 -4.145829732206684 -2.0476961291709865 -3.187084858571845 -2.2921646428494067 -2.1320118503512884
-2.3368872888919383 -3.1139592439116175 -3.33031192973289 -1.837564793260671 -2.9265329268165168 -4.098912482521437 -2.9977616125541866 3.3192349243590633
-2.3793655237316296 -3.875340795790874 -2.669771329032777 -2.3252637657485997 -2.6950061318786496 -3.12411709782931 -2.2821405263313936 -3.061359039215548
-2.262463668614135 -3.049547301442957 -4.351475216730043 -1.4367812649138743 -3.2495675930562125 -3.677494010129409 -2.3546084990175773 -2.518997547619945
-3.307715229611608 -2.354564047816774 -2.6973573295365765 -2.5978314697105027 -2.6285588967682596 -2.3393382315299704 -1.5469394112879502 -2.880228809596058
-2.0172922602414327 -3.931010887136539 -1.8181847581845159 -2.1837518664492857 -1.8935208262791359 -2.081811651524915 -2.566296594046035 -3.151949673584361
-3.0400746033841353 -2.29144760985473 -2.9509825991596372 -2.8263322089142715 -2.3721570292895096 -3.0647965948520723 -2.811115135236291 -1.9522004892177245
-1.8007624617140927 -3.1612075007361766 -2.270324212086947 -2.3833821550027587 -2.6106657006048772 -3.376669754176158 -2.108776501095834 -3.736889636980387
-2.3846367075001997 -3.3052465789752508 -3.0675595499380766 -3.4537712888330585 -3.185097058776057 -2.930101155429927 -2.7448752699204246 -3.100919498963017
-3.8453659407059284 -1.7749114468424743 -3.112693361637306 -2.2973024993967757 -2.929854907844927 -3.3331546924665947 -2.804581433813644 -2.8184453413558717
-2.0643376678386067 -2.791676357961508 -1.529874571212635 -2.9476993685656017 -2.7597742341226974 -1.698524533262783 -3.543307371234883 -2.64931912136383
-2.510972114410333 -3.2419761819785964 -3.1176882299248323 -2.28380994832273 -2.2688381502772414 -3.105907597651392 -2.886433549153807 -2.2888701436389427
-2.103039907880194 -2.4909840028858694 -2.8881970099428145 -3.3175907383892134 -1.4158265312372793 -2.8085025874465654 -3.054458177513426 -2.0795038138674204
-2.343576225412039 -2.3046380605314196 -2.977451032204007 -2.5236608162019274 -3.5828867613466797 -2.178340338050297 -3.0324526637722187 -3.0198800456553894
-1.8823566637752525 -2.2872681956718433 -2.509611064240084 -2.611705930573128 -2.9224033590863856 -3.0918954576969035 -3.5145038843864715 -2.527320324876267
-3.031920166587262 -2.794479262258034 -2.093251250569254 -3.0083140495054974 -3.254470903177453 0.223854597183922 -3.0521749774659135 0.7462461724071825
-1.793462037294353 -2.060651260885125 -3.0561109904602923 -1.9937635750223057 -3.0179006434555014 -3.4033900583168495 -2.7894074442865597 -2.835612812977165
-4.0624698102854495 -2.778848741304268 -2.4292537565783454 -2.7102702617822776 -2.7303842889414875 -3.0931078801893013 -2.705037192948871 -2.4862005094322335
-2.966216482298196 -0.6976781708316661 -3.3097811820523892 -2.5887392705393233 -2.3341415760807425 -3.546857342248313 -3.0797116769041537 -1.6966754742942782
-3.60664353778977 -2.0527804971627046 -2.193797840808737 -2.4783326030014026 -4.332367288093066 -2.2419174140757785 -2.992213233294537 -2.359758774908671
-2.3742984632228876 -2.454985783943653 -2.220555971614641 -4.439779938446405 -2.810035143350646 -2.154974976141304 -2.6088749217028497 -3.8974088877272677
-2.4284129817128974 -2.093388812192995 -1.8804520285181976 -2.247603031720665 -2.1232266194169562 -3.288477405780504 -2.146721155686668 -2.7218465543468264
00000000: d1ae ddce 2153 0dc0 2e3a 196c 1863 06c0
00000010: f54a 67b9 2b92 03c0 cd86 c8d5 6b87 06c0
00000020: 12d2 aa04 c806 0ac0 08e8 cb56 81e3 09c0
00000030: dd03 7906 851f 05c0 a999 7309 d7d3 04c0
00000040: a6f1 2f2b 56ec 02c0 172f f880 40e5 08c0
00000050: 11a4 1ce7 3bb5 03c0 9baf 2e30 89c2 06c0
00000060: 52f7 6c96 f178 04c0 a7c9 b16f 40ce 0ac0
00000070: 2e41 4431 187d f6bf 3ea2 ebdd e9dd 0bc0
00000080: 2567 3319 e188 01c0 8f80 7e15 8177 07c0
00000090: d657 bc8b 4291 09c0 2dcb 29c9 ac7e 05c0
000000a0: 9988 d077 3c74 02c0 bf0b 8023 49f1 04c0
000000b0: 47a1 465b 1538 03c0 5a04 05e3 5f8e 06c0
000000c0: 4769 3ce0 1155 0cc0 6a53 fe27 54e7 07c0
000000d0: 0b5d c694 fd04 0bc0 d672 aa63 5495 10c0
000000e0: 3f7b 1782 ae61 00c0 9424 a958 267f 09c0
000000f0: 8faf 906a 5a56 02c0 bc8b 9f3a 5c0e 01c0
00000100: f3d4 81f6 f1b1 02c0 146b cd76 63e9 08c0
00000110: 8873 bd94 7aa4 0ac0 8c5e 3557 aa66 fdbf
00000120: b8c0 5a18 8a69 07c0 0b62 5650 4965 10c0
00000130: e2fe b870 6afb 07c0 dbe7 3e0a cb8d 0a40
00000140: 1242 adca f008 03c0 1b36 d6ac b200 0fc0
00000150: 30f4 0f12 b15b 05c0 5bb6 a3e3 239a 02c0
00000160: 9081 f75f 5f8f 05c0 1a69 e01a 31fe 08c0
00000170: aac1 6be4 d241 02c0 45f5 d5ce a97d 08c0
00000180: e8af 488d 8619 02c0 a16b 3a0e 7965 08c0
00000190: 16d7 841e e967 11c0 3af8 045a 0efd f6bf
000001a0: ff8a 524b 1dff 09c0 03ef c5fa 816b 0dc0
000001b0: 2a50 11fb 3cd6 02c0 ddda ad2f e826 04c0
000001c0: cc4d fd66 3376 0ac0 f3ae edac 25d6 02c0
000001d0: 49e2 5f14 3094 05c0 e868 97dd 5bc8 04c0
000001e0: 0cd6 09e3 4907 05c0 2da1 75f6 f6b6 02c0
000001f0: fb00 468a 43c0 f8bf 57b2 f166 b50a 07c0
00000200: dfaf e11f 6a23 00c0 64c5 03d6 b572 0fc0
00000210: 85cf a7e6 4817 fdbf 42d4 07e6 5278 01c0
00000220: de9e 727e dc4b febf 9ed9 fddd 8ca7 00c0
00000230: 7c1c 3a82 c687 04c0 2e76 f563 3137 09c0
00000240: f27a 37a2 1252 08c0 6496 067c e254 02c0
00000250: 50a5 d3c3 9c9b 07c0 8c58 a70f 549c 06c0
00000260: 1d33 ee76 2dfa 02c0 2741 be13 b484 08c0
00000270: 3d0b 99ee 297d 06c0 24ce 8694 363c ffbf
00000280: ddd2 8e4c eccf fcbf 1341 7c28 274a 09c0
00000290: dfd7 91bd 9f29 02c0 d5da cca9 2a11 03c0
000002a0: 5218 e7b2 a4e2 04c0 b5a1 9c6e 6b03 0bc0
000002b0: 443d d636 c6de 00c0 91bc dc64 26e5 0dc0
000002c0: 916f fc68 bc13 03c0 1151 4f1e 2571 0ac0
000002d0: d421 4ca9 5c8a 08c0 cc36 6bd7 52a1 0bc0
000002e0: 4d3b b02a 147b 09c0 c858 e4df d870 07c0
000002f0: 5942 5f2a 81f5 05c0 5299 dce1 aece 08c0
00000300: b8df e337 4fc3 0ec0 63c0 978b 0966 fcbf
00000310: 12ab f5c6 cbe6 08c0 fa6c ff21 e060 02c0
00000320: a0c0 19c5 5770 07c0 4439 e501 4daa 0ac0
00000330: 4d96 0964 c86f 06c0 077f 3512 2d8c 06c0
00000340: 4e24 9a77 c383 00c0 43b0 136a 5a55 06c0
00000350: d471 25c2 5d7a f8bf d16e 1368 e394 07c0
00000360: 1634 7f83 0414 06c0 bb13 9d0f 282d fbbf
00000370: 5309 f988 b158 0cc0 9d66 3739 ce31 05c0
00000380: 997b 448c 7816 04c0 7712 6035 91ef 09c0
00000390: d435 d586 06f1 08c0 c79a 7226 3e45 02c0
000003a0: f3dc ba9d 9426 02c0 397c 2215 e6d8 08c0
000003b0: e08a fd78 6a17 07c0 bac2 5d26 9b4f 02c0
000003c0: ee39 5496 06d3 00c0 2608 5a05 89ed 03c0
000003d0: 00e0 b008 071b 07c0 3f27 5703 6d8a 0ac0
000003e0: 6192 87b8 39a7 f6bf d983 5e34 d077 06c0
000003f0: 035c dbc4 876f 08c0 24be 43e5 d2a2 00c0
00000400: 669f 5ee4 a4bf 02c0 66cb 5814 e66f 02c0
00000410: ac0f c6d8 d1d1 07c0 8545 fe14 7530 04c0
00000420: f30a ca88 c0a9 0cc0 6fde fbb2 3d6d 01c0
00000430: e08e cc8a 7642 08c0 8c76 8fde b628 08c0
00000440: 7528 6505 221e febf 62bb 8c44 534c 02c0
00000450: 32ba 34f7 ae13 04c0 8ba5 3414 c6e4 04c0
00000460: faf8 2703 1561 07c0 58ac 8baf 33bc 08c0
00000470: c1d6 6836 b41d 0cc0 96e0 eeb7 f337 04c0
00000480: ef99 3c5c 5f41 08c0 dafc 85f1 175b 06c0
00000490: 630c fc82 fabe 00c0 99c9 d5f4 0611 08c0
000004a0: 2972 770a 2809 0ac0 dd6a fb76 44a7 cc3f
000004b0: c815 efb6 da6a 08c0 fc20 28a7 3fe1 e73f
000004c0: 9bbf cc3f 05b2 fcbf c4b3 6fba 367c 00c0
000004d0: f5c8 a751 ea72 08c0 5cd4 6aa2 74e6 ffbf
000004e0: f8bf b117 a924 08c0 eb04 2091 243a 0bc0
000004f0: 0f70 a3d9 b450 06c0 0ad8 3ec5 55af 06c0
00000500: 40a7 0016 f83f 10c0 f575 830c 153b 06c0
00000510: 5b83 f197 1c6f 03c0 f168 cd2c a2ae 05c0
00000520: 9220 d4b7 d3d7 05c0 b14d 2358 afbe 08c0
00000530: ae6e 318a eaa3 05c0 d87a ba17 bde3 03c0
00000540: 859d 02b5 cfba 07c0 095d db2b 6153 e6bf
00000550: 5ea6 6e8e 6e7a 0ac0 c5b2 46ef bcb5 04c0
00000560: 6701 2c6b 52ac 02c0 9945 04be f65f 0cc0
00000570: 204d 2be0 3fa3 08c0 b34e a02e 9525 fbbf
00000580: 2c18 59ed 67da 0cc0 8971 692e 186c 00c0
00000590: b578 e2e1 e58c 01c0 3a03 340b a0d3 03c0
000005a0: cf7a 2217 5854 11c0 8f4e ae65 72ef 01c0
000005b0: 8444 dd7d 0df0 07c0 4274 6535 c9e0 02c0
000005c0: 05e2 5331 90fe 02c0 9a76 3196 cfa3 03c0
000005d0: d92d 68d9 b2c3 01c0 be41 14ac 55c2 11c0
000005e0: e069 8ab4 f37a 06c0 60cd 3185 633d 01c0
000005f0: e18b a0d0 f9de 04c0 436d ffb5 e42d 0fc0
00000600: 241c 0dc9 636d 03c0 1973 31a2 42bf 00c0
00000610: 98eb c2dd 5416 febf b00b 5d4c 17fb 01c0
00000620: c523 e33c 5efc 00c0 8fb2 fb3d cd4e 0ac0
00000630: cb71 2a24 7c2c 01c0 0233 7d7c 57c6 05c0
