models/torch/BatchNorm_NH3_net_uniform_01.pt (torch, 660526 bytes, 12 tensors)

linear_afunc_stack.BatchNorm.running_mean f8 [5]
839.4569716843374 247.67719646611948 0.32896467370432586 0.3402047135114592 0.3308306127842152
00000000: 6b3b c5e0 a73b 8a40 665e ec97 abf5 6e40
00000010: 6b5c c6d8 c10d d53f 5883 9efd e9c5 d53f
00000020: 4220 9b29 542c d53f

linear_afunc_stack.BatchNorm.running_var f8 [5]
61848.11525704626 20862.058759698764 0.05498811350488851 0.05759780937929448 0.05545527449085268
00000000: 8a8b 2fb0 0333 ee40 210a b8c2 835f d440
00000010: ce2e 58ea 6627 ac3f 6feb 35c7 757d ad3f
00000020: 9667 a83c a264 ac3f

linear_afunc_stack.Linear1.weight f8 [200, 5]
-0.20011512726765746 -0.375686683126866 0.3798151643973732 0.30015633407484676 0.5173504166797626 0.12416207506865058 0.19710184881113768 0.4407534968309935
0.8676009371692888 0.5305669194949086 -0.8368946214324445 0.8294113352989667 -0.2077773017026898 -0.4022943529523572 -0.20800421271045075 0.04563560889091505
-0.015369742061662264 0.06448886837573564 -0.5443438254088945 -0.0008200429669324631 -0.6221756822764709 0.6143779017662582 -0.6805663062012822 0.28660185627293233
-0.019198548806899127 1.2792592774363496 0.025352828338323412 -0.006174251228244701 -0.2733693021672589 -0.38742971178106733 0.23423940535620488 0.04862149768185085
1.0884914031906026 0.9328000383971476 1.0878906205090022 -0.4385641877570412 0.6606144012473772 1.2146112217558949 0.5986183928209596 1.2786508583148575
0.3192941162193499 0.17899369163363307 1.3483649623468796 1.146207820504844 1.0665063033683102 -0.09756995616948104 0.03945972721246782 -0.05008142398365032
0.18853854648253132 -0.041672955564505516 0.7417895346255803 0.43743317288220845 -0.4887978008395972 -0.19420508191918565 -0.6377603739626161 -1.228900892662446
0.2112834692696737 -0.21538226409055367 0.35348117518701494 0.18356412169750272 0.2056777878559718 -0.5717156643860549 0.4879216929218939 0.5399057194096303
0.24322732832207877 0.41377083349317184 0.07770307097838036 0.016588262153401014 -0.3240698301549958 -0.2928007298794843 0.12663281680496963 0.02640466806577788
0.26586512051371153 0.44244240374766447 0.2899134413409049 1.087536696289405 0.8282577152764693 0.39166854455287753 1.1108280265541695 0.5823070268015014
0.07695875775334256 0.08882134704984262 -0.5790328064406379 -0.48843233151353893 -0.5445593184884998 -0.05022564663677802 0.116326197657827 0.5597856895667005
0.9226637158402269 0.41791280484555265 -1.2206203229749613 0.29165001359081416 0.835518798707554 -0.7048485314326481 0.33848511589764313 -0.7762091380955717
0.10260202040148894 -0.43837114777754316 1.0081902761725134 0.12035167832319267 -0.46554274537513146 0.1339612555436182 1.2584288282042502 1.732175864276939
1.129820528662129 0.4863565341257454 -1.259034908748921 0.7450333936734804 0.5068020113992848 0.7251047041442945 1.692186114395681 -0.2524339254695318
-0.0946365196117961 -0.15157422718263813 -0.12874786773025892 2.33742929620915 0.06116290371583898 -0.6236790766825793 -0.4062397344046265 -0.667810325494164
0.20250145803389497 -0.04198142036312169 0.7215835351589923 0.6673369949398583 0.5422704755079478 -0.01182342456847825 0.10518069138806327 0.5893074177330604
0.7306501131234315 0.56553522100836 0.5244609513981484 0.25034463131825474 0.014988671098804278 -0.476408193529689 -0.6703613788084263 0.7004647963717796
0.42662476253230797 0.2521289215191792 -0.280420303024191 0.043433072128674775 0.2036987393443009 0.02285873295265516 0.9450629337412233 0.8077614956664834
0.7516174577966049 0.13063263878060072 0.4661712596320266 0.8538217307047602 0.3683406679261847 0.2836738385415596 -0.4501262333382991 -0.030650790924428094
0.15015096590984478 -0.5946782458923517 -0.46573298897251636 0.6451937841427194 1.0853970768010748 -0.5179641270020813 -0.3339256804883975 -0.4291906793749503
-0.37575942736610796 0.32414611273456856 0.7149154864468948 0.6260490050944229 0.7368669005432597 0.12471306731261621 -0.7859999189103272 0.8047529884025394
-0.39926151474111765 0.4960089044820036 -0.16296425742134393 -1.1966074513309006 -0.6218387495031501 -0.22451165500330092 -0.5230185286908213 0.2991787167700208
0.22383930720762737 0.7052465997782394 0.35564700416944683 0.9636038110597939 0.46988845759552844 -0.5555095606612412 -0.021326448980565148 0.6417142030603357
0.6773569335562633 -0.2958360072109656 0.5564516561165076 -0.09507144704814344 0.6217858154902683 -0.028763624471993914 -0.09001955781049732 0.21663168608025068
0.7262241457099671 0.9271142436781801 0.6239971322984519 0.8649290958362443 -0.926046657395239 0.19127215362122313 -0.1361702293989563 0.1505503564565472
0.10063039070129183 -1.1985017772233544 0.3807765908496562 0.08240857330434197 0.3204679643705876 0.8650583480067097 -0.7501399491009749 -0.38002674091186545
-0.01116523714040893 -0.3312151255329912 0.5493870069908152 -0.21810927009738806 -0.6444302100990891 -0.32354595144793014 -1.030326720391022 0.07474275499005238
-1.4098253013874347 0.05126840856914134 0.5115182833222075 0.1438534722803495 0.01575643383143242 -0.002958143558442193 0.1198990953264911 0.05530224580610805
0.12033881939018211 -1.1479642182542371 -0.7191553828096064 0.1868141082386041 -0.5253580549173011 0.14230948721979667 0.11930529858187848 -1.2561393047385951
-0.17436680203246643 -0.20069435202794364 -0.27576579967857234 0.6432673890489791 -0.008616814140081823 -0.05320552791540179 0.048008668406374536 -0.07754054741189877
0.33744083362682 -0.2927799880490338 0.16319554465649752 -1.078887157223627 -0.6881747989297261 0.10773769365455073 -0.04794428908275689 0.20424091043650416
0.1097785147542388 0.20712633517961726 0.03542312874171589 -1.3451265388949654 1.0321678102312861 1.1858857118994697 1.1342924264666836 0.2402483716957301
00000000: ec54 865b 5f9d c9bf 8da5 6428 400b d8bf
00000010: 2624 6743 e44e d83f 587a a2e9 c235 d33f
00000020: 0bc5 0676 228e e03f 25c7 d2f3 15c9 bf3f
00000030: 1cff 4f25 a23a c93f 0627 9f27 4e35 dc3f
00000040: 9cdf 630a 63c3 eb3f 3d3e f279 67fa e03f
00000050: 5305 a83a d7c7 eabf d84d 01a4 898a ea3f
00000060: c703 d555 7298 cabf 4bef 52d0 30bf d9bf
00000070: 3bc4 82cd e19f cabf d765 70ef 8c5d a73f
00000080: 68b9 05dc 2b7a 8fbf c03c a1ac 5782 b03f
00000090: bf24 fdbd 436b e1bf b286 b5dc 04df 4abf
000000a0: 45ce f7f9 dce8 e3bf e713 6fd8 fba8 e33f
000000b0: e39b 7cfd 32c7 e5bf 9a91 ea4f af57 d23f
000000c0: 4c71 06cd c8a8 93bf 7219 7b93 d877 f43f
000000d0: 5efb 4b82 17f6 993f aa3e a4f1 2b4a 79bf
000000e0: 5f7a 22f5 e17e d1bf 064c 66fd a5cb d8bf
000000f0: d73d b88c 8efb cd3f 5e28 dabc eae4 a83f
00000100: 82e4 2af6 756a f13f 05f2 5377 7fd9 ed3f
00000110: 8861 cbfe ff67 f13f 3c40 e786 6f11 dcbf
00000120: aff8 13d0 c023 e53f 1fbd 2c2d 0c6f f33f
00000130: 3e67 7ec2 e127 e33f 2d6f 379a 5a75 f43f
00000140: c0e8 bd96 506f d43f 9bdd e0e9 43e9 c63f
00000150: 48a2 8523 e792 f53f cccd f702 de56 f23f
00000160: af1d dfe9 6810 f13f 67f0 d13a 58fa b8bf
00000170: 70f4 c5bb 1034 a43f ed34 4bbc 45a4 a9bf
00000180: b8c3 96f5 0722 c83f c9ee 8d5a 2856 a5bf
00000190: f26b f767 bdbc e73f ffbb edb4 e7fe db3f
000001a0: 5f9e 3d92 7648 dfbf e9aa c74d b6db c8bf
000001b0: 5455 9b71 8868 e4bf a62a 80fb 93a9 f3bf
000001c0: 016e 5933 560b cb3f 7a24 3462 a591 cbbf
000001d0: 1683 cb81 6f9f d63f 4d72 b475 077f c73f
000001e0: 7471 2d56 a653 ca3f c1c4 24a6 7e4b e2bf
000001f0: 7cf1 86e8 1b3a df3f f534 f95b e846 e13f
00000200: 1a82 51b6 1222 cf3f d113 79a9 387b da3f
00000210: 10a2 a634 59e4 b33f 3a0b c96d 83fc 903f
00000220: ecb3 8862 8fbd d4bf bbf2 c445 3fbd d2bf
00000230: cc8b 630f 8135 c03f b98d 3747 d309 9b3f
00000240: 2d39 7023 ef03 d13f 216e 9df1 f950 dc3f
00000250: 56b8 4e1b f18d d23f c134 fce0 8c66 f13f
00000260: 2bb5 f852 1681 ea3f 6f7f 6ef1 1811 d93f
00000270: 6d7c d89b f3c5 f13f 7efd 8a58 42a2 e23f
00000280: 1dff b0b3 91b3 b33f 8c07 c4ec febc b63f
00000290: 0b28 dfce 6f87 e2bf 3238 8aae 7942 dfbf
000002a0: 267c f4a9 076d e1bf 7669 730b 2db7 a9bf
000002b0: 05c0 9bbe 8dc7 bd3f 31a6 aead c3e9 e13f
000002c0: e6aa 970e 7686 ed3f b70a 5959 15bf da3f
000002d0: aa2a 002d a987 f3bf 3b08 90d1 64aa d23f
000002e0: 818c 74eb 91bc ea3f 1761 e481 1e8e e6bf
000002f0: 33a4 bd79 bda9 d53f 2d42 df8b b4d6 e8bf
00000300: 5abf 2042 2044 ba3f e0ba cddb 450e dcbf
00000310: 01e6 8420 8c21 f03f 05b5 6a1a 5ecf be3f
00000320: ffad 91cc 73cb ddbf 16d7 be75 a425 c13f
00000330: 97b1 5744 8622 f43f fdd6 ff09 feb6 fb3f
00000340: 9d40 cfb0 be13 f23f e405 1128 7720 df3f
00000350: 5795 d9c9 0125 f4bf fd2c 8845 50d7 e73f
00000360: ea38 10da b837 e03f 4d37 cfc7 0e34 e73f
00000370: 3c32 41bf 3113 fb3f fcb8 929f e027 d0bf
00000380: d96b bd54 193a b8bf 603c 55c6 c866 c3bf
00000390: a064 aa64 cf7a c0bf dc71 7f21 0eb3 0240
000003a0: bf37 607e be50 af3f 0ea3 b1d2 2df5 e3bf
000003b0: 55a1 66f1 d4ff d9bf adb6 7dc2 b35e e5bf
000003c0: 3cee d259 91eb c93f e09b ffb6 967e a5bf
000003d0: c6e0 9a5a 3617 e73f f9ae 151d d35a e53f
000003e0: 7f93 bc9c 475a e13f e864 c92e e136 88bf
000003f0: ceb1 ae2d 1fed ba3f c084 ce3a 9bdb e23f
00000400: 02e2 9558 7c61 e73f faf1 de51 dd18 e23f
00000410: 4a17 4955 62c8 e03f e16d 0f7d a505 d03f
00000420: ef5c 7061 61b2 8e3f ba69 b0ca 787d debf
00000430: 217a cfb4 9973 e5bf a250 0d26 356a e63f
00000440: a25c aff2 d14d db3f 723d 1358 e122 d03f
00000450: 51e4 a7ff 67f2 d1bf f305 b710 dc3c a63f
00000460: 8b2f dcdf cc12 ca3f ddae d699 4768 973f
00000470: 6292 229f f43d ee3f 0261 dba2 2ed9 e93f
00000480: bbd9 0a0e 400d e83f 902a adff 91b8 c03f
00000490: 7719 9dfa bfd5 dd3f ccb6 3ff3 8152 eb3f
000004a0: 94e7 a1bc e492 d73f f812 d150 b627 d23f
000004b0: 439e d042 dece dcbf 56c2 77c2 eb62 9fbf
000004c0: 08d6 0598 2538 c33f 6f02 38ac 9a07 e3bf
000004d0: d089 13bd 91ce ddbf ff36 4f6f 6da5 e43f
000004e0: ca8d 4053 c95d f13f 4334 3f81 2993 e0bf
000004f0: 6980 3fd1 095f d5bf b175 ea2e dc77 dbbf
00000500: 2bdf ec44 710c d8bf 1783 5456 cfbe d43f
00000510: e12f 3671 96e0 e63f 415d 52ec 9708 e43f
00000520: 69d2 eae4 6994 e73f 1fd5 7d11 32ed bf3f
00000530: bb1c 4c4d e926 e9bf 7382 d156 89c0 e93f
00000540: 5554 172b 808d d9bf 7d99 d121 9cbe df3f
00000550: 1153 0546 03dc c4bf abdb d9da 4d25 f3bf
00000560: d40c 9060 1ae6 e3bf 7bae e743 ccbc ccbf
00000570: 50bb 7d5a 91bc e0bf 63ef 0b7d be25 d33f
00000580: 250e 0234 c4a6 cc3f 2935 3551 6191 e63f
00000590: 6800 f5a6 ebc2 d63f 5bb0 d9a8 d7d5 ee3f
000005a0: dc00 8909 a712 de3f b4f8 74fc bbc6 e1bf
000005b0: 4636 a5c3 99d6 95bf 25bb 7039 ec88 e43f
000005c0: d2f9 aa72 e8ac e53f 00d2 fc25 faee d2bf
000005d0: fe69 1ab4 73ce e13f 8aec da33 9a56 b8bf
000005e0: 71b7 d45d abe5 e33f 2bc2 af29 3674 9dbf
000005f0: 49e5 cb90 850b b7bf 5afa 7e4b 96ba cb3f
00000600: a179 6c6b 3a3d e73f 261d 887d ebaa ed3f
00000610: dca0 80d5 c8f7 e33f 7437 7fc8 7fad eb3f
00000620: 37a5 8299 2ca2 edbf 6625 381e 9b7b c83f
00000630: f489 faac 066e c1bf cbe5 b0ec 3b45 c33f
00000640: 55b6 0bcd e9c2 b93f 78f4 1533 102d f3bf
00000650: 7e06 32c7 a45e d83f 0b8e 406f ba18 b53f
00000660: 9fca 9810 8c82 d43f 6542 3ad8 8eae eb3f
00000670: 33fa 997e 2501 e8bf 759a f4ad 5b52 d8bf
00000680: 710c f6c2 ccdd 86bf edb3 06ed a032 d5bf
00000690: 97ee 7b0f 9494 e13f 3ee8 022b 01eb cbbf
000006a0: 88c2 9d1a 2c9f e4bf 4b36 0e14 fab4 d4bf
000006b0: d863 04df 377c f0bf 4393 4b58 5722 b33f
000006c0: 9c84 a8f9 a48e f6bf e9ae 3e54 da3f aa3f
000006d0: 2399 4597 5b5e e03f 3019 6e63 ca69 c23f
000006e0: bbc5 0760 7422 903f 6369 e43a ad3b 68bf
000006f0: ce4c 3f05 b5b1 be3f 79e2 4372 9350 ac3f
00000700: 5957 b85d 86ce be3f 1d15 66ba 0f5e f2bf
00000710: 9c1b 3d26 5203 e7bf 8779 a852 86e9 c73f
00000720: 5ceb 11b2 bbcf e0bf d580 c280 3237 c23f
00000730: 1b10 a6c3 ca8a be3f bb28 1187 2519 f4bf
00000740: 0768 1ec0 a651 c6bf d1d8 393f 5ab0 c9bf
00000750: 6562 be98 25a6 d1bf bc8e d17d a595 e43f
00000760: a93c 6b37 b1a5 81bf c1e3 b944 c13d abbf
00000770: c2b3 7599 9794 a83f b97f 3f83 b2d9 b3bf
00000780: 60c7 3070 a198 d53f fc01 6646 e8bc d2bf
00000790: 3b87 9373 97e3 c43f 2499 052e 1f43 f1bf
000007a0: a1b4 ea27 8705 e6bf 75f2 ca8e b294 bb3f
000007b0: e9e3 4763 278c a8bf 183f 6aef 9024 ca3f
000007c0: c643 acda 711a bc3f 264f dea1 1d83 ca3f
000007d0: 1972 eff6 fa22 a23f 9b91 d867 a385 f5bf
000007e0: 41d6 ce64 c283 f03f 2f6e d64b 63f9 f23f
000007f0: f465 bcd0 0f26 f23f 54da ac69 75c0 ce3f

linear_afunc_stack.Linear1.bias f8 [200]
-1.670953317403526 -4.019531954789635 -3.0640440399343944 -4.485831928231497 -4.37241678400442 -4.045182202777771 -5.998432276826436 -4.396614941288853
-4.2584772819624765 -5.0706246709298535 -4.769323946248427 -4.23747660379572 -5.082269616153768 -5.139978589802875 -4.440501886630714 -5.5853671482548775
-4.6429498864411896 -5.088198106953864 -3.8736784829327977 -5.210277068090354 -3.1003408213587247 -3.1508045552930697 0.029662147012284177 -3.374102617961118
-5.517758006890387 -4.455572430054531 -4.035969064902556 -4.105661594576792 -4.365396245272431 -4.47625856612667 -2.45891571627448 -4.583878295917651
-1.3430141877527806 -4.561884902646888 -3.420317033701936 -4.6949161368213606 -4.966566126776177 -3.6115719219898663 -4.389791450619309 -3.486397846356457
-3.94778951567645 -3.6851351245206763 -3.882066961459295 -3.5453566636860905 -5.343333526080046 -3.51453752083146 -4.02336915099122 -1.666428626402994
-4.291985868804272 -4.475954356236215 -3.8215733655704063 -2.831822664691747 -4.484119845198943 -4.794816946221861 -4.6474119027641265 -5.11461100251643
-4.459900933541829 -4.502481791678921 -3.3806060206878863 -4.6044904442923364 -4.2045476900547385 -4.799043079214188 -4.371065396153722 -5.771185505392363
-3.40957743990742 -3.7880447166348015 -3.6838946918969375 -4.111118221039064 -3.415809792010681 -3.629601801464994 -5.691305373085986 -5.190936494188637
-4.335390071414989 -3.288858830666545 -4.993289657754916 -4.7811223663607265 -3.087052852696342 -4.1152365119653584 -2.8498020912376028 -3.5435169121602077
-3.8897736969494305 -1.6736420332911512 -4.63029678057779 -4.691552448827291 -4.8333351976267505 -4.855116814386599 -5.126647648430865 -4.540417195804626
-3.996494049702913 -2.8938652555643127 -4.911570435753323 -0.7204560900764102 -5.735101305520859 -2.0796164928523466 -4.711200787427136 -5.348399225640272
-2.967504978401518 -4.870683291143581 -4.261358153478608 -5.67347599617614 -4.4638632018048465 -4.580175612723502 -2.958751277925992 -4.840772882352963
-3.815607241345602 -4.289561775840164 -2.929271041896623 -5.737460940983598 -3.712498419145512 -4.156707026014993 3.338333347331011 -4.5910074417975375
-1.9710609936037093 -0.5066721268286566 -2.9275034993085542 -4.218679484629008 -2.8942885205796722 -4.477490927703245 -3.9680110463665996 0.04299801910725372
-4.437967583017953 -3.3082030477992896 -0.90399901121108 -3.7676035252102067 -3.9219870028472035 -3.8595366169046734 -3.4746691394264437 -4.9156464935768645
-3.480055305563905 -4.659261987868323 -4.034916454520282 -5.204907194777591 -4.968165437319359 -3.1781995220788324 -6.100113869814788 -6.252301752368333
-4.233193387389538 -4.671349656957994 -3.065353190725571 -4.459186775078545 -5.2835946213708445 -4.200479893316618 -4.712116403394742 -2.972010120755335
-3.747607597306339 -4.2981565334463365 -4.506322852935954 -4.632756488578559 -5.393217861268446 -5.2195427261185525 -5.456754986837344 -2.4768950635330826
-4.6997364687002 -3.9272620713826147 -5.888828378800818 -4.70171437930389 -1.918064131598464 -5.589335384342565 -0.7545794420564723 -4.8348134954718995
-1.4990971540284086 -1.1457513560155668 -4.286063941385332 -4.334056131717071 -4.485056377327277 -3.888796842342716 -4.757701594846579 -3.330652109543569
-2.3860303176195075 -0.14572755424409348 -3.429300082865416 -3.7022480916618337 -3.089818635169535 -2.594271909491813 -4.652443970570178 -4.466181168493265
-3.5391171562603034 -4.2256657170329195 -5.353411800103316 -5.840348437548651 -3.8362180690192793 -5.394836646900726 -3.633721835638022 -2.5048196504087987
-5.604050914791845 -3.7791677717121126 -4.210582177557456 -3.967236602758052 -3.0919026516480717 -4.368299976538731 0.4516009869158923 -4.330740287639564
-4.506465831172044 -5.868071623495474 -5.575916868542335 -4.678306302477233 -1.2642417036205278 -4.232544918349753 -3.0152281443702766 -5.380968030367708
00000000: ee40 b68b 39bc fabf 9831 4c2f 0014 10c0
00000010: f02c 8885 2983 08c0 776d ccec 7df1 11c0
00000020: 361f 4fd3 5a7d 11c0 c52a 4d3e 442e 10c0
00000030: 21f6 e007 65fe 17c0 28c3 273a 2296 11c0
00000040: b726 c344 ae08 11c0 e9bc 6fd5 5148 14c0
00000050: a8aa 14a8 c913 13c0 9878 1b11 2df3 10c0
00000060: f256 7b7c 3e54 14c0 cb5f 258c 568f 14c0
00000070: f19e 33ed 12c3 11c0 43a1 577c 6a57 16c0
00000080: 63ed 7c74 6192 12c0 6bbe c39a 505a 14c0
00000090: 7452 fb24 4bfd 0ec0 f62f 2adf 52d7 14c0
000000a0: 1984 117d 7fcd 08c0 8d92 c804 d934 09c0
000000b0: f93a 63fd c05f 9e3f 89ed 6b83 29fe 0ac0
000000c0: 6d58 ab27 2f12 16c0 802c 4094 81d2 11c0
000000d0: 5cb2 1513 d524 10c0 259a 948d 326c 10c0
000000e0: eb1a ee6e 2a76 11c0 cbd0 5753 b0e7 11c0
000000f0: 8a27 c800 dcab 03c0 f93d 2731 e455 12c0
00000100: 2865 e771 fc7c f5bf 28f0 83c1 5e3f 12c0
00000110: c49c 4d2d cf5c 0bc0 0e71 8418 98c7 12c0
00000120: 46b3 bf82 c3dd 13c0 66c9 e0d1 7fe4 0cc0
00000130: 6bae 727d 258f 11c0 0891 d78d 24e4 0bc0
00000140: 8693 6aab 1295 0fc0 ee41 c91f 287b 0dc0
00000150: 51cc 821f 790e 0fc0 db7f 59f4 e35c 0cc0
00000160: 6189 e8d2 925f 15c0 cf49 04d9 c51d 0cc0
00000170: 66f8 2c15 ee17 10c0 134e 3810 b1a9 fabf
00000180: 4ca2 f557 fe2a 11c0 70b1 2994 60e7 11c0
00000190: cb1d 830e 9592 0ec0 8a61 27a4 92a7 06c0
000001a0: 6be5 d91c bdef 11c0 6451 597e e42d 13c0
000001b0: f8a6 5525 f396 12c0 8447 2e96 5c75 14c0
000001c0: 1dd9 3345 f0d6 11c0 c462 3896 8a02 12c0
000001d0: 121f 5c2b 7b0b 0bc0 9eeb 038b ff6a 12c0
000001e0: a007 1df3 74d1 10c0 c247 5559 3832 13c0
000001f0: 4da1 3491 f87b 11c0 db3c 33a7 b115 17c0
00000200: 79a7 6c89 d046 0bc0 42db 6d63 ea4d 0ec0
00000210: bed7 bcc7 9d78 0dc0 f068 95f9 c871 10c0
00000220: e956 9015 9453 0bc0 d25b 56ab 6c09 0dc0
00000230: 45d0 438e e5c3 16c0 c49c 38db 84c3 14c0
00000240: 9d85 b07e 7057 11c0 29fd f637 954f 0ac0
00000250: b20c 8eec 20f9 13c0 18c6 a68a de1f 13c0
00000260: 98d5 1ac4 48b2 08c0 0ac9 688f 0076 10c0
00000270: d880 ef09 65cc 06c0 7168 1465 1f59 0cc0
00000280: 1ae9 09ac 411e 0fc0 9c24 63de 3cc7 fabf
00000290: 3c6c ed84 6c85 12c0 4bba 3c53 26c4 12c0
000002a0: 7ea6 71d2 5555 13c0 5933 00be a36b 13c0
000002b0: e480 d0eb af81 14c0 25b5 1820 6329 12c0
000002c0: 960f 51df d1f8 0fc0 6c6f bdd3 a226 07c0
000002d0: 753e 66b8 72a5 13c0 7ba1 22ee f90d e7bf
000002e0: 02d6 8965 bef0 16c0 332f c8f8 0da3 00c0
000002f0: 558e eb04 45d8 12c0 894e 40c4 c264 15c0
00000300: 189d 0740 73bd 07c0 938a 9266 947b 13c0
00000310: 2def c678 a10b 11c0 c3de 08b1 a3b1 16c0
00000320: 5647 86f4 feda 11c0 3956 4a8e 1952 12c0
00000330: d285 3dca 85ab 07c0 4e47 0491 f35c 13c0
00000340: 5eae df16 5d86 0ec0 e99e d5e1 8228 11c0
00000350: d886 f0a7 256f 07c0 6368 fef5 28f3 16c0
00000360: 1274 055f 32b3 0dc0 b926 7fce 77a0 10c0
00000370: 9576 2f1d e8b4 0a40 29da 080e 315d 12c0
00000380: e92f 9f40 7789 ffbf 55c3 d076 a836 e0bf
00000390: 7aa5 63f4 866b 07c0 a126 cb83 eddf 10c0
000003a0: 929f 68bd 8027 07c0 127d ba61 f3e8 11c0
000003b0: 837d 5293 7cbe 0fc0 2a85 b71b d603 a63f
000003c0: c214 f792 7ac0 11c0 929a d628 3377 0ac0
000003d0: d992 9855 8fed ecbf c393 2851 0d24 0ec0
000003e0: c186 c4b8 3a60 0fc0 788f dabb 54e0 0ec0
000003f0: 6b0e 7255 1fcc 0bc0 5770 023c 9fa9 13c0
00000400: 9858 6d3c 27d7 0bc0 c48f 1593 15a3 12c0
00000410: 0c07 9923 c123 10c0 b123 1131 d3d1 14c0
00000420: e39d a9c2 66df 13c0 6bee fbde f36c 09c0
00000430: 0cec 1240 8466 18c0 f994 fc63 5b02 19c0
00000440: 15ed 513f caee 10c0 f942 d348 76af 12c0
00000450: 39d8 c6e4 d785 08c0 4bdf d60e 35d6 11c0
00000460: e76f e0a0 6622 15c0 a733 e599 4acd 10c0
00000470: 2c1a de0a 35d9 12c0 8f33 003e adc6 07c0
00000480: fa5f 25b1 19fb 0dc0 86f6 40f2 4f31 11c0
00000490: 324f 7a7f 7906 12c0 591b 2351 f187 12c0
000004a0: 7767 f9b3 a792 15c0 f603 f3ce cfe0 14c0
000004b0: 5601 4b94 b7d3 15c0 cafc eb5b aed0 03c0
000004c0: 268b 83b7 87cc 12c0 c146 7b60 086b 0fc0
000004d0: 2ad3 ca06 298e 17c0 fbf8 d836 8ece 12c0
000004e0: 6489 cd03 64b0 febf f481 28bc 7a5b 16c0
000004f0: 2bba 3bc9 8325 e8bf b93e 5559 d956 13c0
00000500: 5042 214c 4dfc f7bf c3f3 b65f ff54 f2bf
00000510: 6b42 23f2 ed24 11c0 2a03 83cf 1256 11c0
00000520: fa58 759e b2f0 11c0 4533 d584 411c 0fc0
00000530: eff8 47ed e207 13c0 8bbe e6ee 2ca5 0ac0
00000540: b085 2b10 9716 03c0 895e cd53 33a7 c2bf
00000550: cd9d c0e1 346f 0bc0 8aed 5a3f 349e 0dc0
00000560: fefe 24d5 f2b7 08c0 2997 81a1 11c1 04c0
00000570: 0349 b045 1a9c 12c0 31c2 a298 5edd 11c0
00000580: e0cd d6a7 1c50 0cc0 6af0 e9e9 14e7 10c0
00000590: 60db 6dc8 e469 15c0 8b10 024d 845c 17c0
000005a0: bb18 5619 93b0 0ec0 bdcd d60e 5094 15c0
000005b0: 739c f6c0 dc11 0dc0 5112 87e2 de09 04c0
000005c0: 7499 b052 8c6a 16c0 45ce 0c50 bc3b 0ec0
000005d0: 41eb b6da a2d7 10c0 46b8 428b e6bc 0fc0
000005e0: 04f4 1975 37bc 08c0 da67 09a1 2379 11c0
000005f0: 0349 69d3 07e7 dc3f b886 fb94 ad52 11c0
00000600: 98b3 95fa 9e06 12c0 a8fe 85c4 e778 17c0
00000610: 8f6a ce26 bd4d 16c0 d93d 67ed 95b6 12c0
00000620: c2a1 3482 553a f4bf 19a7 4c41 20ee 10c0
00000630: 9164 f0ee 2f1f 08c0 dc00 bd7b 1c86 15c0

linear_afunc_stack.Linear2.weight f8 [200, 200]
-0.2947132807111188 0.06274632233391063 -0.10981796749317062 0.026385500121608854 0.08115397445726837 -0.30936959616209475 -0.05164102645269934 -0.14188098133863594
0.19908550436680753 0.013884070822713427 -0.1384307967752054 0.07719439652514624 0.3455711876356983 -0.1681969640275625 -0.17722822412873085 -0.4313436128632013
0.05462540243269321 -0.21657530669811123 -0.39115091293303483 -0.37519870163375446 0.09056322595924504 0.16789059921565583 -1.7434598273201112 -0.13228172899189872
-0.40834730163953564 -0.43234428833668004 0.32434115659769813 0.2853858389399477 0.8092860752532826 -0.2859398415296822 0.3093868821766467 -0.08470873095977345
1.3352829297089008 -0.40223797759449986 1.1414709090647603 0.17153756732262748 -0.34703425711861624 -0.02346429387324856 -0.034586788968754924 0.09303150114790439
0.557550262228286 0.550496437129784 -0.2523656456126358 -0.34526359403031753 -0.2671704552698276 -0.014177862896992815 0.7963427278361018 0.2038665757829007
0.4025325788091514 0.4674824653862282 -0.6972625340758352 1.289883297723367 -0.06285541424957206 0.32703209357462326 -0.49203845189783285 -0.5735760955082364
0.22864326550599645 0.38389794694481577 -0.06445793697515848 -0.32423958796683117 -0.9864757931885421 -0.005439664832402982 0.435075543262945 0.12506863154235592
0.2710846000263368 -0.15414294145698723 -0.020389753668136334 -0.8225663347076919 0.2886333994341332 -0.007735511527761728 0.29982106210621506 -0.48217859595460894
0.09154238755809224 -0.28618206209484504 -0.44007192241331655 0.3772914797467464 -0.9125304451972118 -0.1536008410038849 -0.45208745997813604 0.8488901657449606
-0.002701516818948968 -0.010799143155217995 -0.23602485277453383 -0.051996714329356306 0.14358127394520642 0.7727485866741962 0.06844215454245915 -0.9380367423165759
-0.45386784301064387 -0.2989886562120672 -0.12494024059465676 -0.8079189940132699 -0.21733713236959462 -1.8913347503479625 0.3218896655201507 -0.12098999113679675
0.4360983668165205 -0.10116678040622602 -0.08635617899489167 -0.1705186554218999 0.43843700074380937 0.1791148775317033 -0.713703188297002 0.020317300031734892
0.04283898682682692 -0.39365773623250994 1.3623831792124919 -0.15398784840401095 0.44545933760876216 0.0793723566821443 -1.7233386668181834 0.44766919654057025
-0.298451391937753 -0.5703069119009744 0.03322404843833152 -0.21434141923491568 0.4178900772488921 0.13465609135594497 -0.10338464073705377 -1.6858102328892794
-0.02556673208378759 0.5082222430991105 0.01948802247747025 -0.1616769600571297 0.3629232969741229 -1.2204797986514309 0.1728072093590365 -0.9936953522434654
-0.4587728092802462 -0.22744008387103784 -0.15190148899373465 -0.04390754132477948 -0.6151697339562677 0.179356006030204 -0.3300946394086453 0.15243496431046066
0.12526724498349195 -0.4923215940403479 -0.019212758434112555 -0.7989189387049727 -0.4597491527373645 -0.04116617996702757 0.4898164531566693 0.6181021821590869
-0.11410368844348404 0.03089816557150914 -0.5446557229704378 -0.5415628888037288 -0.9077479559291112 0.2535134219590799 -0.1989465436697935 0.2607632151131865
0.12726331033941898 -0.059292515693490616 -0.6410452586404214 -0.0117575915586429 -0.7344395131017142 -0.3087346785709977 -0.9440165885223729 -0.31073588881681363
0.5641234285120769 -1.5287318990994028 0.1723821475580772 -0.11054020986391924 -0.6474858411733575 -0.020051439439526173 -0.408582174071025 -0.09307405238975189
1.089190884005753 0.8834649419179219 0.18174897259618977 0.43127048527454026 -0.1653335647835066 -0.3999433847952755 -0.15665866922852165 -0.3952938021920954
-0.3761733829769922 0.3874882703514759 -0.32288182936254817 0.07987130666555615 -0.10857994918323378 0.4127812720912953 -0.08855551220274177 -0.43962631960733617
-1.47265651637064 0.9301902294561726 0.8489507070300206 -0.6986994465784986 -0.4700322103477252 -0.4235437354625694 -3.294862830695985 0.5189389825690168
0.21021789985001452 0.37552782970782006 -0.3345156306852576 -0.4211295127006766 0.04690018114436132 0.1733993105181869 0.024081885564634243 -0.12228549676729135
0.867489776437157 0.6846260899671704 0.1922794253905205 1.0122435733155306 2.1055021793246476 1.3289642000515278 0.8788640867032207 0.8541615655177842
0.9107149339152685 1.191060770000714 -0.6603991903254819 1.5545192979544953 1.9801686584836975 -0.10279725241431359 0.2706819528601522 0.811392474415062
2.13970871804519 0.8969093999006155 -0.048694947543945793 0.519624545726284 0.8964382405726846 0.5887150665723524 1.3492528408073405 0.8356356231226894
1.18450481518017 -0.1899191931459653 0.5529233611128507 -0.11367226539289746 1.2664790777866424 -0.5540281266868033 -0.22541516209877618 0.6925684692450745
0.32549950354488044 0.4377197514020853 2.0175330453532982 1.8095336089358383 0.6675067415896903 1.257282259223151 1.5856216471734 1.0953007826903538
0.963113502150812 -0.14115028852582084 -1.0507283165166201 1.4115632066581545 1.1940208996376374 1.380736778407778 1.4789217203017442 0.6686572234860789
0.28309626814170874 -0.49735024700675695 1.2532871486200463 0.6760533939958172 0.8141753215437675 0.4311220028586201 0.5247939820316515 1.100509183604383
00000000: cc78 9617 95dc d2bf cf50 5e9a 2410 b03f
00000010: c777 e5c2 071d bcbf 7493 71f0 cc04 9b3f
00000020: c900 3cc2 81c6 b43f ab25 7922 b6cc d3bf
00000030: d60f 7e4f b170 aabf c90c 63ef 2729 c2bf
00000040: 2d7a 2e41 a27b c93f e282 f370 406f 8c3f
00000050: 3f51 74b0 19b8 c1bf af8c 8210 03c3 b33f
00000060: fa73 559d d61d d63f 9a76 e465 7a87 c5bf
00000070: b8d0 4719 6aaf c6bf f37f a53d 229b dbbf
00000080: 1161 f559 dcf7 ab3f 05dd b159 bdb8 cbbf
00000090: 7444 b6d6 9d08 d9bf 5a31 416a 4103 d8bf
000000a0: 6018 b7cd 262f b73f 67f2 776c 707d c53f
000000b0: caac c321 36e5 fbbf 0074 f091 9bee c0bf
000000c0: e1e7 7cb8 5c22 dabf 0a2e c160 87ab dbbf
000000d0: 145f 1569 01c2 d43f 3345 3ff7 c243 d23f
000000e0: fd45 4ae9 abe5 e93f fe93 ff9e d64c d2bf
000000f0: 87a5 30a3 fecc d33f 756b 28ad 78af b5bf
00000100: d61b 20a2 515d f53f 4e90 be5b 44be d9bf
00000110: ec4b fcff 7643 f23f 94d1 d768 f1f4 c53f
00000120: 94a1 3a2c cf35 d6bf 82c2 3c1b 0607 98bf
00000130: 5529 fd0e 5cb5 a1bf c193 ed96 e9d0 b73f
00000140: deb1 c4a5 73d7 e13f a22e 41b4 aa9d e13f
00000150: 9592 a23c c226 d0bf 4104 3779 cc18 d6bf
00000160: 85d8 f51b 5219 d1bf 690f c28b 4809 8dbf
00000170: e1d4 8ebe a37b e93f 9516 dec9 4c18 ca3f
00000180: 8cd4 6301 18c3 d93f 2863 1293 3beb dd3f
00000190: 169e 9284 f94f e6bf 4e0e 36ab 5ca3 f43f
000001a0: ee14 94dc 4a17 b0bf 8a4e a904 18ee d43f
000001b0: 6fa4 d1d8 8e7d dfbf 3b35 7f41 bc5a e2bf
000001c0: 5842 e6b9 2e44 cd3f 2b4a c8b1 c891 d83f
000001d0: aaa3 46bb 5080 b0bf 20b5 9866 57c0 d4bf
000001e0: 594b c1ae 3591 efbf 76e6 e6e8 e647 76bf
000001f0: 5da4 6617 47d8 db3f 206d 1db9 3f02 c03f
00000200: a9fd e338 7359 d13f bfc6 3bb6 f4ba c3bf
00000210: c06a b634 0de1 94bf 2886 4ba2 7652 eabf
00000220: 0796 c638 f878 d23f e51b 7990 45af 7fbf
00000230: c27b 19ae 4430 d33f 1733 1d9d 03dc debf
00000240: dc7f c268 526f b73f 818c 5991 ce50 d2bf
00000250: 79cb a96c 232a dcbf 1997 a429 8b25 d83f
00000260: 383e 570c 7333 edbf d7f8 5f3e 31a9 c3bf
00000270: 5e6b e23d 00ef dcbf f6a8 78b5 1b2a eb3f
00000280: 6623 62cc 7d21 66bf 3470 6975 dc1d 86bf
00000290: f6db daf7 0f36 cebf 668c 1637 509f aabf
000002a0: a6d2 f405 df60 c23f f777 793e 5bba e83f
000002b0: cf79 6dcf 6c85 b13f 3a46 56a1 6504 eebf
000002c0: 2af4 9bb5 2b0c ddbf 7d92 1351 a122 d3bf
000002d0: c5f4 4e67 15fc bfbf b955 23ef 78da e9bf
000002e0: 34ee dd01 b4d1 cbbf 7286 283a e842 febf
000002f0: 5115 951c d799 d43f 576c 1337 33f9 bebf
00000300: ce38 d41f 09e9 db3f 854e 49ed 10e6 b9bf
00000310: 6030 9744 701b b6bf d38d 3228 8ed3 c5bf
00000320: 6743 e310 5a0f dc3f 18e4 9c7e 3ced c63f
00000330: 722b 9911 a8d6 e6bf f59f b7ec 0ece 943f
00000340: 6a7a d4de fdee a53f d3e7 bb37 b031 d9bf
00000350: 1a69 f54d 52cc f53f 8135 70b2 dfb5 c3bf
00000360: a58e aee1 6782 dc3f 7300 282c bf51 b43f
00000370: 52a9 de90 cb92 fbbf c65f a4b3 9ca6 dc3f
00000380: 795f f4dd d319 d3bf 9d84 e947 f43f e2bf
00000390: 257a f712 be02 a13f 6c66 e524 8a6f cbbf
000003a0: 89d7 c605 b6be da3f 4a5d 4a2a 693c c13f
000003b0: bfd5 df72 6a77 babf 7858 9826 14f9 fabf
000003c0: c66e a958 2a2e 9abf efbb 264b 5b43 e03f
000003d0: b85a d10c abf4 933f 1f25 fba3 d4b1 c4bf
000003e0: 6f76 dda2 223a d73f 5a2f 4ad3 1587 f3bf
000003f0: 21e4 5af0 8b1e c63f 1155 0232 5acc efbf
00000400: e2c5 09a1 885c ddbf 0347 03b5 c11c cdbf
00000410: b78c b80b 8271 c3bf f14c 139c 0c7b a6bf
00000420: 1d99 1a70 78af e3bf f9d5 1e3a 23f5 c63f
00000430: 3515 3644 4520 d5bf 4c7c 3d29 fd82 c33f
00000440: 3868 3bd0 c108 c03f fe24 616e 3282 dfbf
00000450: 2ad5 8f64 82ac 93bf 8692 3c73 be90 e9bf
00000460: 60b9 d7b5 876c ddbf 85bb 51c9 bb13 a5bf
00000470: 6770 d61b 2759 df3f 54b4 3e3a 7ec7 e33f
00000480: 9ebd 373a e635 bdbf 1d4a 8bca c4a3 9f3f
00000490: b097 b7d6 d16d e1bf 2575 04b2 7b54 e1bf
000004a0: 853e f770 450c edbf ae52 1a5c 9039 d03f
000004b0: 5164 5b91 1477 c9bf fd4c 3a32 58b0 d03f
000004c0: 79ba f105 2a4a c03f f42a 9aaf 965b aebf
000004d0: 22ba a358 7183 e4bf 54f3 ca39 5d14 88bf
000004e0: 512f 354b 8780 e7bf dc9f e618 4fc2 d3bf
000004f0: fbb8 d246 6235 eebf 6759 0ac8 18e3 d3bf
00000500: 88bc 8b93 4c0d e23f 15be 6f94 af75 f8bf
00000510: 538d 1643 9e10 c63f b22d 42fa 5c4c bcbf
00000520: cacd 0e3a 34b8 e4bf 099f 8552 5d88 94bf
00000530: bd45 d7d8 3526 dabf cac3 1e7b b3d3 b7bf
00000540: 227f 9e6b 536d f13f 8466 1645 5845 ec3f
00000550: 16ed b0e2 8c43 c73f 22fd 7e85 ef99 db3f
00000560: a18f d676 a629 c5bf c79f 7c23 ac98 d9bf
00000570: 3f56 7c2a 640d c4bf ae7f 2e60 7e4c d9bf
00000580: 64c2 6086 3913 d8bf 8490 2f9a 9bcc d83f
00000590: 506d 658c 18aa d4bf 1571 042a 7272 b43f
000005a0: f14a be42 e5cb bbbf 1323 0224 026b da3f
000005b0: f492 caf4 92ab b6bf 9728 4b6e d622 dcbf
000005c0: dbd9 8047 0090 f7bf fe55 d24c 1ec4 ed3f
000005d0: 4085 53ac 9a2a eb3f e436 19f1 be5b e6bf
000005e0: 07a5 e0fa 0115 debf be31 0f2f 571b dbbf
000005f0: 7429 350b e15b 0ac0 311c d8ec 259b e03f
00000600: edde 718e 6be8 ca3f f64e d5e0 a508 d83f
00000610: d2d0 723f b468 d5bf 3782 1b33 c9f3 dabf
00000620: 4d0d 62f0 4c03 a83f 3c8b e9d7 f231 c63f
00000630: 6d58 b4fb eba8 983f 5500 6431 1a4e bfbf
00000640: 9e2e 6deb 79c2 eb3f 19b7 4cf9 74e8 e53f
00000650: 8a7b dfb9 9c9c c83f 439f 2f51 2632 f03f
00000660: 45d9 ce86 11d8 0040 f66a 0cf7 6f43 f53f
00000670: a09d c093 a71f ec3f f9c4 aca2 4a55 eb3f
00000680: daa2 24a5 9324 ed3f f039 ebbc 950e f33f
00000690: 2317 987b fd21 e5bf 6e72 9ba0 4fdf f83f
000006a0: db06 cc54 c5ae ff3f 58f6 3cb5 eb50 babf
000006b0: 8eb6 c965 da52 d13f a4a9 ba59 edf6 e93f
000006c0: ecc2 b79a 1f1e 0140 468a 8157 7bb3 ec3f
000006d0: 8405 5d4e 8bee a8bf e0fb c2a7 c3a0 e03f
000006e0: 3b97 c43f 9faf ec3f 26e7 b2fa c0d6 e23f
000006f0: 8ad7 9425 8a96 f53f b0e7 15eb 86bd ea3f
00000700: 2474 3252 bbf3 f23f 95e9 b8a9 454f c8bf
00000710: 2992 2555 8cb1 e13f 5221 5326 a019 bdbf
00000720: 0497 c290 7f43 f43f 0be3 a531 99ba e1bf
00000730: e34e 9e6e 67da ccbf 81bf b459 8529 e63f
00000740: 54ba a5de fbd4 d43f 0674 45b4 9903 dc3f
00000750: 3422 835d e823 0040 c646 7683 d9f3 fc3f
00000760: 7e97 1f19 375c e53f 5645 9300 d41d f43f
00000770: cc07 e7cd b45e f93f 2a03 0f1d 5a86 f13f
00000780: 455c 4268 d3d1 ee3f e609 8570 3611 c2bf
00000790: 67b8 c67e c8cf f0bf af56 0d4d c395 f63f
000007a0: 48f2 aaa8 b51a f33f 3855 ba72 7f17 f63f
000007b0: 0ca4 60d2 a9a9 f73f 7f6b 63d5 a365 e53f
000007c0: 4673 52cf 3f1e d23f 7b4c 6321 96d4 dfbf
000007d0: 801f 3dd3 760d f43f 93fa 31ba 3aa2 e53f
000007e0: 5ab4 6767 b90d ea3f 5e48 b7bd 8097 db3f
000007f0: 71d5 bebf 1ccb e03f ac74 8884 af9b f13f

linear_afunc_stack.Linear2.bias f8 [200]
-2.0356414306406823 -1.8159210031972015 -1.9955793936055641 -1.6840172220837553 0.6592685742594641 -1.9114360252654319 -1.9703119911013527 -2.1562257914551752
-1.983393617579961 -1.274112263998386 -1.5710457097929282 -1.5779419692446977 -1.5231364781116692 -0.7478027705084289 -1.4675717785651836 -1.8343866288469592
-2.3091987876335325 -2.737579882930849 -1.7412264307961371 -1.609777057791961 -1.3513049600548006 -1.5093715054419823 -2.505991195901574 -1.1961911745028557
-1.8503257571630571 -2.4736482785154608 -1.6873249345826633 -2.3705936137082126 -1.9166565329504976 -1.8974352752351202 -0.9450657992260032 -1.9732789282158356
-1.8370112494200717 -3.1534026251271228 -1.969374983584375 -2.192965911088658 -1.944110770983872 -1.9142928340303413 -2.059584826981481 -1.5555358779420532
-2.534311672482071 -2.2564537266750704 -1.5379955689905904 -1.9389043065951763 -2.6086571664555187 -1.570736130591715 -3.06740926108431 -2.4290078011613025
-1.8212565242188496 -2.376415695749397 -3.5210080738470335 -2.274771630708161 -2.8868748164968223 -2.0371710479603333 -0.4166972236454742 -0.5716913199350039
-2.0282434552771993 -1.863140358566314 -1.6040168768376506 -2.1066878288534014 -1.6876534826044018 -1.271109630896208 -1.6465951022265528 -1.9885077732744034
-2.7951842263089177 -1.768152901519948 -1.3101059422423424 -1.577237636281182 -2.1432545072386096 -1.940913365757099 -1.4353015832438203 -2.2021666355897573
-1.1412805722235615 -2.429398065119273 -2.624022058132304 -2.0429460863028988 -0.597566199294175 -1.0700182858330596 -1.6386748460545113 -1.8835127632987492
-2.526153326913547 -2.429008486021573 -1.1237809901563596 -1.7552923830364187 -2.490898038112663 -1.8504106047351363 -2.249055671134874 -2.155468760815717
-1.7204146392286968 -0.8817014900762639 -1.6240284494570725 -2.567403187904753 -2.6344703629827184 -2.047943159517413 -2.0403042148773323 -1.9713742083985621
-1.4293018295179687 -1.2723007357912564 -1.1841142992031977 -2.2556066281814875 -1.802827838541541 -2.6317751946767403 -1.7016381634840692 0.91699401840558
-1.9421419748425686 -0.32368186808801935 -1.5338892533107555 0.9103317193987718 -2.338507710933626 -1.3535651504367903 -1.6915198421256505 -2.257357057254196
-1.590313460005349 -1.5732985891760298 -1.8267889349888085 -1.7628938865835597 -2.3681489314512167 -3.6174336522047974 -0.865454281720555 -1.8015709900302543
-2.5810546596675357 -1.568732650098844 -1.1747541351944184 -0.8164292095597242 -2.160363424985166 -2.052744324455891 -2.0355660408901373 -1.4833893396597926
-2.1486669340528644 -1.8278046486749462 -1.5204490062221903 -2.112309337500889 -2.162369006723265 -2.118088689678802 -2.1035111984937584 -1.4767117858513497
-2.1775962781238545 -1.8388176111259817 -2.1722355642400117 -0.9626034320531269 -2.0400017536509853 -2.2311038251813726 -2.0783345279403957 -1.8458917170773734
-1.684749906147541 -1.7097763659980623 -1.6712854911888861 -2.288263403739162 -1.726283299445676 -1.5993985957174166 -1.2554542698986002 -2.1438101630290034
-2.4359413990831857 -2.603866963414444 -1.3687161348375572 -2.7669183509786337 -1.4167732699150084 -1.737823315653412 -1.2570139153002493 -1.804442493963779
-2.0661572198103073 -1.2249604862216206 -2.4462501914506976 -1.9188727594963753 -1.723801154006891 -1.6166343799002871 -1.7572653234871158 -2.875112893186664
-0.5299960170682877 -2.1724648888457647 -2.280709569343749 -1.2077391239915898 -2.4427164334274036 -1.754164894023784 -2.405888895339956 -1.5993282422509574
-1.6488887380180632 -2.3013145384376474 -2.1870686940603172 -2.3643106884090233 0.2301744567167467 -0.24220670557354781 1.9707134985306785 -2.5150259929068213
-1.8661526600736162 -2.387771910160114 -2.6848856056619406 -1.8044559405044536 -1.973647818494848 -2.9748908157298466 -2.3881457247498954 -1.3194733907813743
-2.0179382587079764 -0.9331501282431919 -1.9078772813060452 -2.2626506058967224 -2.6250088549497046 -1.700111822205784 -2.375953756206092 -1.6733807100811078
00000000: 04e0 d75f fe48 00c0 b69f 8d2e 030e fdbf
00000010: f3b7 81a8 e4ed ffbf 0a02 ec0a bcf1 fabf
00000020: c132 b768 ba18 e53f 8594 0ef1 3d95 febf
00000030: b826 cbdd 6586 ffbf cabb c84e f33f 01c0
00000040: f49d 29f2 fabb ffbf aee3 948a c362 f4bf
00000050: c84e 81d3 0023 f9bf df44 0e14 403f f9bf
00000060: 0b59 0d5b c45e f8bf 0224 6613 00ee e7bf
00000070: 3185 978b 2c7b f7bf cae0 31cb a559 fdbf
00000080: 7dca c636 3d79 02c0 0901 1b48 90e6 05c0
00000090: 1634 f33e 10dc fbbf c914 9196 a5c1 f9bf
000000a0: 2fba 25f3 f19e f5bf 9c33 56bc 6226 f8bf
000000b0: 84b0 b31c 450c 04c0 b90e 645b 9923 f3bf
000000c0: 6763 5f2e ef9a fdbf ad3e d01b 08ca 03c0
000000d0: 4520 3c6e 48ff fabf a8dd d7c8 f9f6 02c0
000000e0: 80fe 6a0a a0aa febf ea95 5617 e55b febf
000000f0: 18cd 87a1 fa3d eebf c92a e9ec 8c92 ffbf
00000100: fc4a 6ae8 6564 fdbf 1355 d027 2b3a 09c0
00000110: 08e3 c057 8f82 ffbf f4f2 2ab6 318b 01c0
00000120: 4ed5 52e5 131b ffbf 200a d285 f1a0 febf
00000130: 47c9 199c 077a 00c0 9440 b896 79e3 f8bf
00000140: d573 b932 4546 04c0 d30d 889c 370d 02c0
00000150: e951 e33d a19b f8bf be65 ae85 c005 ffbf
00000160: 4838 03a6 87de 04c0 8e97 7835 bc21 f9bf
00000170: e56f dedd 0d8a 08c0 bbbb 5da4 9b6e 03c0
00000180: 7058 92e1 dd23 fdbf d78e 773b e602 03c0
00000190: ecff f047 062b 0cc0 c514 fe77 bb32 02c0
000001a0: b3ff e3d2 5118 07c0 0cc8 9a55 204c 00c0
000001b0: 370b f9d4 2aab dabf ade4 5098 4b4b e2bf
000001c0: d1ee 65b4 d739 00c0 8866 be43 6ccf fdbf
000001d0: 0eff c399 0daa f9bf ed73 fe25 7fda 00c0
000001e0: 3843 2cf0 a000 fbbf 0b47 650d 7756 f4bf
000001f0: b311 1d1b 7458 fabf b2e2 e086 edd0 ffbf
00000200: bd55 328c 895c 06c0 e3b0 65b2 5a4a fcbf
00000210: 369e 03a6 31f6 f4bf 7d91 1d88 5d3c f9bf
00000220: 61c1 7c9e 6225 01c0 86bc 642c fb0d ffbf
00000230: 20de feca fef6 f6bf 559a 818a 099e 01c0
00000240: 722a d46a af42 f2bf 4139 b540 686f 03c0
00000250: 6f49 dd46 fffd 04c0 124c 211e f457 00c0
00000260: 643b 6526 431f e3bf 4866 7c7e cb1e f1bf
00000270: b64f 891d 0338 fabf ac77 7f47 de22 febf
00000280: c733 1ee0 8f35 04c0 605a 4900 9c6e 03c0
00000290: b468 89c6 01fb f1bf fdf2 4077 ad15 fcbf
000002a0: 64ea 5af3 5bed 03c0 d624 7826 489b fdbf
000002b0: cc42 53e6 10fe 01c0 7406 da67 663e 01c0
000002c0: 11c0 3080 d186 fbbf e2c8 160b e636 ecbf
000002d0: 4411 6341 05fc f9bf 9393 bdae 0a8a 04c0
000002e0: 1156 9a32 6513 05c0 b98d f105 3062 00c0
000002f0: 1350 2604 8b52 00c0 d3fe 93ae bf8a ffbf
00000300: 4448 5e98 6bde f6bf 2667 2e04 585b f4bf
00000310: eddb dcd5 21f2 f2bf 4c71 e57c 7b0b 02c0
00000320: 29ab ed00 62d8 fcbf 2d7c 3c27 e00d 05c0
00000330: 1da2 5cf0 e839 fbbf 30bf f5d6 0358 ed3f
00000340: f733 a276 0313 ffbf 38c2 6f27 34b7 d4bf
00000350: 277d 2a75 cf8a f8bf 9788 6afc 6f21 ed3f
00000360: df3a df87 43b5 02c0 f219 62ee 33a8 f5bf
00000370: a06f 271c 7710 fbbf 9e69 8237 110f 02c0
00000380: 06c9 d186 ec71 f9bf efa9 3524 3b2c f9bf
00000390: af8b c708 873a fdbf 951d 5338 d034 fcbf
000003a0: 611f 2511 f8f1 02c0 055b fd0d 81f0 0cc0
000003b0: d888 852d cdb1 ebbf f5a2 391a 3cd3 fcbf
000003c0: 0eaf 43fc ffa5 04c0 9d78 4568 8719 f9bf
000003d0: 3c03 f8fd cacb f2bf 55dc 5126 3020 eabf
000003e0: 6549 8e9e 6c48 01c0 8ab3 6437 056c 00c0
000003f0: 4dc5 33d9 d648 00c0 782e d175 f6bb f7bf
00000400: 7507 1e4a 7830 01c0 1492 5816 b03e fdbf
00000410: 315c 4f56 c253 f8bf 5fd0 1c70 02e6 00c0
00000420: 5b15 2e1f 884c 01c0 6595 a17b d8f1 00c0
00000430: 5667 e2ad fdd3 00c0 be96 9d89 9ca0 f7bf
00000440: 5977 f398 b76b 01c0 dd84 f103 cc6b fdbf
00000450: a0f3 1c0a bd60 01c0 eeef 75b6 a5cd eebf
00000460: 84b5 7d70 ec51 00c0 7313 59f6 4cd9 01c0
00000470: 7936 5dda 6da0 00c0 a8df ccc0 c588 fdbf
00000480: f07b 4d51 bcf4 fabf 6af7 7676 3e5b fbbf
00000490: 10f8 eeda 95bd fabf f88b 1d0b 5d4e 02c0
000004a0: a100 ac3c db9e fbbf 7cfe 5dfb 2297 f9bf
000004b0: a268 6d37 5716 f4bf 0356 58f1 8526 01c0
000004c0: 3447 20d8 ce7c 03c0 b9ff d733 b8d4 04c0
000004d0: 4828 cae3 42e6 f5bf 6d3e a116 a622 06c0
000004e0: 6f1c c272 1aab f6bf b252 2fd2 1fce fbbf
000004f0: c34d 8d9f ba1c f4bf cc64 b117 ffde fcbf
00000500: 20d6 bb6f 7d87 00c0 086d b32a 7099 f3bf
00000510: 77ea d09e eb91 03c0 278e 33ec b3b3 febf
00000520: 3944 d484 b094 fbbf f22c f402 bcdd f9bf
00000530: 355a 6c3e c21d fcbf 785b 4430 3b00 07c0
00000540: 9731 0a35 baf5 e0bf 1c68 8a45 3561 01c0
00000550: 900b a0a8 e43e 02c0 0d4c 7a42 e652 f3bf
00000560: 99c7 d7e9 ae8a 03c0 aff9 3935 0f11 fcbf
00000570: 805b 5aad 423f 03c0 aa97 0036 d996 f9bf
00000580: 157c 4828 d961 fabf 3731 c398 1769 02c0
00000590: 85c1 18df 1d7f 01c0 6766 e2b8 1bea 02c0
000005a0: 168b fc49 5b76 cd3f 8bb7 a71b a100 cfbf
000005b0: a299 9fe0 0a88 ff3f 70ff a0f2 c51e 04c0
000005c0: dec0 45e4 c2db fdbf a58f c328 281a 03c0
000005d0: b28d ee4d a57a 05c0 ffa1 3831 0ddf fcbf
000005e0: 261d 24bc 0f94 ffbf f8d7 558e 93cc 07c0
000005f0: 6c10 4f25 ec1a 03c0 5a92 5521 901c f5bf
00000600: cbfb 53d0 bc24 00c0 c301 62a8 5ddc edbf
00000610: 8cda ff53 aa86 febf ddce 948f e819 02c0
00000620: 4fc1 7da4 0400 05c0 40ab 3e74 a833 fbbf
00000630: 4bb5 fd0a f401 03c0 cde3 f8d9 2ac6 fabf
