models/torch/extended_NH3_net.pt (torch, 660159 bytes, 12 tensors)

mean_in f8 [5]
0	0x4085f23244664060	702.2745445240398
1	0x40667e760a4fc254	179.95190921380947
2	0x3fd55a5a794393cd	0.3336397346704956
3	0x3fd54f6b13075275	0.3329723058534804
4	0x3fd5563a73b519be	0.33338795947602395

std_in f8 [5]
0	0x40657936af5130b0	171.7879253946062
1	0x40588d9d45362e41	98.2127240208729
2	0x3fce2b2ef81264f4	0.2356928550041527
3	0x3fce25729d118bb7	0.23551781339037145
4	0x3fce29073f96df22	0.23562708477924682

mean_out f8 [2]
0	0x3fd9709258180e7a	0.3974958286564526
1	0x3fd0737b3e7fdee6	0.25704842666117

std_out f8 [2]
0	0x3fcff631e96a95ff	0.2497007741668966
1	0x3fce5c6fc276b0a3	0.2371959399728257

linear_afunc_stack.0.weight f8 [200, 5]
0	0x3fe3710a81af8b6a	0.6075489552425613
1	0xbff98d51992a52c8	-1.5970016463299306
2	0x3fcc5b7db8e0c4db	0.22154208686109808
3	0x3fe88de4d1a17c1e	0.7673210234023633
4	0x3fc6c17049228fbb	0.17777827807469557
5	0xbfc18ab9a94dd246	-0.13704605833813072
6	0xbfb66de17f299a7f	-0.08761414866021687
7	0x3fc8b565c60d381b	0.19303581400385003
8	0x3fd896152fa95972	0.38416032461591165
9	0x3f96294113797ef6	0.02164174729693876
10	0xbfbd47ff3d10d818	-0.11437983742584412
11	0x3f8a80a3b39c903f	0.012940672797022155
12	0x3fe5fd4a669bcaef	0.6871692661355534
13	0xbff5b940d34e8ca0	-1.357727837960546
14	0xbfe24bad78eef738	-0.5717379915219913
15	0x3fe064e882b94ee2	0.5123179009628667
16	0x3fb1b4f8f32cb873	0.06916767060167377
17	0x3fe2b07b10f6f0d6	0.5840430575695119
18	0xbfc3aa550591c08d	-0.15363562366428987
19	0x3fcb5d43bcd674aa	0.2137837097224396
20	0xbfb97a31aaa04dad	-0.09952078262022353
21	0x3fab1eaf22cd6f4e	0.05296847629389721
22	0x3fdc6e270b516b10	0.444223176052831
23	0xbfd23aaf18af3ae5	-0.2848317853030678
24	0x3fcf2da7d7bdcd23	0.24358079942940333
25	0x3fd636be24d1189f	0.34709123225582944
26	0xbfe23a4850dd898f	-0.5696145610238988
27	0x3fcc2604894782ba	0.21991020873158168
28	0x3fd5a123b2710a13	0.3379601709931716
29	0x3fd9caa7eda717ef	0.4029941387965427
30	0x3fe3efe968539f11	0.6230361020688823
31	0xbff122e932c168e1	-1.071023176444719
32	0x3fd66d97c2128d12	0.35043901398076216
33	0xbfc546f3c48c233c	-0.16622778985063202
34	0x3fd4d55e8ac61c10	0.32552302887091944
35	0xbff523428930bc37	-1.3211083754538444
36	0xbfe90d0e0cdf1260	-0.7828436137575174
37	0x3fb7a2ab029763a8	0.09232586682573063
38	0x3fd0929bae691afb	0.2589482501247599
39	0x3fba3ebaf5201bb9	0.10251968845851324
40	0xbfc9809aa5474a10	-0.19923718519437772
41	0xbfe313863b86f2ac	-0.5961333429946385
42	0x3fdf623bd9e14a80	0.4903707149252696
43	0x3fda646a4d8ed83d	0.41237886022588893
44	0x3fdb71eb3f74106c	0.4288280601179
45	0x3fd39edebc89a246	0.3065716592014137
46	0x3fe50b2cd0a38b08	0.6576141428925846
47	0x3fb7563797d0ec18	0.09115931946227851
48	0x3ff32e975800af88	1.1988748014073014
49	0xbfe0a978f5a3be0d	-0.5206875608109286
50	0xbfa64872b3158cea	-0.04352148471914481
51	0x3f47471ccdc6b09d	0.0007103815692537544
52	0xbfb5a5c5b20fc0c1	-0.08456073376851504
53	0x3fd0cc94971778c1	0.2624865985398053
54	0x3fc4e5d81a5ab038	0.1632642868693226
55	0x3fafec8c4f05e52e	0.06235159363400054
56	0x3fade71e5858f090	0.05840391949138379
57	0x3fdb107dc08c3a77	0.4228815441464699
58	0x3fde93cdf71925fe	0.4777712739056311
59	0xbf3d6301d929e2f3	-0.0004484061729850684
60	0xbfdd98f0b95e1519	-0.4624597368459305
61	0xbfdd005cae70753d	-0.453147096968525
62	0x3fa18e86e0a0c935	0.03429051868478653
63	0x3ff0c89729871743	1.0489722845245104
64	0xbfb32b684bd61d79	-0.07488109446977899
65	0x3fd179cadb5b2230	0.27305861875041426
66	0xbfa14cdf6b08da54	-0.0337896173627327
67	0xbfd6d87ffb9f9ee5	-0.3569641072522088
68	0x3f960bf88ba22033	0.02153004028562595
69	0x3fc0fd638d742021	0.1327328148547631
70	0x3f9bc11facf7be8d	0.027103896076310852
71	0x3f44945b690ee5d4	0.000628037103630403
72	0x3fe8f47f1d0be7e8	0.7798457686724278
73	0xbff43f631b1ae3aa	-1.2654753741064533
74	0x3fdd414f368ff6b7	0.45711117103915505
75	0x3fd08ff5d56c84be	0.25878663866212637
76	0x3fb846e60c78bba1	0.09483182720644702
77	0x3fd668c588ef93b0	0.35014475224152886
78	0x3fd168d552c99ad9	0.272023516509234
79	0x3fe02813f3c71e1a	0.5048923264775482
80	0x3fddd93d7f4db610	0.4663842910002538
81	0x3fb2bdef49ceb692	0.07321067382755533
82	0x3fe38a4ea0762226	0.6106331953060973
83	0x3fdebb68dc3ea482	0.48018857486983546
84	0x3fec8b1e92e49f08	0.8919823521618762
85	0x3fd2112da2f2d9ee	0.2822984782500545
86	0xbfd9f5cb3410372b	-0.40562706074057314
87	0x3fd52af43592da10	0.330746700590141
88	0x3fde939d4993cf76	0.477759668209948
89	0x3fdfc5b6e92ab606	0.4964425351161882
90	0xbfbabadb50c721ca	-0.10441370699039179
91	0xbf9e864ccda85923	-0.029809188892692916
92	0x3fbee0d4a9a7d817	0.12061814443572448
93	0x3fc9f7eb26e33bdc	0.20287837408838427
94	0x3fbf9873a01179bd	0.12341997774044607
95	0x3fd18026b115c96d	0.27344672482936155
96	0xbfe39170ff65c88e	-0.6115040767893036
97	0x3fe513f283420233	0.6586849750165754
98	0xbfe2d45edb80c2c4	-0.5884241377990169
99	0x3fe15e0262de4471	0.5427257472057488
100	0xbff0b395381fbc10	-1.0438434784262007
101	0x3fb9a1388d6951d9	0.1001162858240784
102	0x3fefb70829ee50e4	0.9910927599871937
103	0xbfee6109371d9977	-0.9493452145077715
104	0x3fdbb5bb4d033af4	0.43296701927913195
105	0x3fd950217405e3ee	0.395515788367958
106	0xbfbac38f51fe276a	-0.1045465064218242
107	0x3fc7d581e2bd183a	0.18620322772238912
108	0xbfcc423bf2c866cd	-0.22077130655889335
109	0x3fdb1747fc4970de	0.4232959712733314
110	0x3fdf2f45a9f183ec	0.48726026149785073
111	0xbfe008d9a08ede54	-0.5010803352260589
112	0x3fd96b843c056c54	0.3971872888702752
113	0x3fd7f6d32a20c7d5	0.37443999399249367
114	0x3fc2f79d06ae4d2e	0.14818156076635475
115	0xbfd533d2d6a0f9d6	-0.3312880607590193
116	0x3f9b77b21f697dc1	0.026823790709725296
117	0x3fd111d27260b570	0.2667127720804592
118	0x3fd6d1f9c48bb0de	0.3565658969298634
119	0x3fd265eb6e575b0a	0.28747068191062
120	0x3fe118bf886b87fa	0.5342710174993492
121	0xbfe3f224cfe0683c	-0.6233085689630182
122	0x3fd08170421435ad	0.25790029957792165
123	0x3fb593ec23baa1ff	0.08428836700716856
124	0x3fc555e31399e2b1	0.1666835637768336
125	0xbfca8b10e36cfb25	-0.20736895661135538
126	0xbfb3b80b1f321d96	-0.07702703010192233
127	0x3fe5380c4257817a	0.6630917831171665
128	0xbfe394266edbc124	-0.6118347325519022
129	0xbfb98faf3b71a4fd	-0.09984870148914023
130	0xbfd1b8fb6abeb89b	-0.2769154112273868
131	0xbfc454223bef15b2	-0.1588175575872533
132	0x3fd0f0bd64094a3d	0.26469359177750446
133	0x3fd5778d6505a6c5	0.3354218946975432
134	0x3fa5a818645f69d7	0.042298090221908495
135	0x3fe6ed98dd7275e7	0.716503555787935
136	0xbff3257ba440f0e5	-1.1966511169585428
137	0xbfd2f1b5498e5983	-0.29600269492348036
138	0xbf22b67043a52fbe	-0.00014276619351460783
139	0xbfd0b1388df5f684	-0.2608167063079707
140	0x3fec9590524725a0	0.8932572943678458
141	0x3fe64295b119a60a	0.6956280192363817
142	0xbfc2414962e641af	-0.14261739090990264
143	0xbfdc87eb25cde739	-0.44579580966784565
144	0xbfaa01f999aac3a7	-0.050796318062004624
145	0x3febd9ce29cab079	0.8703375641103
146	0xbfdf3fafa0e534a2	-0.4882620879405498
147	0x3fb64c7ba8ce1bf4	0.08710453864306072
148	0x3fddebf5055e1da7	0.46752667926963415
149	0x3fb7b177cada935b	0.09255169584737415
150	0x3ff05e563191d85f	1.0230314194027625
151	0xbff1389e835d9396	-1.0763230449167387
152	0x3fb20a51671e8539	0.07046993987616625
153	0xbfd2e2389409f3ad	-0.2950574346248754
154	0xbfaee2b6cec1368c	-0.06032344125615649
155	0x3fef2e20be795b26	0.9743808479496223
156	0x3fb4a34a6285cf1e	0.08061661630000258
157	0x3f72e49528a68b21	0.004612524653938605
158	0x3fbdca938755863a	0.1163723187833278
159	0x3fda6385c10ebdbe	0.4123243699386555
160	0xbfc667ea80381236	-0.17504626522726746
161	0x3fcfe34ed1aaf379	0.24912438619312718
162	0x3fd0b7f294d39cfe	0.26122726949547814
163	0x3fb8a37a3e5c4943	0.0962444689032838
164	0x3fd3bc06d38fe0e9	0.308351236918965
165	0x3fbeb6a4ef993581	0.11997443055698477
166	0xbfd25b9527396bda	-0.286839760117514
167	0x3fa9f50a16375305	0.050697627269675784
168	0x3fdc113f81476f31	0.43855273842722214
169	0x3fc00a71de19b22f	0.12531874985451583
170	0x3fb6be9c833f44a8	0.08884599880481636
171	0xbfb05d82658d1380	-0.06392683963083634
172	0x3fd2ef9fa9c41622	0.29587546900470063
173	0xbfceaf330b7aea99	-0.23972166119149987
174	0x3fe1d3a1614fe851	0.5570837879779537
175	0x3fc0ddc1d3d54e0a	0.13176749080103917
176	0xc002f69c7e7daa72	-2.37041567631723
177	0x3fc1d38cf2607198	0.13926851115037375
178	0x3fb0f77e64d63941	0.06627645456157884
179	0x3fbb920c0f92310b	0.10769725208428242
180	0x3fc134bea7c9a239	0.13442214195971916
181	0xbff8ec822be96990	-1.5577413287452124
182	0x3fc3e67ee5deadeb	0.1554716703807196
183	0x3fe8c04870a7c630	0.7734720421123651
184	0x3fb21fc94b4256e2	0.07079752051717095
185	0xbfc0fa2227eb206e	-0.13263346623557787
186	0xbfb42b0a26e04d54	-0.07878173302770125
187	0xbfbb3140b92b5175	-0.10622028847439487
188	0x3fda870643afb803	0.41449123964309836
189	0x3fca3860f7f60dda	0.20484554393270465
190	0x3ff20dfaecd97159	1.1284131290368207
191	0xbfc4a22a92032b09	-0.16119892243872183
192	0xbfa8ac22e2ed5646	-0.04818829555612729
193	0x3fe4eb5e0b1fb473	0.6537313668501511
194	0xbfcf68299cbb690b	-0.2453662886899298
195	0xbfc5eb5067fb4991	-0.17124371602274072
196	0x3f77923c56ae031c	0.005754695603969375
197	0x3fd378265369ae90	0.304208356340248
198	0x3fd6f276649f0e7c	0.3585487349157359
199	0xbfa9bc9d474f539a	-0.050267138438051265
200	0xbf8752592d176e45	-0.011387535751899889
201	0xbfbe9570c2dcee2c	-0.1194677806606072
202	0xbfc9dc89045364ed	-0.20204270087450685
203	0x3fc6ac44e68a0bcb	0.17713223702238987
204	0x3fb9a2baba4ec59c	0.10013930367019558
205	0x3fb5bad421e292eb	0.08488202883979638
206	0x3fe191367eec380f	0.548976180931051
207	0x3fc12f2b5d5554f8	0.13425199563304324
208	0x3fb4103b09f29809	0.0783726596151554
209	0xbfb3e8a3361b6e9a	-0.07776851721740244
210	0x3fdede4db468e123	0.48231833093770343
211	0xbff9a4a1e0914e77	-1.6026934406444562
212	0xbfb87a6f7e3f2c74	-0.09561821777531226
213	0x3fd2ba37f7fe3445	0.2926158830458159
214	0xbfaaa20f60d87e24	-0.05201767022321871
215	0x3fe00fcd9e2a901f	0.5019291009125516
216	0x3fb6b7fedf3e29ad	0.08874504995598072
217	0x3fe57038cf4e6639	0.6699489640188353
218	0xbfdb1ac187ee84ef	-0.42350805544454223
219	0x3fe5a4bc4b90bad3	0.6763593173871761
220	0x3ff3d265eac9815f	1.2388667270061757
221	0x3fc0769840bfeacc	0.12861922418217941
222	0x3fdf739c514d764e	0.49143131198602397
223	0xbfce302599e29d3d	-0.2358443261520992
224	0x3fe375de34c7616d	0.6081381827198534
225	0xbfdd1549e60cf2ce	-0.4544243570888228
226	0xbfbf3ce5e5982b02	-0.12202298026401695
227	0x3fe675872523f2ab	0.7018466687582835
228	0x3fe474817b8b4930	0.6392218983621998
229	0x3fe1f3ee63106ab4	0.5610267577024701
230	0xbfdb8934d62e2712	-0.4302494136432965
231	0xbfbd888127dd2706	-0.1153641435932081
232	0x3fc85938c66f2578	0.19022283257644879
233	0x3fcf859c42adbac6	0.24626496558945216
234	0x3fcca4e815b54c63	0.22378254947634266
235	0x3fd71d5d4d29752a	0.3611672643217668
236	0xc0012170bf9aa42c	-2.141328331858423
237	0xbfc30ad655b5025c	-0.14876822647967713
238	0x3fc562e5d5c9e8aa	0.16708062113668137
239	0xbfb471142399b3f9	-0.07985044354582262
240	0xbfc7661f8dc0781f	-0.18280405446506706
241	0x3fde187e36933b78	0.4702449353180138
242	0x3fdd3ad12843f885	0.45671490604571147
243	0x3fe565a2ec9dca46	0.6686567899144584
244	0x3fddb3175348eb91	0.4640558541611251
245	0x3fc9cd83ce15a6fa	0.20158431589816656
246	0xbfe0bec7ac666cae	-0.5232885710896846
247	0xbfca528bf2c97ed2	-0.20564412455404707
248	0x3fe949befe3aeee4	0.7902522054132217
249	0x3fc3fb54fcaab91a	0.1561075433468851
250	0x3fb6bff9d53af616	0.08886681991403864
251	0xbfd4d6651c94a05b	-0.325585630331721
252	0xbfb54e1f7f4d24bb	-0.08322331293051637
253	0x3fabb7f277464024	0.05413778024660612
254	0xbfb0c4f6dcd557a1	-0.06550543681564004
255	0xbfb361095b5c273d	-0.07569941025226697

linear_afunc_stack.0.bias f8 [200]
0	0xc010ceec5cc216f0	-4.202073525759019
1	0xbff6428b921bec61	-1.3912463862787023
2	0xc0166d81ad999664	-5.606939995288119
3	0xbff10bd0fd82bbec	-1.0653848555336891
4	0xbfe84df25c152209	-0.7595149801719013
5	0xbff6222285111a2a	-1.3833337018892373
6	0xc00d76be74379f10	-3.6829804496263776
7	0xc0143949fbc68150	-5.055946287146369
8	0xbff6203c1b301ca8	-1.3828698217419433
9	0xc019d5f7b87f2d04	-6.458952791940877
10	0xbfd716a73e1e2f9a	-0.3607576471920254
11	0xc015bded63687512	-5.435475877047127
12	0xc0175eca4f220f2b	-5.8425686230219
13	0xc0008a32377a4233	-2.0674785932717668
14	0xc00786f227232929	-2.9408915574650973
15	0xc0132613d310787e	-4.787184999351778
16	0xbff7c44302cd063c	-1.4854154691132768
17	0xbff202199df2d5a4	-1.1255127115121946
18	0xbfc63154b97040ec	-0.17338046125997353
19	0xc0124676831a7da7	-4.568811462871429
20	0xc00b876da0f19db2	-3.441127068875823
21	0xbfea33c5f3433d5b	-0.8188199759696703
22	0xc0092e5e63c492f9	-3.147640971600023
23	0xbfd52d01de73892a	-0.33087202762375745
24	0xbfeb77383d3aaf70	-0.8583031841167053
25	0xc00cfbf2adfebb1b	-3.6230214684832283
26	0xbfde740cf3d021dc	-0.4758331662165156
27	0xc00ba72c6586737b	-3.456627648511526
28	0xc010498c619de025	-4.071824574719391
29	0xc006d8ba2b8cd169	-2.8558238413190122
30	0xc00a60a8350074aa	-3.2971958294643473
31	0xc01107dae2e055f4	-4.257670922224396
32	0xbff7f417fcb3468b	-1.4970931883912353
33	0xbfdb1ca80024d47e	-0.423624038830276
34	0xbffcb6de276d5802	-1.7946454563257253
35	0xc01603bba3306bf1	-5.503645467596457
36	0xc0196fc734c07a35	-6.359158348319899
37	0xbfe268e29e00534d	-0.575303371998055
38	0xc00fe30267c03e68	-3.9858444314520973
39	0xbfd73b9cea6b8814	-0.3630134858377698
40	0xbfe63dbf163dc433	-0.6950374063873198
41	0xc01707d548209413	-5.757649542797497
42	0xc0082526e874bb71	-3.0181406174300993
43	0xc011ae18f661a2b0	-4.420017099103163
44	0xc014e699dbf51dc7	-5.22519630130359
45	0xbff72fabd34abdbd	-1.4491384748069855
46	0xbff5591f6c79e1c4	-1.3342584836337759
47	0xc00637808e941ab7	-2.777100671667849
48	0xbfef48b59ff08102	-0.9776256679361099
49	0xbff4f083f28301b9	-1.3087195847621003
50	0xbfee609640d357b3	-0.9492903963207396
51	0xbfe90c37b7a9cb7b	-0.7827414118931836
52	0xc009da4d5386d954	-3.2315928006675367
53	0xbfec869f2d7c1158	-0.8914333237048977
54	0xc012d7264151f2c4	-4.71010686934159
55	0xbff4315944334dd8	-1.262048021705473
56	0xc020ff5ca678a3c0	-8.498753740526695
57	0xbff16669b375bc9e	-1.0875031480934818
58	0xbfe5b2dcabfd8f8a	-0.6780837401570221
59	0xc0161c6c1b0d623c	-5.527756140415075
60	0x3ff9c244a9727e64	1.6099287623436789
61	0xbfc39d931950b5cb	-0.15324629531953202
62	0xbfd1cb4ad8592b3a	-0.27803298118367403
63	0xc0103742e5aed89d	-4.05396613006283
64	0xc00fd504da34f159	-3.9790131614119386
65	0xc011e035685052a0	-4.468953733351242
66	0xbf47c4afd107f36a	-0.0007253511885775114
67	0xc011f2aef07a173a	-4.486995465709521
68	0xbfa29be7932e7a4b	-0.03634570762300323
69	0xc019c8626de110a7	-6.445687977659111
70	0xbffb87f2691a526c	-1.7206901650980866
71	0xbfd3584546bfad78	-0.3022626105218573
72	0xc018cf8e44b9e551	-6.202691148611238
73	0xbfd25e3a6d8a14a9	-0.2870012349815832
74	0xc01a3452159e4bfb	-6.551094377314253
75	0xc012214b729f7198	-4.532514372808144
76	0xc010e33095ab7ac8	-4.221865023223195
77	0xc004351bc5db0b92	-2.525931878802518
78	0xc013df9d1297181e	-4.968372621986445
79	0xc006aea34ed0ca5c	-2.8352724225490373
80	0xc001ed95d72dd86b	-2.2410084544053936
81	0xc0154ac95b66a188	-5.323033741129969
82	0xbfef54d7a1f39f76	-0.9791067278974726
83	0xbfec471e9bbc2428	-0.8836815873811519
84	0xc010835013accf48	-4.128235156462161
85	0xc016aa0f83bc0cf4	-5.666074808457086
86	0xc0079ea3b0abfd75	-2.9524606516349032
87	0xc0109450ba38ee80	-4.14483920071109
88	0xbfe25e5efd5020a8	-0.5740199039000986
89	0xbfe752fb0ffb549d	-0.7288794815200564
90	0xc01a6cf4eb928437	-6.606403046434074
91	0xbfe88239f5045f06	-0.7658967767228837
92	0xbfd3266476f6b1c0	-0.2992182885889427
93	0xc010d9c5f7653754	-4.212669244339697
94	0xbfedc3fe71bf29f4	-0.9301750394454857
95	0xbfef8093ed976963	-0.9844455376108211
96	0xbff0d2a11fadc2b2	-1.0514231908274891
97	0xbfe70d866817fe79	-0.7204010041313743
98	0xc0135fbd066bc124	-4.843494510962305
99	0xbfe30e9e6563905c	-0.5955345134975789
100	0xbff1f28ce9678a00	-1.121716415153628
101	0xc0142454cc5cb0e3	-5.03547972980252
102	0xbff4f25cc7ec1bcb	-1.3091705140557106
103	0xc01a86c06d736511	-6.631593427818431
104	0xbff2ca819d5d0a27	-1.1744400164612985
105	0xbfeca755a6a771ed	-0.8954265837633649
106	0xbff49e07d6467952	-1.288581692707869
107	0xc00868bf5425a319	-3.051146180533021
108	0xbfd843b8ebda9642	-0.3791334441433244
109	0xc010c18b87c5ce77	-4.189008828590537
110	0xc0123e2ae072036a	-4.560710436781713
111	0xc00b9f5720bce189	-3.4528029019967943
112	0xc011e52b720c6566	-4.473798543936345
113	0xbfe7a0d6f00fde20	-0.7383837403021438
114	0xc01266d95fdfe206	-4.600438592948654
115	0xbfe1e3321fba6f30	-0.558983861893898
116	0xbff4a8a82122b05c	-1.291175965724526
117	0xbff7a32f28d5ccd1	-1.4773398966906834
118	0xbfebca75c38e971d	-0.8684643573257947
119	0xc003b212350c4397	-2.4619487900130923
120	0xbfd0af0c37a9450b	-0.2606840652052404
121	0xbff16cb77fe4432b	-1.089042186333425
122	0xbff16477f30c802d	-1.0870284551711038
123	0xc014d6ca04b56c37	-5.209755014012493
124	0xbfc142a27963a316	-0.13484602858741174
125	0xbff4b9d4abad9a59	-1.2953688341309741
126	0xbfe49e12fbadc4a2	-0.6442961612321094
127	0xc018ae099e8902fe	-6.169958569633989
128	0xc0109d8b1f2678e2	-4.153851019595296
129	0xbfdeefd3875da83f	-0.48338783473321095
130	0xc019704c1648cd23	-6.359665249055328
131	0x3ffd251742609d75	1.8215553849093713
132	0xc002e3b7c1c811b2	-2.3611903323346377
133	0xc009b4984855eac5	-3.2131810809345063
134	0xbfe53a7013b5a71f	-0.6633835205986748
135	0xbfd350d0fe6f0cfc	-0.30180764052438724
136	0xbfd0e26f55b15643	-0.2638204895823472
137	0xbfd2bec3607addc7	-0.29289326116437703
138	0xbfe959c89c04186e	-0.7922099158465821
139	0xbffeb6f1dc0baeb1	-1.9196642489941207
140	0xc0118ce66c9f11ce	-4.387597748955569
141	0xc012e7e0ed43ae34	-4.726443965202225
142	0xbffcd5ce7f54c75a	-1.8021988843797403
143	0xbfee3accf32d1a88	-0.9446778058562169
144	0x3f75b75bf31618bc	0.005301818063690952
145	0xbffb11407c47e4c2	-1.6917118887634364
146	0xbfdce9dd9f854f37	-0.4517740304774977
147	0xbff342dc7b52ef66	-1.2038235490171814
148	0xc01c363dca6ff1a2	-7.052970088083756
149	0xbffd4676a9fcd2ff	-1.8297030105724728
150	0xbfd72f891b8e0a4c	-0.36227634135153575
151	0xc01384150a9eed24	-4.87898651690492
152	0xc010534a524bacce	-4.08133820139774
153	0xc0030f97f78417ae	-2.38261407253136
154	0xc00e36eb60c60ba7	-3.7768161354483314
155	0xbff82d28824230eb	-1.5110249603486021
156	0xbfdfbf1b062296bb	-0.4960391578591545
157	0xbfed0a448d9e6832	-0.9075033918372866
158	0xbfd844015cc4fb88	-0.3791507154418743
159	0xc01285f00a50812a	-4.630798493541343
160	0xbffb621a998bbf14	-1.71145114878522
161	0xc004535edfa24851	-2.5407083007239994
162	0xc0139d640a54dc1e	-4.903701936177667
163	0xc006d9c0e0ca588a	-2.856324917006593
164	0xbff7a4e8aad2443c	-1.4777609513005379
165	0xc01882280387d643	-6.12710576550086
166	0xbfe2a5d0a9dd3aad	-0.5827411000880908
167	0xc011292a98b4f629	-4.290201555295007
168	0xc0110d7a37ac9b46	-4.263161535177295
169	0xbfe599fd87c5f329	-0.6750476505108952
170	0xc00ece21a9b8ea80	-3.850650144534768
171	0xbff76e6cbd52cb42	-1.4644591708608492
172	0xc00acc6f0e684038	-3.3498211980404697
173	0xbfe252043dc627db	-0.5725117880367593
174	0xc0137090886523ef	-4.8599263488513165
175	0xc015680226c97d25	-5.351570707366851
176	0xbff8c1a9809e21f1	-1.5472807907227628
177	0xc018342b59ce51e5	-6.050946620195167
178	0xc00c111963b788ad	-3.5083492079148386
179	0xbff587acf8f285ff	-1.3456239437585962
180	0xbfe08694048339fd	-0.5164280021797932
181	0xbff466c9327a3dca	-1.2750942203309585
182	0xbff93f42631be90e	-1.5779441710897717
183	0xc00229c676ec40ad	-2.270398072323664
184	0xbfcaaa417b847f42	-0.20832079440241996
185	0xbfc05142b288f377	-0.12747987477805697
186	0xc00f992176ae36ee	-3.9497708579937045
187	0xc017ca8c1e5cbd1b	-5.947800135050126
188	0xc016fc1c91937ad7	-5.746202730776267
189	0xbfe461ef58ddf703	-0.6369549499210908
190	0x3f8d968af0f5bdf0	0.014447293737901185
191	0xc00f908be739e628	-3.945579344229163
192	0xc0180f20fe1c747e	-6.014774294363745
193	0xbff56a816971331d	-1.3385023230395696
194	0xc005a8d469e175cb	-2.7074363967828723
195	0xc011e256f91b967f	-4.471034900959807
196	0xc014b8fefc63cec0	-5.1806601940076575
197	0xbff39a9d20ce4411	-1.225247505328529
198	0xbfe0a5488f7b1459	-0.5201762010916681
199	0xbfed9210be4fffa8	-0.9240802495041764

linear_afunc_stack.2.weight f8 [200, 200]
0	0x3fc698e95abf3b8e	0.17654148989683133
1	0xbfe2b8b735fd536d	-0.5850482992633325
2	0xbfe424568525252d	-0.6294357872476773
3	0xbfb1974c4dab0168	-0.06871487518492858
4	0xbfa29f692c5e8cc6	-0.03637245813958993
5	0xbffac5e356c59211	-1.67331251044482
6	0x3fc39703931ce040	0.15304608042947798
7	0x3ff34e8c93f71f3a	1.2066770343680688
8	0xbfb1431704cd529d	-0.06742996089207982
9	0xbfbabc8c68a2e36c	-0.1044395213565516
10	0x3fe16bb3d0640a48	0.5443972654468974
11	0xbfaccb2ff648c693	-0.05623769647025969
12	0xbff0ea7c0391245b	-1.0572471751531995
13	0xbfe1db99d01af51a	-0.5580567421490372
14	0x3ff5e4f2f5b19e2b	1.3683957669653732
15	0x3fd8887e93a9ca3a	0.3833309595130775
16	0x3fda3f3f99df0004	0.4101103785178568
17	0xbfc126154d1c476e	-0.13397470727118893
18	0x3fd208a65c9b744c	0.2817779449813471
19	0x3fcc454130b8d00e	0.22086348418235996
20	0x3fe89de1cec0b8c7	0.769272712530232
21	0x3fb2b10c7cf4529c	0.07301405001300981
22	0x3fdfd9d3b473dea7	0.4976701032860355
23	0xbfc2c900e23da49b	-0.14675913855470388
24	0x3fc7224e6512e043	0.18073444304696026
25	0xbfc0d4c39a95064b	-0.13149304435687478
26	0xbfcbecc575a1254a	-0.21816318744303437
27	0x3fb12b506fe00402	0.06706717234921203
28	0x3fee19d34ab27ee6	0.940652509587349
29	0x3fd4a4a80383e33e	0.3225498232200613
30	0x3febfcfd9944b8fc	0.8746326440357559
31	0xbfd00a782a00daf1	-0.25063900091065167
32	0x3fcb5e965b5eb998	0.2138240762846635
33	0x3fe678cce0e0a9c3	0.7022461311474263
34	0x3ff02c8086ae6318	1.010864759539066
35	0x3fd96063d590774c	0.3965081773366037
36	0xbfd3c96320d58c7e	-0.30916670042478944
37	0xbfb6a8e9ca8bee0a	-0.08851491160378813
38	0x3ff9d63cabaffa16	1.6148039537944263
39	0x3fc8b2557f1d032e	0.1929423208876186
40	0x3faeda239ae26fe7	0.06025801912002731
41	0x3fde7724ec19d315	0.4760219865486744
42	0xbff01fecb51e266d	-1.0077941012299576
43	0x3fd19f56384a456a	0.2753501462658138
44	0x3fdaea032e500442	0.42053298495017455
45	0x3fc64aae0f69d92f	0.17415405037508822
46	0xbfcf0d1c02140104	-0.242587567343442
47	0xbfd8fb647630cd3d	-0.39034377615026356
48	0x3fc1a9de5c79eb02	0.13799647822801125
49	0xbfb12a6cbeb8787e	-0.06705360084785814
50	0xbf9442676f4797e7	-0.019784561316463025
51	0x3fe25da2f7a480e0	0.5739302479524007
52	0x3ff23f3d441798cc	1.1404392871714206
53	0x3fb89d412b9c8489	0.09614951433879261
54	0x3fcf29fdc8fa3944	0.24346897424079306
55	0x3fb31bcf3c9a9433	0.07464308957658332
56	0x3feeefa18020be29	0.9667518141267851
57	0x3fd426f6242d9718	0.3148780206014279
58	0x3fac09aa3564bcf4	0.0547612371614096
59	0x3feb0b9eb1513421	0.8451684439875217
60	0x3fc7906fbd3a9c9c	0.1840953515977376
61	0x3fcd0e3e0ea2bfc2	0.22699714388499898
62	0xbfd07375736645c5	-0.2570470454166663
63	0x3fe4c0df02423be0	0.6485438388934845
64	0xbff3c972a65f39e1	-1.2366816042809818
65	0xbfa94762b549e0c9	-0.04937275374408185
66	0xbfc0d3a0c19bd040	-0.13145837262675464
67	0x3fd261dfe1eb2741	0.2872237879024518
68	0xc00ab534e46bc0cd	-3.338479790247311
69	0x3fe2dbb530537546	0.5893197959773395
70	0x3fa542361297a22c	0.041520776528902154
71	0x3fea32873e901be4	0.8186680051738873
72	0x3fc2f3adef4cfa15	0.14806150612453509
73	0xbfc927f276646f64	-0.1965315893256686
74	0x3fe745550b596796	0.7272134038605482
75	0x3fd12d9f8ec71722	0.26840962355741926
76	0x3fd355c329433edc	0.30210951833303823
77	0xbfd925d05ff00024	-0.3929329811944646
78	0x3f9d2ff1d1d3838e	0.028503206664825913
79	0x3ff74d7876c679ef	1.4564137115154343
80	0x3fd141d0d9bc8492	0.26964207900352577
81	0xbffd891949be16b3	-1.8459713821952561
82	0xbfab157c3ebff557	-0.05289829507817483
83	0x3fe33eca6a32de1f	0.6014148782914538
84	0x3ff47c736d2a9724	1.280383516722801
85	0x3fe578bd1f02f194	0.670988617486318
86	0xbfe16eac6de3c93b	-0.5447599550518939
87	0x3ff6ac22607a81e6	1.417024971837344
88	0x3fd3c30182c41426	0.308777215672594
89	0xbfd77b173bec6814	-0.3668878636541433
90	0x3ffb9c86e3057ecb	1.725714575579263
91	0xbfb7ca445c197019	-0.09293009995002456
92	0xbfc95b2e4ee6fb28	-0.19809511997842688
93	0x3fd5c30149377dc2	0.340027162075753
94	0x3fcd6b7d5106c809	0.2298428197514684
95	0xbfd78694326a6424	-0.3675890438403846
96	0x3fcee6bba277f728	0.24141641076124043
97	0x3fe6055c7b56a148	0.6881544503167243
98	0x3fd80579ee2992e6	0.37533424623533873
99	0x3fe495e4850cbbab	0.6432974432590205
100	0xbfbd5a37cdf94cb8	-0.11465786722810634
101	0x3febc8ad9c39e30b	0.868246846322195
102	0x4001a3a122057d10	2.20489718035936
103	0x400106f8a422f759	2.128403932873806
104	0xbff02cb9a73901af	-1.0109192402015699
105	0xbfcbd48e2b42b78e	-0.2174241744264091
106	0x3fa9686b007dd41a	0.04962477093696567
107	0xbff9e1d332f50e13	-1.617633055736296
108	0xbfd9fbd7cebfe188	-0.40599627676376615
109	0xbfd93852b70a0b0e	-0.39406268954205437
110	0xbfa7281b6dd704e7	-0.045227868231003936
111	0x3fee8b282b4f7661	0.9544869275957347
112	0x3fc5fcfbdcb0c329	0.17178295398618929
113	0xbfe62d66a2009fc8	-0.6930421032056922
114	0x3fd03a7e2e555f99	0.25357012295489195
115	0x3fd7c25d8b0042a3	0.3712381226951413
116	0x3fad86e336d81c5e	0.057669735379072704
117	0xbfc37c21e94a0510	-0.1522257222277763
118	0x3fb83332c32a2a2b	0.09453122391475037
119	0xbfa80e45d89e53bb	-0.04698389310139058
120	0x3fe90aec072eb123	0.7825832500725806
121	0x3fd1502e97820fb0	0.2705189208575076
122	0x3f91b57ea4e3b3f2	0.017293909849218587
123	0x3ff061bce1a3f4f3	1.0238617719726875
124	0x3fe2d6957250d354	0.5886943085412022
125	0x3fdddab456b75c0e	0.466473660167538
126	0x3f7139771c2f3632	0.004205193780717974
127	0x3ffda4affd14376c	1.8527068982980053
128	0x3fe6599ade41e523	0.6984381047215361
129	0x3fda9e8093ffc39e	0.41592421010050795
130	0x3f9c8913eb6da53f	0.02786666035118412
131	0xc007146e966762ec	-2.8849765539456396
132	0x3ffb5930fc781451	1.7092752325127274
133	0x3fce7265abec92b9	0.23786612410289878
134	0x3fc751a7560fa6bd	0.18217937185482028
135	0x3fd76c3c752eb7f8	0.3659812111244487
136	0x3f86aa3929a00176	0.011066862662119741
137	0x3fd43da0df4eb194	0.3162614994751263
138	0xbf9d73c561248394	-0.02876194386874749
139	0x3fee7bb2ffba2182	0.9526000017804537
140	0xbfa617db163f51e7	-0.043150755372753306
141	0x3fe48160c2e350c9	0.6407932096867849
142	0x3fde0ad374ca4322	0.4694107666519348
143	0x3fccb7103f2ca1c5	0.2243366535633539
144	0x3fe6aa8b43e99a43	0.7083183599868977
145	0xbfd8f8d9c2535b42	-0.3901886365614936
146	0x3fccf99b3dce8423	0.2263673831739946
147	0xbfd5abe1968e36c2	-0.3386157961148052
148	0xbfd758efd56488db	-0.3648032745278564
149	0xbfd4f36c10b6301a	-0.32735730773924987
150	0x3feb53e9b788c678	0.8539932808545947
151	0x3fd4b6c6b15ada1a	0.3236557704907753
152	0x3fedd1310d486f37	0.9317860850746688
153	0xbfddf1d782e3c6a9	-0.46788585455133586
154	0xbfd875d067f654ad	-0.3821908011680744
155	0x3fab7d2d02221b36	0.053689390669254086
156	0x3fd1d9024d4d96d0	0.278870177737514
157	0x3fd75453c3b6a31f	0.3645219241393977
158	0x3fcf7ac3c7b56ec0	0.24593398333933258
159	0xbfe6a129ffbcc4bc	-0.7071733469839709
160	0xbfd94894476d7641	-0.39505488372183
161	0xbfa84cf6015b2f32	-0.04746216551356354
162	0x3fcf6b73ce91d2d1	0.24546668611914993
163	0xbfe33de72038f55b	-0.6013064984651167
164	0xbfab4944e302d6a7	-0.05329337378627246
165	0x3fe1e24774d65f05	0.5588719636898253
166	0x3fd4ce9303d9cac0	0.3251082933049183
167	0x3fde01f3053b41b6	0.4688689757431591
168	0x3fc610121770ca34	0.17236543793258507
169	0x3fe59d043e4f8dff	0.6754170624739685
170	0x3fea104beae5f978	0.8144893253191148
171	0xbfa14afb1563c2aa	-0.03377518306831935
172	0x3ff2633af132798f	1.149226133514819
173	0x3fbf368bcb891ade	0.12192605704431567
174	0x3fd884a9846cfe10	0.38309705669596017
175	0x3ff9356a97afc552	1.5755411076791757
176	0x3fc038cbdac940dc	0.12673328574101717
177	0x3ffa0f39ff9df7c3	1.6287174210587956
178	0x3ff40a3424558d88	1.2524911326698618
179	0x3f6c8d1d8ec4a820	0.00348525784479127
180	0x3fc8aa2e62cfd1dd	0.19269351792139747
181	0xbf9cbcd334c3aefd	-0.028064060302241057
182	0x3fb9acb11bc28f62	0.10029131820425399
183	0x3ff35d807592b803	1.2103275864315044
184	0xbfcfe86d2e740e43	-0.24928059356908436
185	0x3feaeb9a44e05543	0.8412600846519712
186	0x3fe7ceb8ec23bd64	0.7439846622564059
187	0x3fd0f9fcfe99b275	0.26525807250326433
188	0x3fe8e96108180dd0	0.7784886510930225
189	0xbfb8af1560159e62	-0.09642156215488165
190	0x3fe4046a902261ea	0.6255390944598365
191	0x3ff32fffc0979f1f	1.199218513787805
192	0x3fe4d4bd5e8f3d7d	0.650969204603754
193	0x3fd973309a705301	0.39765563089285655
194	0x3fd2aebec12bb1ad	0.2919155966217442
195	0x3ffd3b7baefe3298	1.8270222507154923
196	0x3fe6faaf3c224794	0.7181011366358114
197	0xbfc8e81d41254b07	-0.19458356553021636
198	0x3fdf0bade29c8218	0.48508784418120987
199	0xbfbe60c104c86472	-0.11866384856002002
200	0x3fdefed2dfc08a36	0.4843032059745015
201	0xbfb5f818e75e7ca8	-0.08581691406878866
202	0x3fd25e0c3017634d	0.28699021049901746
203	0xbfc5181f776e717e	-0.1647986729775645
204	0x3fbb7b1102ac85f9	0.10734659495621902
205	0xbfeec854d0061265	-0.9619545042956587
206	0xbfc7b475f3405086	-0.18519472482205773
207	0xbfe8c2a1f506d456	-0.773758867805223
208	0xbfc4317f1d27aa3c	-0.15776051448422546
209	0x3fc1c8ad03ea4e95	0.13893664065527803
210	0x3fa1be4ddc40a0a4	0.03465503038052134
211	0x3fe3795ca13cb530	0.6085646771586308
212	0xbfdc98f2e4f5c49a	-0.4468352542817883
213	0xbfe86517190801ba	-0.7623401154415241
214	0x3ff46c2509cb13f9	1.2764025099324938
215	0x3fd18948e21f18cc	0.2740041931359769
216	0xbfb20fb0e0c01dd2	-0.07055192458221107
217	0x3f87e04dbed8b27c	0.01165829409281937
218	0x3fc54e435d56a44a	0.16645090158025005
219	0x3fd8903e59c9a93d	0.3838039280732522
220	0x3fe966829e69bb60	0.793763455772801
221	0xbfabb00bbf1f5885	-0.054077498512627144
222	0x3fdcb2da9fa231bd	0.4484163817330929
223	0xbfc7f3f4a99ef9e7	-0.18713243753695893
224	0x3fc500ecd18ab2c8	0.1640907309678339
225	0x3fd22c4dda674168	0.2839541085095534
226	0xbfc1dd2736696905	-0.1395615592653671
227	0x3ff6e884ca58e2ae	1.4317672638118597
228	0x3fddb3dc5756532b	0.4641028263952644
229	0xbfdfd6dd089a6455	-0.4974892219557366
230	0x3fd539d4f3df08c9	0.3316547757677993
231	0x3fd89f2b9f57f3cf	0.3847149902429096
232	0xbfb1d28f030633e4	-0.06961911987146113
233	0xbfc6e4b42ea260c7	-0.17885448720040228
234	0xbfc6f205229979f3	-0.1792608660643534
235	0x3fd8bd068199f544	0.3865371957434329
236	0xbfca55624271ab71	-0.2057307075914099
237	0xbfcbf2f9943d921b	-0.21835250604921516
238	0x3fd12b5ff3a7890b	0.26827238840464024
239	0x3fc4aa2df421d8ea	0.1614434663822018
240	0x3fc92a9e6558e477	0.19661312054248345
241	0x3fd371fe6debaae6	0.30383263334685606
242	0x3fe8bfc0b5f285b0	0.7734073213252284
243	0xbfb928928a8b0300	-0.09827533609769645
244	0x3fb364560c89896a	0.07574975782475737
245	0xbfb6750e4737a5b5	-0.08772362936692597
246	0x3fd434f0e888233a	0.3157312651460874
247	0xbffa96a8e8d28737	-1.6617821783660938
248	0xbfb88ce4ce4862fa	-0.09589986835670664
249	0x3fb7ee8c0c4ee65d	0.09348368931287028
250	0xbfb57def55a1a69b	-0.08395286408053908
251	0xbfcebdca7b40479a	-0.24016695993537668
252	0x3fed21cf46f4c4bc	0.9103771577703337
253	0xbfc55ee5781fe109	-0.16695850720839925
254	0x3fc6251703756b80	0.17300689381485412
255	0x3f50ac85447980c4	0.0010176946106171128

linear_afunc_stack.2.bias f8 [200]
0	0xc008fdf31c6294a8	-3.123998853453106
1	0xc0076af759c10651	-2.927229596331735
2	0xc006bb8cdf8ae17b	-2.8415772880800296
3	0xc0063d5f54e96f1c	-2.7799669870127115
4	0xc00742c05b9c2ee5	-2.907593455985863
5	0xc00a0a7db503cbb5	-3.25512257974466
6	0xc005ce8bc5fabbde	-2.725852534021654
7	0xc002957f4dbb76cb	-2.3229967186769946
8	0xc0057340bac24a77	-2.6812758055251
9	0xc009908737ccd896	-3.195570407809167
10	0xc0056edd5720453f	-2.6791331106875584
11	0xc005b73213a9a4e4	-2.714450982679965
12	0xc006fb264094274a	-2.8726315541470386
13	0xc00720400847c94a	-2.8907471320064007
14	0xc00a03d509249e84	-3.2518711771297735
15	0x3ff1bdc27d17f967	1.108828056952541
16	0xc002879b0cb00807	-2.31621370231824
17	0xbfb1ce5d91f55e20	-0.06955513776244304
18	0xc004a8ceef453d93	-2.5824259465222865
19	0xc0056bc7aade2582	-2.6776269291919457
20	0xc00be7e5efe60a74	-3.488231538970746
21	0xc0067abf57a83b45	-2.809935269185561
22	0x3fbf0ad9b052ce22	0.12125931315204544
23	0xc008262a9819953d	-3.018635929375391
24	0xc00b811d86eca110	-3.4380445996249662
25	0xc000fdcde1e4b0e0	-2.1239278457561426
26	0xc00bd60d750f3b02	-3.4795178551934223
27	0xc005c6c9976b662d	-2.7220641927385913
28	0xc003a7909dc2ec94	-2.4568188023673176
29	0xc00817b9f058a96a	-3.011585118966811
30	0xc00ad2cd0870bdd9	-3.3529301318555835
31	0xc00319bc5c180e97	-2.3875662989465343
32	0xbffdd8283a313941	-1.865272738755792
33	0xc00e0b062bf965a7	-3.755382865475173
34	0xc005832ee195ff0c	-2.68905426253321
35	0xbfde0e5d44379b13	-0.4696267286475841
36	0xbffc0abd0a02c97c	-1.7526216879892607
37	0xc008c1e25a07a305	-3.0946700128155293
38	0xc0015df8e8d8033e	-2.170884913532432
39	0xc003171003631fb9	-2.3862610115647525
40	0xc008a7cc841bcf6f	-3.0819330521571184
41	0xc0076ace15b2c327	-2.92715088798322
42	0xc0094767e97f2218	-3.1598661653445212
43	0xc008062b1c88fbee	-3.0030119160942297
44	0xc002618897eac38f	-2.2976238125342614
45	0xc00108982f4d1311	-2.129196519412638
46	0xc0080e8207f224ff	-3.0070839520236627
47	0xc007028b408198e7	-2.8762421645688963
48	0xc006c5543c307537	-2.8463520719803017
49	0xc00e55bfc80ffa60	-3.7918697004200084
50	0xc007308de133a494	-2.8987081140408666
51	0xc006c310b539c0af	-2.845246711564037
52	0xc00b8ee84757b39f	-3.4447789739264887
53	0xc0096125331e0790	-3.172434234002999
54	0xc00a98a87d50168e	-3.3245401182237577
55	0xc0016f5eb78ab467	-2.1793798770145716
56	0xbfecb55ba83b026d	-0.897138432097632
57	0xbff3fcecbb06628a	-1.2492492013608705
58	0xc00a7828e77afdbe	-3.308671768608945
59	0xc007e6c97139292d	-2.9876889081544022
60	0xc0082bf99c8699ed	-3.021472189767556
61	0xc0090498a4c249b9	-3.12724426954193
62	0xc000bd702725a8d7	-2.092499070965555
63	0xc0053c0480bc9033	-2.6543054635567613
64	0xc0031be4dc807169	-2.388620112104196
65	0xc00b7f2cd64cdd2d	-3.4370972387511274
66	0xc0007952abacbf07	-2.059239712914749
67	0xc002bf97764a09d5	-2.3435506097168664
68	0xbffffe3beaf7964a	-1.9995688608554638
69	0xc01202b80f460a03	-4.502655256891106
70	0xc00808088315b749	-3.0039224854471382
71	0xbffcff9d125e0252	-1.812405654665913
72	0xc002541802f3c5e9	-2.2910614233630793
73	0xc005b0a4b2a6082b	-2.711251636211292
74	0xc001dcaf3b519e95	-2.2327561029704364
75	0xc0036f3d9a06991c	-2.429316714598043
76	0xc0087efd085a49dd	-3.0620060589364884
77	0xc0056cabd9928934	-2.678062152656958
78	0xc009c5ca7bc20eb9	-3.2215776127430584
79	0xc005e874cfd9945c	-2.7385040510439875
80	0xbffedb63393d1483	-1.928561423862704
81	0xc004effbee86f68c	-2.6171797404229604
82	0xbfe059f2de767dfb	-0.5109800667741519
83	0xbfe7c2147ba00789	-0.7424414076378848
84	0xbffe06b099b08381	-1.8766332629677154
85	0xc00ac83e8e995941	-3.347775568060712
86	0xc00bacb1f9db0667	-3.459323837277043
87	0xc000b66edba64df0	-2.0890786323668564
88	0xc003693550faef32	-2.426371224077138
89	0xc00a1a2b87613687	-3.262778337148862
90	0xc002284c5f01d976	-2.2696769163550767
91	0xc007ed0022f46478	-2.990722916682497
92	0xbff1cb44d9b21d44	-1.1121262077084149
93	0xc00012a1c7db6fca	-2.0090976346818694
94	0xc006c92f2b8c875e	-2.8482345011006336
95	0xc009040bcbc5b7e9	-3.126975624057185
96	0xc00b93177a6c38b4	-3.4468221248890476
97	0xc0086f1efb1300df	-3.054258309857786
98	0xc003334442a27ed9	-2.400032539924592
99	0xc00c5a12245df872	-3.5439799157311933
100	0xbff88467a9977c02	-1.5323254227330385
101	0xc006b4f0119b7016	-2.8383485198555816
102	0xc0096c0cedaf3bcd	-3.177759034071164
103	0xc0043bb328914ab4	-2.5291503114070455
104	0xbffd2fda0cb4b62d	-1.8241825577091604
105	0xc00a03efcd038324	-3.251922227544485
106	0xbffef36958945130	-1.9344266376620673
107	0xc00647eea05849b6	-2.785123112387022
108	0x3ff2155156618085	1.1302045225384358
109	0xc007a94df1d83879	-2.957668198977498
110	0xc001e982b34920cc	-2.2390188223545007
111	0xc0051e86a68c2ef0	-2.6399052630930484
112	0xc004ab159ab82713	-2.583537300820248
113	0xc00206cf1fe505c2	-2.2533247463004225
114	0xbff700167ab1ed82	-1.437521437909567
115	0xbffdf36d58c8d8cb	-1.8719304531237408
116	0xc00572e04ac03a3d	-2.6810918655312705
117	0xc005b20037903328	-2.7119144764787
118	0xc00a36a809b06974	-3.2766876942598007
119	0x3fb6764edb22f16d	0.08774273729335898
120	0xc00a659f0ffae489	-3.299619793743265
121	0xc000feb5723c0f2f	-2.124369518716683
122	0xc011dbcae4a211e4	-4.464641163246117
123	0xc009e891972531fd	-3.2385589416719527
124	0xc00784b548c70fcd	-2.9397988973378006
125	0xc002b3f973579785	-2.337878132925598
126	0xc00b80574b37797d	-3.4376664997391218
127	0xc0071e1aa9cc670f	-2.889699293661472
128	0xc0063b8f02f69e7d	-2.7790813666832137
129	0xbff20496d0ce0bff	-1.1261203915062195
130	0xc008fc9fba20574b	-3.123351530181855
131	0xc005349fff606a0e	-2.650695796136694
132	0xc00d492b16bfe7ef	-3.6607267167391835
133	0xc008ce99ca0be318	-3.1008792672040606
134	0xc002ca2f577ac4e1	-2.348723109659304
135	0xc0075733f9607256	-2.9175796015318083
136	0xc007217027e5ceff	-2.891327201557828
137	0xc008c2ca01466623	-3.0951118564232885
138	0xc00277a15450185d	-2.308413180059729
139	0xc007c0f5d49d8c5c	-2.969218884523384
140	0xc00e4682fe3c2b3c	-3.7844295370208823
141	0xc007d644b0b70b5d	-2.979623203836509
142	0xc0057bab3bbb0343	-2.6853851953932533
143	0xbffffeae3a927dfd	-1.9996778762796332
144	0xc00d4cf3a5eb3619	-3.6625740969091223
145	0xc007a001b3b2eae5	-2.953128246209746
146	0xc004e2996d448ed7	-2.610644200949405
147	0xc0047ac98d472c6a	-2.5599547421784807
148	0xbfffbf08f38db18e	-1.9841393960769866
149	0xc006a60ef26b30de	-2.8310831965410292
150	0xc0078ee1225c6ba3	-2.9447653469519124
151	0xc0068474c6ef0ea1	-2.814675859613843
152	0xc00b3a06f4f93f4d	-3.4033335817875128
153	0xc00a008ed3800b42	-3.2502724193049355
154	0xc0011a5329682527	-2.13785393094135
155	0xc0036f1363c46147	-2.4292362016969125
156	0xc00898c0083f64fa	-3.074585022387166
157	0xbff2eca5d4ffa695	-1.1827753372439578
158	0xc0089682e16625b4	-3.073491822175777
159	0xc00336057f32ab60	-2.4013776719415745
160	0xc0045fe308f97d9b	-2.5468197537554267
161	0xc00ce7692f881046	-3.6129935944937044
162	0xc006453863ee08c2	-2.783798962308624
163	0xc0080e7144299cc3	-3.007051975746067
164	0xc00119f73344e427	-2.1376785283469135
165	0xc00a78bd6f50bfcb	-3.3089550682561586
166	0xbff27f128296f153	-1.156023511996939
167	0xbffdce8c43480583	-1.862926733796798
168	0xc00bf060afce21fb	-3.4923719153196067
169	0xc0095aa8872a2327	-3.1692667541250503
170	0xc00a19e2b86aa281	-3.262639466051326
171	0xc0012bf24a7931e3	-2.1464582269893397
172	0xbfeddb7bf0e22491	-0.9330424980882005
173	0xc0077a1f5f9b0511	-2.9346301526244436
174	0xc0057441238a9a88	-2.6817648674653505
175	0xbff8b5359a15d71f	-1.544240571876294
176	0xc0098cba503fb4e6	-3.193714739746258
177	0xc00636a2129e3ac6	-2.7766763166940533
178	0xc00c1e1b64a50332	-3.514700685773641
179	0xc000bff2fc85dbe1	-2.093725178561258
180	0xbffafbced50597d3	-1.686476547352403
181	0xc005b955bfed242c	-2.715495585846403
182	0xc006745761524eae	-2.8068072894328315
183	0xc008c33af91bbdff	-3.0953273259726752
184	0xc010062f1735b633	-4.006039011624625
185	0xc0086b8e5b5bcee3	-3.0525176179306626
186	0xc0073ebb095ebf1d	-2.9056301815070484
187	0xc004c26adb37fe7e	-2.594930374761872
188	0xc009f0a59e5c3cee	-3.2425033924006277
189	0xc00e33b76f1f4ef5	-3.775252216475446
190	0xc00f13e8371ee18b	-3.8847202593135015
191	0xc01145b4b1e69f4e	-4.3180721089373275
192	0xc005556c941377a3	-2.666711003154846
193	0xc006f7a2ddd9ab5d	-2.8709161121418405
194	0xc007025a5d59f898	-2.8761489193994514
195	0xc00484059b3c8476	-2.5644638183444455
196	0xc009dc9b84e9d78e	-3.232718504320423
197	0xc005b9b28f2d2342	-2.7156726060533467
198	0xbffc243a2754ea42	-1.75884452213235
199	0xc008ee44a175a4d3	-3.116341840174394

linear_afunc_stack.4.weight f8 [200, 200]
0	0x3fca77b532dc5cb2	0.20677819236218437
1	0xbf885bff18d8e10f	-0.011894219346786387
2	0xbfb9f62e3227c626	-0.10141266560074111
3	0x3fc583c9758ceeff	0.168084318540302
4	0x3fba0235564bc60e	0.10159619671664918
5	0x3fc3939c9ffeecca	0.1529422551373954
6	0x3fcabca5c278852a	0.20888206477779053
7	0x3fb4cc5df53bb64f	0.08124339329852968
8	0x3f7c2492a121760f	0.006870816012534599
9	0x3fc71ca520d1c3bd	0.18056167700299666
10	0x3fc8b3c70c870a1c	0.19298637496656645
11	0x3fe34b3b263b9136	0.6029334780437583
12	0x3fb46ec1af49e8e8	0.07981501130589985
13	0x3fa6ca87d4c07609	0.04451393577640423
14	0x3fd9db04412eca32	0.40399271359925415
15	0xbff59dfb257775f6	-1.3510695899525422
16	0xbf637378ba37c3f3	-0.002374397083024332
17	0xbff5fd39a8c78740	-1.3743225663133245
18	0x3fe012232033f33e	0.5022140149081691
19	0x3fe25b0dfa62268a	0.5736150636959831
20	0xbfc4e0dc54502959	-0.16311220280506225
21	0x3fcc0946d34e7c8a	0.21903310125069125
22	0x3fe29bae52fa2c89	0.5815040226601847
23	0x3fb1e353e2f83b6b	0.0698749951481951
24	0x3fd5774833840116	0.33540539770912525
25	0x3fdb97858af99759	0.4311231476952933
26	0x3fdb09c6e17a8a97	0.4224717332782943
27	0x3fd29564818de6c7	0.29036820079600684
28	0xbfc0ebcf64314ad2	-0.13219635383810285
29	0x3fb29b69e8a8dbc2	0.07268392496267409
30	0x3f690772fc265eb3	0.0030553098487862917
31	0x3fd5be5f7cefeb0a	0.33974444580933094
32	0x3fd765c794376cd1	0.36558713411586746
33	0xbfd0e5596b33e5d0	-0.2639983698751083
34	0x3fb1289adbe638ce	0.06702583187709196
35	0x3fdca782d067fe9f	0.4477240596024589
36	0x3fde5603c350fa0f	0.4739999205957312
37	0x3fd6a7546315c0c5	0.3539629905344664
38	0x3fef2fa4bda07dfa	0.9745658591891122
39	0x3fd0f1b9cec56975	0.2647537726640146
40	0x3fb72d2c044338ae	0.0905330191046427
41	0x3fcb295296b479c9	0.2121985660423447
42	0x3fcdb063ec833ef6	0.2319455056044643
43	0x3fcee745aed424b7	0.24143286739880462
44	0x3fc6dd4ec613533f	0.17862877532629715
45	0x3fe129e114791c68	0.5363622093071969
46	0x3fdacf9aa7ebf9f8	0.4189211501942789
47	0x3fa56c2a856a1e14	0.041840866838409735
48	0x3feba916270d2333	0.8643904459687292
49	0x3fa9d0d64216ba9f	0.050421424453238155
50	0xbf9d3f0801172823	-0.02856075770049683
51	0x3fc04833e9b5a1c0	0.12720345412823342
52	0x3fa5c0d74f29bc4f	0.04248688546510292
53	0x3fd92cf74dce730a	0.39336950872693477
54	0x3fcfb25205987f32	0.24762940667368977
55	0x3fbe3daaa48dd0ef	0.11812845723563091
56	0x3ff4a93233137155	1.291307639613554
57	0x3fc1fc08eaf620bb	0.1405039927742616
58	0x3fe8c1e9b8784dee	0.7736710169723986
59	0xbfb938affa94c013	-0.09852123134328421
60	0x3fc74650730aa2b9	0.1818333207823082
61	0x3fcd4b8e3f1c1527	0.2288682754662343
62	0xbfa90c47d05eebec	-0.0489218179568168
63	0x3fd2120acb1bf1c7	0.28235120615843495
64	0xbfc1ada41a0430db	-0.1381116034539279
65	0xbfb5736bb57bef92	-0.08379243069424394
66	0x3fd5279c8c510330	0.33054269507197187
67	0x3fcfcb4ebf5673f6	0.24839195578252288
68	0xbfb488487aa56834	-0.08020451540269918
69	0x3fcf53f0389aae89	0.2447490955722638
70	0x3fcb4c5016363776	0.21326638302383188
71	0x3fc28b36a5ad2ecf	0.1448734578101409
72	0x3fcb7c826cc8fafd	0.2147372275521419
73	0x3fd2e5ab111572ca	0.29526783626878894
74	0x3fe8d235109a7a51	0.7756600689206811
75	0x3fdac0bcb1833ba1	0.4180137380143894
76	0xbf63ebdcb5a30610	-0.002431803773192305
77	0xbf829e50cba18f79	-0.009091025556877007
78	0x3fb69f2270ce34e4	0.08836570028343577
79	0x3fab8144164f2f0d	0.05372059604959931
80	0x3fe12e06e18abd6b	0.5368685155025735
81	0x3fc3b06435acfcb9	0.15382053967366519
82	0xbfb902f3f37abf43	-0.09770130819628968
83	0xbfd8eed12a0c0cf4	-0.3895762358299202
84	0x3fdf37bdf30bc634	0.48777722105942023
85	0x3fd3b3c8cfc93c8d	0.3078481702004375
86	0xbfb1d301f73b7625	-0.06962597166008118
87	0xbfc329b048011007	-0.1497097350676315
88	0x3fb75aee4b3ac8fa	0.09123124443684452
89	0xbfc2fd2096798dc0	-0.14834983203318863
90	0xbfb481c5636d2a87	-0.08010514905360298
91	0x3fd0e4d712b88b6c	0.2639672930546826
92	0x3ff132961729ed92	1.0748501686892706
93	0x3fd65638ffc3288f	0.34901261307516845
94	0x3fc464e3080a4171	0.1593288220651732
95	0x3fd058b7d46b8461	0.25541492218150635
96	0xbfa881e88a8322d3	-0.04786612215827337
97	0x3f796c82cfe8237d	0.0062069997643526805
98	0x3fcf6ce110c16673	0.24551022833002242
99	0xbfa044b3095414f9	-0.031774134529806326
100	0x3fdb694aa65517a6	0.42830148929021516
101	0x3fab28a4ca21b753	0.0530444618933489
102	0x3fcfce5381eb0aca	0.24848407596262795
103	0x3fd46796aa1f53b1	0.3188225423194196
104	0xbfd8ef995d5235eb	-0.38962396729843246
105	0x3fa4c4b01ccf0606	0.04056310989063765
106	0xbfc9e629d9b579e4	-0.2023365319282241
107	0x3faf8082cd53f472	0.06152733570522963
108	0xc0017a45b1c9ace5	-2.1847032441779555
109	0x3fb69bec6375e29f	0.08831670215830421
110	0x3fcb1237997bd826	0.21149344438862377
111	0x3fc2ebea10e8c8f8	0.147824533707144
112	0xbfb6dafd24cd208b	-0.08927900455921838
113	0x3fa4655f944091c7	0.039835917327113494
114	0xbfaa27286c696a57	-0.051080001100406384
115	0x3fc863f83aa2a4a5	0.1905508314423844
116	0xbf677283afc40995	-0.002862221908914007
117	0x3fcfea32a9dc67f8	0.2493346528434015
118	0x3f767d72438cef31	0.005490728705634316
119	0xc000f930a125c474	-2.121674784627027
120	0x3fcc3439652f7db2	0.22034375611018003
121	0x3fd55dff03d23979	0.3338620698276809
122	0xbfae5ddd206c6dcb	-0.059309873779251975
123	0x3fde958a7e6ee29e	0.4778772577952085
124	0x3fd4ebce35dcd64b	0.326892426109542
125	0x3fda2126101a948d	0.40827323506011554
126	0x3fa40c1e3a37bd32	0.03915495358148248
127	0x3fb11f6328a5d13c	0.06688518278480599
128	0x3fc01b2ad908bb4f	0.1258290824639183
129	0x3fedc745cfb41d16	0.930575280829461
130	0x3fc2b8d30b84ccbe	0.14626539289893076
131	0xbfaff1210037e6b6	-0.06238654258409097
132	0x3fd8b5e0833f2352	0.3861008912759206
133	0x3fc082fb4dfb6826	0.12899724300115273
134	0x3fb93646ca6a88d5	0.09848444406319186
135	0x3fd6ebd5b5bb119e	0.35814421412603703
136	0x3f8f6e439a445f35	0.015347030778272245
137	0x3fcc5e5440cffbfb	0.2216286961047159
138	0x3fac54729b6f5c62	0.05533178470039314
139	0xbf8c2ee641c32b60	-0.013761328584583843
140	0xbf98ccdf4385ce53	-0.02421902513147096
141	0x3fb43dce3d7a08cb	0.07906807900329509
142	0x3fde2aaddec9e6e6	0.47135493046481114
143	0x3fdf118ceb11612e	0.4854461951813559
144	0x3fd0f70a15310af9	0.265078087515732
145	0x3fd063328d269a79	0.2560545328546265
146	0x3fd207b95961749c	0.281721436773134
147	0x3fd85b843c89772b	0.38058572685064246
148	0xbf331367a1db994a	-0.00029107360920334736
149	0x3fc64af79708d37f	0.1741628158066781
150	0x3fd37340ca133072	0.3039094899547826
151	0x3fe8a54b910b7ef3	0.7701776345165555
152	0x3f7bf09980a1e11d	0.0068212505522000895
153	0x3fdaad40c213845f	0.4168245215678947
154	0x3fd494536f9ed024	0.3215530958216297
155	0x3fc8a4f4cc8c1404	0.19253406512885374
156	0xbf8c3677f743dee0	-0.013775765641625026
157	0x3fe0715bf5761270	0.5138377947010451
158	0x3fb67808c0ed521d	0.08776907644398375
159	0x3fd2a8b32203b2e3	0.2915466148540828
160	0xbfbcf24c7a4f4e6d	-0.11307218538359516
161	0x3fcb47cb4a69c51f	0.2131284821839836
162	0xbf95f3dbc62c8a7a	-0.021438058825092622
163	0x3fdbe172ce165975	0.43563528180802474
164	0x3fe06496c71da164	0.5122789277057049
165	0x3fd91e8dc144dab9	0.392489851702901
166	0x3fdd38e3aeba0ea4	0.45659725249445615
167	0x3fd6bfca80d2146b	0.3554559953702838
168	0xbf882cf5936cc4e9	-0.011804503022718698
169	0xbf9116fe54845df2	-0.01668927565432727
170	0x3fb8ac67555f010b	0.09638067087417228
171	0x3fa02e6f97a61dc9	0.0316042778604771
172	0x3fe8acad0ba6178c	0.771078608275944
173	0x3fcb64db858e3ebc	0.21401542683860508
174	0x3fc1bbe012e68b3b	0.1385459987914944
175	0x3fc629d98a095a2b	0.17315215339722675
176	0x3fdd95c406544af6	0.46226597421734483
177	0x3fbd733c6883b328	0.11503961135504126
178	0x3fd8472bc5ee02fe	0.37934393242908004
179	0x3fcab6804c4a6835	0.208694493533416
180	0x3fd6de2691cb0d06	0.35730900037397395
181	0x3f978475051d1d53	0.022966221272580366
182	0x3fba907ec83db703	0.1037673224324998
183	0x3fb65a345e2496d1	0.08731391237651144
184	0xbfc593df2a9dfac4	-0.16857518750108202
185	0x3fe1804268bc24f8	0.5469066663364677
186	0x3fd0fafa480ecec6	0.2653184608163709
187	0x3fcc88102b8e92f0	0.22290231825640872
188	0x3fd7943435dd3351	0.3684206510559323
189	0xbf86aeb7f1487c53	-0.011075436640622415
190	0x3fa2f8de78f886f1	0.037054970042175735
191	0x3fbeedcf8be7a4f8	0.12081620374341984
192	0x3fcbab188c7c5de4	0.21615893230112626
193	0x3fc2180698db4a2a	0.14135820831013862
194	0x3fce330f25ca632d	0.23593320222132644
195	0x3fca4ecc7f8ecb31	0.2055297491875421
196	0x3fd1070ec7158f7b	0.2660557693654863
197	0xbfa8cc9f1018e014	-0.04843613692759177
198	0x3fd41401b5752926	0.3137211105391934
199	0x3fc206f2fe104b99	0.14083707242442925
200	0x3fc1c5203361f9a9	0.1388283015148322
201	0x3fcf0ec0c3e7890c	0.2426377255024551
202	0x3fd337dc5a2d499b	0.3002844696649391
203	0x3fda3d2c98c11e42	0.4099837772123217
204	0x3fd1bdb73f6c0271	0.2772043341974842
205	0x3fcbfc0eae070a8a	0.2186296796554255
206	0x3fc0a14441eb9eeb	0.12992146700638982
207	0x3fd346c01972c9a7	0.3011932610053471
208	0x3fb62e9673707dce	0.08664837187142568
209	0x3fc96bd391edf837	0.19860310197322104
210	0xbfc78033c85fdc17	-0.18359992298039238
211	0x3fda575aecf2279f	0.41158173693895067
212	0x3fb5be1987cab349	0.08493194165448616
213	0x3fb6b04965215bdd	0.0886274215603033
214	0x3fd11d56b90e3cee	0.2674156958755266
215	0xbffb9365deffcb09	-1.7234858237176829
216	0x3fcd50f96c261bac	0.2290336397238354
217	0xbfea1c3acda47525	-0.8159460083440179
218	0x3fe1ac2195a25389	0.5522621080914273
219	0x3fd282fffb4f7523	0.28924560110120207
220	0x3fc16415f7786b5e	0.13586687644496015
221	0x3facc5ddd037601a	0.056197101275472686
222	0x3fef658b21e0c734	0.9811454450302564
223	0xbf99578503498377	-0.024747923207886182
224	0x3fbda835996a14e2	0.1158479213282422
225	0x3fd105e9ec9d40ff	0.2659859476743946
226	0x3fb2dae2a11d3922	0.07365242417765619
227	0x3fe10ca6afdd2c85	0.5327943262904148
228	0x3f9094adfabd644f	0.01619216769117698
229	0x3fad6b2dcce2e655	0.0574583351712589
230	0x3facd662142ed0c4	0.05632311340687715
231	0x3fd9357afc900636	0.3938891855651464
232	0x3fe0f5e796e3f4bc	0.5300176570014155
233	0x3fcf385a5ed603f5	0.24390725737251243
234	0x3fc8f48622ae08de	0.19496227925635073
235	0x3fe612a79736227e	0.6897771790837195
236	0x3fbdc9aa68e8af52	0.11635842381718689
237	0x3fd377a76025e7c5	0.304178089041326
238	0x3fc5f75a1b27d9d8	0.1716110832782778
239	0x3fd3aebf2f7459b5	0.30754069933154976
240	0x3fc7ea0c0707e61c	0.18683004706672157
241	0x3fe401ed7fc9cb5f	0.6252353187431757
242	0x3fc780a39b313a78	0.18361325338124224
243	0x3fd63f09bf816566	0.3475975389643139
244	0x3fcc4cd7f95ed51e	0.22109508205691325
245	0x3fe9a57c2ca0cb63	0.8014508124964376
246	0x3fe24e069768ff99	0.5720246274213309
247	0xbfaf9dcd473b8feb	-0.06175080771006932
248	0x3fdef31b77bc8c1b	0.48358809178370316
249	0x3fca1de9170c811e	0.20403779626304525
250	0x3fc48a66049a0009	0.16047358727155395
251	0x3fd5f3ccdd861337	0.34300538666893793
252	0x3fcc7466304d6520	0.2223022209025567
253	0x3fd3ebc4c21fa7e9	0.31126517255199687
254	0x3fd5856c4ebae5ce	0.33626849831088357
255	0xbfd15298f8cf6474	-0.2706663541590111
