models/torch/extended_NH3_net_BatchNorm.pt (torch, 660603 bytes, 12 tensors)

linear_afunc_stack.BatchNorm.running_mean f8 [5]
701.6805971862187 182.87928526457995 0.3310322992683808 0.3300669130823232 0.3389007876492961
00000000: 7904 f0dc 71ed 8540 38e7 d91a 23dc 6640
00000010: 99c0 d118 a22f d53f 4389 4bf9 d01f d53f
00000020: 26b6 e2ed 8cb0 d53f

linear_afunc_stack.BatchNorm.running_var f8 [5]
30898.69060128036 9435.877797926107 0.05427264569826101 0.05826177033629668 0.05697080105595354
00000000: 6eb6 cf32 ac2c de40 90b4 ae5b f06d c240
00000010: 68cf aecc 9fc9 ab3f 6525 679c 7cd4 ad3f
00000020: e177 b9de 462b ad3f

linear_afunc_stack.Linear1.weight f8 [200, 5]
0.49834228391692326 -0.8819349222628656 0.755596943813311 0.6861209568959493 0.7769293601015311 0.14799346654029497 -0.20259865166631097 1.0707021713872982
0.015800768241945318 0.7521048447623528 0.07621185990113502 -0.20022075531986364 -0.20648003064363837 0.008145341770721858 -0.12212906764963233 0.37655878105378837
-0.031081077729254503 1.4810901770058615 1.4393314063209213 1.5340681017690938 0.03899606021690275 0.3097401129830445 -0.2771180014893296 -0.7413822237632953
-0.7473181436613098 0.3194572555047023 -0.8443356724169381 -0.308160055842526 -0.09012448379420873 -0.28839370125678837 -0.0212196743742532 -0.024133517616924338
-0.6092079741689364 0.31506120812559224 -0.9972345345366329 0.13946105670469383 -0.06937018095911383 -0.5231661388978699 -1.6157137762452036 -1.3704153836227364
0.1473466147601504 0.05380896013275348 0.4790297727561556 -0.48391815481429684 -0.3911882358532637 -0.14956762745398272 0.0824648932968731 -0.37396998873996323
1.0133938112095342 0.407312739246623 0.3080215470544481 -0.07218097548720764 0.5097216967784519 0.38810866934218086 0.5464956040842237 -0.02523228614535609
-1.337622636978782 0.06770445666457944 -0.14668428705839068 0.5064289386051256 0.3319614612098426 -0.05046994987425102 0.4330007766663261 0.4119895533554394
0.4229745852575459 0.08362053515071917 -0.6863918233916466 -0.3737182969637698 0.14083152534414461 -0.35723664874085004 0.6010190079824355 -0.8386531634681355
0.8354591345160365 0.9542437575718036 0.8886893863999006 0.19835819819419095 -0.31071567992155874 0.7633163613335139 0.43048923854528953 -0.002183065392713569
0.39452258100942356 -0.5517432421523447 -0.19799414413243885 -0.05739540713533641 -0.15204649443518414 0.354133188179433 -0.1406725357553452 -0.31202048316772607
0.6671352795260435 -0.4530375859332374 0.7011462178250956 -0.21696524705814654 -0.04369236426871407 0.6567711933879347 1.0261072422049369 1.4342705129712516
-0.26465957293564335 -1.5056844408761823 -0.3942336516921124 -1.2323943277501754 0.3262406139390397 -0.07852163009836248 -0.15252731793374627 -0.19689943153891498
-0.19579577648629376 -0.03833677841319409 0.021275404768187747 -0.3152004545525699 -0.24864061946845967 -0.3786802234165478 0.24057656556242413 -0.1259887500265442
0.18642218435770935 0.197311216068267 0.15586175600590046 1.0631528370435501 -0.022212712938455014 0.6598084910134827 1.7786464684663332 0.6351595764776303
0.30366369180058295 0.8646018500916574 0.4109665058976414 0.4306793161947888 0.6416821937772275 -0.015575728283560842 -0.11132899530549847 -0.1304919627815061
-0.39557994851077255 0.30880139342379875 0.14545054262768958 -0.02194382286749714 0.3610850231542834 0.05806191266434855 0.37109568034411156 -1.0460990479662036
0.12398865001382058 0.022746773028729846 -1.7346740153406468 -0.5450075810948182 -0.16596028047791853 -1.5954815684454078 -0.05937414930576563 -0.23234583986555815
-0.1275166992625311 -0.7142588834713628 0.04917857162143369 0.24537905554324005 -2.2849393822430337 0.3173075720802369 0.1313775657776876 -0.27112817339628487
0.8681804620836401 0.9275012808473199 0.9524587191717198 0.027674218349156118 0.036647661499044894 -0.22541973683370567 -2.113873898008127 -1.2229330927761461
0.7104693021260471 -2.065937415219178 -0.372106694885341 0.013544757386487256 0.24721457930444704 0.12121096632698307 0.20918196056065133 -0.15762099081401357
0.4110240506725984 -0.2102886819880018 0.3420134625830963 -0.11492205050476993 0.2661081654342703 0.2815163105067153 0.18709363786245573 -1.1558290603238404
0.17903958642065373 -0.3010744938571345 -0.9501646533428678 -0.0746244550283085 0.30449500943730334 0.011603755255720858 -0.2541411084586702 0.04556378913351631
-0.7510001505382223 -1.5484738444287396 0.2792222799913399 0.2253893185897403 -0.6908630145854915 -0.08930935492686043 -1.0166424042283362 -0.6456065612149695
-0.49054386345346085 -0.12583253666086475 -0.34582965786695474 -0.26079200889028864 0.02333438557051697 0.8954147824998776 0.8425123323721168 0.8858126818845691
0.846469146874283 0.14789516937124889 -0.21120067019481692 -0.4298965651854338 -0.3501507152736352 0.4130835798237295 0.027237097436363555 0.4553896847323934
0.3441604322842582 0.5010339498798815 0.48329589322780203 -0.2141603222325454 1.1401302612408817 0.8119244263115676 0.8104274718610045 0.4219564500470707
0.4926916966101573 0.5149423068409745 -0.6087921546019378 0.16460177428321313 1.1861834644561204 -0.11893930631870266 -0.5671362512316395 -0.1144764558916572
-0.4687233034314133 -0.09218767315716576 0.065458323170564 -0.41073877611978066 0.5885052691112611 -0.9634777655865275 -0.4753984408711102 -0.2132883153004756
0.26287315656452076 -0.8085989482116868 -0.10143214067842705 0.4065044144125393 0.08567219491443034 -0.18363155897563715 -0.2005641997334973 -0.22736941362981558
0.04799085806851437 0.20232968612227595 1.0086597386324163 0.4765424447093195 1.0902836767273754 0.4489188834930932 -0.06974098476556911 -0.24635436554482304
-0.39046365183210524 -0.19335203993247196 1.220127542640774 -0.581837541295741 0.4699022973531383 0.053199176698607166 0.46138743586986053 0.977980383398691
00000000: c6c6 e808 d7e4 df3f ca37 0a96 cf38 ecbf
00000010: d257 54a4 d92d e83f 8bfc deef b3f4 e53f
00000020: 6b06 1ef6 9adc e83f 63f7 672d 73f1 c23f
00000030: 986c 8fab c0ee c9bf 89d5 9d99 9821 f13f
00000040: 2040 679b 132e 903f da5b ed2d 3e11 e83f
00000050: c2bb d7d5 9e82 b33f 4924 0a6e d5a0 c9bf
00000060: d31c 7209 f06d cabf 26f2 2844 81ae 803f
00000070: 6436 72bf d943 bfbf 0673 6900 8a19 d83f
00000080: 0080 7cd1 b7d3 9fbf 24ac 0a9d 8bb2 f73f
00000090: 9110 645e 8007 f73f fff5 6efe 8a8b f83f
000000a0: 15e0 9ba6 4af7 a33f 9a60 e131 c8d2 d33f
000000b0: 25e4 6124 4dbc d1bf 7dc5 9c36 67b9 e7bf
000000c0: bb72 57bd 07ea e7bf 0a35 37d8 fc71 d43f
000000d0: b70f 7c3e cc04 ebbf 5dbd 71f4 e4b8 d3bf
000000e0: cc0a 77ee 6512 b7bf 994c d1da 0a75 d2bf
000000f0: 7e72 e03d 9cba 95bf f0c7 9bf3 74b6 98bf
00000100: 6993 b0b8 a17e e3bf 8ecf 487c f629 d43f
00000110: 14da 0866 58e9 efbf 965e ce22 dcd9 c13f
00000120: 8f78 8982 3ec2 b1bf 381c 1eea c6bd e0bf
00000130: 8cb7 4ab0 f6d9 f9bf e784 69ae 38ed f5bf
00000140: ab1b c9fd 40dc c23f cefe 0018 d98c ab3f
00000150: 6f12 f37d 6ca8 de3f 758e 37da 83f8 debf
00000160: 0076 e461 3a09 d9bf ee42 3a32 0825 c3bf
00000170: 1738 c753 6b1c b53f 5cb6 d4d1 1fef d7bf
00000180: e9d1 d16d dc36 f03f 2dbd 9373 6911 da3f
00000190: c1fa c301 a0b6 d33f 3466 1cd1 737a b2bf
000001a0: da33 37e0 a34f e03f 8399 87be c5d6 d83f
000001b0: 5862 5e59 e47c e13f dbc2 300f 7ed6 99bf
000001c0: 0f69 83fe e666 f5bf 1ef6 2a4b 1455 b13f
000001d0: d95d e0fb 8cc6 c2bf ffd2 2176 aa34 e03f
000001e0: f26e db48 db3e d53f 9005 4880 32d7 a9bf
000001f0: 862a bbe3 48b6 db3f f822 7d6e 095e da3f
00000200: c719 aefe 0312 db3f 4511 bfc7 2768 b53f
00000210: 8eaf 36fc ebf6 e5bf c813 d825 00eb d7bf
00000220: a2a8 cc75 c406 c23f e492 d11a f7dc d6bf
00000230: b3e2 f136 8c3b e33f ed0a b928 3fd6 eabf
00000240: c681 7ccb 14bc ea3f 89db 6534 2a89 ee3f
00000250: e679 5cb9 2470 ec3f cb9a 112b cd63 c93f
00000260: 1985 e704 c4e2 d3bf b0bb 0d6f 166d e83f
00000270: da3e 35bc 228d db3f 827c ef4e 38e2 61bf
00000280: d903 bea3 db3f d93f a2aa 9a71 e1a7 e1bf
00000290: 3f96 ec42 df57 c9bf df7a 2c49 ee62 adbf
000002a0: 2c08 8970 4276 c3bf 112b 6a3f 1eaa d63f
000002b0: 5bde 41c2 8e01 c2bf d5cc b8c2 24f8 d3bf
000002c0: 424f f215 2c59 e53f 744a dc5b 91fe dcbf
000002d0: 6abb 6831 ca6f e63f c3dc 3d68 84c5 cbbf
000002e0: 95f3 3c77 d85e a6bf 55cb 9105 4504 e53f
000002f0: e157 776d ef6a f03f 3b42 2da3 c5f2 f63f
00000300: 183e 95b4 2ef0 d0bf 488c 7a91 4817 f8bf
00000310: 8d04 40c8 1f3b d9bf 1368 571d e3b7 f3bf
00000320: 54b0 df4f 20e1 d43f 5313 4d59 fe19 b4bf
00000330: 07d2 22e1 0386 c3bf c0c2 8725 0034 c9bf
00000340: 2c0e 5a04 d60f c9bf c68e 09d3 e0a0 a3bf
00000350: b40d c13e 38c9 953f 3335 ff86 3e2c d4bf
00000360: e27f 89b0 74d3 cfbf b3d3 cdf9 4b3c d8bf
00000370: 7826 a380 36cb ce3f 1893 833c 6620 c0bf
00000380: ee59 88a0 aedc c73f 55d7 1272 7e41 c93f
00000390: 6409 5f2c 47f3 c33f d206 9c8c ac02 f13f
000003a0: 7320 81ee edbe 96bf 24d5 50b2 261d e53f
000003b0: 3b57 d3ff 5575 fc3f e4cd 162d 3a53 e43f
000003c0: 3a08 51d6 396f d33f 6b8d c67f d1aa eb3f
000003d0: 923b a575 464d da3f 5bb2 87fa 3f90 db3f
000003e0: f85b 9618 a988 e43f 5ad6 b6dc 2ae6 8fbf
000003f0: ea03 ef99 0e80 bcbf 1cca 44ec f5b3 c0bf
00000400: 0da8 738f 2e51 d9bf 78b9 6deb 66c3 d33f
00000410: 9abc e295 1f9e c23f 12ae 4206 7178 96bf
00000420: a779 615b 041c d73f 4dbb 1280 4aba ad3f
00000430: f6f2 b018 08c0 d73f e943 f65a d2bc f0bf
00000440: d371 e25c b8bd bf3f 3fe1 fd18 ee4a 973f
00000450: cbbe 518a 39c1 fbbf 5dfa 1bbd b370 e1bf
00000460: 0738 8bbc 2f3e c5bf 4180 5dae 1787 f9bf
00000470: c9fe fdda 4966 aebf e5c7 ca2b 82bd cdbf
00000480: 5562 839a 7752 c0bf 2062 2c72 35db e6bf
00000490: c05c 8e09 ef2d a93f 213e 57b5 9468 cf3f
000004a0: 359c 804c 8e47 02c0 dfe5 366b c44e d43f
000004b0: a6bc 38e6 fad0 c03f 7fb8 70fb 295a d1bf
000004c0: e59c 7564 22c8 eb3f 5f98 872a 17ae ed3f
000004d0: 223e 34b5 8a7a ee3f 4f09 025b a156 9c3f
000004e0: 55ff 3977 7bc3 a23f c16e c9ce 8dda ccbf
000004f0: e980 deb7 36e9 00c0 04b7 6a4a 2291 f3bf
00000500: a42f 2e1e 2abc e63f d897 0f32 0a87 00c0
00000510: a2ee 4999 98d0 d7bf e4c7 0e90 5abd 8b3f
00000520: ed7e 9a32 baa4 cf3f ab7b 4a90 ae07 bf3f
00000530: 59b5 c277 79c6 ca3f 7fca 5ab4 ec2c c4bf
00000540: 4887 e0d1 374e da3f adbf ed51 bdea cabf
00000550: f682 256f 8ce3 d53f f3da 8110 886b bdbf
00000560: a847 ef8a ea07 d13f dfae bafc 5c04 d23f
00000570: 5157 f42f aff2 c73f 86b7 dd9c 467e f2bf
00000580: 7fdb 2ee8 c4ea c63f 5eac 31f4 cd44 d3bf
00000590: 8887 fdb3 bf67 eebf 8812 d499 961a b3bf
000005a0: fc04 d5a2 d87c d33f 7241 acaa b5c3 873f
000005b0: 208c 5911 d943 d0bf 7dab 6b10 2354 a73f
000005c0: a949 bb77 3108 e8bf 7786 8882 8cc6 f8bf
000005d0: ab26 3820 c7de d13f e3f6 1aa4 8ed9 cc3f
000005e0: 1a24 b5c0 8c1b e6bf c041 a356 fadc b6bf
000005f0: 4433 5ed3 2a44 f0bf c80a 5017 cfa8 e4bf
00000600: 874f b216 1265 dfbf d695 ddd2 471b c0bf
00000610: cea0 a1b7 1222 d6bf cc7b 4ff7 d0b0 d0bf
00000620: ed2a 971b f8e4 973f 4524 e6e6 3ca7 ec3f
00000630: 417a 406c dcf5 ea3f da70 62d6 9358 ec3f
00000640: f5bc dc76 4616 eb3f 67cb d799 3aee c23f
00000650: 84a4 b0a1 9f08 cbbf 3f96 08e2 6c83 dbbf
00000660: 815c b18b de68 d6bf abe1 761c f66f da3f
00000670: 3399 e8aa 0ae4 9b3f da20 b7c6 1a25 dd3f
00000680: 383d 4f7a b906 d63f f46e 9d59 7808 e03f
00000690: d116 ede5 51ee de3f 2778 0bfe 9a69 cbbf
000006a0: 355a 933a f93d f23f a79d 3aef 48fb e93f
000006b0: 0289 ed97 05ef e93f 9475 52a0 5501 db3f
000006c0: 68e3 fcc0 4288 df3f 59ae e649 687a e03f
000006d0: 5174 42af 397b e3bf 097a b4c2 ab11 c53f
000006e0: fc51 2e83 9bfa f23f 6906 d96e ce72 bebf
000006f0: 4f4f 6dec fa25 e2bf a676 373a 544e bdbf
00000700: b31a c706 90ff ddbf cdea 4d81 9c99 b7bf
00000710: 19c1 446d e0c1 b03f a78b a84a 8b49 dabf
00000720: d268 8b00 09d5 e23f d7c0 b352 cfd4 eebf
00000730: 7b17 0795 ed6c debf 36d0 6a11 084d cbbf
00000740: c737 9cee e9d2 d03f 2fc6 c4e6 0ae0 e9bf
00000750: 3d24 faee 74f7 b9bf 1737 6517 2b04 da3f
00000760: 1082 55eb 9cee b53f 762c 282a 3d81 c7bf
00000770: c148 4d73 16ac c9bf ed4b d3e1 701a cdbf
00000780: f68e d2fb 4192 a83f fbda 736c f0e5 c93f
00000790: 7c7d e364 7823 f03f b2ac cbe1 ab7f de3f
000007a0: e681 ee4b cd71 f13f 0738 ca44 16bb dc3f
000007b0: c84a c290 8bda b1bf c0f4 9e33 8a88 cfbf
000007c0: e151 b941 5bfd d8bf 30fb 0f78 c2bf c8bf
000007d0: 9d74 4975 a485 f33f 8168 6ec3 699e e2bf
000007e0: 979b dc15 e112 de3f 0d75 3028 ec3c ab3f
000007f0: 922a f62a 5f87 dd3f 1f76 5a84 9d4b ef3f

linear_afunc_stack.Linear1.bias f8 [200]
-4.285040261035328 -2.791788191424481 -5.010180963441795 -4.495384504126217 -2.5115491347718932 -3.31193093489766 -4.344983451520565 -3.421060565552873
-4.008904671276146 -1.1569196982637682 -3.1126915139817024 -5.483913226917149 -4.713017417266655 -3.404822732448341 -3.804194546214213 -4.1687518289108425
-3.590007802519091 -4.893611850632703 -2.787729879727411 -0.01946402612360595 -3.8386344215478143 -4.657963788050651 -4.217931944640134 -3.043722877557612
-3.9004530089883844 -2.5084632152113246 -5.182747377608163 -3.3978231591673613 -3.6528330971335383 -3.7312858925774925 -3.4249524938110327 -0.16484417611490715
-3.122553430332996 -1.7140441515973475 -4.140718265313412 -5.36584436855018 0.25657970489332266 1.0994318291755578 -2.603343216682795 -2.8140899215160493
-2.38249630304272 -4.526391380515555 -2.7097083407346534 -4.080546305682156 -1.9409657696166216 -4.484267923613883 -3.6103641336897554 -2.9861922585864793
-4.352461917549027 -2.8665635977987654 -2.6645775855692024 -2.3104935101865314 -1.0068591863294885 -2.122284642722085 -2.11063481739682 -3.4369466873361563
-4.085681701298565 -2.4174555038159453 -4.001089933634092 -4.866671672761415 -2.735414796625921 -3.0960704884762165 -4.732709850826837 -3.6860859505708032
-3.5226349739496374 -3.5695639050285046 -3.674457729404789 -2.8998034587006387 -2.606763041103117 -0.15696608464358813 -3.4672688304640364 -1.9170660439896539
-3.874892235792476 -2.592053373571559 -3.033773054312426 -4.794244161060405 -3.409879912064046 -3.847991546402239 -4.031368095442046 -2.7663671091971223
-3.269445963660817 -1.6314227547715454 -2.1743011810510886 -2.8641818231725718 -4.328318051876518 -2.7987733447014773 -4.524968182517371 -5.135570039704215
0.19349519414178182 -4.286394149433148 -3.7444370068545765 -4.67621913416627 -2.5654879524728997 -1.9193423391232516 -3.461879944766234 -5.042872174303218
-3.3932242286135996 -2.5717898300523094 -3.1493603073801206 -4.307963780481585 -3.754356128505252 -3.7878720864380577 -3.2130660061474527 -2.09730522480713
-3.3666616425090123 -2.483690961313289 -1.8571384001632358 -4.081957510273582 -4.389457847212648 -2.574745760947901 -3.1219152950796 -3.1986624978350604
-4.889464583925303 -1.143544929987721 -2.9784933605894333 -5.087186865337179 -3.5520605510936583 -1.758457657434625 -3.945756136882727 -4.212978006856442
-3.2244392533546145 -2.9064450406667977 -3.6576889108923036 -2.953622142900214 -3.636063465337807 -5.129539513051123 -3.8497528528710405 -4.08221291743419
-4.344416921208897 -3.8323078238020476 -3.8838333813831403 -3.245219705902038 -3.421526913373444 -5.112969727436326 -3.65493383488469 -2.5615066360184437
-4.511394843455543 -3.744492537433408 -2.5767955440004973 -2.798870800117663 -0.6964533626719849 -5.102268491835263 -4.5485766820912215 -2.924685510099609
-5.427350151258581 -4.71559663948571 -3.3348924374328925 -4.299465242655674 -4.190110427578699 -5.005139368465138 -4.276087255432878 -4.764490960473901
-2.7271573524568775 -2.4363823122635666 -3.175169133051899 -4.129655269929294 -4.318668426765475 -4.039135174453975 -3.1663316281979696 -1.8942485811415797
-2.713325953426655 -4.4279026611186625 3.0360909997586374 -2.791677078788195 -2.796024644667946 -2.7416396757209283 -3.7988399967716564 -2.3104472083226195
-3.061845647080022 -2.6682207767416153 -5.27019008462347 -2.718226544677743 -4.067493930802314 -1.172471216432903 -4.780461135901192 -5.239323461122921
-4.842154581352498 -3.1827637344107 -3.618142983389809 -3.9862955796201507 -3.54748251824908 -4.160529109591346 -2.670257750588981 -3.970512239032016
-2.6187200968608852 -3.9197391810320577 -2.9772043777694357 -2.7633782223242065 -2.8639731949500646 -4.402329544849791 -3.500451921590127 -3.4107769176847667
-3.620825394777129 -3.2727317995469587 -4.6299635463921875 -3.529401666707497 -3.827488593254245 -3.630654132658877 -4.59667071109439 -3.6671212193546032
00000000: 99c2 1c98 e123 11c0 9237 1c0c 9555 06c0
00000010: dd18 e4e0 6c0a 14c0 4bab 5013 46fb 11c0
00000020: 9723 a112 a717 04c0 20f8 5fa5 d57e 0ac0
00000030: a3c4 8757 4361 11c0 957a 7500 555e 0bc0
00000040: 95a6 5f4e 1e09 10c0 d541 c23a be82 f2bf
00000050: 82b4 f8ce cae6 08c0 0cd8 eef2 86ef 15c0
00000060: ff8d e23c 21da 12c0 0758 64b3 133d 0bc0
00000070: 91e4 dc8c fd6e 0ec0 c03f 8947 cdac 10c0
00000080: 74a2 c102 56b8 0cc0 5924 27fc 0e93 13c0
00000090: 0717 bc52 454d 06c0 57f6 98ae 60ee 93bf
000000a0: 2cc8 aef6 85b5 0ec0 f084 5e42 c1a1 12c0
000000b0: a7ee 3b8d 29df 10c0 5e93 4961 8b59 08c0
000000c0: ed84 09b5 2034 0fc0 c769 8429 5511 04c0
000000d0: fd06 e920 22bb 14c0 c5b8 91e8 bd2e 0bc0
000000e0: c17a 0f8f 0039 0dc0 082c 056b acd9 0dc0
000000f0: 1d2d 3a7e 4d66 0bc0 62bf ac2c 9d19 c5bf
00000100: b857 fa4a fdfa 08c0 b82b 708f b96c fbbf
00000110: 42e2 ed72 1890 10c0 2a65 f9e7 9f76 15c0
00000120: bf62 5548 cd6b d03f 01d9 67d4 4597 f13f
00000130: 1054 bf9b a5d3 04c0 2e51 a793 4183 06c0
00000140: 6d46 c338 5a0f 03c0 a8d7 9057 061b 12c0
00000150: e73a 0991 7bad 05c0 b9df 12bb 7a52 10c0
00000160: b18a 721f 320e ffbf 9eb1 39ee e3ef 11c0
00000170: 7dca 4697 06e2 0cc0 1494 51c4 b8e3 07c0
00000180: 86d5 e3c6 eb68 11c0 2e99 43e5 b8ee 06c0
00000190: 1a65 9d0d 0e51 05c0 9ef8 7e05 e47b 02c0
000001a0: ad65 cf60 181c f0bf ee5a ea5e 70fa 00c0
000001b0: 6d25 d481 94e2 00c0 77a2 a1e7 dd7e 0bc0
000001c0: 9cc5 a3f1 bc57 10c0 c365 43e9 f256 03c0
000001d0: c140 35b8 1d01 10c0 0285 6bc7 7877 13c0
000001e0: c705 2427 21e2 05c0 c3ed b09a c0c4 08c0
000001f0: 8108 bb7d 4bee 12c0 c992 7fa1 1a7d 0dc0
00000200: 44e0 c63e 5b2e 0cc0 c5a2 4885 778e 0cc0
00000210: b79f 1218 4a65 0dc0 5093 df27 cc32 07c0
00000220: d5ac cf94 a6da 04c0 6a0c 10f4 7617 c4bf
00000230: 0144 ca70 f7bc 0bc0 9452 b371 4dac febf
00000240: 2806 2280 c7ff 0ec0 7fcf a77a 86bc 04c0
00000250: 2f10 9ece 2a45 08c0 702c 6357 4e2d 13c0
00000260: c9d1 8c1e 6f47 0bc0 1ba8 b8ca afc8 0ec0
00000270: de3e 40f5 1e20 10c0 86da 3514 8521 06c0
00000280: 06b3 0f49 d327 0ac0 b01a 1bbf 4e1a fabf
00000290: 1826 8204 f864 01c0 3f97 e228 d8e9 06c0
000002a0: fbfb 7d9b 3250 11c0 6946 8347 e363 06c0
000002b0: 2269 5d42 9119 12c0 5b63 5bdf d28a 14c0
000002c0: f3d4 6255 73c4 c83f 0e53 0682 4425 11c0
000002d0: f3fa b263 9bf4 0dc0 bbb1 e8c9 72b4 12c0
000002e0: 9039 318c 1e86 04c0 d4cc 0550 a0b5 febf
000002f0: 1698 cb1c eeb1 0bc0 b629 eaae e62b 14c0
00000300: 351f 8fbe 5225 0bc0 9e14 e28b 0693 04c0
00000310: 1f25 1cd1 e331 09c0 6f15 76db 5a3b 11c0
00000320: e3bc abdd eb08 0ec0 4276 65e1 8f4d 0ec0
00000330: 5657 42f3 5bb4 09c0 6136 32f6 47c7 00c0
00000340: d930 9a4c ecee 0ac0 e7b0 e15d 99de 03c0
00000350: bc8c 4dc1 d6b6 fdbf 7f25 69ab ec53 10c0
00000360: a9cb b309 ce8e 11c0 7649 364e 1499 04c0
00000370: 19fe e9b9 aef9 08c0 6325 195d dc96 09c0
00000380: 40a3 cbcd cf8e 13c0 a8dc bcc4 f54b f2bf
00000390: 92ad b853 f4d3 07c0 460e 7d83 4759 14c0
000003a0: 3bdf e2b8 9e6a 0cc0 dc51 217f a422 fcbf
000003b0: 8d38 ef97 e890 0fc0 dcdc 18e8 16da 10c0
000003c0: 19c6 a8ce a6cb 09c0 4448 ea41 6640 07c0
000003d0: 5fcb 5967 f242 0dc0 9dfb 63a5 04a1 07c0
000003e0: 5373 2e71 a816 0dc0 9a60 9001 a684 14c0
000003f0: 4d1c 4639 4bcc 0ec0 1fc1 7e9f 2f54 10c0
00000400: f91f 53d4 ae60 11c0 517a 1b01 91a8 0ec0
00000410: be3a 613c 1712 0fc0 d078 c9bf 35f6 09c0
00000420: 0795 9a80 495f 0bc0 b41b 1356 ae73 14c0
00000430: 26fd 4ef3 4d3d 0dc0 527d f130 f77d 04c0
00000440: 3af0 ff16 ab0b 12c0 ee23 e380 b8f4 0dc0
00000450: 71af 6ffb 469d 04c0 b3e0 c15f 1664 06c0
00000460: 60b1 fb8f 5849 e6bf f25f 4f12 b968 14c0
00000470: 4eb8 f315 be31 12c0 04b4 4784 c165 07c0
00000480: 9262 2e47 9bb5 15c0 e0df 8e5d c5dc 12c0
00000490: b29d 1316 dcad 0ac0 b3fa 3d04 a732 11c0
000004a0: fd50 d44e acc2 10c0 61eb 2d41 4305 14c0
000004b0: d9b4 139e b61a 11c0 c94a e5b7 d60e 13c0
000004c0: 2fc9 bedf 37d1 05c0 8dcc 7d02 b67d 03c0
000004d0: 09d0 0d13 bf66 09c0 c766 e059 c484 10c0
000004e0: e6e6 1c04 5146 11c0 c09c 190d 1328 10c0
000004f0: a834 3bad a554 09c0 b5f5 a799 d74e febf
00000500: 12d8 ca3c e4b4 05c0 0d81 7d1d 2cb6 11c0
00000510: 7625 fd13 ea49 0840 db1a d3ca 5a55 06c0
00000520: 5345 3d2b 425e 06c0 7619 45c8 e0ee 05c0
00000530: d4f7 6639 0664 0ec0 8c0a f7be cb7b 02c0
00000540: 85de 3cee a87e 08c0 55e7 7422 8458 05c0
00000550: 26a5 a4b5 ac14 15c0 7514 048f edbe 05c0
00000560: d0e5 0521 1d45 10c0 5e4a a12d 71c2 f2bf
00000570: 81fa 3934 311f 13c0 ffc0 9a35 11f5 14c0
00000580: 9b57 44c5 5d5e 13c0 a282 31d5 4c76 09c0
00000590: ef49 cff2 f4f1 0cc0 6743 d5ef eee3 0fc0
000005a0: 9917 b883 3e61 0cc0 da00 2fbe 61a4 10c0
000005b0: 915c 7518 b05c 05c0 fb14 b8eb 9bc3 0fc0
000005c0: e429 ab85 23f3 04c0 620f 3b37 a05b 0fc0
000005d0: d838 6087 50d1 07c0 80e3 9a0a 661b 06c0
000005e0: 0473 47c7 6ae9 06c0 af60 b546 fc9b 11c0
000005f0: 8099 e3ef ec00 0cc0 1643 9b68 4549 0bc0
00000600: a2c0 f84d 73f7 0cc0 3c11 7d02 8e2e 0ac0
00000610: ddb4 f529 1585 12c0 1aa7 e7f0 363c 0cc0
00000620: 61b8 ee56 b29e 0ec0 63db d664 940b 0dc0
00000630: a086 9aa5 fd62 12c0 ebc3 5ca6 4356 0dc0

linear_afunc_stack.Linear2.weight f8 [200, 200]
-0.0653877367883463 0.9348043036381768 0.20289463989010123 0.5938129005248024 0.5447407871368577 0.11249539114519554 0.27015768571585863 1.0161486016806978
0.4491752701328347 -0.09023518305810763 0.5835939488237865 0.4155978677143381 0.16415731323904498 0.30280784320815923 0.04264849547520478 0.20792532062449615
0.3140154004693781 0.4597337747226094 -1.1156037584361536 -0.004722269944244002 0.659955714598464 0.5665934166426899 0.22244194635139966 -0.08546241820308317
0.004158930805201155 0.7579541272453815 0.3616078518453861 0.3084056249831576 0.04329030791322323 0.07544664689843397 0.5109279616649932 -2.738440237872312
-0.38280376275542793 -0.653425501270064 0.23581372840221465 0.08246780640981788 -0.5558145522275172 -1.3012515078136737 -0.13177793689012185 0.6259294162771027
-0.870815221503658 -0.057757896882201176 0.5974209063984102 0.24236074125433849 -0.840152459562153 0.99559143742372 0.14608492055633404 0.5407342967868694
0.5066005156555267 -0.13461558483156055 -0.11603587216705671 0.39392323426994125 -0.3081890322366587 0.12338749962191095 -0.014635256507826511 0.16909290553441875
0.07864273871210194 0.2420510458037517 0.18400277043416446 0.7662187587349745 0.48256646690077315 -0.12774609459210176 0.6882025612531639 0.2140940958792721
0.0538540957464489 0.301297910235435 0.19295101186089605 0.5357504986341924 0.6182544970335812 -0.4118580848325978 0.6061129385031857 0.46684879457915407
0.38415586965732273 0.5951717373651784 0.625803744023698 0.9161018116485891 0.5364613213471817 0.08396634460652913 -0.5624057975499543 0.31181574223701286
0.1549031851314161 -0.11902647583036517 0.2818406416601916 0.3324908194594839 0.531581940226545 0.014799725505497257 0.3510325145745377 0.6620976630061232
-2.41724485321495 -0.2753181728091169 -0.6014756492742325 0.837544110736888 0.08627299718875188 0.9321558342426545 0.5272847243521988 0.5792363945192598
1.4665912618494796 1.4828380849015035 -0.1375117050412675 0.23475684190282017 0.5599233911468671 0.3403567829297409 0.4220068498438815 0.28053290252717616
0.8721740170117497 0.45470277476256976 -0.04345113546391178 0.221173449167406 0.6451200686870745 -0.3865112961290955 0.06079473545300699 0.42561526007768136
0.18143859193412679 0.02778352683948554 0.3093775523715075 0.2959195721648714 0.392732583254879 -0.03218756438232622 -0.2885336244662352 -0.060383709647018904
0.7238602235025771 0.08727502731242764 0.7258006325286555 1.029457446899629 0.5831865131683921 0.5356200473016114 0.49638255792405056 0.503042554191466
-0.0702076836720431 0.0030849796347135828 0.4107955765058371 0.25528760321708577 0.9937083258312154 0.6719022748542418 -0.629220082810204 0.4708659104315992
0.32965539850957604 0.11897145461721753 0.7917045884176237 0.3372232960901301 -0.278084661434544 0.2149798794338369 -0.19710693666611526 0.11486191394015326
0.13495608134780848 0.6509560478515608 -1.1868203245362654 0.4196562139068073 0.7629300567157706 0.781559421020854 0.1318466176127109 0.6822709461444276
0.26332030872258344 0.8399546487481373 1.4419399549535985 -0.5255147682032575 0.1521721462615592 0.5527685121051573 0.822158631860935 0.5703576363408355
0.1363366474344958 -0.10089091901394247 -1.534603826313717 -0.15100791695691138 0.43445996684999433 0.39250698633809405 0.1313975991109901 -0.33535395201406193
0.7695594201099915 -0.23818972499819352 0.12482450133225381 0.8867307028522314 0.4107590227660474 0.15106275984559306 0.30926550766799815 0.1216737446284798
-0.07873084290685474 0.36161825194194824 0.058528785303398674 -0.2391542844374848 0.7066847971411536 -0.5830729466709128 0.2810587577952071 0.07024859590997534
0.20500797554825567 0.47578945969547815 0.48102921250882535 -0.37463633127456186 -0.5112132857470073 0.6180210866482745 0.20103385536631288 0.20776574328242825
1.6925190400819423 0.12090814165375688 0.3144086304873654 0.6920345434786729 -0.7216744556624451 0.2710999376874733 0.05466468637922087 0.809507954225877
-0.12930981626548202 0.3146190048152603 1.1572512081870654 -0.1513311257346988 0.35921759739516085 0.15378795711623278 1.148327741523141 0.1090653146310471
0.21571043371930612 -0.692375656209732 0.5116423149389641 0.16025376996993793 0.5379501047166256 -0.4655668030674945 0.36330469489167205 0.1443401537506366
-0.6482818331290451 0.07087346513608683 -0.10333744506611328 -0.4363266886906785 0.4882164457017169 0.4151422922590021 0.18384581871586753 -0.10167699195121875
0.3637121467266443 0.3182107537833227 0.10466181874455663 0.6786735391294431 0.6602763909878837 -0.4584626992004561 0.35989758770642966 -1.9211303194582185
1.1116100392474175 -1.211306760578554 0.1005307515433349 -0.15387812655899344 0.02329997131614208 -2.317147781474898 0.3172453377463541 1.0464131094193287
-0.26841534963020003 -0.17082387800824136 1.0460142926931433 0.534796342148956 -0.39054012702416346 0.11962530655667748 1.1506374381260427 -0.6670465391049235
0.36036781396305473 -0.36808386738462245 0.294087702364933 0.481412813729631 0.19193231576968484 -0.3451336214459502 0.35483308440068484 -0.23291696167823064
00000000: 48be 102f 40bd b0bf 1a27 09b7 eae9 ed3f
00000010: 974b 6e99 73f8 c93f 3b4d 76e9 8300 e33f
00000020: 6e9a 313b 846e e13f 0d5a eb79 7fcc bc3f
00000030: 0269 3a76 434a d13f 0184 4109 2542 f03f
00000040: 911e d9a1 49bf dc3f a0e2 2e28 a719 b7bf
00000050: e2ee 8a37 cdac e23f e7b4 87cc 2799 da3f
00000060: 0666 e159 1b03 c53f 2649 e325 3461 d33f
00000070: 9147 940a 06d6 a53f ded7 0b02 4c9d ca3f
00000080: 6134 dd0c d418 d43f 1d37 d335 476c dd3f
00000090: 8a72 9c53 83d9 f1bf 2e18 93af a857 73bf
000000a0: 6047 6072 5b1e e53f 057f 5384 8821 e23f
000000b0: 9b3e 6b4a fa78 cc3f 2e25 3873 dde0 b5bf
000000c0: 99f3 b67c f408 713f 6b63 8c03 2941 e83f
000000d0: 99c6 6942 9524 d73f 6620 4df2 eabc d33f
000000e0: 462f 71b1 252a a63f ca89 05b1 7850 b33f
000000f0: 9dd1 be98 8559 e03f 42b2 fd5a 53e8 05c0
00000100: e47f 745a db7f d8bf 8079 ca98 dce8 e4bf
00000110: 2ab9 b7ed 242f ce3f 60c6 8033 9c1c b53f
00000120: 83a8 8e99 3bc9 e1bf fde2 de19 edd1 f4bf
00000130: ac82 a374 19de c0bf 0077 9020 9d07 e43f
00000140: 5cf3 26e2 b7dd ebbf 18bc 636c 7192 adbf
00000150: f0b0 dd72 121e e33f 20c7 c240 ad05 cf3f
00000160: 2c26 2f69 87e2 eabf 4433 fd92 e2db ef3f
00000170: 1436 1d22 e9b2 c23f 20ce 1003 b24d e13f
00000180: 3612 dc48 1236 e03f 6c15 315f 153b c1bf
00000190: f2ce 1ee4 86b4 bdbf 80bb 14cc 0936 d93f
000001a0: 484f 9c7d 5eb9 d3bf 767f 9cbb 5296 bf3f
000001b0: 8db7 8ee0 16f9 8dbf d6c2 a019 d6a4 c53f
000001c0: 191b d636 ee21 b43f 7848 d856 87fb ce3f
000001d0: 50ae b11c 678d c73f 5626 cb33 dd84 e83f
000001e0: ab0b 5f76 5ee2 de3f 8d7e 3be9 fb59 c0bf
000001f0: 8462 b360 c105 e63f 89b9 0872 6f67 cb3f
00000200: 492a f997 c392 ab3f 191e b407 7748 d33f
00000210: 9d19 d666 9eb2 c83f b562 ce3a de24 e13f
00000220: 33a7 aba7 bdc8 e33f b6bf 3c03 e25b dabf
00000230: 6fb7 11f6 4665 e33f 4e3f 39c4 d9e0 dd3f
00000240: 2ea8 2f80 0296 d83f 0895 6f99 a50b e33f
00000250: f779 c992 9506 e43f 0cc9 1abf b450 ed3f
00000260: b729 d8ee b02a e13f b4b9 0c80 d17e b53f
00000270: ead9 7171 3aff e1bf c74c d203 caf4 d33f
00000280: e4c3 1719 ded3 c33f 7faf 0ce5 8478 bebf
00000290: b24e a754 ad09 d23f 4a1e f392 8747 d53f
000002a0: 035a 0d21 b802 e13f 897f 4988 514f 8e3f
000002b0: c189 7b14 5177 d63f 89d1 2b70 e72f e53f
000002c0: 39dc 3778 8456 03c0 a36a 0d1d d09e d1bf
000002d0: 6924 5fdc 493f e3bf 9450 924e 29cd ea3f
000002e0: 6d1e 74b5 fc15 b63f 2921 db78 38d4 ed3f
000002f0: fabc d836 84df e03f 209f 63c3 1a89 e23f
00000300: dee2 2366 2877 f73f c7a4 7e6d b4b9 f73f
00000310: af16 fcc9 fb99 c1bf bb0f 3e1f 830c ce3f
00000320: feb7 a775 e4ea e13f a8eb e9d0 67c8 d53f
00000330: f61d b104 2902 db3f 6998 7346 40f4 d13f
00000340: b190 ef7b d9e8 eb3f 3f5d c0aa d919 dd3f
00000350: 4148 952b 3a3f a6bf 8871 755d 694f cc3f
00000360: e322 a0d7 d2a4 e43f a82d 1ae0 99bc d8bf
00000370: 454b 14d1 7c20 af3f 4a94 adc9 473d db3f
00000380: 4770 4b39 6139 c73f 5090 92ec 4873 9c3f
00000390: 7556 6381 d7cc d33f 9e71 2ca5 58f0 d23f
000003a0: b5cf 49d8 8722 d93f 0750 b870 e37a a0bf
000003b0: ae3e 38bc 5577 d2bf 524b 4a14 9dea aebf
000003c0: c433 5aea dc29 e73f 707b 10fc a757 b63f
000003d0: d60d 843f c239 e73f c7eb 305f a878 f03f
000003e0: 3bd9 30c3 76a9 e23f b1c1 47a7 cc23 e13f
000003f0: ffab 2559 bbc4 df3f faf4 d7b2 ec18 e03f
00000400: 6fa1 4c79 21f9 b1bf 523b 7ad4 ab45 693f
00000410: 40c7 9b87 794a da3f 1a10 b9d0 a156 d03f
00000420: caa7 2667 75cc ef3f 506c 1333 3980 e53f
00000430: e7ff b427 9222 e4bf 0eb8 86c5 aa22 de3f
00000440: 3c1a e3f4 1219 d53f 2c0e bdca e974 be3f
00000450: 4419 6bdc a455 e93f 0103 0a05 1195 d53f
00000460: bc5b 989b 23cc d1bf 70b1 bbef 7584 cb3f
00000470: c5d9 65d3 cc3a c9bf 03ce ed23 9767 bd3f
00000480: e57f e4a9 3d46 c13f d8fc 14c7 a1d4 e43f
00000490: 28c8 014f 37fd f2bf 2abf 92bc a5db da3f
000004a0: 6059 574b ec69 e83f d549 25e7 8802 e93f
000004b0: 490e 5e97 59e0 c03f 0071 16e1 29d5 e53f
000004c0: fb82 956c 3dda d03f a6e2 4f92 e8e0 ea3f
000004d0: 8824 55a1 2f12 f73f b6ef df58 04d1 e0bf
000004e0: 751b c77b 607a c33f e401 3897 47b0 e13f
000004f0: 2ff0 7e9e 1f4f ea3f af72 63a8 5e40 e23f
00000500: d01c fdb0 7a73 c13f 23d6 a0bd fcd3 b9bf
00000510: 9157 e5bd bc8d f8bf a72d 6238 3a54 c3bf
00000520: a2af 422d 31ce db3f 3383 719f d51e d93f
00000530: 0731 7af3 a2d1 c03f 2206 1f6c 7076 d5bf
00000540: b96f b613 3ba0 e83f 0a24 8e3b 007d cebf
00000550: 6427 f69e 7ff4 bf3f 6f80 2311 1960 ec3f
00000560: 414b 5436 e049 da3f dd14 9746 0656 c33f
00000570: bfc0 4d8e 01cb d33f a80f f6b1 0226 bf3f
00000580: 41b1 785b b427 b4bf 018d 6ee1 c024 d73f
00000590: 4162 8125 7cf7 ad3f 51bb 2d8b 9b9c cebf
000005a0: 1ca7 896f 299d e63f 1849 a498 88a8 e2bf
000005b0: f506 3fdf ddfc d13f 98f4 05de cffb b13f
000005c0: 0010 338b b33d ca3f 141c 4ba2 5573 de3f
000005d0: b458 09c0 2ec9 de3f 3aee ada9 0afa d7bf
000005e0: 1a0d f2f6 db5b e0bf 2c91 6c28 d4c6 e33f
000005f0: 27f3 1735 7abb c93f d046 5060 1198 ca3f
00000600: e925 50d8 8e14 fb3f ea17 3902 d6f3 be3f
00000610: 1b7f 6160 451f d43f 9d2e 7ea0 2525 e63f
00000620: c3b8 2d07 f517 e7bf 762e 948d b359 d13f
00000630: 045d 7d80 02fd ab3f 7010 a839 7de7 e93f
00000640: e1bc f45b 398d c0bf 4a6c 18c0 b722 d43f
00000650: 0cb8 c6d7 1984 f23f dadd f27d d15e c3bf
00000660: 2d6f 3dce 6bfd d63f 7e9b 2ae3 52af c33f
00000670: 25e7 eee8 8c5f f23f 5ae2 7757 b4eb bb3f
00000680: 997d 1d45 669c cb3f 6ff4 fefd f027 e6bf
00000690: e133 3db4 5f5f e03f 8d71 8a0e 3283 c43f
000006a0: e567 5423 e336 e13f 65cd 51b4 d8cb ddbf
000006b0: 58c0 c255 6240 d73f 79e6 edf7 bc79 c23f
000006c0: 6b2a fc8a b9be e4bf 88e7 e96e c324 b23f
000006d0: eeda 02a3 5274 babf 9819 93c6 c6ec dbbf
000006e0: 8120 ea30 f03e df3f be16 1cfa b091 da3f
000006f0: 260c 7281 4288 c73f dba6 2fdb 8007 babf
00000700: 3a54 d64f 0f47 d73f 4308 2fa3 905d d43f
00000710: fad2 a5f0 1dcb ba3f cf16 e791 b1b7 e53f
00000720: d2a4 33f4 fb20 e53f 381e e0ee 7357 ddbf
00000730: 24f0 46e4 8f08 d73f 53d5 5625 f3bc febf
00000740: 2491 c79b 27c9 f13f cabc a132 8361 f3bf
00000750: f0f4 1e22 62bc b93f 0700 9248 47b2 c3bf
00000760: 2ec8 339b f2db 973f 1978 abc6 8489 02c0
00000770: ce75 9b63 bf4d d43f abfc 30ac 1bbe f03f
00000780: c9fd 1993 b72d d1bf d7ec b58c 8edd c5bf
00000790: fd3f a47b 79bc f03f 2d9b f137 0d1d e13f
000007a0: c30b 5604 9cfe d8bf e155 6f9b c39f be3f
000007b0: 8cdf 64cd 0269 f23f 41b3 cbfb 7158 e5bf
000007c0: 3626 e029 4410 d73f b389 26a3 af8e d7bf
000007d0: f60a f439 55d2 d23f d105 b6b0 77cf de3f
000007e0: 285f a3f5 3c91 c83f cd10 3754 ab16 d6bf
000007f0: 408b 42d3 95b5 d63f 5dbc 8b16 39d0 cdbf

linear_afunc_stack.Linear2.bias f8 [200]
-1.7764238450024654 -2.347861413258423 -1.6251198306203674 -1.8314742011884078 -2.8512534232438806 -2.5890786930568255 -2.5860647969873427 -2.6569484489037376
-2.6047645853287924 -2.003520109207804 -1.4935631444293282 -0.8442840864505555 -2.55129448841328 -2.1169702800891192 -2.423033582644502 -3.2365223000628793
-2.0113755956632122 -0.7037365422403924 -1.1475862270556403 -1.850188823865082 -2.952493388554217 -2.4807322399586713 -1.79528846050732 -1.8134473487645546
-1.9476162410091622 -2.6066356206191537 -2.337117972020346 -1.9821062365665858 -1.0245729144657965 -1.5894240749420583 -2.313573608509939 -1.8558798861583767
-2.8717638155032055 -2.812127423003478 -1.9066345862371787 -3.1758725344641614 -3.5345339254005927 -1.8823602037386704 -2.5217256607588157 -2.4304288568979113
-3.9305390469320414 -2.0383541108684446 -2.1302051860798654 -2.0239944722901506 -1.6284032537006217 -2.713337130647291 -1.899701308274594 -1.861509074384088
-2.4835910756743966 -2.803973603043016 1.4453070282441962 -2.3016162502780833 -1.2160597074233717 -1.541374390691685 -2.821938979782936 -2.1161436849679927
-1.9128704396145175 -2.3177672354441863 -2.0238114649126175 0.005349720685724654 -1.8883676526773796 -2.0542979260898617 -1.6687095443935773 -2.396471799349165
-2.3511171378922215 -2.7878710390451467 -2.8623007219065975 -2.0220160750277847 -2.859893957309746 -2.181076698258848 0.0895643617624914 -1.4957766040775142
-2.386212415778982 -2.479586858554679 -2.0237683163641362 -2.3404607690583656 -2.25709699423347 -1.7054311613367354 -1.661092410197357 -3.045065645558517
-2.1155716504356006 -1.9009497193465863 -3.4303957866179013 -1.2632999856022595 -1.9139824807098635 -1.706969780848211 -2.275723501383129 -2.0329837787046943
0.20455862271359415 -2.1781103399148356 -0.8535005462489131 -1.9702053718250385 -2.4010803302013963 -1.8614411815605982 -1.5851380645396311 -1.7294039861789032
-1.5110197352845494 -1.7945579675851597 -2.7435204273409814 -2.9197377515236473 -3.041780028955642 -2.1174641432394274 -3.068157806570517 -2.2577110479742006
-2.3092480299815517 -2.2407272280066413 -2.176811542143519 -1.1199707136702197 -1.1903276437737484 -1.0645399580844457 -2.9718897877769637 -2.202775472603677
-2.996017826490374 1.8319851972006915 -2.6637092946512024 -2.7853120896808203 -1.5167915241521963 -1.5684066061914974 -2.492703531674868 -0.9149797323264862
-2.256250500379744 -0.9859362674905204 -3.422239450253319 -1.7404974574443997 -2.6456731733174745 -1.5850123836941568 -2.3297646379761923 -2.015023237013423
-2.1384383872162567 -1.786370884874392 -0.9112089135961754 -1.7340280812814202 -2.0577204023143287 -2.751586099379469 -1.0404924052729945 -2.654933278030215
-2.428318980674288 -2.5554421020143345 -1.1073127040328221 -1.6567936005911033 -2.591320639379845 -0.8107042151967938 -1.6080378269045692 -1.71263354936755
-2.3168442903320243 -2.437209644001419 -1.3786440881791007 -2.3810759207717678 -2.4750064343619154 -1.624415960372033 -2.4774674815013675 -1.1021520305682346
-1.6427158897234317 -2.434789754726595 -2.104013864513772 -1.9894809125717932 -1.8372640478537086 -1.632127132156068 -2.3558173684812234 -2.6059040446763024
-1.9326875358755111 -2.4476705965567125 -2.0631819985600286 -2.191183824824689 -2.6909994912601287 -1.2584248314805948 -1.0655995580320077 -2.657923844421591
-2.021904222326648 -1.8991811165542691 -1.9881915400908583 -1.7103723310786774 -1.2236326995605284 -2.420362551098874 -2.8837173332414614 -2.7237663879794334
-1.7316597492578578 -2.4865161418545045 -3.0813692042689413 -1.8331069539433194 -2.2430582100507905 -2.357600403838834 -1.6776716154384796 -2.743932456406836
-1.1498898100778627 -2.2311833218804495 -2.3063586536504856 -2.3070184242960434 -1.802609562561768 -2.395736438515335 -2.0970317642347642 -2.37380601929633
-2.8822238230614863 -1.3179378615355697 -0.227564717369379 -2.1584205929900904 -1.525211342486069 -1.5055118206730937 -2.9665914875575075 -2.493661205162145
00000000: 2fec e168 3b6c fcbf d4e1 8b90 6bc8 02c0
00000010: 5287 c9a6 7d00 fabf a626 59e4 b74d fdbf
00000020: 2c86 6bf4 5dcf 06c0 8d98 cbe3 6eb6 04c0
00000030: 1d2e 83bd 42b0 04c0 8998 3930 6e41 05c0
00000040: 1b21 9ed0 8ed6 04c0 2d68 0f8d 3507 00c0
00000050: b55b bd77 a2e5 f7bf f3d3 7a0f 6004 ebbf
00000060: c899 b115 0d69 04c0 9eb1 3c1d 8eef 00c0
00000070: f58a 546e 5f62 03c0 ae5b bccd 65e4 09c0
00000080: a4c4 9a16 4c17 00c0 0186 3d7f 0285 e6bf
00000090: 3fb4 2860 835c f2bf c0cd 9e98 5f9a fdbf
000000a0: 00f9 8bda b49e 07c0 e40a 0625 8ad8 03c0
000000b0: f63d 8c64 80b9 fcbf fe62 ff5d e103 fdbf
000000c0: 55af c4a5 6f29 ffbf f52e b9c6 63da 04c0
000000d0: 14c5 45e8 6ab2 02c0 9c04 7407 b5b6 ffbf
000000e0: d0f7 7f91 a664 f0bf 7d9e 55f0 476e f9bf
000000f0: dc82 4be1 3282 02c0 c0ab 851b afb1 fdbf
00000100: 2b61 ab4e 5ff9 06c0 a8e0 8fa9 3c7f 06c0
00000110: 92fa 9444 9381 febf 3f4e fedb 2f68 09c0
00000120: 9b95 01b9 b946 0cc0 7f97 a5bb 251e febf
00000130: 7a8b d380 7e2c 04c0 af0c 3daf 8471 03c0
00000140: 03cb b174 be71 0fc0 ebc6 9e99 8c4e 00c0
00000150: 66dc 3f04 a90a 01c0 f52a 8e03 2431 00c0
00000160: af81 f591 f00d fabf 8338 f918 eab4 05c0
00000170: 2153 f332 2d65 febf 80fd 3abd bdc8 fdbf
00000180: 9f45 75ff 64de 03c0 1956 5fb6 896e 06c0
00000190: e9cd 2f43 fa1f f73f 9717 d7c7 b569 02c0
000001a0: 0bde 1506 fb74 f3bf 7a9a 6e31 78a9 f8bf
000001b0: 72cd 6bbe 5493 06c0 7c98 84bd dced 00c0
000001c0: 6a12 ba08 1e9b febf efc8 5f8c c98a 02c0
000001d0: 6d8e b810 c430 00c0 c9ed 34b6 96e9 753f
000001e0: 992d f1ff c036 febf 665f 46c0 336f 00c0
000001f0: 7918 7bc7 08b3 fabf 71ed 1f68 f92b 03c0
00000200: 6a7f 8280 16cf 02c0 c850 d154 8f4d 06c0
00000210: 8b3f bfeb fde5 06c0 4ed8 91c3 162d 00c0
00000220: 1563 4515 10e1 06c0 1eb7 0857 d872 01c0
00000230: 0932 a8a4 b0ed b63f 6728 ca72 b3ee f7bf
00000240: 99a3 f888 f616 03c0 78ab 88a2 31d6 03c0
00000250: 36b8 6b71 ad30 00c0 dc69 e57e 43b9 02c0
00000260: ad0f 71de 880e 02c0 4a54 782f 7249 fbbf
00000270: 48e7 96a2 d593 fabf 92c6 8e60 4b5c 08c0
00000280: a6b9 57d4 b0ec 00c0 87f1 be40 4a6a febf
00000290: 72e1 9e58 7371 0bc0 012f b30b 7a36 f4bf
000002a0: c740 fc17 ac9f febf bc0d 808b bf4f fbbf
000002b0: e66e e985 ae34 02c0 6aae d6ff 8c43 00c0
000002c0: 64b8 5519 fa2e ca3f fb1b 281d c56c 01c0
000002d0: 203b a860 e04f ebbf e145 6611 f685 ffbf
000002e0: 6245 aa9a 6935 03c0 96af 638c 76c8 fdbf
000002f0: b07a 2dbb b95c f9bf e75d a383 a3ab fbbf
00000300: 0286 aa07 232d f8bf 30df 586a 82b6 fcbf
00000310: 1eb3 7ad6 baf2 05c0 6e86 5d77 9f5b 07c0
00000320: 5fec 8fc4 9055 08c0 f853 6d0a 91f0 00c0
00000330: ed7f f151 968b 08c0 c7ef 56cf ca0f 02c0
00000340: 4cfc f807 5779 02c0 b15c 9c65 02ed 01c0
00000350: 717e 782b 1c6a 01c0 de0f 3b69 66eb f1bf
00000360: 1e87 d8ff 940b f3bf 6120 140d 5b08 f1bf
00000370: 2a8c 2e27 6ec6 07c0 221c 3abf 489f 01c0
00000380: c212 b831 d8f7 07c0 b3ba cbb5 cf4f fd3f
00000390: 09a0 94d1 464f 05c0 0ca9 72b4 5148 06c0
000003a0: be56 7130 c744 f8bf ecc3 8686 3118 f9bf
000003b0: 8b56 998c 0ef1 03c0 ff0a 5b93 8347 edbf
000003c0: 93b7 f50f cd0c 02c0 abfc 1937 ca8c efbf
000003d0: 295a af13 bf60 0bc0 e6ea a7dc 13d9 fbbf
000003e0: bc6c 5ab2 562a 05c0 e28a fbf1 355c f9bf
000003f0: 55e1 7ba4 5ba3 02c0 bf38 bd80 c41e 00c0
00000400: a5d6 cc95 851b 01c0 57fe 10a3 f994 fcbf
00000410: 3404 7798 9f28 edbf 7430 b73a 94be fbbf
00000420: 1b04 421d 3676 00c0 47b4 a792 3f03 06c0
00000430: 6924 465d dba5 f0bf 639d 91a8 4d3d 05c0
00000440: 5904 7280 326d 03c0 d5c8 f7a0 8b71 04c0
00000450: c242 a486 8db7 f1bf 8b2c ac01 3a82 fabf
00000460: a1b0 bc50 06bb 04c0 86fc 5ff7 49f1 e9bf
00000470: 9893 54df 85ba f9bf 740e c96f f266 fbbf
00000480: f733 c7a8 e588 02c0 edda 13c5 677f 03c0
00000490: ffd8 781a ed0e f6bf 0910 4888 710c 03c0
000004a0: bfca 672c d0cc 03c0 7e5f 0e97 9bfd f9bf
000004b0: 689d 8f78 dad1 03c0 412b e82a 6aa2 f1bf
000004c0: f8b4 ef74 9048 fabf 217e 090d 737a 03c0
000004d0: 7a56 9338 05d5 00c0 8231 f8ef e9d4 ffbf
000004e0: 435f 7afc 6e65 fdbf b064 f856 311d fabf
000004f0: 1ace c7c6 b6d8 02c0 d430 4338 e4d8 04c0
00000500: ea8d ffc3 49ec febf 31bc 5c52 d494 03c0
00000510: 0617 4c90 6581 00c0 7c2b 9962 8b87 01c0
00000520: 7f1e c4bd 2a87 05c0 7aef 7a13 8222 f4bf
00000530: 8b12 461f b20c f1bf 0565 9893 6d43 05c0
00000540: 524c f41e dc2c 00c0 6980 0cbd 0b63 febf
00000550: 5afc adee a1cf ffbf 9275 9f60 af5d fbbf
00000560: cedb aee1 ff93 f3bf 5c76 8b0a e75c 03c0
00000570: 7b71 a964 da11 07c0 9586 3208 46ca 05c0
00000580: ffca 6dda e0b4 fbbf f7ed 3193 62e4 03c0
00000590: a7e4 b9e5 a4a6 08c0 961b 14f5 6754 fdbf
000005a0: 208a b980 c8f1 01c0 8831 bc99 5ddc 02c0
000005b0: abc5 1b31 bed7 fabf 3a9a 15dc 92f3 05c0
000005c0: f19b 84db f265 f2bf 7ddb 36a4 76d9 01c0
000005d0: 1334 722a 6c73 02c0 b9f7 5c13 c674 02c0
000005e0: f78d ea1f 7dd7 fcbf 2f12 aadd 772a 03c0
000005f0: f17d f096 b8c6 00c0 cc67 9f02 8efd 02c0
00000600: ce68 1e5d cb0e 07c0 8449 d702 4616 f5bf
00000610: 7c98 6935 d720 cdbf 303e 0f04 7244 01c0
00000620: 6a74 3702 4467 f8bf 8684 1890 9316 f8bf
00000630: 3e36 5d51 94bb 07c0 89cd 5ba5 04f3 03c0
