models/torch/NH3_net_loguniform.pt (torch, 660187 bytes, 12 tensors)

mean_in f8 [5]
000000 2d fa 86 fb 67 45 8a 40 3a 90 78 ac 88 12 54 40
       840.6757727189157 80.28959190152901
000010 88 05 1b 0a 74 57 d5 3f 8a c8 9a 94 3e 53 d5 3f
       0.33346272456045556 0.3332058383194939
000020 ee 31 4a 61 4d 55 d5 3f
       0.33333143712005053

std_in f8 [5]
000000 91 8f a2 fb 0f 39 6f 40 37 06 04 74 b9 35 5d 40
       249.7832010436073 116.83944416420933
000010 83 ac 86 34 97 2a ce 3f 9f 94 83 8e f7 21 ce 3f
       0.23567476334332946 0.23541159113589047
000020 01 86 3d f8 77 2e ce 3f
       0.2357931100951163

mean_out f8 [2]
000000 74 1b 4e c8 ba a6 e0 3f 59 d0 89 42 7b 69 bc 3f
       0.5203527366837606 0.11098451971503333

std_out f8 [2]
000000 49 45 29 75 b5 cf cd 3f 3f 94 00 64 0b ed c7 3f
       0.23290127011072517 0.18692152388499214

linear_afunc_stack.0.weight f8 [200, 5]
000000 a3 a0 dd 55 93 9b d3 3f 6e 08 e7 e7 99 e9 a3 bf
       0.3063705767185729 -0.03889161067810752
000010 7e 8e 26 58 45 75 ed 3f 04 ad 1a 46 36 79 d7 bf
       0.9205652925197254 -0.36677319379914786
000020 61 83 03 cd a1 2f c8 3f f6 75 b2 93 ce 52 f5 3f
       0.18895361433444705 1.3327165383737998
000030 86 24 e4 ed be 60 c6 bf 80 1b 25 8d e3 80 ed 3f
       -0.17482744804172884 0.9219835049378702
000040 09 ae 90 cf e7 a2 e7 bf 4c e1 b4 78 94 01 e3 3f
       -0.7386359266287751 0.5939428670454077
000050 e8 6d 90 ba 83 6a e3 3f 55 52 44 ad f3 21 70 3f
       0.606752266295584 0.003938629019348901
000060 1a 64 8a eb b9 47 db 3f dd 54 ce c4 3d 9c d9 3f
       0.42625282289515243 0.40016121119817943
000070 4c 93 72 2d 22 06 ab 3f 46 ee 4b 4a 89 d7 bd 3f
       0.052781169936941014 0.11657007278329798
000080 a1 3f 88 a0 1f 77 a0 3f cd fc 39 cc a0 cc df 3f
       0.03215884050962293 0.4968645090484188
000090 a7 0b 2c ef 40 0c df bf 1c 76 ea 1d 3d 7a ac 3f
       -0.4851229034103945 0.05562010755714317
0000a0 a7 2a dc 87 93 27 99 3f 9a 8a fc 63 3f 32 79 3f
       0.024565034072149185 0.0061514354891040405
0000b0 42 bd 35 ef 73 a1 c6 3f 50 fb 2f 6e 31 f0 eb 3f
       0.1768021505372222 0.8730704452608311
0000c0 bc 90 80 1b 47 b8 ee bf ee 91 aa fa 34 85 d2 3f
       -0.9599948441650876 0.2893803069985371
0000d0 65 07 3e 0c 04 87 f2 bf c2 a9 d5 b7 74 67 da 3f
       -1.1579628446783883 0.4125644488582588
0000e0 b8 07 06 20 59 73 d9 3f 5b fe 11 18 44 7d 85 bf
       0.39766529204655 -0.010492832169119717
0000f0 c1 27 ad d5 ab c9 e8 3f cd 21 e4 4f 60 7d e0 bf
       0.7746180699698401 -0.5153047142385333
000100 34 12 51 28 2e f0 ef 3f 64 93 b9 36 8d 91 ec bf
       0.9980688846049532 -0.892767531284886
000110 70 5e bb be d2 d8 e8 3f 6d 3e b9 18 af 0f ca bf
       0.7764676785690892 -0.20360363681037388
000120 74 67 ea 89 36 ab cc bf 93 e1 30 0f 0e 51 e1 bf
       -0.2239750073829857 -0.5411443993280493
000130 c7 80 63 05 10 ed ed 3f 7c 5d 57 4e cd 3d dc bf
       0.9351883034942369 -0.4412720933009593
000140 8b 16 c9 cd cc d4 cf 3f e5 a0 45 f9 1f 67 f0 bf
       0.2486816410839093 -1.0251769768893209
000150 06 80 af 4d d8 bb d8 3f 1f ab 18 60 c3 4f d9 3f
       0.3864651449821398 0.39549335846338524
000160 c6 53 74 38 1e 87 b5 3f 64 a7 8a 26 f2 90 c7 bf
       0.08409298780709581 -0.18411089784541013
000170 e7 72 4e 32 2b 05 c8 3f e0 cc 9d 97 72 a1 d8 3f
       0.18765773731583765 0.38485398107805047
000180 fb 0c 69 03 95 75 e3 bf 0a 94 26 7b 2d 64 d2 3f
       -0.6081032816513522 0.2873643591540832
000190 7a b6 ce 35 97 a5 e1 3f ce 5e 9f 6f 24 1e d3 bf
       0.5514637041976151 -0.2987147417129393
0001a0 86 f3 ad ed c0 ee d1 3f a5 0b 73 0a 79 1d ec 3f
       0.2801973649109687 0.8785977558221602
0001b0 c2 04 cd c4 31 ba d0 bf 9c 8b e1 af 31 a2 e4 3f
       -0.26136440485795387 0.6447990832497115
0001c0 b8 a1 93 54 11 5f e7 bf 6e f7 09 8a ca 3b e2 3f
       -0.7303549434555441 0.5697987266610036
0001d0 4c 24 c1 b4 e2 53 e7 bf 50 de 92 7b c4 fd d0 3f
       -0.7289899378166722 0.26548873965973474
0001e0 89 fe 81 e2 f1 6d e7 3f cb fa 97 1c 84 2a 14 c0
       0.7321710037212635 -5.0415195911179564
0001f0 2e 2b 71 d7 98 90 a6 3f 82 4d 97 37 32 b9 b2 3f
       0.044071937846260276 0.07313836915209573
000200 24 d5 a6 05 b2 3a a8 3f 9d 3d 24 e5 45 51 e6 3f
       0.04732281035414079 0.6974210238858408
000210 f2 15 5e ac b3 5f da bf 18 00 a4 91 de 63 ad 3f
       -0.4120911772991739 0.057402568128964215
000220 17 87 6f 8c 44 6b f3 3f 17 43 83 86 f1 12 d9 3f
       1.213688419892099 0.3917812169648171
000230 01 98 d2 d4 79 a2 f1 3f 15 7a 66 4c 70 6a 01 c0
       1.102166968668371 -2.17697200477347
000240 08 91 b4 92 c5 56 dd 3f ee f5 17 88 ed 4b dc 3f
       0.4584211285275761 0.4421342686690356
000250 b5 1d 3c 1b cb 6b dc 3f 38 77 f2 c2 e4 4a dc 3f
       0.444079186054718 0.4420711425571997
000260 ba bc 03 d0 40 07 ed bf 56 84 b0 43 fd 86 c1 3f
       -0.9071353972230078 0.13693204693939504
000270 14 59 50 fe 81 89 e0 3f ca a6 ed 4c bd cc ed 3f
       0.5167856185023845 0.9312426092630741
000280 53 c7 6c 0f d8 49 f1 3f 8d 9d 2a 20 f8 88 13 c0
       1.0805283167396353 -4.883759024239578
000290 9c aa 18 ce 2a 08 a1 3f 45 1d 89 85 ca 6e ce 3f
       0.03326543584656358 0.2377560760526
0002a0 aa c8 2c 78 5e b4 a2 3f 39 1b 03 40 8c ee df 3f
       0.0365323564241334 0.4989348054045198
0002b0 fc 2e c3 09 3e 95 07 c0 45 bf 11 08 95 25 c4 3f
       -2.947872234601048 0.15739691633234024
0002c0 25 30 72 db 4e 11 a4 3f 76 cd 7d 81 37 8a b3 3f
       0.03919454983505969 0.07632777129565746
0002d0 48 54 56 64 9f 7f e2 3f 3e 8d 0b ec 2d 65 8d 3f
       0.578078933688297 0.014353140607858191
0002e0 d1 a5 86 fe c7 5b e1 3f 0b 50 a9 15 6e 8b e0 3f
       0.5424537631235414 0.5170202658723623
0002f0 c4 99 dc b7 b5 4a e2 3f 4d 97 c2 1c 38 54 a1 bf
       0.571619853119778 -0.03384566641879747
000300 67 dc ef 66 5a 2d a2 bf c4 8d b0 b2 94 9b ea 3f
       -0.0355022669463601 0.8314918031723484
000310 88 1c 4d 59 50 1f f3 bf e4 8a 35 5a 95 67 b4 bf
       -1.1951449859932683 -0.07970555736896362
000320 b8 1b aa f8 b5 e2 f3 3f 7f f8 e7 5a c7 bd e7 bf
       1.2428493226486648 -0.7419163489828547
000330 f2 b1 3d 08 92 c4 c1 3f 9b 66 01 4e 26 3f bb 3f
       0.13881135370628744 0.10643233684950319
000340 f6 6b f3 ad f0 8d c1 3f c1 78 e2 d4 fe cb d0 3f
       0.13714416974730143 0.26245089330212684
000350 12 70 c7 ab 91 16 00 c0 42 64 19 fd 07 11 dc 3f
       -2.011020032905443 0.4385395023032893
000360 39 b8 a0 4a c8 c9 e0 3f 83 d1 7d b8 af c3 d9 3f
       0.5246316392492708 0.4025687505411712
000370 21 a6 aa 58 5e 66 ca bf de 85 3c bb 6b ec df bf
       -0.20624903993056967 -0.4988049820404664
000380 10 59 cc fd ff 77 f6 3f ab 3e 5a f1 81 fc d4 bf
       1.4042968667977824 -0.32791184014875324
000390 bc 1f 0d 0d 31 ed f4 3f 9e 5b 62 7a 24 d2 d0 3f
       1.3079081067862566 0.26282607986052564
0003a0 28 a7 22 e9 a3 43 ea bf 7c 10 c7 45 31 ab d6 3f
       -0.8207568696427403 0.35419875921457566
0003b0 b9 d5 2b 41 de ac be 3f 4b f0 3d 7a 40 94 f1 3f
       0.11982525912374954 1.0986943030429923
0003c0 b3 30 35 2f 2b eb ea 3f 2c 6e 8f 1b 4b fb ff bf
       0.8412071153666346 -1.998850925118755
0003d0 fd f1 46 3f 9a b3 e6 3f 31 93 1b f2 72 d0 e6 3f
       0.7094241367227024 0.7129454353967956
0003e0 41 55 4d e3 9b 01 dc bf 16 ae 2d d7 80 4b f1 3f
       -0.4375982017275711 1.080933418789646
0003f0 9a e7 51 3f fd 44 fa bf 4a 2b 74 ce b0 2a e0 3f
       -1.6418430779872097 0.5052112610149859
000400 2d cb fe c2 fd 1b da bf 0c ee 59 3a de 1d d6 3f
       -0.4079584507227761 0.34557300279968284
000410 d9 ce 46 34 d6 61 e4 3f 64 1c df a8 c3 89 bf 3f
       0.6369429608370992 0.12319586632576002
000420 78 a3 73 6c 33 4d d0 3f 9a 3d a9 b0 bf d1 df bf
       0.25471196738231283 -0.49717705013332536
000430 52 0f 76 16 5f 24 90 bf 3a f2 e7 67 cd b2 f6 3f
       -0.015763746019288156 1.4186529215650254
000440 52 4b b7 eb fc 3a d2 bf 54 e3 d4 30 5a d7 d2 3f
       -0.2848503400720591 0.29439406174383476
000450 3f b5 e0 d9 01 59 e3 bf 6d 5d 74 d2 5a 23 ca 3f
       -0.6046151404786214 0.2042039420709715
000460 c3 d0 1e a5 27 cd d1 3f b3 78 18 e0 5f 31 e7 bf
       0.2781466591361658 -0.7247771622530962
000470 e3 be 25 00 39 cf d0 3f 77 c0 e6 8c 86 2b d5 bf
       0.26264786734007667 -0.33078159103298027
000480 13 3b 83 8b 47 64 b4 3f 45 e3 4b 91 25 80 de 3f
       0.0796551433188422 0.4765714568052782
000490 7a 10 8d d3 b7 64 c6 3f bf bc dc 7f 8e 09 d4 3f
       0.174948671623614 0.313083290925487
0004a0 95 67 f0 0a 68 4e bb 3f f7 62 64 ee 7e 27 d8 3f
       0.1066651369768848 0.3774106338546938
0004b0 be 6b d8 6a 43 cb c7 3f 22 11 7c 79 b5 b3 a2 bf
       0.18589060513553862 -0.03652731998411897
0004c0 b3 48 86 ea 1a 3f f3 3f 86 29 fc b7 45 ef ce bf
       1.2029065285792455 -0.24167701228754995
0004d0 81 60 3e 8a a9 13 b6 3f 60 4b 03 d6 17 1a c2 bf
       0.08623752236451489 -0.1414212985024177
0004e0 62 42 6c db b9 d6 aa 3f ec 29 67 ec ac 7e fb 3f
       0.05241947940351534 1.7184266314021626
0004f0 a1 5c b1 c5 43 8f f3 bf f4 4d 25 5e c1 99 d4 3f
       -1.2224767420173424 0.3218844813720516
000500 e1 a2 4d e7 58 c2 b4 3f 58 1e 68 ec f7 e8 9b bf
       0.08109050414135367 -0.02725589161312167
000510 e9 4f 73 44 6b 66 cd 3f fa 81 83 95 00 0d 98 bf
       0.22968808023745105 -0.023487099767295995
000520 98 9f 2f 98 6a 3d f0 3f e6 ca 00 50 df 30 e1 3f
       1.0149942345396763 0.537215858703658
000530 4b 64 8b f6 4f 1d f0 bf aa 04 04 cd ea 38 de 3f
       -1.0071563368458267 0.47222394963325576
000540 fe d7 42 27 de 20 e7 bf 97 ba 86 a3 ce 4e 91 3f
       -0.722762180978634 0.01690218804440721
000550 ca 33 8a f2 a1 f7 a0 3f db da b6 6b 32 06 cc 3f
       0.03313928685847818 0.21893911609159641
000560 35 c5 b5 91 0f dc ef 3f 29 18 c4 64 ef 82 e5 3f
       0.995612892713473 0.6722332923970998
000570 dc 41 da f4 92 41 e8 bf fa 99 6b 42 45 1c db 3f
       -0.7580046446110447 0.4236004971156998
000580 e9 36 31 51 7a a8 04 c0 1b b2 cd cf f3 6c db 3f
       -2.5822645514625617 0.4285249261218113
000590 d6 d7 58 6e 23 7b be 3f 24 91 ff df 67 7c 96 3f
       0.11906644290942778 0.021958945318958048
0005a0 04 e1 70 d0 63 ac 03 40 23 1e 3c c5 be 0b d1 bf
       2.459174755520623 -0.2663418699380335
0005b0 0d 33 7a e2 3d a8 d9 3f 9e 06 84 00 ee f2 dc 3f
       0.40089366070678595 0.4523272519146334
0005c0 b3 e8 01 8b 29 d3 da 3f 7d 83 21 63 f4 3b e2 3f
       0.41913832259127587 0.5698186813498151
0005d0 fb f7 d7 ae 6b 25 f4 bf bb 75 41 41 53 bf d0 bf
       -1.2591358976201252 -0.26167756435992445
0005e0 9c c6 ee e6 29 fa bd 3f 42 a7 63 2b 41 f7 b7 bf
       0.11709844482427417 -0.09361655530269977
0005f0 3b bc 50 6b 8d ec d3 3f 88 c7 f4 5b d3 a9 f1 bf
       0.311313013839882 -1.1039613334691882
000600 2f c5 21 29 b4 1c f1 3f 4f 2a a4 2e 81 7e c9 bf
       1.0695077521052772 -0.19917311456113615
000610 5e 00 2c cf 2f a6 4e 3f 11 40 66 60 da 61 dd 3f
       0.0009353383487393887 0.4590974751854456
000620 d9 db a2 7d 34 9d e5 bf 8a d5 1b 2f b5 05 d7 3f
       -0.6754400686103238 0.3597233734174884
000630 b9 2a 75 ea 86 4c c7 3f 40 f0 76 b9 71 d2 d8 3f
       0.18202291916016636 0.38784449683931044
000640 2c d1 1b 8a 38 15 a3 bf b2 32 0f 80 47 35 a0 3f
       -0.037271277293174115 0.03165648878311823
000650 92 a3 d0 13 2c c1 ed 3f 05 92 65 a5 35 98 f5 bf
       0.9298305880557669 -1.3496605358897125
000660 b4 29 0f 2c fe 26 9d 3f 66 c7 7b 96 37 7b 9c bf
       0.028469058455621712 -0.027813786086830737
000670 04 5d 05 5d 41 d1 da bf 80 21 94 74 09 19 da 3f
       -0.41902193149640277 0.4077781332457775
000680 8f 36 a5 64 df e4 e4 bf 82 e0 72 d6 d7 6b f2 3f
       -0.6529385534028779 1.1513288857368313
000690 58 4f c2 fc 48 b2 d3 3f 6a e4 eb 92 4a f3 b4 bf
       0.30775665935037955 -0.0818373306937176
0006a0 ae 34 d5 42 76 c4 dd 3f da f1 eb e9 5b 76 bb bf
       0.465116086260262 -0.10727476559618002
0006b0 5d 46 69 7d 1a c8 ad 3f 52 ca 51 cb 1e b8 96 bf
       0.05816729336642077 -0.022186738166462945
0006c0 d3 64 70 77 4a f3 5d bf 04 35 b2 83 64 fd e6 3f
       -0.0018280245983588919 0.7184317180814621
0006d0 7c ed f2 d5 eb a0 f8 bf 8d e9 30 5d 1c 13 eb 3f
       -1.539287410486252 0.8460828609598124
0006e0 8d 96 35 5b 1f a6 e1 3f 0d 0b d1 55 2a 04 02 c0
       0.5515286237175175 -2.2520338730258858
0006f0 26 6d c5 9b c3 06 ea 3f 24 05 e7 84 49 ea e5 bf
       0.8133256952673136 -0.6848495097876008
000700 8d a9 5e 8c c0 de d8 3f 35 14 aa d2 07 67 be 3f
       0.3885957117842274 0.11875962155507198
000710 bd 60 0a 38 b3 f2 90 3f 4b df 99 f2 44 3f e6 3f
       0.016550827308123617 0.6952233064939518
000720 a6 fe 57 60 9d 10 ef 3f 4d e1 9a 25 b7 28 b7 bf
       0.9707781678880181 -0.09046501796809032
000730 38 d9 e0 3d bf 56 f1 3f 13 ad 7c a7 40 af 01 c0
       1.0836784760591183 -2.210572536938011
000740 44 de ce a3 b8 3d c4 3f 38 5d bf ff 39 94 d5 3f
       0.15813358305398328 0.337172031167444
000750 49 3d 27 8e 66 7b b5 bf 56 dc ef 73 5d ff d2 3f
       -0.08391419382609401 0.2968362457463106
000760 e2 8e 2b d5 d2 e9 ce 3f ca d6 89 2a 21 33 cb 3f
       0.24151072891901665 0.21249785019943196
000770 68 4c 5c 86 95 4a ce bf 90 0d 4b 80 a4 44 c0 bf
       -0.2366511255318955 -0.12709480537715168
000780 b7 7e 1f ba a3 cc d5 3f 50 76 b8 a3 ee 8f bc bf
       0.3406152074439705 -0.11157123086055631
000790 34 64 f8 e3 c1 ce cc bf f8 e6 cd 15 85 b1 eb 3f
       -0.22505973464356688 0.865419905268225
0007a0 41 11 c2 9e a2 44 f5 3f 41 39 27 3a 1a 2e b3 bf
       1.3292566491591773 -0.07492221755749019
0007b0 a8 19 02 de a7 13 91 bf 2f 74 94 df 7a 72 d5 bf
       -0.016676543164544505 -0.33511230310415646
0007c0 f1 e9 52 a9 f7 b9 f3 3f 5e 7e 1a b6 ce 88 f5 bf
       1.2329022039617679 -1.345900260297547
0007d0 74 d8 93 f3 f4 0b a0 bf 85 5e ad 1d 4e 04 c7 bf
       -0.03134122346266191 -0.17981888245661906
0007e0 24 57 e3 cd f5 ec d6 bf 77 be 90 05 f2 1b e7 3f
       -0.3582129011750672 0.7221613033961621
0007f0 c8 1b 26 be db d7 db bf 1b 76 bc ca d0 52 d4 3f
       -0.4350499493525004 0.3175546626897316

linear_afunc_stack.0.bias f8 [200]
000000 9a 19 3e 03 fc ad 14 c0 64 84 40 37 2b a6 16 c0
       -5.169906664529117 -5.66227423030168
000010 f3 9a 01 16 31 ee 17 c0 19 4b 74 46 42 51 13 c0
       -5.982609123085001 -4.829354382369979
000020 96 3f 1d 88 f5 11 14 c0 51 4d e4 17 38 08 18 c0
       -5.01753819159048 -6.008026479062509
000030 f6 10 06 28 eb 64 1b c0 b7 b0 26 eb 17 6f 16 c0
       -6.848553300256972 -5.608489679562061
000040 9e cd 73 4d 68 97 15 c0 50 fa b1 62 00 11 14 c0
       -5.39785882014567 -5.0166030331734675
000050 ba f5 01 5d 19 76 11 c0 e4 5d 70 de d9 db 17 c0
       -4.365331128353711 -5.964698291405032
000060 3b 37 f8 4e 94 ed 00 c0 00 43 0e 21 76 9c 14 c0
       -2.1160055322169717 -5.152794376845804
000070 cf 7f 0d fe d9 da 0c c0 b9 75 a6 50 19 84 12 c0
       -3.606861099993672 -4.629002819213775
000080 31 3f c4 a7 13 8b 12 c0 79 4e db 24 a7 e7 0d c0
       -4.635817166665036 -3.7381117705752414
000090 17 6c 0d 97 81 55 14 c0 4d 4b ca 94 7a 2d 13 c0
       -5.083502159303882 -4.794412922713332
0000a0 17 37 a0 70 27 9b f7 3f a6 20 4d b5 24 40 18 c0
       1.4753794097372912 -6.062640030701152
0000b0 2e 07 4e c1 2e 78 17 c0 f5 b1 27 d1 a9 85 16 c0
       -5.867365856540159 -5.630530612991142
0000c0 60 f4 ad a5 90 f8 17 c0 f5 e3 8f 12 d4 fc 0d c0
       -5.992739285223337 -3.7484513712083705
0000d0 b6 0a b0 81 17 f0 13 c0 05 d5 fe 2b 7a b3 16 c0
       -4.984464670533887 -5.6752707361495185
0000e0 6a 2b 8b 86 fe 3d 13 c0 50 30 f4 01 0a 8d 15 c0
       -4.810541250461805 -5.387733488587472
0000f0 f6 c6 48 46 4a 2c 10 c0 95 14 be 23 2f 56 1d c0
       -4.04325208491513 -7.3341641983762615
000100 9c 2f 9a 64 7a c7 0d c0 13 f8 02 7d 14 b4 17 c0
       -3.7224014148286653 -5.925859406763283
000110 ba 4f 37 26 4a d0 18 c0 e0 08 47 78 3f 06 16 c0
       -6.203407857061331 -5.5061014932018395
000120 ba 5a 1a 02 8a e6 15 c0 8d 1c 57 6c 39 10 15 c0
       -5.475135834559007 -5.265844052140108
000130 e4 07 a5 08 32 3c 19 c0 8e ba 17 d9 57 1a 14 c0
       -6.308784613678629 -5.025725738595282
000140 ca 4e e8 ad a2 35 13 c0 f7 5a 88 25 00 19 1a c0
       -4.80237838488001 -6.524414621779889
000150 3d 7b 1d 0a cb de 12 c0 b4 99 0e 0b 4c ad 17 c0
       -4.717571409272577 -5.919235394254816
000160 6d fc f4 53 76 57 17 c0 40 f3 18 4b 98 2b 12 c0
       -5.835412322833787 -4.542573140523757
000170 49 fa 67 36 e1 de 12 c0 63 b1 63 a7 62 b7 13 c0
       -4.717655992599767 -4.929087272128842
000180 52 04 e1 24 30 fb 13 c0 7f c0 ee c2 6a 9c 1c c0
       -4.995300842508259 -7.15275101263262
000190 e1 e6 24 0e 9a 89 13 c0 1c 1b 8f d4 2f cb 12 c0
       -4.8843767366431345 -4.698424645647517
0001a0 c6 cf c8 0b 6e db 1b c0 4b 3f b4 e3 4c 3b 17 c0
       -6.964286979800766 -5.807910497547549
0001b0 74 d2 c7 d0 e8 6a 13 c0 67 a5 81 0f 26 8b 14 c0
       -4.854403745838329 -5.135887377059908
0001c0 b2 9e 65 a1 ff 6b 12 c0 61 8b 80 b5 78 ba 1b c0
       -4.6054673403047435 -6.932101093264323
0001d0 d7 7f c5 4b 50 04 15 c0 d4 77 65 81 80 62 1a c0
       -5.254212554864316 -6.5961933344060135
0001e0 f1 95 db be 85 e7 12 c0 fb 96 aa 36 dd 0f 13 c0
       -4.726096136238525 -4.765492300188039
0001f0 2b 00 c1 e3 ec 35 16 c0 b9 4f 95 a3 cc da 16 c0
       -5.552661474852395 -5.71367126082253
000200 a5 69 19 0c d7 c5 ad 3f e6 7f 39 cd bc 84 0a 40
       0.05815002463050981 3.31481323558545
000210 e1 73 03 e2 3e 6c 07 c0 ef ae d1 8b 4c dd 1e c0
       -2.9278543145469347 -7.71611231295877
000220 23 a1 0e a7 91 ce 14 c0 09 fb 05 f7 f5 24 18 c0
       -5.2017274954489805 -6.03609453176501
000230 fe ec 8c 87 90 c4 0a c0 c0 e6 a4 3f 62 ab 18 c0
       -3.3459787931329847 -6.167366976203709
000240 04 30 b8 d4 92 28 0f c0 8e 3d 9c 82 75 4d 11 c0
       -3.8948113077840407 -4.325643578325424
000250 ca af 67 5a 82 98 15 c0 01 b4 3e 13 a2 de 15 c0
       -5.398934757784398 -5.467415142728897
000260 d3 ea ea 77 c9 f8 14 c0 a0 7c 84 09 68 fe 16 c0
       -5.242956041062558 -5.748443745337823
000270 8f 06 55 52 e1 59 12 c0 19 7d 27 39 75 8c 01 c0
       -4.587773596229126 -2.1935829606224044
000280 ed 4d a2 76 34 e3 13 c0 b0 13 1b 75 e8 b2 18 c0
       -4.971879819542193 -6.174714879777568
000290 a9 93 46 c3 ad a0 1a c0 cb b3 d8 8a 5f f0 19 c0
       -6.656912852461496 -6.484739465214214
0002a0 56 f5 1b 32 26 8c e4 bf e5 f9 e0 fc 58 93 19 c0
       -0.6421080568976929 -6.393894149047331
0002b0 92 f4 db 1e a8 0a 1e c0 da 19 43 2a 23 e1 11 c0
       -7.510406953978547 -4.469860706658858
0002c0 5c 42 e4 e5 39 f4 1c c0 b2 58 e2 7d 1d 1b f2 bf
       -7.238502113396489 -1.1316199223852377
0002d0 2b 8e 14 ca 6e db fe bf 31 50 96 36 d3 c5 24 c0
       -1.9285724538575646 -10.386377054070268
0002e0 60 28 3d 5a e1 27 17 c0 e8 09 c4 7b d6 d5 12 c0
       -5.788945589049121 -4.7088260019686246
0002f0 89 22 ea 37 1b db 18 c0 93 75 bf 5c cc b0 15 c0
       -6.213971017518483 -5.422654580293414
000300 ef fa 06 fb 34 24 14 c0 ae 98 01 91 30 ac 14 c0
       -5.035358354855574 -5.168154016230046
000310 dd ac e0 7e 5a d1 12 c0 5e 56 95 85 b1 a8 14 c0
       -4.704446775878037 -5.1647396919630335
000320 19 12 2f f7 92 dd 17 c0 9c f5 fd 4f e1 29 13 c0
       -5.966380941627471 -4.790898561358883
000330 71 12 57 27 c5 25 19 c0 0e 4a 82 1c 18 1c 17 c0
       -6.286884894074874 -5.777435727550722
000340 af 5f 0c 7d 95 5f 13 c0 e7 97 de fa 18 ef 14 c0
       -4.843343690757975 -5.233493728481313
000350 de 92 61 6c a4 57 17 c0 3a a1 0b a0 9f 91 1c c0
       -5.835588162856508 -7.142210484227968
000360 de 67 e5 db a7 92 15 c0 71 d2 77 49 40 1d d5 bf
       -5.393218456150832 -0.3299103467427705
000370 20 56 09 fc d9 84 0b c0 3a 20 51 9f ca 81 1a c0
       -3.4398688974713565 -6.626749505354434
000380 1c 03 fd 7a 2a a8 18 c0 cf 8e ad 24 15 ab 13 c0
       -6.164224549954067 -4.917072842686777
000390 9c b1 80 3c 2e 75 14 c0 2c 08 07 2d 60 5a 15 c0
       -5.114434190134855 -5.338257506899065
0003a0 82 10 11 bb e8 0a 0d c0 73 0d 5b fc 42 69 17 c0
       -3.630326711138026 -5.852794592912107
0003b0 14 6f 6c e3 e0 8f 14 c0 cc 93 ce 55 8f 8e 0d c0
       -5.140506318562775 -3.6946093276660346
0003c0 70 36 b6 e9 c0 fa 06 c0 c6 27 3a 2a 9f 73 17 c0
       -2.872438264725865 -5.862911853599092
0003d0 90 76 ba e6 bf df 15 c0 b2 a9 ba 03 9a cb 07 c0
       -5.468505482798392 -2.9744148532237995
0003e0 c3 56 5a db 86 a6 18 c0 8b 4f 4d 16 6b 6b 14 c0
       -6.162623813046312 -5.104900692433044
0003f0 22 9f 34 11 2e 04 18 c0 a3 3a 26 e3 49 e5 0e c0
       -6.00408198245694 -3.8619573350946026
000400 5c ae d6 6f 92 21 14 c0 52 4b 1e 28 b8 85 0e c0
       -5.032785174825758 -3.815292657303339
000410 7c 02 30 ee d2 b7 1e c0 e0 10 50 7a 3f 0f 0c c0
       -7.679515573196678 -3.507445293014925
000420 c4 37 52 db a4 3f 13 c0 f3 8f 62 1b cb e4 1b c0
       -4.812152315991572 -6.973431041613355
000430 79 ee f5 81 97 cd 16 c0 48 00 d2 ab 0c a5 12 c0
       -5.700773268352003 -4.661181149189424
000440 05 df d4 5f 16 c1 13 c0 d8 a4 9f 67 47 3c 14 c0
       -4.93856191384089 -5.0588661376179616
000450 dd 8f a9 49 59 f3 0d c0 3e 0e c9 fd 75 92 12 c0
       -3.7438226466056066 -4.643028226276838
000460 83 96 b0 7d af fe 15 c0 58 8f d3 ef 06 18 1d c0
       -5.498716319945404 -7.273463961875528
000470 70 55 43 cd 8a 78 13 c0 60 ed a7 76 0d e0 15 c0
       -4.8677169868800405 -5.468801359176126
000480 c4 42 ab e5 ac 55 15 c0 7d a6 d8 37 0f 74 18 c0
       -5.333667362764292 -6.11333930263356
000490 bd 91 6d 0b 0a e2 22 c0 61 53 9e 8a da 4a 16 c0
       -9.441482884526403 -5.57309929457992
0004a0 20 1a 50 98 8b f8 13 c0 33 22 2d 19 bb b8 13 c0
       -4.992720012558976 -4.9304012235448225
0004b0 10 4c 7b 32 6a cd 15 c0 3f d4 6e f7 ae dc 15 c0
       -5.450600422645053 -5.4655111943621355
0004c0 68 6d f7 4d f6 67 1e c0 61 a2 7d d5 9f 6b 17 c0
       -7.601525514818924 -5.855101905625447
0004d0 a9 70 f6 7a b4 a4 22 c0 34 4c 81 5c 06 d1 17 c0
       -9.321689455588357 -5.954125829116538
0004e0 3f 62 6f e0 0f 98 08 c0 be 70 2f e9 e6 97 15 c0
       -3.0742490324012404 -5.398341792603047
0004f0 21 14 ca ec 9e ef 16 c0 75 6b 30 2c 1b d4 13 c0
       -5.734004688104535 -4.957134905295665
000500 bf da 24 bd 8d 29 08 c0 77 37 8e 75 53 7d 1a c0
       -3.020289876639566 -6.622388684087006
000510 29 28 4d 92 67 30 19 c0 33 76 63 3f b3 72 03 c0
       -6.297270093879015 -2.431005950186568
000520 d5 4c 29 9d 40 a1 15 c0 f8 b7 5e 13 8c 2f 14 c0
       -5.407473045011291 -5.0464327837526
000530 5a 0c 65 08 a4 7a ed bf 94 c7 f9 78 19 5a 13 c0
       -0.9212207950553293 -4.83798779511007
000540 f6 86 c9 4e b5 1b 06 c0 71 ee c3 c7 5a 18 18 c0
       -2.763529410863039 -6.023783799489693
000550 77 53 56 5c 32 9e 14 c0 e7 72 76 a8 14 d1 01 c0
       -5.154488985794948 -2.2270901833675114
000560 20 85 07 dc f2 76 f0 3f 7d 62 4a a0 e6 e0 15 c0
       1.0290402026078667 -5.469629768886645
000570 1b e5 bd 12 56 ff 13 c0 02 f0 27 4e 7c b9 13 c0
       -4.999351780739086 -4.931138249576181
000580 d3 5c b7 37 c5 95 19 c0 22 fc ba 80 5c 61 11 c0
       -6.3962601380983015 -4.345079432881024
000590 c4 d3 f8 c0 85 2c 11 c0 8c 83 7f 59 55 ba 16 c0
       -4.293478980242927 -5.681966207893208
0005a0 d1 3f 72 fc 45 5b 16 c0 4c 32 8d d5 43 d0 1b c0
       -5.5891341633541325 -6.9533837668828475
0005b0 3a 56 ce f0 51 03 14 c0 fd ea 37 81 cb ad 17 c0
       -5.003242266267586 -5.919721621549567
0005c0 fb 6c 4f 36 ef e3 f7 bf 19 ed 06 8d bb 99 14 c0
       -1.4931480523580933 -5.150129512355556
0005d0 70 ea 92 d7 66 63 15 c0 2e cb 37 46 66 93 1a c0
       -5.347071998922374 -6.643944832949996
0005e0 5a 24 83 38 02 a9 17 c0 b0 dd 09 ea 4e 43 13 c0
       -5.915047533993027 -4.815730721332713
0005f0 7d 78 3a df 55 ea 1f c0 b6 02 26 73 93 31 18 c0
       -7.9788432006299645 -6.048414038844092
000600 4c fb f5 de 90 98 1d c0 7c ba 55 d9 9e b4 f9 bf
       -7.39899013878205 -1.6065968026775002
000610 f1 d2 cc b3 05 41 14 c0 c3 06 b1 3c 91 71 1d c0
       -5.063498315216507 -7.360905597977481
000620 66 e9 a8 50 63 18 16 c0 ee a9 86 bb f3 9e 12 c0
       -5.523816356954148 -4.655226640791154
000630 91 8e 07 a3 89 6f 17 c0 8d b7 8a ea b1 4f 13 c0
       -5.858923480354535 -4.827827133862127

linear_afunc_stack.2.weight f8 [200, 200]
000000 7b fc cd 86 29 31 f3 3f b8 6b 83 96 83 ba ed 3f
       1.1995024934583671 0.929017824145709
000010 4f e8 ed 15 25 2d d9 3f 98 26 9d ea 33 b5 e8 3f
       0.3933804239419531 0.7721194822599555
000020 59 3b 4e 5b 19 f1 01 40 c7 48 c1 49 43 d9 e4 3f
       2.2427241452455005 0.6515213432815238
000030 09 7c 2f 93 2e 5e dd 3f 67 79 9e 5f 91 77 ec 3f
       0.4588734090193048 0.8895956866797804
000040 e3 bc 80 6e 09 f3 e7 3f be 9a b1 59 54 84 e1 3f
       0.7484175832995813 0.5474035026389499
000050 f0 5d fc ee 60 39 e2 3f 1a bf a2 d4 e8 c9 ed 3f
       0.5695042293254442 0.9308971550981113
000060 aa bd 9d 53 ca 12 01 c0 c0 3b 0b 0d 03 59 d3 3f
       -2.1341749699128814 0.30230785631004764
000070 dc 98 fa 13 99 38 94 3f c5 69 2a 49 d5 4e e1 3f
       0.0197471540874624 0.5408731869713895
000080 d1 14 76 15 81 7c 05 40 6a 88 80 e0 e4 5d e5 3f
       2.685793082872444 0.6677116761022834
000090 43 df 5b a9 4e 0d fe 3f 55 12 38 23 f5 a3 fa 3f
       1.8782488456326554 1.6650287032836293
0000a0 0a 3d db 56 b8 2c 01 c0 75 8f 41 17 e8 65 d9 3f
       -2.146835974279047 0.39684488555052805
0000b0 f3 64 97 0d ee e8 b3 3f b5 53 63 91 a9 ef f8 3f
       0.07777297813244725 1.5585113219469637
0000c0 5f 68 9a 92 60 aa f9 3f 66 d0 09 cb 68 be e2 3f
       1.6040960051236863 0.5857433286278251
0000d0 fe fc a5 14 1a f0 ec 3f 50 52 0d 4c 7a 78 d1 3f
       0.9043093112267397 0.2729783766456295
0000e0 db f6 55 9d 51 fd dd 3f c9 02 9c 33 a4 69 c0 3f
       0.46858635296653767 0.12822392005911912
0000f0 a8 2a d0 55 e3 96 c5 3f 7a c6 b0 a1 93 8c eb 3f
       0.16866723718734034 0.8609102399843345
000100 8c c9 e9 53 98 c9 f1 3f 98 d6 e3 ec 1a b8 e5 3f
       1.1117175367222414 0.67872377650811
000110 f4 b3 8e 16 58 a1 e8 3f f6 96 de cb ef 06 d0 bf
       0.7696953239989157 -0.2504233828461645
000120 28 bd 88 3b 74 38 e0 3f c3 13 fe d7 a3 3b ed 3f
       0.5068913615013217 0.9135302752116491
000130 c2 d4 34 8b 79 8f d7 3f b7 5a 71 97 e1 4e 82 3f
       0.36813200563785753 0.00893951648155898
000140 b3 d7 54 d6 a6 0a e0 3f 19 65 93 30 22 fb ed 3f
       0.5013002573166346 0.9369059513802852
000150 96 c7 8a c6 48 5b eb 3f 3e c3 e4 80 f3 bd dc 3f
       0.8548931005263849 0.44909370028749496
000160 82 fa a4 f4 5e af eb 3f b9 46 39 8f 13 4e f1 3f
       0.8651575830661644 1.0815616221120037
000170 cf 21 45 ca 01 22 e1 3f 0e 9e dc 73 59 94 ec bf
       0.5354012442194803 -0.8931090605664751
000180 e7 52 eb e1 64 18 e5 3f 3c cc a2 2f 60 f1 f2 3f
       0.6592277920231852 1.1839296208170387
000190 17 3f dc 0c 61 de b2 3f 0c aa 5c 50 4a 17 8f 3f
       0.07370573581669891 0.015181141450360001
0001a0 53 4d c7 ac 3e 37 c8 3f 9a af 56 be 10 ed f6 3f
       0.18918593822909688 1.4328772959806657
0001b0 0d a0 3f bf 8f da d0 3f 33 ea 0e cc e3 bd e4 3f
       0.2633399360333904 0.6481799111855423
0001c0 76 32 93 b6 d5 10 d0 3f 87 f1 e4 d6 f4 05 f9 3f
       0.2510275156935572 1.563954200201893
0001d0 4c 3d 07 81 00 bc d9 3f 7d 97 db 0e 9b 6f ef 3f
       0.40209972954194906 0.9823737421217938
0001e0 51 87 57 be 3e 7f eb 3f a6 63 a5 3c 04 19 ee 3f
       0.8592828481307412 0.940553778123207
0001f0 e6 15 48 60 e8 fc d1 3f e8 49 45 ea 61 8f ea 3f
       0.2810612621545644 0.8300027442549522
000200 29 b6 83 e4 eb 84 e4 3f d4 a8 2d 51 f6 cf 12 c0
       0.6412257636235995 -4.703088062679132
000210 4f e4 f4 66 33 71 e9 3f 3a 9c 42 9e 5b f0 f1 3f
       0.7950684557791962 1.121181123927967
000220 3b e5 7d c3 2d cf d6 3f 35 b3 7e 33 b5 6c f5 3f
       0.35639518824571653 1.3390399943848028
000230 9a 60 70 6b 97 5e 00 40 4a 01 a7 cf f6 eb c1 3f
       2.04618724762629 0.14001355304027135
000240 ea 17 8a 0c b0 24 cd bf 36 c7 e1 a9 25 d3 03 c0
       -0.22768211948658684 -2.4780991813685445
000250 b7 ce 8f 14 09 7b 02 40 02 48 aa c2 fe 55 d6 3f
       2.3100759130846558 0.34899872789640096
000260 5c 64 4a 42 8b 25 f3 bf 61 4d e9 3e 0d 7e d4 3f
       -1.1966660108066867 0.32019358771977663
000270 4b 30 fb 96 31 b4 e3 3f 70 26 0d 9c 30 3f e3 bf
       0.6157463024951623 -0.6014636085394169
000280 d7 3a 2c 23 1c d3 ec bf b2 b1 c4 01 9f b0 c2 bf
       -0.9007702528923244 -0.14601504885048439
000290 40 30 34 21 66 4e e3 3f b1 25 a4 e8 51 ca ee 3f
       0.6033201836121478 0.9621972602628174
0002a0 fa 73 8e ae 3b 54 ff bf cd e2 57 65 6d 79 d1 bf
       -1.9580647295581444 -0.2730363359146793
0002b0 aa a5 cc 15 df 51 f3 3f 52 1a 71 68 92 0e a1 bf
       1.2074881412066625 -0.03331429982113278
0002c0 7b f7 22 22 f1 00 f5 3f d0 08 ff 20 c6 c1 f7 3f
       1.3127299626789568 1.4848080910601773
0002d0 8b 20 7d 0c ae 81 ed 3f 96 f2 dc aa 7f 26 e6 3f
       0.9220800632401888 0.6921995484513725
0002e0 9f a9 ab 9b 48 fe db 3f 0f d3 80 e8 c1 41 f5 3f
       0.4373952408046992 1.328554065910058
0002f0 ec 6f 3b 01 b2 38 de 3f 46 68 f0 5a 8a 14 06 40
       0.4722104084046339 2.7600295166603557
000300 eb e8 28 75 2e c0 a7 3f 3e da ba 4e 58 7a d7 3f
       0.04638810329602613 0.3668423432203872
000310 1d b2 5f a2 2d 7e f4 3f 7e 73 b3 93 f0 4d e8 3f
       1.2808052389838231 0.7595141300949846
000320 1c f5 2c f3 d7 fd eb 3f fa 74 0b 9b 6d 59 b3 3f
       0.8747367620013935 0.07558331523201281
000330 10 b3 16 46 aa bb d8 3f 8a 6c eb 81 50 a9 ec 3f
       0.38645417065235765 0.8956682717793154
000340 65 3d d5 9d 0d c4 ed 3f 5c 06 fa 6e 73 44 d3 3f
       0.930182274119869 0.30105291211666496
000350 a1 45 a6 92 d2 e0 e3 bf c7 14 f9 1d 78 76 ea bf
       -0.6211941589592024 -0.8269615731629977
000360 14 07 6e 99 86 61 f2 3f c1 73 33 cc 5e 11 fb bf
       1.1488100045539271 -1.6917407967186906
000370 2b df 1f 47 b9 d0 fb 3f 6e 7c e8 18 d9 65 f5 3f
       1.7384579447079413 1.3373652432417447
000380 7c ca 2f 74 6b 03 d2 3f 4e 02 80 f6 ed 25 d0 3f
       0.281458724463995 0.25231503555554446
000390 a7 6d e1 5a e1 fc c9 3f 7b bc 5a c2 77 84 da 3f
       0.20302979409721653 0.4143351934425891
0003a0 99 65 b4 37 29 7b f6 bf 6c bc 3c 86 1a b2 e4 bf
       -1.405068605038059 -0.646741163427476
0003b0 0d e7 02 cf b8 33 d2 3f 87 3e 12 bd 91 ba e6 3f
       0.284406854781637 0.710274571685617
0003c0 fa 80 8e 2a 0e a0 f0 3f 53 42 a6 00 62 57 00 c0
       1.0390760099763257 -2.0426673937547917
0003d0 32 2e e1 60 a1 72 e6 3f 72 cf 92 35 40 7c db bf
       0.7014929668598084 -0.42945866805825184
0003e0 72 ea 66 93 04 0c e0 3f ab 73 ff e3 a3 e2 dd 3f
       0.5014670256562808 0.46695801988044633
0003f0 47 7e d9 c6 52 64 e1 3f 68 dc d6 ff ba a7 d7 3f
       0.543496502283184 0.36961245521837904
000400 e8 0f 47 35 a8 e1 ce bf 49 2f 73 e3 3c bc f7 3f
       -0.24126150704807903 1.4834565052760402
000410 57 b3 94 c8 ab ac c7 3f a0 9f 16 c4 8e ec 1f 40
       0.18495700162875536 7.981013358956176
000420 a8 24 1c af ab 4f e9 3f b6 b9 17 8d 9a 55 e1 3f
       0.7909754200092225 0.5416996722904546
000430 ef 52 52 3c 7d 80 e4 3f 69 ca d1 92 d0 73 cf 3f
       0.64068471700247 0.2457218853847565
000440 e8 ad 52 e8 a8 62 e3 3f 78 48 96 23 b3 63 f0 3f
       0.605793432002824 1.0243407621497038
000450 ed eb e6 ee c3 98 ec 3f 4a bc e3 37 48 23 d1 3f
       0.8936481157355708 0.26777844865768385
000460 59 fa e5 a3 4d 8f e9 3f 51 55 38 af 75 58 ea 3f
       0.7987430764331506 0.8232983038202893
000470 4f e1 da c0 65 eb e0 3f 8f 88 97 aa 97 f3 df 3f
       0.5287350432109096 0.49924270305030743
000480 cf 40 7a 87 66 c2 b0 3f eb 3a 46 cb c3 76 e3 3f
       0.06546631629521758 0.6082476587488065
000490 d1 11 3e d1 9f 1a e1 3f d9 22 21 17 f2 17 e6 3f
       0.5345000349776062 0.6904230548617206
0004a0 cc c2 28 74 8a fb ef 3f 24 67 11 0b 12 08 dc 3f
       0.9994556683287441 0.4379925830922835
0004b0 07 86 6f 9a b1 81 c7 3f 76 85 ed 7a eb 03 da bf
       0.18364543953707388 -0.40648924832029054
0004c0 0f ca 65 9a 71 f3 f2 3f b5 c2 e1 38 44 1c e2 3f
       1.184434512248689 0.5659504996275105
0004d0 44 db 0b 7e c6 05 f2 3f ef 27 e7 93 f9 9e e2 3f
       1.126410000198761 0.5819061173181107
0004e0 0d d6 39 7a 1d aa b2 bf 03 72 32 e5 ea f7 f3 3f
       -0.07290825113326367 1.248026747990594
0004f0 0d 7b 0e 19 e5 07 df 3f 28 d3 c8 4e 21 a5 fd 3f
       0.484856867284109 1.8528149678724706
000500 e1 03 67 2e 60 55 f5 3f a3 72 ab 4f 27 8f 05 40
       1.3333436787217965 2.6948991989323345
000510 b4 4e 0c 93 4b 05 e2 3f af 14 30 9f 6a 44 f5 3f
       0.5631463882477505 1.3292032449983642
000520 bc 87 15 d2 95 ce ee 3f b6 82 db d8 4c 05 e8 bf
       0.9627179244237065 -0.7506469951150254
000530 43 df d2 67 f5 57 ee 3f 78 22 c1 33 ea 3f e3 3f
       0.9482371356780067 0.6015521059826616
000540 c2 a0 c7 69 61 a9 04 40 90 68 76 2f c4 80 f8 bf
       2.582705332188284 -1.5314370969777293
000550 ee 51 14 ac 17 09 f8 bf c7 3f c7 3b bf 9c c5 3f
       -1.5022198411799041 0.1688460389982522
000560 d4 6f 1c 16 b6 40 fd bf 54 2b 74 ba f2 5d dc 3f
       -1.8282986510957828 0.44323414047601273
000570 3b 2b 40 16 dd f1 e5 3f 88 3f 80 a3 68 b0 e7 3f
       0.6857743677695461 0.7402842706087407
000580 9d 21 30 3b f0 1a e3 3f 3f d9 c1 90 92 d4 ee 3f
       0.5970383792892339 0.9634487941064335
000590 91 64 67 e5 df b7 e1 3f f8 22 25 91 42 31 e4 3f
       0.5536956291718004 0.6310131869186923
0005a0 39 05 a2 d0 d8 4e d1 3f 7b 25 59 6c 94 e2 ef 3f
       0.27043743490510824 0.9964086643387157
0005b0 e6 26 5d 89 82 29 f0 3f 04 08 24 72 c1 97 e7 3f
       1.010134255006443 0.7372748593627425
0005c0 a0 6e a8 f0 28 15 e9 bf e2 9f aa c9 40 bf e5 3f
       -0.783832998309169 0.6795963228987569
0005d0 19 16 45 8b fd ac b1 3f e9 61 28 25 85 f6 ce bf
       0.06904587412017128 -0.24189819635718315
0005e0 c7 cc 49 f1 e3 05 06 40 65 86 3c f2 54 6c a9 bf
       2.7528761721274324 -0.04965463120448702
0005f0 d9 a7 df 01 b1 94 e6 3f 28 26 63 7e 0c f6 f3 3f
       0.7056508099169562 1.247570508671183
000600 01 e7 6b 2b d4 31 e2 bf 6d b4 c8 37 a9 ef fc bf
       -0.5685826156688735 -1.8085109881460781
000610 41 f4 e9 33 fd 18 d3 bf f1 ac a3 aa c9 d0 e4 3f
       -0.2984002119990841 0.6504867871093706
000620 96 06 c4 75 ab ba f7 3f 24 d9 5d 5b 1d 3f da 3f
       1.4830736732696201 0.410102214074316
000630 86 9f 5c 2b 81 08 dc 3f 1d 93 c8 09 fc c3 e2 3f
       0.4380190776305358 0.5864238921245463
000640 ad dc a4 02 d2 aa e5 3f 25 19 f4 e1 13 f3 ec 3f
       0.677102093853042 0.9046725667147127
000650 3f c3 bf c4 62 09 ca 3f 64 07 df c9 b2 7e f1 3f
       0.20341143233192757 1.0934322248071675
000660 60 9f 4c 59 31 23 f2 3f 0b 83 8e 22 bc bc ba 3f
       1.1335919845823454 0.10444236606282346
000670 e4 3e ff cd 97 42 e5 3f 6d 80 55 bd 9b 7a d3 3f
       0.6643790267353009 0.3043584202732806
000680 19 17 d0 b9 f1 08 e2 3f 21 7b fe f5 5d 2e ac bf
       0.5635918263585352 -0.05504125240189795
000690 de c8 66 bc 01 96 d0 3f d3 95 68 3d 62 1e f1 3f
       0.25915568731865146 1.0699179075976317
0006a0 e7 8c 87 1d a7 2c f6 bf 9e ad eb 26 bb cc d4 3f
       -1.3859015611167764 0.3249957923969421
0006b0 a8 f7 44 62 bb 93 c6 bf dd 21 3a 50 04 d3 c0 bf
       -0.17638342188177814 -0.1314397231801782
0006c0 13 1b ca 6f 9c 4f 96 3f 2c 2c 44 f8 89 a1 ac bf
       0.021788067172134506 -0.05591994433969946
0006d0 08 e2 6c 7e 02 f2 c5 3f 37 6c 01 16 dc 5e c3 bf
       0.1714480511962082 -0.1513323886345874
0006e0 bc 94 2e 44 d8 24 d0 3f fe f8 02 bc 5e 32 d8 bf
       0.2522488275374817 -0.3780743442583939
0006f0 49 66 35 18 c8 8a c7 bf 91 a2 f8 5d ca 29 f1 3f
       -0.18392277891216427 1.0727027579070276
000700 42 45 84 54 d1 61 de 3f 2b 4d f5 89 7a ec a9 3f
       0.4747203183515759 0.05063231405315557
000710 95 94 4d 32 c1 a6 c3 bf ee 26 26 25 c1 38 e6 3f
       -0.1535264487858156 0.6944280362669966
000720 57 ec 54 16 ef 31 d5 bf ad 6c 44 af 4c 5b bb bf
       -0.3311727254947007 -0.1068618705652848
000730 45 02 43 1a 33 33 c0 3f e3 9f e5 e7 13 75 d9 3f
       0.12656248838722398 0.39777085920513694
000740 08 48 df 93 cd 08 8a bf 89 8d 6a 02 68 98 d7 3f
       -0.0127121029617321 0.3686771415325088
000750 ff 7d 6c 06 72 92 dc bf 35 ef 05 f0 16 e9 af 3f
       -0.44643831851314525 0.06232520751924967
000760 2e 5c 5e 1e b6 52 e4 3f 8c b4 8c 71 6b 1e dc 3f
       0.6350966065537074 0.43935667122679756
000770 99 f6 2c d9 28 13 d2 3f 5a 72 42 7a 53 56 f2 3f
       0.2824194069724882 1.1460757041706047
000780 97 ef 34 4b ea 55 a4 bf 53 bc 0b 97 09 b6 e7 3f
       -0.03971798103381657 0.7409713697542294
000790 5d 8d f8 3c b3 45 bc bf 2b 97 e5 70 01 2d d5 3f
       -0.11043853987262282 0.33087192559320283
0007a0 5a 13 ee 81 a2 25 d5 bf 5d 98 ef 94 f3 6c e9 3f
       -0.33042204559779054 0.7945497425942097
0007b0 cd 86 bb 8f f8 53 e9 3f fd e6 c5 fe e5 72 c2 bf
       0.7915003592754261 -0.1441314214715063
0007c0 40 bf f8 14 3a a5 c9 bf ff 9c ea 74 ec fb bb 3f
       -0.20035482429511298 0.10931279997258868
0007d0 e2 b0 b0 57 60 6d f1 3f 53 14 f0 fe 2d 8b 95 bf
       1.0892032075308227 -0.021038740811509204
0007e0 f8 70 e2 5b 7f ab f0 bf c0 85 9b c5 e8 2d f2 3f
       -1.0418695058097551 1.1362083167117447
0007f0 12 f1 2b 72 bb 5b db 3f c5 67 a2 50 59 77 cb bf
       0.4274738898236744 -0.21457973897196161

linear_afunc_stack.2.bias f8 [200]
000000 4a a8 e2 fa 8a a6 fc bf 82 33 0c 59 7f 1e f7 bf
       -1.7906598854265376 -1.444945667116571
000010 b7 c1 dc 4a a0 e4 02 c0 f8 00 eb 88 c1 f7 00 c0
       -2.3616338585490797 -2.1209746071546043
000020 64 c6 7c 40 2c 53 00 c0 a6 c3 08 de d5 3e 04 c0
       -2.0406117475584313 -2.530681357042755
000030 b9 5a 6e a7 73 f4 0d c0 36 d3 92 51 cf cf 01 c0
       -3.7443612175514684 -2.2264696476871917
000040 28 91 73 45 cb 52 02 c0 3c 91 25 9d fc cf 05 c0
       -2.290426771725965 -2.7265560414399754
000050 ee 75 7c 88 65 3a 01 c0 b9 7e a5 37 02 f9 f6 3f
       -2.1535139716131573 1.4357931302728686
000060 c6 21 73 49 d2 bf ff bf 99 75 8b 50 31 bb 03 c0
       -1.9843314046030271 -2.4664026539382573
000070 10 6e 87 97 56 fb 02 c0 72 45 7f 1d 8a 92 05 c0
       -2.372723754711622 -2.696552496382247
000080 1d 0e 6b 2b 5c 7a 07 c0 21 36 d8 c6 52 5e dd 3f
       -2.9347461120648988 0.45888204019942874
000090 ea 8d d2 cf d8 fb 05 c0 35 68 7d 1e 75 4f fa bf
       -2.747972129452809 -1.6443988028536414
0000a0 b2 82 bd 06 32 68 06 c0 a3 8b b7 10 8e 31 01 c0
       -2.8008766676506065 -2.1491967493070248
0000b0 72 41 38 c1 c2 d2 05 c0 80 bb 1e de b9 5a 00 c0
       -2.7279105277340756 -2.044299826920394
0000c0 83 98 f5 a6 5c 4f b5 bf 9b bf f1 67 b5 85 00 c0
       -0.08324221683651171 -2.0652874107981467
0000d0 2f 39 b4 20 a0 e8 0a c0 c5 6a e6 07 f3 54 02 c0
       -3.3635866694450196 -2.291479169577857
0000e0 14 84 66 74 f0 94 11 c0 db 99 69 44 9a 45 ff bf
       -4.395448511845661 -1.9544928238261636
0000f0 a6 a3 d2 50 0c fc f5 bf 51 8b e2 ef 21 c2 04 c0
       -1.3740351826802253 -2.5947912922869496
000100 d6 0f 95 db f7 68 01 c0 4a 42 58 37 8e e6 f3 bf
       -2.1762540011277265 -1.2437879716782327
000110 b5 10 1c c5 7d 68 02 c0 99 51 4b 91 cb 75 02 c0
       -2.301021137160286 -2.3075171805487114
000120 e5 7e c1 ac 7d db 00 c0 37 9b 47 f2 09 cf f8 bf
       -2.1071732994604297 -1.5505465950061088
000130 a5 08 37 85 43 dd 05 c0 d0 ee 2d d3 1f 10 00 c0
       -2.7330389411373113 -2.0078732012169453
000140 78 84 a7 49 a7 9f 00 c0 7a 28 cf c7 06 a9 00 c0
       -2.077955794739463 -2.08253246403643
000150 71 19 4f fa c5 55 e8 bf fd bd 3b a5 ba 14 04 c0
       -0.7604703797194771 -2.510121622930227
000160 15 ac 84 0b c5 e2 13 c0 e4 86 f5 ee 93 3a 00 c0
       -4.971454791996639 -2.0286024731329793
000170 c8 f5 4d 32 8a 99 04 c0 24 51 3b 9e f6 d5 f9 bf
       -2.574970620159295 -1.6147371464658784
000180 dc a1 0a 4d aa 7e ff bf 9b 26 09 ac ee db ec bf
       -1.9684241303858618 -0.9018472061226989
000190 d2 69 78 a9 30 91 00 c0 ca 74 be 35 93 d8 f4 bf
       -2.070893596636986 -1.3028747653364001
0001a0 ed 84 49 9d 07 6c f9 bf 7a 1a b1 3f 34 af 03 c0
       -1.5888744491606375 -2.460548875419872
0001b0 bc cd 1b 3a aa c2 02 c0 a8 5b 7f 0e 46 5f 12 c0
       -2.3450512447104455 -4.593040682338064
0001c0 ac 4a d1 6d 2e 13 fa bf 15 61 83 6e b1 52 03 c0
       -1.629682949995792 -2.415377486595512
0001d0 04 18 66 8c 36 02 fb bf ca 7e cb 11 0f d4 fd bf
       -1.6880403026893882 -1.864272183905927
0001e0 6b 3d 57 3d 59 f5 04 c0 16 2e d8 22 18 28 0d c0
       -2.6197991173027524 -3.6445772859785945
0001f0 e9 f4 bf 16 57 81 06 c0 3a b3 31 e0 5b 95 04 c0
       -2.8131543900805025 -2.572929145352103
000200 e4 71 89 9e 27 3b 03 c0 e5 7c 17 e2 73 36 f2 bf
       -2.4038841615385866 -1.1382941085537877
000210 a2 16 bc 80 b7 cc f8 bf 18 2d b7 0f 6f 75 04 c0
       -1.5499796894741071 -2.5573407390380787
000220 ca 6a fa 27 9c 53 02 c0 41 dd b1 17 e0 4a f7 bf
       -2.29082518799746 -1.4557801175668177
000230 9e 95 c2 3c fa 37 a9 3f 3d 7a 5a b0 03 80 02 c0
       0.04925519935322174 -2.312507035981325
000240 47 28 93 f6 58 54 02 c0 9e a1 97 e3 50 38 04 c0
       -2.2911853088053564 -2.5274980335854726
000250 4e d0 85 74 83 29 e6 bf 2c 00 26 44 01 f3 ff bf
       -0.6925675655206847 -1.9968273794220393
000260 7d 16 21 cb 50 08 f6 bf c5 9a fb fa 30 56 fc bf
       -1.3770301756607346 -1.7710428051010905
000270 90 57 01 7b ba 6d 00 c0 91 1f 4b 08 e2 20 ff bf
       -2.053578339556175 -1.9455280612910182
000280 4a 31 ab 92 c1 6e 08 c0 16 56 b2 56 0b 92 05 c0
       -3.0540801485532585 -2.696310689275161
000290 7d 42 e7 0a d2 fd 11 c0 fb 6f 34 87 8e 8a 01 c0
       -4.4978715613984805 -2.19265466336037
0002a0 3c 28 f6 2a 6d 1e 00 c0 87 e7 d0 b3 4d c2 03 c0
       -2.014856658589478 -2.4698747680785718
0002b0 9d 37 8c 36 0e eb fb bf 6d 33 eb e6 4f 45 fa bf
       -1.7448866015215352 -1.641921903635388
0002c0 ed 78 89 22 8a 6e 04 c0 ad 60 5a ca 52 10 fd bf
       -2.553974408932041 -1.8164852051177534
0002d0 00 5a 06 10 5d e7 00 c0 4b 2e be e6 cf cd 07 c0
       -2.112970471566996 -2.97549419658552
0002e0 0f 1c 4e 35 6b 09 f3 bf 80 99 78 6d fa 99 ff bf
       -1.1897995073538856 -1.9750923420156994
0002f0 90 e1 6d 4b d8 45 03 c0 46 d9 07 37 1b 2d f9 bf
       -2.4091039555461933 -1.5735122823367234
000300 68 8e e7 4e b0 68 04 c0 0f d4 22 3d 60 40 fd bf
       -2.551117531243836 -1.8282167804839025
000310 d6 09 b9 e6 b8 b3 fb bf 9d 27 93 48 04 86 0a c0
       -1.7313775074586508 -3.315437857619101
000320 92 4e dc a1 d2 52 0b c0 ff a4 69 2e 9a 97 fb bf
       -3.415440811668142 -1.7245122731204103
000330 db d4 cd 85 a1 10 09 c0 99 c5 47 d2 01 a7 fc bf
       -3.1331205800475863 -1.7907732214046972
000340 e0 26 23 9b eb 7b 11 c0 de 26 23 ee dc 18 f9 bf
       -4.371015953083514 -1.5685700704802268
000350 f0 dd f1 20 f7 54 07 c0 e7 ec 09 85 9f 15 02 c0
       -2.9164869855701383 -2.2605581658987037
000360 87 ce 9a 83 2f 37 03 c0 37 05 a1 ed f7 46 0d c0
       -2.4019460946672697 -3.6596525730862157
000370 da 73 b7 55 03 5d 04 c0 1e 9d ba 90 54 29 04 c0
       -2.545416516934421 -2.520180826849937
000380 0b ce 58 f9 47 d4 02 c0 28 92 32 fd 03 19 fe bf
       -2.3536529045320598 -1.8811073198822985
000390 95 19 32 55 f8 30 fe bf 27 07 d6 d3 d1 6d 03 c0
       -1.886955578609194 -2.4286228704157966
0003a0 ee 25 73 78 c8 7b f4 bf 95 ea 8e 35 c1 56 03 c0
       -1.2802204804487434 -2.4173607048263173
0003b0 97 a3 f5 79 ed 8f 03 c0 ae bd 82 82 7f 71 fd bf
       -2.4452771690452653 -1.8402094934534534
0003c0 52 a7 14 93 57 24 00 c0 3b 14 ac 41 e9 84 03 c0
       -2.017745160167501 -2.439898026527343
0003d0 f8 ea ae 15 5e 70 02 c0 ca f1 47 6b 9a a8 fa bf
       -2.3048669523244563 -1.6661628904977186
0003e0 72 70 53 72 08 3d f1 bf 2f 5b 52 0d e0 f4 fe bf
       -1.077400633416826 -1.9347839851740891
0003f0 ca 14 a3 4f c9 4e 01 c0 01 df 59 9d 40 0e f7 bf
       -2.1634699079173503 -1.4409795900846236
000400 77 f6 06 60 fc 09 0d c0 2d 9f a3 73 d6 03 06 c0
       -3.629875898563849 -2.751873877936211
000410 2c 69 d6 05 fa ff 00 c0 d4 33 a7 bd 45 c4 fe bf
       -2.1249885994012825 -1.9229180725408144
000420 8d 5f f8 9d 57 a4 11 c0 0d 83 96 73 1b f0 01 c0
       -4.4104904826016424 -2.242239859610328
000430 9c 62 77 43 52 85 0e c0 5b 50 55 37 9e ca f8 bf
       -3.815098311501357 -1.549467292924439
000440 56 1f 36 77 ba d6 ff bf 9b 82 14 c6 c9 2d 02 c0
       -1.9899239212699817 -2.2723575091370782
000450 94 a0 e4 bf f9 27 fd bf 26 d4 43 56 b6 43 fb bf
       -1.8222596641371966 -1.7040313119625892
000460 33 27 82 5f 98 fc f8 bf d3 88 94 3e e3 47 f5 bf
       -1.5616687517926493 -1.3300507015742837
000470 f1 01 a9 ed 7d 87 0f c0 af e2 d1 d1 0c ca 03 c0
       -3.941158158035471 -2.47365726396341
000480 0f f3 fc a9 4e 72 fe bf d1 f1 e4 2e 55 61 00 c0
       -1.902907051101639 -2.047525755273661
000490 01 b3 f2 f8 20 a4 04 c0 8c 21 2b 18 e2 59 00 c0
       -2.5801410149637154 -2.0438882721102285
0004a0 c0 83 73 17 7a 12 f9 bf 1a b9 96 60 71 7a 00 c0
       -1.5670109668792378 -2.0597865625378633
0004b0 d3 12 d5 29 d6 f2 01 c0 97 bf 9f fa 85 79 05 c0
       -2.2435725467824823 -2.6843375759126036
0004c0 f9 0a 2a c1 9e 4e ff bf 52 6b 11 9f 33 fc 03 c0
       -1.956694368884824 -2.4981453349295544
0004d0 3c f0 56 ed c8 b6 04 c0 71 fd 4f 9a ff a9 04 c0
       -2.589250425544405 -2.5830070548687947
0004e0 c3 b7 2d 1b 9f 93 02 c0 08 c6 93 dc db 33 f9 bf
       -2.322080814678857 -1.575160848264547
0004f0 62 33 83 07 30 1e 02 c0 eb 24 ba eb d3 07 01 c0
       -2.2647400462068825 -2.1288221756154733
000500 8e 70 3b f8 54 4b 02 c0 8d fe 3c ed 11 1b f0 bf
       -2.2867831605090663 -1.006608893119764
000510 6e 56 da fa 25 37 08 c0 08 2b 07 53 90 6a 01 c0
       -3.0269279096490243 -2.1770330893099334
000520 b1 0f 93 51 08 fa f5 bf f7 19 cc 48 65 3b 05 c0
       -1.373543089533069 -2.6540017783438503
000530 78 2a c9 16 29 80 df bf 07 df 84 ee e1 c9 03 c0
       -0.49219729638267706 -2.4735754617976258
000540 4d 0d a2 65 12 64 03 c0 37 d5 21 79 ca 35 00 c0
       -2.4238632145003636 -2.0262650931787465
000550 2b 70 67 a9 50 3c 02 c0 bb cb 38 06 b6 30 07 c0
       -2.2794507250491924 -2.8987846838076314
000560 98 51 35 24 ec 60 04 c0 a3 99 5d 10 4b 11 ee bf
       -2.5473254040500244 -0.9396109885827183
000570 29 9d 3b af d6 b9 00 c0 fb 46 46 a4 c8 81 f5 bf
       -2.0907415094440194 -1.344185487458559
000580 ec 6b 39 8e db 96 fe bf f9 d2 3e 07 20 e0 fa bf
       -1.9118304782521092 -1.6797180445693682
000590 7f 3f 5a b4 ac 46 00 c0 24 25 38 95 2d 01 08 c0
       -2.0345090951959146 -3.0005752237090224
0005a0 42 c0 b1 b3 57 d3 09 c0 ac bd f2 5d 75 c1 02 c0
       -3.2281946219082167 -2.3444621410087247
0005b0 ca 2a 68 2d c0 de 03 c0 d3 4f a1 9c 32 53 fc bf
       -2.48376498674529 -1.7703119390835027
0005c0 24 08 28 3a 1f a1 e6 bf 75 b4 5d 58 2c f5 0c c0
       -0.7071682105890926 -3.619713487968108
0005d0 ab f1 9e 12 d6 01 f6 bf 0a 98 88 8f a2 20 01 c0
       -1.3754482962968761 -2.1409350598869468
0005e0 69 7b ca e4 22 c0 01 c0 c7 b7 41 91 9e 75 04 c0
       -2.2188165544788956 -2.557431349580813
0005f0 e0 6c 96 0a 5f 1f f9 bf d1 a0 23 94 3c f7 06 c0
       -1.5701589978769377 -2.870721013390814
000600 a7 2b b0 51 c1 0b 01 c0 d5 59 62 52 6e 39 03 c0
       -2.130739820660398 -2.4030424534096064
000610 e5 83 50 fe 9c 8a 00 c0 6a a1 2a 12 4c d2 02 c0
       -2.0676822536774915 -2.352684156347256
000620 26 4f f9 1e 7a a5 f5 bf 43 6a 55 6c aa 24 01 c0
       -1.3528996667782365 -2.1429031814161887
000630 22 1d 1e 69 3d 8b 00 c0 2d e9 a5 89 3f 52 01 c0
       -2.067988225203991 -2.16516025102205
