models/torch/NH3_net_003_loguniform.pt (torch, 660307 bytes, 12 tensors)

mean_in f8 [5]
000000 2d ef 39 35 cd 44 8a 40 de 3a aa 58 5c 7c 35 40
       840.6001991773716 21.48578409343724
000010 9a e0 77 89 42 53 d5 3f 03 97 6e 98 f0 53 d5 3f
       0.3332067816222747 0.3332482803910894
000020 61 88 19 de cc 58 d5 3f
       0.3335449379866358

std_in f8 [5]
000000 97 52 d7 31 e8 3d 6f 40 e3 8b 8b 1c 1b f7 38 40
       249.93459407859038 24.965257438725427
000010 08 1b 87 67 90 22 ce 3f 28 4f 58 ed ae 1f ce 3f
       0.23542981200281354 0.23534189786061543
000020 18 f5 f6 d3 75 29 ce 3f
       0.23564026689374695

mean_out f8 [2]
000000 14 db 10 8b 05 7d e1 3f cf 49 c2 50 ae 6e b4 3f
       0.5465114322786087 0.0798138568082216

std_out f8 [2]
000000 66 8b a3 42 f4 20 cc 3f 47 b5 8e 7f d0 f7 c3 3f
       0.2197556805977811 0.1560001967276696

linear_afunc_stack.0.weight f8 [200, 5]
000000 cc 32 d0 2e b1 03 c6 3f a0 8d 14 bf b1 4f b5 bf
       0.17198767457775543 -0.08324728884740873
000010 3a 5c 18 01 b0 29 d5 3f 76 50 42 41 31 6b df 3f
       0.33066940409611656 0.49091750500634335
000020 12 2d 7e 2a 42 70 de 3f 6d 27 dc 0c 2d b7 e8 3f
       0.47560171270079465 0.7723603488131922
000030 27 27 fd 6c e0 0a cb bf a1 b2 af bc 74 0b d7 3f
       -0.21126942941401092 0.36007421900175457
000040 4f 67 16 e8 b0 04 a2 3f f8 e2 44 0d 9c c3 e4 3f
       0.03519203980540785 0.6488781222497826
000050 64 54 43 cb 06 ac ea 3f 96 10 ab 17 d1 5d e6 bf
       0.8334993333798022 -0.698952242114063
000060 83 6c 37 4f 08 ef d3 3f 6d 75 26 1f 6e b2 e4 bf
       0.3114643834684971 -0.6467810257342258
000070 12 23 53 16 02 0b e3 3f ae dc b9 6d 20 24 d7 3f
       0.5950937686949109 0.361579997209854
000080 00 5f d1 01 3c e0 e9 bf 9c f4 da 16 b0 36 de 3f
       -0.8086223636155125 0.472087881393074
000090 26 5d a2 ca f9 66 e8 3f 3c 1c 00 70 bd 3a e1 3f
       0.7625702817630653 0.5384204089649596
0000a0 20 2e 55 db 66 36 e9 bf 10 4d 16 83 f9 30 d8 3f
       -0.7878908428041917 0.3779891758105842
0000b0 62 72 75 85 6a f7 f0 3f 4c da 3a 84 6c 6d a9 bf
       1.0604043210252247 -0.04966296304830972
0000c0 57 a3 32 65 fa 72 ed 3f 1a a5 a3 de 38 b7 bd bf
       0.9202854134101511 -0.11607699809578201
0000d0 6a b7 f5 9a b0 8b c6 bf 4f 04 df ba ba 5e ac bf
       -0.17613799635312982 -0.055410228072567784
0000e0 30 b7 bb 55 b0 1e f1 3f f6 dc 2c 7f 07 74 b3 3f
       1.069992384810984 0.07598921637405795
0000f0 38 3d 43 c3 ea 44 ed bf 02 9e 90 b3 f2 08 b4 3f
       -0.9146627248500527 0.07826153644474945
000100 5b 43 ec 03 e4 ed eb 3f f2 18 af 55 4e e7 f4 bf
       0.8727893902415461 -1.3064711901693582
000110 ef 85 1e 06 da b8 c3 bf 3c ed 3e c5 85 00 be 3f
       -0.15407872484961113 0.11719547334262342
000120 e3 29 a4 e0 4f 46 d5 bf 91 70 4f 24 0d c8 c3 bf
       -0.3324165052187295 -0.1545425822540705
000130 6a 49 9e 05 2d 91 c4 bf 88 2d 12 bc aa 90 c9 bf
       -0.16068041586238319 -0.19972738440661097
000140 c6 45 8b 01 8d 36 d0 3f bd 99 da 91 14 b4 da bf
       0.2533295168951465 -0.4172412323336195
000150 78 83 82 68 59 04 de 3f b0 cb 7b 22 dc 76 d2 3f
       0.4690154572108933 0.28850463264023585
000160 44 eb 86 f2 f6 92 e2 3f fe 44 14 71 0d 92 c5 3f
       0.580440019307709 0.16851966878360963
000170 4d 23 5e a3 28 a8 0b c0 bc 25 f8 8d 7c 4f e3 3f
       -3.457108761129723 0.6034529469335932
000180 4c 8c 83 f1 98 95 c2 3f 3d 6b 76 32 d6 9e dd 3f
       0.14519035141629144 0.4628196232603619
000190 0f 21 b8 1c e4 b6 e7 bf 88 af 02 8b e6 5a e3 bf
       -0.7410755692408503 -0.6048462595986033
0001a0 2d 32 14 7c b6 e3 e2 3f 70 b5 2f 14 4f 76 dc 3f
       0.5902969764152367 0.4447210023052639
0001b0 6c 3c fa 93 a7 5a d7 3f 85 59 c5 5e 39 9f fa bf
       0.3649081177799818 -1.663873071860139
0001c0 03 7f 11 33 7c f9 b2 3f 06 2a 29 db 05 d1 e1 3f
       0.07411934134279012 0.5567654877170873
0001d0 e1 f5 a3 26 30 56 a2 3f dc e8 a0 1d 76 4d e2 3f
       0.035813812939504926 0.5719557360346488
0001e0 52 3a 04 5f b3 c8 02 c0 c3 21 72 1e 20 db d4 3f
       -2.3479983733334757 0.32587435696816786
0001f0 ca 4d 96 dd 1e 58 a7 bf 63 a1 54 51 01 c6 e4 bf
       -0.04559418158455804 -0.6491705502021826
000200 7a 9e f2 d2 0a db c5 bf b0 57 6f 11 a6 39 f1 3f
       -0.17074713993246232 1.0765743905117056
000210 4f e6 85 cf 00 5c b7 bf 5c 24 16 65 43 f8 c1 3f
       -0.09124760691147425 0.14038889346946604
000220 9a e3 d9 a9 c1 87 eb 3f 1f b9 95 23 57 c7 d0 3f
       0.860321838131415 0.2621667716511115
000230 24 ed c7 4d 2b 0c 95 3f f8 72 27 9c 9f 1b 96 3f
       0.02055423414456671 0.021589750200166485
000240 9d d6 e9 45 28 71 e7 3f 2d 29 59 6b 69 8d e3 bf
       0.7325631490227412 -0.6110121819158728
000250 ba 2a 47 53 86 51 d0 3f 4e 71 19 6b 5c f4 cb bf
       0.254975873304527 -0.21839480618917623
000260 65 a7 87 42 20 99 bd 3f 5c 93 16 bd b2 0c d4 3f
       0.11561776756539428 0.3132750364841763
000270 9f 8e 3d 24 87 dd d8 3f 32 ce 72 3f 03 2e ea bf
       0.38852098979098487 -0.8181167830684386
000280 cb 21 83 6e 90 2e b3 3f 43 3d 3b bb f7 63 98 bf
       0.07492926309635732 -0.023818846514413804
000290 f9 27 a8 c9 a8 77 f3 3f 64 ae 3f 78 8f 4c ff bf
       1.2167137028905002 -1.9561915108887655
0002a0 f4 f4 97 19 28 6c d8 3f 98 63 28 03 a2 c8 8c bf
       0.3816013574540442 -0.014054551812522395
0002b0 63 cd 23 05 fb 8c 98 3f 97 fb a1 12 03 bf fa 3f
       0.02397529810782596 1.6716337898103342
0002c0 74 e2 37 1f ff 14 fa bf e4 15 66 78 86 ab f0 3f
       -1.6301261157479106 1.041876287753774
0002d0 d6 4c de da 98 0b b0 bf db 9f 7a bf 06 3a 89 3f
       -0.06267695754495448 0.012317707746959108
0002e0 c7 76 bb 4c c6 d1 f2 3f 3e 6d d8 2e ba 92 e6 bf
       1.176214503989671 -0.7054110445928143
0002f0 dc cf 09 69 dd 07 e2 bf d4 30 ff 75 e3 7c cd 3f
       -0.5634600688485949 0.23037379514278788
000300 91 c1 00 b8 bf ce e1 bf 7e 62 a6 3d 36 a5 c4 3f
       -0.5564879030044257 0.16129186640025134
000310 08 a3 47 45 c2 b6 92 3f 9c 82 a1 41 92 c8 b6 bf
       0.01827529476023229 -0.08899797537152171
000320 81 21 45 93 cd 3f b0 bf ce 5b 0e 06 ca 22 bb 3f
       -0.06347355695209524 0.10599959037641257
000330 0f 58 8f c2 c1 63 da 3f 57 2e 05 bc b3 cf cc 3f
       0.41233867645257843 0.22508856468845082
000340 1a 28 aa 89 d8 29 de 3f f3 97 f5 03 7b 8c d9 3f
       0.47130406802955493 0.39919925104766135
000350 be de 48 8a ca f7 e3 3f 3b fc 1f b3 30 e1 e6 3f
       0.6239979458686873 0.714989042142299
000360 bc ce 3d db 3d e2 d2 bf 8e 2a 12 2b 79 e3 e1 3f
       -0.2950586930303236 0.5590177384595607
000370 80 2f 48 5c 9a 8b cd 3f 71 a0 db ee 1e 8b 8a 3f
       0.230822844562109 0.012960664429059162
000380 7e 44 d6 06 36 e0 d9 3f 99 90 1d 04 6e 1c f4 3f
       0.40430975597070773 1.2569408570061908
000390 43 f1 96 78 00 90 f0 bf 54 03 3d 87 34 f1 de 3f
       -1.0351566992313372 0.48347199637287486
0003a0 87 7c 94 35 2b 94 e5 3f 8f de 47 03 0f 0e bb bf
       0.6743370100483767 -0.10568326788040337
0003b0 d1 94 cc 65 06 72 e3 3f f1 ad fd 1b 70 cc d3 3f
       0.6076690662636343 0.3093529008244494
0003c0 19 a8 ed a3 19 a3 b4 bf bb 71 1c 3c 17 47 97 3f
       -0.08061371090084925 0.022732127231493964
0003d0 3e 36 55 32 88 2f db bf 37 a9 d9 25 06 60 e4 3f
       -0.42477612414663557 0.6367216815245119
0003e0 5e cf 4e 2c 72 92 e1 bf 14 79 56 b5 4b 07 f6 3f
       -0.5491267075908401 1.3767811854846217
0003f0 bf 5c 38 0d bc 5b d3 bf ad 2b e5 c0 67 22 c1 bf
       -0.3024740342238594 -0.1338624660368998
000400 4d eb fc 9c 5e c3 db bf 56 cc 75 97 fa 17 be bf
       -0.43379941302162167 -0.11755338857419537
000410 b1 c0 40 75 ab aa f1 bf 9e e6 12 c8 b0 01 b3 3f
       -1.1041674213593462 0.07424454578986192
000420 c7 3a 54 14 1a 13 c0 bf 17 fb 9e 37 db b8 e7 3f
       -0.12558294289234181 0.7413154684398674
000430 31 ac b0 d7 1f fe dc bf 2e e0 06 43 13 83 e0 3f
       -0.45301052154053695 0.5160003956907582
000440 b1 ee f3 5f 7a de ce bf ad 5b 1a d5 13 0b b5 bf
       -0.24116449055860792 -0.08220027878483789
000450 e7 2b 5a 8a 05 0e c0 3f 48 ad 22 fe f3 fd cc 3f
       0.1254279065654764 0.2265000334640297
000460 cf cb 5a 6d 9e 7e e5 bf 12 3d 8b 87 ab b2 e7 3f
       -0.6717064033349461 0.7405603072492417
000470 5e 2c 62 1b 2b 02 e0 3f a6 fb a3 d6 1f 45 e9 3f
       0.5002646956285266 0.7896880333135996
000480 f2 dc a6 ed f5 2f e0 3f f5 55 7a e9 dd 43 ed 3f
       0.5058545724522487 0.9145345268358925
000490 45 4b 1e 05 aa 22 e5 bf 35 df 7b 6f 5b 8a b5 3f
       -0.6604814624755383 0.08414241287016185
0004a0 60 57 2b 87 68 42 e7 3f d1 0f c0 97 fb db a3 bf
       0.7268564834618978 -0.038787710451316244
0004b0 19 51 26 70 59 72 70 bf aa 42 20 8f a9 e4 b8 bf
       -0.004015302054899438 -0.09723911041533975
0004c0 4f 83 23 7d ef 7e e1 3f 96 94 64 12 5f e5 c1 3f
       0.5467450565448447 0.1398123588379902
0004d0 a6 d1 76 31 cf 31 c0 3f 8b de 67 b9 81 d7 e3 3f
       0.12652006068459548 0.6200569745260095
0004e0 71 07 19 a9 28 25 f7 bf c2 74 27 75 f3 03 e1 3f
       -1.4465719800359376 0.5317323005835066
0004f0 68 2c cf 2e 11 9b da 3f ca 0a e5 a7 7e c3 e1 3f
       0.4157145459291258 0.5551141051476745
000500 2a 64 57 6d 65 79 f8 bf dc ca 8a 4e e1 5e c3 3f
       -1.5296377440593099 0.15133301100794128
000510 c3 39 fd d0 0d bb c1 3f 76 b1 38 eb 6a 02 e6 3f
       0.13852093414830166 0.687795123497877
000520 94 c4 9f 05 31 2d d3 3f 09 9a 6a 72 29 bf bb 3f
       0.299633269779471 0.10838564914102035
000530 4c a5 d9 c7 73 5d c0 bf 52 8a 49 b5 ae 00 d2 bf
       -0.12785193689641472 -0.2812916536696878
000540 c7 28 94 e3 71 d0 b2 bf cd 20 5a b6 f6 bd d1 3f
       -0.07349311643716581 0.2772194653303018
000550 ff 17 6e 87 44 10 69 3f 51 c5 16 80 3a a4 a2 3f
       0.0030595148522847278 0.036409214149339626
000560 7c 71 a0 53 4d 2f ee 3f f5 20 24 16 ac 51 f3 bf
       0.9432741769156077 -1.2074395050895508
000570 49 6f 54 1a eb a9 d3 bf ad b8 08 6d 5f 5e ef 3f
       -0.3072459942938975 0.980270111996807
000580 fa fd 20 8a c0 2c c1 3f 0a 47 97 11 c8 a1 e5 3f
       0.13417822594236367 0.6759987205097968
000590 2b 16 01 a6 bc f9 a3 3f 18 f7 94 73 93 cc d8 3f
       0.039014716400327686 0.3874863270501563
0005a0 60 cb 39 dc 64 b5 de bf 30 54 82 a0 3b ce ce 3f
       -0.4798214102403815 0.24066872918470628
0005b0 5e 8b 1c 09 54 2e d2 3f cc 9a 4e 59 e7 e5 a5 3f
       0.28407765283389164 0.04276965108083672
0005c0 53 e1 64 1d b9 d5 d3 3f 2b f6 d6 ea a9 d8 ce 3f
       0.3099196230937384 0.24098705260068817
0005d0 dd 7c 79 f1 73 35 e9 3f 95 fb b9 ef c5 b0 d2 3f
       0.787775012617114 0.2920393792227796
0005e0 c9 12 7f a9 45 17 dd 3f 3c 34 18 ba ca eb db 3f
       0.4545454173315134 0.4362665955857812
0005f0 44 9f d9 87 f1 96 f1 bf dd 00 2e 8b ba 0a c9 3f
       -1.099351435341263 0.19563991351970503
000600 d3 fc 3d e7 5b bc e0 3f c1 9d df bf 3b 63 ec bf
       0.5229930416534451 -0.8871134517220797
000610 9e f5 16 46 c9 bd ea 3f 6f 0b c8 7a 62 d5 bc bf
       0.8356672638835112 -0.11263099191277857
000620 08 c9 1f 4f cd 9b ad 3f df d2 04 cc 6c 83 dc 3f
       0.05782929983969792 0.44552154468264676
000630 31 a0 1e f1 a2 73 e7 bf 2b 09 77 ce fa 2b e2 3f
       -0.7328657826774415 0.567868617298051
000640 9a a8 1f 1c 62 38 ee bf 2f e2 3a b0 4b f6 b9 3f
       -0.9443827199259147 0.1014144234894807
000650 d9 01 2b 4a c6 3d fa 3f e0 76 8d ad f0 e4 f5 bf
       1.640081681936968 -1.3683935908697364
000660 30 b6 1e 86 79 84 e7 3f 32 8a 22 dd 3a 9b d3 bf
       0.7349212283640494 -0.30634948344428203
000670 b8 03 f7 89 bd 9e 8e bf 9c 30 19 cb 16 0d e7 3f
       -0.014951210759024267 0.7203477827802263
000680 66 e9 97 96 d7 43 db bf bc 76 82 fc 3f f5 f0 3f
       -0.4260157557142946 1.059875475278587
000690 7c 9c d8 38 09 f5 cb bf 3c b1 31 f0 ff b8 c5 3f
       -0.21841540599527665 0.1697082445929342
0006a0 a8 4f 00 bf b9 cf d4 3f e0 b9 07 76 4f fb a1 3f
       0.3251785626646275 0.035120471151333765
0006b0 fd eb b6 bf 9e c0 d6 3f 87 b6 13 83 cd ce d3 3f
       0.35550659868357554 0.30949724007118856
0006c0 93 01 38 6a 25 d3 78 3f 6d 62 0b bb bc 48 a3 bf
       0.006060739662189357 -0.03766431601770113
0006d0 b8 98 c2 77 2f 80 a3 3f da f6 d7 16 cc 8b c9 3f
       0.03808735215106779 0.1995787726918284
0006e0 23 c5 1d 49 a6 1c dd 3f a7 0d d5 2b 9c b3 e2 bf
       0.4548736299539817 -0.5844250541780881
0006f0 d9 ed 49 7f 63 0d d2 3f 4b 66 c0 f5 5b 5b c5 bf
       0.2820671790175005 -0.1668505620917123
000700 ba bb e6 53 6f 9b d4 3f 5d bf da e9 7a 2b e0 3f
       0.32198699182020685 0.5053076331587182
000710 eb 85 bb 0e 9e b9 9f 3f 0c c2 0c 0b 45 a4 da 3f
       0.030981511735154326 0.41627622679791965
000720 ce ff 90 d2 01 52 9f 3f cf 7c ad 85 fc 94 ca 3f
       0.030586269833520245 0.20767170455199
000730 c8 1e 5a c9 85 2e e8 bf 79 66 f9 87 0d 6c b1 3f
       -0.755679028764427 0.06805500573809721
000740 36 23 e8 a2 51 4f f0 3f a3 01 41 c9 1f 42 b6 3f
       1.019364963869703 0.08694647468019538
000750 bd d2 b1 05 cb e2 f0 3f cd ba 4b 97 42 cf fd 3f
       1.05536939835035 1.86310061550073
000760 86 3a ce a2 83 64 c6 bf 63 a3 ba 3d 49 bc a7 bf
       -0.17494245004168735 -0.046358383927617174
000770 e6 df 1c 9f a7 91 e4 bf 85 51 6f 5c ff 2b c4 bf
       -0.642780123488589 -0.15759269727153594
000780 ce 69 22 ae 62 47 dc 3f 05 1e 1c bb 49 9a 08 c0
       0.4418570232898248 -3.075335943027087
000790 0f ff 37 73 74 e8 e0 3f e0 28 fd 45 e4 5a b4 bf
       0.5283758402219706 -0.07951189717019558
0007a0 82 db b5 50 4b f0 d6 3f 97 f4 13 3d 31 3c ca bf
       0.35841639406083214 -0.20496192438432523
0007b0 02 42 7f 65 84 e6 ba bf 60 71 26 5a da fa da 3f
       -0.1050799129291207 0.4215608482716302
0007c0 bc b5 ce 8a 9b ac d6 3f c1 7e 57 d9 e4 cc cb 3f
       0.3542851310292823 0.21719036686316964
0007d0 92 98 cc 6c 5f 20 cc 3f 12 23 d0 46 c4 64 fa bf
       0.21973793804608427 -1.6496012464651284
0007e0 75 ff bc 9e d3 bb ca 3f 37 df 08 9f 7d 37 bc 3f
       0.20885701418773875 0.11022172100717574
0007f0 d2 85 ac ee ba f6 c5 3f 40 9d 21 2c 1c b1 c2 3f
       0.17159210828780985 0.14602996973847304

linear_afunc_stack.0.bias f8 [200]
000000 60 a9 63 c6 fb 49 12 c0 41 ea e2 a4 cf 72 05 c0
       -4.572249507744658 -2.6810601121663074
000010 8b c1 9e 97 70 a6 11 c0 88 79 82 7c 59 62 0b c0
       -4.412538880409907 -3.423022244197629
000020 4e 5f f7 ac 66 67 14 c0 0b 37 59 90 93 1c 13 c0
       -5.100977614019781 -4.777906661458256
000030 75 10 9e c9 0a 0a 1d c0 67 96 24 4a 9c 72 11 c0
       -7.2598067763066085 -4.361924322589039
000040 61 b7 de 00 0f b7 e5 bf ae bc f3 37 64 31 12 c0
       -0.6785960213653476 -4.548233865977791
000050 8e bc 0c 28 5f f6 13 c0 10 e4 34 31 60 0e 14 c0
       -4.990597368028046 -5.014038819173052
000060 ca 5e bb 49 4b cf e7 bf 6b b5 44 a3 2c 4b f6 bf
       -0.7440544548107593 -1.3933531167670832
000070 e2 e4 0f da 0d 13 ed bf a8 2c da 40 0d 6a 14 c0
       -0.9085759409928438 -5.103566182438193
000080 fb 21 b4 d0 f6 7c 01 c0 72 01 95 1a 79 7f 1a c0
       -2.1860176377269886 -6.624485411972602
000090 6b 30 41 7f 2b 27 1a c0 a9 09 6f d9 61 6b 10 c0
       -6.5382518657244 -4.1048654531499915
0000a0 9b 58 4a c9 1d e6 15 c0 aa 68 e0 35 16 2e 14 c0
       -5.4747230006816165 -5.045006601163701
0000b0 6f 9c de c0 55 f1 17 c0 30 de a3 1d 18 36 17 c0
       -5.985678685748197 -5.802826369406418
0000c0 98 49 a8 45 70 58 d4 bf 3d ac e7 1e f9 e4 fb bf
       -0.3178978615043433 -1.7434016425347771
0000d0 8f f7 ae 6f f4 fe 13 c0 cb 83 72 16 35 9e 16 c0
       -4.998979325346126 -5.654499388446264
0000e0 73 3b 92 5b 59 45 13 c0 c3 ad 01 bf de 90 07 c0
       -4.817723685074145 -2.9457373545062366
0000f0 7b c7 41 1c f2 99 ec bf 4f 9f 01 5c 79 4c fa bf
       -0.8937922050374562 -1.6436704248426002
000100 87 ab 5d 29 17 d7 08 c0 a5 a4 c9 cc 89 e5 13 c0
       -3.105024645968516 -4.97415847759945
000110 5e 51 b3 52 c4 13 14 c0 88 ff 71 8e 1c 15 12 c0
       -5.0193036004969525 -4.520616746623894
000120 b8 b9 84 9d 5b 50 12 c0 c9 8b 87 9b 88 90 14 c0
       -4.578474484659118 -5.141146116397928
000130 08 a6 a0 47 47 67 1c c0 65 c0 78 f0 03 19 1b c0
       -7.100857848339281 -6.774429089899148
000140 5b 5e 8a af 62 0b 13 c0 c9 f4 01 ec 5f 6b 10 c0
       -4.761118643589351 -4.1048581005281415
000150 69 9a dd e5 a1 29 12 c0 9b 87 51 ed f6 38 14 c0
       -4.540656654024681 -5.0556294518482
000160 70 f6 73 be 8b b9 18 c0 a5 d1 03 3b b7 a9 10 c0
       -6.181197143390463 -4.16573803149041
000170 3a 83 c5 65 1d 16 0b c0 56 2d 07 27 85 da 0a 40
       -3.385798258867365 3.3566992806496883
000180 cb 49 ac 96 59 7a 0a c0 1f a0 32 b0 a3 4e 15 c0
       -3.309741189129658 -5.326796296205457
000190 4e 74 f6 f0 7d d1 00 c0 36 f0 16 9f 70 fd 0a c0
       -2.1022909951412094 -3.373749964606783
0001a0 a2 68 40 a8 fb f6 f5 bf 45 9a 8a 11 3c 7d 13 c0
       -1.3727985927894584 -4.872299455723412
0001b0 55 6d 54 f3 0e b9 11 c0 78 45 56 4a a3 31 15 c0
       -4.430721094158192 -5.298474465861879
0001c0 52 aa 0b 99 11 90 12 c0 ac fe e0 a2 94 7f 11 c0
       -4.640692130410189 -4.374590439779848
0001d0 6b 05 e6 3c 40 d4 11 c0 6b 43 41 88 3e 0b 14 c0
       -4.4572762980836655 -5.010980729087218
0001e0 4b d5 5c f6 e2 76 16 c0 51 8e 5f 8a 71 b0 16 c0
       -5.616100167671287 -5.672308122713347
0001f0 c1 5c 31 b6 04 1e 17 c0 de 8e 89 88 0a c2 13 c0
       -5.779314848673665 -4.939493306537512
000200 88 e8 c6 fa 4e cc 16 c0 c3 c9 4e 5d 3c ad 10 c0
       -5.699520033255006 -4.169175584730001
000210 ef f9 47 7e c5 97 14 c0 88 c6 fa d6 e4 98 13 c0
       -5.148214314597211 -4.899310454422114
000220 99 b3 b4 0e a9 25 11 c0 4f eb 3a 44 0b 64 13 c0
       -4.286777715472362 -4.84769922837843
000230 6a dc 92 68 c6 5e 13 c0 c0 ea 0d 1c 7e 9f 17 c0
       -4.842553743327793 -5.905754507398058
000240 67 79 4d b3 dd 91 10 c0 3f bf c5 f9 72 e8 15 c0
       -4.14244728241315 -5.477001097387812
000250 8b f4 ae 4d 1b 69 12 c0 ed 2a c2 4e e2 24 1b c0
       -4.602643216899319 -6.786019545174651
000260 5d 65 c4 bd 69 12 10 c0 d8 74 f7 4a f3 da 11 c0
       -4.017981495964105 -4.463818713525335
000270 1f 07 d1 e6 2c c3 12 c0 7f 8f 5d 6d 60 af 14 c0
       -4.690600973613782 -5.17126627811001
000280 be bf 59 30 49 5a 12 c0 c9 3f 23 49 61 b4 0e c0
       -4.588169818380207 -3.838076182735652
000290 e7 e0 76 3c 2f b6 fe bf 0a 24 28 cf 3b 25 11 c0
       -1.9194786416901992 -4.28636096651554
0002a0 e6 69 5f ca c4 ae 17 c0 08 da 3a ba e4 f8 13 c0
       -5.92067257125243 -4.9930600260181635
0002b0 4d 0c 44 11 0c 0e 12 c0 c9 dc 2a fb 96 fb 16 c0
       -4.513717908647846 -5.745693134776226
0002c0 64 92 15 42 ec d3 0e c0 18 fe 48 5c ba 1d f4 bf
       -3.8534779703934863 -1.2572578053367405
0002d0 89 a5 9b b7 82 28 16 c0 12 dc 24 da 72 51 f4 bf
       -5.5395611466168555 -1.2698849221467339
0002e0 56 aa 55 15 b3 c4 fb 3f 81 05 cf e7 4d 52 05 c0
       1.7355223496803283 -2.665187655453963
0002f0 f3 99 ca 89 e6 1f 10 c0 3f 49 fa 08 e6 75 12 c0
       -4.031152871123129 -4.615135326648953
000300 5a a5 4e 46 8a 32 14 c0 77 54 33 94 e7 90 f5 bf
       -5.049355600881734 -1.347877100857003
000310 b0 95 3e de 72 b3 f5 bf 47 c4 13 8e 07 da 12 c0
       -1.356310718672244 -4.712919444996323
000320 fa 01 4e d3 5a e3 11 c0 a5 da c9 bf 2f 2c 12 c0
       -4.472026158939565 -4.543150898642726
000330 e1 dc eb a3 60 19 13 c0 77 bf 6e 83 b5 a1 15 c0
       -4.774782716055797 -5.407918981203571
000340 1f 5c 7d b5 a9 49 11 c0 ed ff a9 aa 53 05 0f c0
       -4.32193645074497 -3.8776009877328677
000350 6b b8 be 29 ea f5 14 c0 40 a6 40 c0 58 f4 13 c0
       -5.240151073709153 -4.988619808145415
000360 b0 d5 8b a1 40 1d 12 c0 39 2b 1c 6c 33 6c 12 c0
       -4.528566860351404 -4.605664910525598
000370 7b da c5 fa fe cf aa 3f c3 73 08 40 a1 67 12 c0
       0.05236813365165901 -4.6012010579260645
000380 ed 96 0b d3 bb 16 0e c0 c9 b2 a3 07 05 9f 14 c0
       -3.7611004341041423 -5.155292624822956
000390 c4 65 b8 24 63 fd 10 c0 a6 d4 5b f7 cf c1 1a c0
       -4.247448514704448 -6.689269890766047
0003a0 48 46 d4 32 72 c0 11 c0 b3 fc 57 6c c9 fe 10 c0
       -4.437935632902345 -4.248815243597323
0003b0 54 d1 04 20 be 95 15 c0 c4 11 42 8d 13 66 13 c0
       -5.396233082098053 -4.84968395915752
0003c0 e0 dd 47 31 3a 48 10 c0 f1 c2 62 82 ea 9c 03 c0
       -4.070534486781497 -2.4516191660298934
0003d0 e8 29 63 37 0a e8 10 c0 63 30 48 86 4a b7 17 c0
       -4.226601472308609 -5.92899522605521
0003e0 04 ed d8 05 37 e8 11 c0 7c 9b 7a f8 70 0b 0b c0
       -4.476772395482161 -3.380586568109207
0003f0 7f bc 66 cf 5a 98 12 c0 db f9 a7 b9 95 df 15 c0
       -4.648783913274314 -5.468344593884889
000400 75 ba c7 65 99 4b 14 c0 54 87 f7 8d 0f 64 0f c0
       -5.073827352824641 -3.9238577929653875
000410 36 b9 d8 bd 54 a3 14 c0 6d a5 1e cb 7a 77 15 c0
       -5.159502951004745 -5.366679357285972
000420 7a 27 29 9c 83 5c 10 c0 9e c6 85 60 f4 83 10 c0
       -4.090345802318433 -4.128861911931066
000430 15 70 da 77 88 0b 11 c0 2c fc 9f 48 42 23 14 c0
       -4.261262772281062 -5.0344325397154925
000440 80 aa 40 39 a6 48 17 c0 2d ce 94 51 2b 0b 14 c0
       -5.820946592876339 -5.010907435138091
000450 97 88 ec 4e df c6 f9 3f 13 85 ab 38 07 7e 14 c0
       1.611052807137218 -5.123074422329654
000460 cd 68 e5 8b f7 1e f8 bf bb b0 a7 d8 93 50 ff bf
       -1.5075602974598497 -1.957172247227432
000470 8a 6f 74 f5 6f 3a 06 c0 45 7b 04 d2 06 32 15 c0
       -2.7785338569792133 -5.298854142688303
000480 9b 15 c6 12 1e 54 12 c0 16 15 db 0e a9 38 13 c0
       -4.5821459706689 -4.8053324052064195
000490 02 04 36 ce 4c c1 12 c0 b2 5c 1a ae 24 43 11 c0
       -4.688769552275518 -4.315569610938086
0004a0 84 76 56 cd cd 4a 05 c0 75 40 d6 85 39 81 16 c0
       -2.661525348855152 -5.626195994569675
0004b0 7c 63 77 f3 04 0b ee bf a9 78 a3 bb e5 43 23 c0
       -0.9388451342775705 -9.63261209841251
0004c0 c3 bf 43 f5 9e b4 10 c0 6f 52 93 d9 15 9e 13 c0
       -4.176387626895976 -4.904380225769827
0004d0 ab e2 3f 63 a2 d1 14 c0 e5 bc 7e 99 6b c3 10 c0
       -5.20472102239061 -4.1908401473621995
0004e0 4e 66 04 d8 41 cb 10 c0 57 a5 5d 8f 94 17 0e c0
       -4.1984933617291755 -3.761513824506135
0004f0 88 c8 17 1c 15 e8 f3 bf 36 19 e0 5c ef 83 14 c0
       -1.2441607568148658 -5.128842784097563
000500 31 6b e5 72 ce e8 13 c0 4d a7 02 ca e2 86 f2 bf
       -4.977350039723022 -1.1579311266927619
000510 bf 4c 3b 13 a3 0c 14 c0 44 9b d9 80 54 0a 11 c0
       -5.012340832228062 -4.260087979585311
000520 03 e1 1b 16 8f 57 14 c0 6e a7 83 03 89 b0 15 c0
       -5.085506768657299 -5.422397665892147
000530 4d 76 fc 51 c1 c3 13 c0 ce 19 77 a2 1a 65 15 c0
       -4.941167145761551 -5.348734415549599
000540 09 99 45 f5 1b 48 14 c0 56 09 cd 3b 0d a7 14 c0
       -5.070419151661789 -5.163136419667657
000550 f1 6b e9 29 05 c3 bb bf f0 1a fc 60 7a 33 03 c0
       -0.10844452164876352 -2.400135762876168
000560 ad 67 be 9b e4 29 12 c0 b6 f4 dd cd 33 91 10 c0
       -4.540911134239576 -4.1417991797181255
000570 1c 61 a7 fd 1f 77 16 c0 ab 25 59 05 2d 88 11 c0
       -5.616332972851776 -4.382984241071806
000580 d5 fc e4 64 1e 28 00 c0 1a e3 1e 0b 75 49 13 c0
       -2.019589222181461 -4.821735547790718
000590 88 fd 24 5a a6 05 1b c0 1f 50 f4 4d 94 39 06 c0
       -6.755517395503723 -2.7781148996528056
0005a0 5e 6a 8b 4b 35 33 16 c0 d1 9b d0 c0 c6 c6 10 c0
       -5.550007992157218 -4.194117558224165
0005b0 b1 5e 6b a7 c2 9f 0a c0 1e 39 3a a8 4d 7a 14 c0
       -3.3280079917566003 -5.119436863473565
0005c0 3f e8 ea e0 aa f0 18 c0 ce bb 1b 1a 22 f4 11 c0
       -6.235026850068663 -4.488411338751531
0005d0 e3 c1 9c d9 ba b5 16 c0 6c 34 ec c6 73 ba f9 bf
       -5.677470588867865 -1.6080205698410976
0005e0 f2 4e d7 39 5e 0e fe bf e8 64 2d 69 b2 ad f7 bf
       -1.8785078296104385 -1.4799064739693737
0005f0 65 54 84 9e 27 0f 09 c0 9d 97 f9 5b 11 ec dd bf
       -3.132399786389714 -0.4675334356492103
000600 26 ad 72 f8 e6 64 12 c0 07 50 0f 6b f0 72 b9 3f
       -4.598537332534113 0.0994100819946767
000610 85 e5 ed 45 0b 52 14 c0 15 9c 7e 15 2e e9 f1 bf
       -5.080121128697447 -1.1194287147170645
000620 cc b8 73 ca 56 72 11 c0 5a 73 bb 6f 09 70 08 c0
       -4.361659205735304 -3.054705498607672
000630 ee e6 0f e2 d3 dd 15 c0 bd 22 d7 86 75 09 18 c0
       -5.466628582211099 -6.009237391358224

linear_afunc_stack.2.weight f8 [200, 200]
000000 8e 65 cb cf ac c4 b5 bf 28 07 d4 2b 21 74 ac bf
       -0.08503227303608282 -0.05557349834454178
000010 1e 86 b7 e8 a5 9e b2 bf b8 eb aa 90 bc 99 e1 3f
       -0.07273327762188628 0.550016672662756
000020 75 4c ad 53 5b fc e5 3f ee c3 b2 9f 7f 38 e9 3f
       0.6870552667918576 0.7881467932803596
000030 8d 11 fe 60 ac 5c b6 3f 94 59 96 c2 45 3f 97 bf
       0.08735158317546717 -0.02270230293432858
000040 34 98 d1 73 a7 5a cc 3f ab d1 7d 0d 1c 9e c9 bf
       0.22151654391490327 -0.2001376214863176
000050 51 78 d9 5d 9e 81 dd 3f ea 3f 0e 05 b2 b5 d0 3f
       0.4610362926958987 0.26108980649678293
000060 31 6f da 89 33 02 01 c0 48 bf 11 6a 10 c5 e0 3f
       -2.1260748643670913 0.5240556785265449
000070 15 23 9a 26 e6 c3 e9 bf 77 32 6c c7 18 98 f3 3f
       -0.805163455385897 1.2246330060908386
000080 4e e7 cf 4d d6 c7 d0 3f c7 9e 18 00 1d d8 e1 3f
       0.26219709013786463 0.5576310159567236
000090 b3 14 e6 75 9d 0d c3 3f 77 f1 4d df d7 c1 e8 3f
       0.14885299927496973 0.7736625062384935
0000a0 06 fc e3 a7 79 c4 c5 3f 89 3b e1 c3 9f ae e9 3f
       0.17005844781667195 0.802566416337741
0000b0 85 a1 a7 d4 5a 1f dc bf 41 e7 4a 9e 41 68 dc 3f
       -0.43941374556609275 0.44386330087910514
0000c0 4b d3 81 08 e2 46 e0 bf 79 4b e1 a7 23 1b c8 bf
       -0.5086527029185189 -0.18832822510975314
0000d0 d1 47 90 a2 57 8e e9 3f ea 0c f5 7f 5e 57 d5 bf
       0.7986257720060569 -0.33345758910964085
0000e0 22 59 46 6c 83 dd c1 3f 90 6d 9f 17 5c 07 f1 3f
       0.13957255160193777 1.0642968104137687
0000f0 30 f5 bc 0e ad c5 a0 bf 8d 9f 8a 5a 7b d7 c9 bf
       -0.03275814824017187 -0.20188848420115982
000100 92 7a 2f e7 61 99 f1 bf 8e a4 32 04 77 97 c3 3f
       -1.0999468832666577 0.1530598421570954
000110 f8 b4 dc be 92 24 e2 3f 49 1e 02 6a 5a 1e ba bf
       0.5669645049835301 -0.1020256527718796
000120 1e ae 36 0b 95 1d e0 bf 07 8c 4f 7e c5 16 bc bf
       -0.5036111086860193 -0.10972246488340441
000130 33 4d c0 1e 2e de f2 3f 93 46 e4 91 05 3c b1 3f
       1.1792432023256196 0.06732210933503273
000140 69 63 0f 6c 64 2c df 3f 39 5b 66 78 1d 95 d0 3f
       0.4870844893717306 0.2591012645511231
000150 aa 50 f4 21 69 dc d1 3f 07 b2 48 9d da 19 f7 3f
       0.27907779994826376 1.443812002554411
000160 70 5c 84 72 51 c0 d1 3f b2 38 6b 4c 29 00 ca bf
       0.27736316855720755 -0.20312992316616413
000170 66 23 09 0c e2 71 b6 bf 70 98 9c a5 72 5d f5 bf
       -0.08767521661606067 -1.3353144139487334
000180 3f e2 cd 6c 79 57 b8 3f 1a 8b 9a 38 68 0f cb 3f
       0.09508475214341504 0.21140768779613311
000190 62 c2 16 07 f9 bb cb 3f 4c 22 a3 8d 28 ba de 3f
       0.2166739735235011 0.480112207715625
0001a0 10 e9 79 bb 32 a9 d1 3f 7a 6f 27 19 60 25 00 40
       0.275952036936034 2.0182496991309877
0001b0 f1 f7 3a 90 9b 69 e1 3f 6d 61 4f fc a1 b8 d4 3f
       0.5441415612219754 0.323769089123309
0001c0 79 57 49 23 49 e7 c4 bf 90 7a 2c 67 05 23 d0 3f
       -0.16330827925656502 0.2521375186496835
0001d0 44 13 ac 50 46 fc c9 3f 90 ce 81 1d b0 8c e9 3f
       0.2030113119036746 0.7984238220510225
0001e0 9e 6f aa 82 e8 d9 9f 3f d9 40 79 a3 97 d5 da 3f
       0.031104691481786177 0.419286641733391
0001f0 2a 44 0d 5c 2b ab c9 3f e5 6f cd b2 39 8d c4 bf
       0.2005361747237953 -0.16055985670652642
000200 50 2a e8 b3 2a 81 c2 bf 81 6c bb 73 37 36 db bf
       -0.14456685814396275 -0.42518411924329064
000210 c3 03 e6 ca 23 2e e7 3f 81 b7 2b fc 2b 11 ce bf
       0.7243823016034344 -0.2348990422537405
000220 1a 5e 1c c9 76 58 e3 3f 1e 7d 57 61 f4 ed 76 3f
       0.6045488288827443 0.005598024950330042
000230 f3 f6 ba 80 5e 35 d2 3f 5d d1 5f 13 c9 29 e2 bf
       0.2845073945171485 -0.5676007631687231
000240 2c 9b d5 57 2b b0 dc 3f 76 33 81 a0 c1 b5 c0 3f
       0.44825252130105997 0.13054676377432956
000250 51 8f 0d fb fb fd df 3f f5 73 c3 e9 56 ee ef 3f
       0.4998769714059011 0.9978441777890327
000260 50 ee 2e 13 05 a7 a4 3f 1d af 34 76 0c e8 e9 3f
       0.04033676013156351 0.8095762547213529
000270 35 4d 8f 8c 9a d9 e3 bf c8 42 f5 73 cd 58 e5 3f
       -0.6203129525478405 0.6670901551061315
000280 b0 66 5a e7 2f 42 ea 3f 7a f1 10 a1 31 9d e2 3f
       0.8205794829002198 0.5816887040923995
000290 61 f9 42 15 e7 88 d9 3f 81 c4 f8 20 1b aa cf 3f
       0.398980875743197 0.24737872228573468
0002a0 a0 e1 b4 f6 1f 78 f3 3f dc c2 cf 02 5e 8d be 3f
       1.216827357957392 0.11934459274904036
0002b0 d1 0c 53 8b a3 2a dc 3f 1e 3d 39 3f b9 b6 c7 3f
       0.4401024685468658 0.18526378237809465
0002c0 c4 cc 5c 14 88 54 d3 3f 66 e3 79 be 4a 62 ca bf
       0.30203439701581325 -0.20612463284103483
0002d0 51 7a da 54 29 ed e4 3f 31 96 40 13 fd 9f c3 bf
       0.6539503724378141 -0.1533199638371783
0002e0 df 44 83 95 30 6e bd 3f 3e ee 7a 63 68 57 e8 bf
       0.11496261263097861 -0.760669893548261
0002f0 aa 0b 1b 87 5e 3b d3 bf 4c 23 9f 99 c4 7f d2 3f
       -0.3004986113921243 0.28904833795654805
000300 e0 e9 81 a4 61 f4 d9 3f 8f ab d7 11 f2 3c b3 bf
       0.4055408579366979 -0.07514870582205745
000310 97 7d 1c ef 83 5a b2 bf 5c 44 a0 de 66 a2 bd 3f
       -0.07169365489652645 0.115759305336057
000320 2d 02 c6 9d 6d de 92 3f 6e fc 03 4d 5d 8e cd 3f
       0.018426621203163563 0.23090711842084793
000330 08 a8 e8 84 5b d9 cb bf 74 e2 cc 05 be b5 d0 3f
       -0.21757072438896352 0.26109266821325794
000340 5b 25 52 f5 49 00 dc 3f 98 7c 0e b6 78 97 b1 3f
       0.4375176330291503 0.06871752209416326
000350 ab 02 28 d2 ec 00 b6 3f bd 8f 24 43 0f 81 dd 3f
       0.08595161562699143 0.4610021739665589
000360 76 4f c8 6b 55 2f 94 bf bc 74 c6 21 af bc b9 bf
       -0.01971181364395088 -0.10053534102049161
000370 3b a0 67 35 56 d7 fe bf a5 3b 6f a1 22 6b a1 3f
       -1.927572449314552 0.03402050228725465
000380 2e a0 18 13 86 a9 7e 3f d2 1a 8c c8 9c 9a d3 3f
       0.007485889176258849 0.30631179413505294
000390 1b 0c 5f 1a af 32 b1 3f 5d f3 89 cb f6 86 f8 3f
       0.06717962640600243 1.5329502058732125
0003a0 b1 f1 ca d5 ca a9 fe 3f 89 94 36 2d 4c 25 c4 3f
       1.916453204276973 0.15738823135066962
0003b0 ae f5 86 cd 6e 4e d3 bf be db 6b 61 5d 3d c9 3f
       -0.30166215964330945 0.19718520409489132
0003c0 fe 4f ec 37 cd 97 00 c0 76 6b e9 9c e5 63 bd bf
       -2.0741218918792574 -0.11480555611471552
0003d0 28 8f 38 94 e4 c2 ae 3f d3 d6 35 b1 f1 21 c0 bf
       0.06008066472375467 -0.12603589203688745
0003e0 b0 42 c9 38 5b 68 d0 3f 64 27 9d 8e d1 7f f0 3f
       0.25636940522694385 1.031205708585241
0003f0 2c 97 21 4f f9 4a dd bf 31 ac 98 51 6d 3e e1 3f
       -0.45770104148538127 0.5388704866103408
000400 5b 9a ec c9 db d9 f3 3f 81 6b 03 13 dd 1d e1 3f
       1.240688122526669 0.534895455489604
000410 aa 7e 95 01 14 72 d4 3f d4 5f 29 7f c0 3d 03 40
       0.31946277765926345 2.4051523146153873
000420 25 d0 c8 c4 64 e8 d7 3f be e9 dc 7d 8a 87 dd 3f
       0.37355918137768845 0.46139776507666486
000430 c0 a0 8d 08 43 13 dc 3f db 66 5b 74 c2 41 b8 3f
       0.4386756499793698 0.09475341168163302
000440 0e 1d e1 73 bc e7 d6 3f 88 57 ad b3 a6 29 e4 3f
       0.3578940517076753 0.6300843724554719
000450 f4 7a 5e 01 f1 de cd 3f af c5 71 88 76 93 e7 3f
       0.23336613242005166 0.73675085686971
000460 aa 92 e9 96 b3 64 d2 bf 40 30 15 51 b6 8c eb 3f
       -0.28739633309877866 0.8609267791412165
000470 82 44 df a9 ee 79 01 40 b2 d5 46 a5 be 1c d8 3f
       2.184537245870673 0.3767544378309494
000480 9f 54 00 a6 93 6a db 3f 8f bc 5e bd bd 90 96 bf
       0.42837992869437785 -0.02203651874850415
000490 a7 29 c2 82 2e 65 cf 3f 2a 4c ab 1b 4c 05 e0 3f
       0.2452753199070916 0.5006466427242959
0004a0 f5 53 b5 f6 07 92 d1 3f 39 db 61 98 6c 83 e6 3f
       0.27453803150757433 0.7035429931846472
0004b0 68 22 a2 c9 62 c3 c5 3f 11 43 9a 1b 0a fa f8 3f
       0.17002520413759048 1.5610447958208093
0004c0 0b 8b 85 c4 ad 8a e0 3f 59 53 c2 48 b8 ed e0 3f
       0.5169285620034726 0.5290185376239648
0004d0 5e 92 eb 8d bb bd c0 3f 32 b2 5b de 8d e2 b0 3f
       0.13079018048951502 0.06595694235483832
0004e0 bf 06 86 12 6a d3 c0 3f e5 cc 36 bf e2 d6 eb 3f
       0.13145185379476307 0.8699811682367026
0004f0 99 84 95 c4 4c 0c e5 bf af 88 3b 85 c2 d1 cd bf
       -0.657751449540359 -0.23296386247154063
000500 4f c1 14 6b 2f e0 10 3f 45 d1 30 2c 33 12 d8 3f
       6.437577646490232e-05 0.37611083331582434
000510 9c 16 72 bc 3b d7 db 3f 38 8c 37 31 34 12 e0 3f
       0.4350118007936119 0.5022221528310018
000520 e8 e5 f1 30 0e 77 c3 3f 2a ac 19 34 36 68 e8 3f
       0.15207078351868053 0.7627211587508829
000530 76 15 d6 6a b4 c0 8d 3f 60 ce 90 d2 5d 24 dc 3f
       0.014527711401351989 0.43971963465739883
000540 60 2e 72 08 8a a0 d7 bf fe ed 4f 27 44 66 d3 3f
       -0.3691735346298852 0.3031168350132417
000550 21 33 eb 2f 1d 6d c8 3f f3 3d 91 fd fa 42 04 40
       0.19082989539892828 2.5327052888821924
000560 eb 9c f8 09 3d 07 c9 3f 01 39 af 5c 95 81 e2 3f
       0.19553339945671352 0.5783182916873387
000570 e4 75 49 50 d8 a7 e3 3f 0f 6d fc 19 d2 49 95 bf
       0.6142388885597794 -0.020789416156827886
000580 41 ec 29 ec fa 1d f0 3f 14 88 b8 19 65 ea e8 3f
       1.00731937648267 0.778612661586751
000590 ac 55 ef 15 1a 7f d5 bf af d4 70 9b d8 16 c4 3f
       -0.3358826841552751 0.15694720830803052
0005a0 79 e1 dd 0c b4 75 e7 3f 88 89 ea f7 84 fe f2 3f
       0.7331180812171133 1.1871385273194353
0005b0 e3 bb 10 33 00 7a cc bf 0b 71 15 10 46 14 f7 3f
       -0.2224731683104145 1.4424496296188092
0005c0 a2 ef d2 59 0e 50 ef bf 1e 0c 1d dc 82 45 9d bf
       -0.978522468030395 -0.028585476574573325
0005d0 91 f0 ba 0c f0 7d da 3f de 42 a7 1d f6 37 c3 3f
       0.413936626846188 0.15014530609052817
0005e0 2c a7 7f 32 f2 6c c9 bf 7a 75 0a 5f 29 63 b5 3f
       -0.19863727060083514 0.08354433603604675
0005f0 8e 92 92 b0 5f 5e 9a bf 27 47 80 c9 1a 20 cd bf
       -0.02575063243115721 -0.22754225577278328
000600 5f 0d 05 36 3b ad e4 3f fd d0 5e b8 a8 b6 e5 bf
       0.6461463980744319 -0.6785472489341654
000610 16 9b 8d 89 2f 79 f2 3f bc d2 f8 10 bd 88 de bf
       1.1545863507432776 -0.47709585816782485
000620 b7 c6 17 ed d0 2c f1 3f ae e8 62 15 5d ba d8 bf
       1.073441434997603 -0.386374731907959
000630 4c 8e 0f 1a 8a 5d c9 3f 9a bd 25 e3 f2 d2 b8 3f
       0.1981670977830724 0.09696882291404166
000640 6c 6d 26 3e 41 81 b7 3f 3d d5 81 55 de 58 db bf
       0.09181602256142235 -0.42729910230930895
000650 0f d4 38 e6 27 30 1e 3f b5 66 e9 ee f8 de d0 3f
       0.00011515849615124938 0.26360915499899856
000660 84 7a 1e e5 58 7a c2 3f 0a 64 08 62 b3 56 b8 bf
       0.14435874164060547 -0.09507294791582424
000670 06 49 73 2b 4f fb c5 3f 9c c6 80 49 43 4d d8 3f
       0.1717318498763875 0.37971574953108145
000680 57 30 96 23 a8 62 c4 3f 22 28 14 4e 26 cb b5 bf
       0.15926076638823147 -0.08513106733531164
000690 37 ff b5 c1 ce 6a c1 bf f9 04 53 9f 3f 7c ce bf
       -0.1360720105985764 -0.23816676406389783
0006a0 64 67 d2 54 f1 a4 ec bf 4f e6 f3 25 c4 89 d2 3f
       -0.8951346069982091 0.2896585817939909
0006b0 89 60 94 dc 8a 8a c4 bf 6d e5 d5 51 a1 0e da 3f
       -0.16047797937858757 0.4071429537940137
0006c0 98 29 a7 b6 6a f8 e2 bf 5d a0 3a 48 a6 f8 9a bf
       -0.5928243224564538 -0.02633914771891487
0006d0 bc 27 4b af df 69 c1 bf 87 c9 4f 20 27 ea cc 3f
       -0.13604351100212664 0.22589577748983578
0006e0 a0 aa 13 b6 91 e9 c2 bf ae df a7 bc 42 e6 e8 3f
       -0.14775296583623732 0.7781079945261717
0006f0 1a 87 38 23 6a 2d d8 3f 66 31 fe e7 32 33 b2 bf
       0.3777718872025716 -0.0710937324894921
000700 e2 8c 7a 47 c5 b1 eb bf 24 6d 95 29 97 a0 d7 bf
       -0.8654505153721426 -0.3691766649332797
000710 c7 ac f9 52 6e 4d d6 3f f8 32 c9 e2 8d 10 e7 bf
       0.3484760103517143 -0.7207707814610265
000720 a5 c1 90 15 6c a6 d3 bf 2e a6 a8 9e 70 76 f0 3f
       -0.30703260522843784 1.0289159963234726
000730 86 cc 40 35 30 ff dc bf b8 2f 4d e9 d5 b9 82 bf
       -0.4530754585313804 -0.009143515760705032
000740 e5 d6 e4 b5 88 ad de 3f 41 21 7b c1 bb 9d d4 bf
       0.4793416763599068 -0.32212728399874285
000750 19 4c 49 fd f2 9c d8 3f 56 e6 77 de 20 37 c1 bf
       0.3845794175624078 -0.13449488508904278
000760 e7 b7 09 59 d9 73 de bf ea a4 da c0 40 c5 bf 3f
       -0.4758208627234794 0.12410359104491744
000770 96 d3 d4 01 ac 4c e7 3f de 4a ca 3f 9c 76 ce 3f
       0.7281093631523727 0.23799470057254885
000780 29 c8 0a b2 91 8c e2 bf 7d 96 ba ab 15 c3 d8 bf
       -0.5796593167672245 -0.386907022193874
000790 9c 70 7a 0c 8c cb c7 bf aa 90 09 b5 5a c0 e0 3f
       -0.1858992634705644 0.5234807525526055
0007a0 a3 b2 ec 69 87 94 cc bf 85 85 0b e7 22 41 cb 3f
       -0.2232827441415753 0.2129253032826847
0007b0 6f 34 9c 95 0a f1 d1 3f 28 6f 7b 98 a6 16 f5 bf
       0.28033699617737445 -1.3180299717268529
0007c0 9e 88 94 e2 d4 da dc 3f 07 31 25 76 fa e4 d3 bf
       0.4508564198205337 -0.31085073030114113
0007d0 cb 50 be ab 40 d2 e8 3f bc bc d1 e5 89 4d de bf
       0.7756656031001737 -0.47348258441247615
0007e0 92 f2 cb 00 d3 8a b3 3f 9f a2 2d 0b 6c d0 d8 3f
       0.07633703965616181 0.3877210721171113
0007f0 c8 62 2c 94 64 7e ca bf 49 4d 71 9b ca 3a c7 3f
       -0.20698220477131302 0.18148167219133374

linear_afunc_stack.2.bias f8 [200]
000000 ec 74 43 83 4b 45 10 c0 f0 e5 22 a7 b3 0d f7 bf
       -4.0676708707735365 -1.4408451584589521
000010 bd c5 54 dc 84 f1 e2 bf fd fd 87 74 60 ea 05 c0
       -0.5919822982161161 -2.7394417861939915
000020 bf 71 1b 46 78 e2 f6 bf f0 ef dd ab 1e 6b 01 c0
       -1.430290483337657 -2.1773045947174907
000030 64 b2 8c 98 c7 5a ff bf be 2e 93 0b 29 d6 fd bf
       -1.9596630057304987 -1.8647852375169545
000040 e3 76 90 8f ce db f9 bf fc 98 26 58 36 e1 f6 bf
       -1.616163788602926 -1.4299834674253011
000050 07 99 25 0d 4c a5 fa bf 49 89 5f 7f df dc 02 c0
       -1.6653557313489402 -2.3578481627493244
000060 56 6a 04 bf 78 a6 fe bf 8b 79 e9 54 83 37 fb bf
       -1.915642496262668 -1.7010529820323395
000070 91 6f bd d1 31 d1 d5 bf fa c2 a9 8e a6 74 f3 bf
       -0.3408932255022075 -1.2159791538981026
000080 34 ac 54 f6 7b 9f f7 bf 23 a6 ad 4f c8 e2 f1 bf
       -1.4764365789694809 -1.11786681293814
000090 9b 29 38 d7 54 35 f5 bf 67 4c 23 ed a5 e0 03 c0
       -1.3255203635222645 -2.4846914793393355
0000a0 94 46 6f 24 cf 00 ec bf c0 e8 03 5b 61 10 ee bf
       -0.8750987731566107 -0.9394995477334973
0000b0 fa e1 e4 27 70 c9 fb bf d2 6e ad 21 c9 db ff bf
       -1.736679225765441 -1.9911586108709582
0000c0 88 0b 18 98 7c 40 f0 bf f5 78 40 25 86 f1 ff bf
       -1.0157438222092612 -1.9964658217573377
0000d0 50 6a 97 7e 85 3f 03 c0 4f 1d e9 86 a2 49 02 c0
       -2.406016339298084 -2.28595452689084
0000e0 f9 34 5e 99 b9 95 f8 bf ab a5 64 1e 7f 34 fc bf
       -1.536553954213842 -1.7628165423615012
0000f0 58 64 0a 19 cb df fb bf 6b 15 1d f1 ad 34 d4 bf
       -1.742137048544711 -0.3157152990937308
000100 c7 bc b5 18 fc 00 fc bf 07 a7 4e f7 5d 31 fd bf
       -1.750240417979329 -1.8245525036276733
000110 ee fe a6 98 0d d6 f4 bf 85 85 f4 30 74 94 f9 bf
       -1.3022590601903477 -1.5987436210928945
000120 c2 c6 f9 b3 29 3e ea bf e8 9d 6e ed 3d 52 f5 bf
       -0.8200882449293305 -1.3325785898867881
000130 b1 b0 69 a4 b2 05 03 c0 df 7f 1c 7f f4 01 fd bf
       -2.377782139277848 -1.8129773106847933
000140 db 81 4a f7 d2 68 04 c0 cd 94 9c 8d 2b 65 f6 bf
       -2.5511836356747444 -1.3996997386650947
000150 65 21 55 e4 a8 38 01 c0 85 cc a5 79 c3 9a fc bf
       -2.1526658857803107 -1.787784075914517
000160 93 3a 69 54 1a 55 ca bf a7 0d f3 fd 6b bf fe bf
       -0.20572213288911154 -1.9217338485621924
000170 37 dc 0e 1a 4d d7 f9 bf db af 61 fe d3 38 e0 bf
       -1.6150637643711556 -0.5069370239630148
000180 10 61 9e 1d 7c 5f f4 bf 5d c7 68 cb ff 6c f8 bf
       -1.273311725328373 -1.5266111322093459
000190 29 13 78 75 04 2a fc bf f9 78 12 25 0b bd 00 c0
       -1.7602581585535495 -2.092306413294065
0001a0 7b ea 11 b4 89 8d ec bf 9e c4 34 08 22 00 f3 bf
       -0.8922775761596563 -1.1875324554969562
0001b0 e3 a5 10 9b 48 4c e1 3f be 45 4c 77 16 fd 00 c0
       0.5405619648565189 -2.123578006758833
0001c0 2a bb e5 f1 dd a4 f9 bf 08 7f d4 51 8a be ed bf
       -1.6027507256619153 -0.9295093153232026
0001d0 8e e7 54 1e 79 3b 01 c0 5c 6a e4 cf 52 07 f6 bf
       -2.1540396089230347 -1.3767879601279196
0001e0 36 96 b5 7f 91 d5 f9 bf e3 48 0f 39 f5 8c fc bf
       -1.614640711655182 -1.7844135502714884
0001f0 bb 48 c9 6f d7 4c 02 c0 4f c3 16 b2 59 3b f5 bf
       -2.2875202878286394 -1.3269898373220774
000200 68 9b 0e 71 66 7c fb bf 63 3d 3b c9 52 e8 fd bf
       -1.7178711334506378 -1.8692195759393477
000210 96 35 39 d2 dc b7 fd bf 02 3f ec 93 2e b3 e8 bf
       -1.8573883258680772 -0.7718727959745311
000220 04 c0 b2 4c 2a aa f7 bf 12 fb 55 4a fb 79 fd bf
       -1.4790442462945075 -1.8422806648010845
000230 a5 0f 70 fa db a4 de bf 3a 4c c1 1e e1 ed eb bf
       -0.47881221253214284 -0.8727880097088765
000240 0f 33 5c b2 48 77 00 c0 31 1b 5f 17 6c 57 fa bf
       -2.058244126738266 -1.6463433182668263
000250 41 b2 e9 54 86 d4 f5 3f d7 38 20 84 a5 60 fe bf
       1.3643859211835123 -1.8985953484694187
000260 a4 b2 f8 0c a5 1b 01 c0 82 29 e0 99 e0 77 f7 bf
       -2.1384984029194403 -1.4667669306532791
000270 7e b6 5c 48 7c 6e fb bf 4a ba 29 7a 7d 3e fd bf
       -1.7144739939352855 -1.827756383132185
000280 c3 30 0e 7e 5c e0 03 c0 31 fd 93 3d 77 84 f7 bf
       -2.484551415260371 -1.4698402791398844
000290 eb 21 58 3a f6 21 f8 bf d7 fd e7 c6 de c6 f0 bf
       -1.5082914618561698 -1.0485523004316428
0002a0 08 a4 17 6e 9d c3 f5 bf 9d 85 e6 49 7a 4e 02 c0
       -1.3602575588686268 -2.2883191846346578
0002b0 7f 9a a7 b1 bf af f2 bf d1 dd 24 a0 cb 54 f6 bf
       -1.1679074229847684 -1.395702004969156
0002c0 a1 e7 84 6d db af f2 bf cd 5f fd 6b 2c da e0 bf
       -1.167933872040955 -0.526632510106532
0002d0 f6 1a e1 4b 78 53 f1 bf a4 1f 7e fd 81 96 f4 bf
       -1.0828783954654546 -1.2867450620706018
0002e0 08 41 68 51 06 9d f7 bf 40 a7 07 53 be 39 ff bf
       -1.4758361034365084 -1.9515975230555824
0002f0 32 52 33 7d ac 09 f0 bf c6 e1 e1 7f c3 02 f6 bf
       -1.0023617640155291 -1.3756747241405818
000300 43 fc ad 55 ee f0 fa bf 0d 5f c7 d4 fc 02 01 c0
       -1.6838210436688008 -2.1264587996810236
000310 fe d0 56 f2 9b b6 02 c0 ef fc a3 d4 bc 56 f9 bf
       -2.3391646321052795 -1.5836761766693674
000320 14 db fd f9 4e 36 04 c0 15 af 1b c3 17 f1 f9 bf
       -2.5265178232761034 -1.6213605519687395
000330 78 9b c0 08 4f 3b f2 bf 0e 1b 22 21 c9 fd fa bf
       -1.1394796697511236 -1.6869593900934805
000340 9a 87 58 e6 e4 e3 f8 bf 86 69 cf c2 cf f2 03 c0
       -1.5556382177241859 -2.4935603351161175
000350 a7 75 07 50 8d d9 f7 bf 76 bf 0e bd 3d 1e 00 c0
       -1.4906132818353883 -2.0147661943555546
000360 4e 5c d7 32 62 c6 f4 bf e7 cf 45 3b 1d a8 f8 bf
       -1.2984334932314314 -1.5410435023632034
000370 b8 b7 aa 79 e5 ca 06 c0 3a 15 58 59 c7 c8 db 3f
       -2.849070501825704 0.43412955975539413
000380 7c b9 01 80 14 13 f0 bf 12 5c 33 19 76 fd f8 bf
       -1.0046582222235818 -1.5618802055739747
000390 f2 f3 18 06 8d a2 f1 bf 64 77 3c 11 dc 82 fc 3f
       -1.1021852720434677 1.781948153809446
0003a0 fd 15 5f b1 69 5b fa bf 98 65 c2 7f dc d4 fc bf
       -1.6473175934382873 -1.8019680967903238
0003b0 10 a5 e2 43 73 fb f6 bf 16 31 e0 55 4d 81 f9 bf
       -1.4363892223139523 -1.5940678934594579
0003c0 cc 7c b2 84 2a 9b 02 c0 7d ab 85 93 3d a6 f8 bf
       -2.3257646910638865 -1.5405860674461274
0003d0 31 ef 15 44 05 2f fa bf c2 11 fa 36 b6 d5 03 c0
       -1.636479631385509 -2.4793514533105006
0003e0 b1 e9 75 09 57 db f0 bf 0a 7f 6b 40 e2 e8 f6 bf
       -1.053549801783998 -1.4318563953783632
0003f0 af f0 76 96 b5 e9 f5 bf 09 33 a1 db e2 36 fe bf
       -1.3695579412006216 -1.8883999423298425
000400 80 f0 7f 60 ce cd 03 c0 77 68 ae b0 01 9f f7 bf
       -2.475491289047625 -1.4763199712383803
000410 0d f0 2c 1b bc 9e f3 bf 8f 84 46 1b ba a6 fd bf
       -1.226253610758252 -1.8532048287818588
000420 13 96 3e f7 63 69 e1 bf 3a d4 1b 38 89 99 0e c0
       -0.5441150502198887 -3.8249687560551395
000430 84 34 23 b6 ff 4a fc bf 44 b3 0e ad ef a5 f9 bf
       -1.7683102717158201 -1.6030117759757596
000440 3e e9 37 9d ec 36 fc bf 0c 9f 51 a8 d8 24 f6 bf
       -1.7634092465728624 -1.3839956831888598
000450 24 61 3b 32 58 f3 00 c0 1c 3e a2 f3 aa 79 ea bf
       -2.118820564686887 -0.8273520239326362
000460 37 ce 73 e0 9f a0 01 c0 2d 66 c4 b0 a9 5f fa bf
       -2.2034299407330553 -1.6483551888435486
000470 08 98 1f 9e b4 12 e4 3f 0a 80 79 52 34 65 e4 bf
       0.6272833908412858 -0.6373540507156588
000480 ca 67 7c ae d2 78 f3 bf da 08 12 b5 11 b7 fd bf
       -1.2169977966172945 -1.8571946213783606
000490 03 53 6b 6b f9 e1 f1 bf 65 a7 db d3 32 a8 f1 bf
       -1.1176695056976207 -1.103564097948458
0004a0 eb da fa 46 57 f5 e5 bf 5e 3b 35 e7 04 ae 00 c0
       -0.6861988436056355 -2.0849702895279014
0004b0 0f 7c ef 6f 3f 84 f6 bf 1f fc d5 8e 98 ac 01 c0
       -1.4072870609741164 -2.209275356202411
0004c0 2c f6 fe f5 43 51 f1 bf c6 00 30 aa 73 c8 f3 bf
       -1.082340203210502 -1.2364384315442734
0004d0 84 52 65 b8 05 43 f9 bf 1e 8b 00 30 5e e3 f4 bf
       -1.5788628771744309 -1.3055097460825844
0004e0 a5 02 57 48 20 b6 f7 bf 87 41 08 b6 ff 34 01 c0
       -1.4819643808151934 -2.150878355147316
0004f0 9b de 58 48 83 ba b3 3f c0 f9 36 a8 17 c0 ee bf
       0.0770647098187233 -0.9609487805790238
000500 6c 6f 75 e9 66 9a ff bf b0 02 7c c3 bc 95 fb bf
       -1.9751958007318207 -1.7240569721326828
000510 b6 f8 5e 55 70 27 ff bf 0c 5b 92 77 e7 11 e8 bf
       -1.9471286139301305 -0.7521855674156952
000520 fe 34 94 5e 5a 57 f5 bf 68 6a 6d 08 cd f4 0d c0
       -1.3338264173974603 -3.744531694258786
000530 d0 b1 7f 81 d8 94 fb bf ff b0 2b f7 aa 1f f1 bf
       -1.723839288572993 -1.0702314047912862
000540 8b 10 1d 00 cb 68 f3 bf c1 02 b9 b0 d0 9c 10 c0
       -1.2130842213091764 -4.1531398404046636
000550 76 99 d1 7d 3b d9 fe bf c4 b5 c2 de b5 d8 00 c0
       -1.9280352511210288 -2.105815639798239
000560 7f ac ce 15 c3 a7 02 c0 04 f9 b5 0f b8 da f7 bf
       -2.3319150642105906 -1.4908981908516248
000570 1a 60 8f b7 40 8e fa bf f7 3d 5d 07 fc d7 f5 bf
       -1.6597296877207612 -1.3652305877366169
000580 96 38 e7 e6 a9 58 f3 bf 0b 41 bc b7 58 b0 fd bf
       -1.2091464061409503 -1.8555533578074257
000590 7d dc 0c 19 b5 51 01 c0 73 48 74 85 8c cb f4 bf
       -2.1648961979913666 -1.299694558435047
0005a0 bb 58 fe a3 bf 10 04 c0 ac ed 3e cb 59 23 f8 bf
       -2.508178025435965 -1.5086305560388196
0005b0 6a 3b 67 71 4e 32 f9 bf 23 4c 44 03 34 e4 f3 bf
       -1.574781840306708 -1.2432136657341821
0005c0 b2 e7 c9 24 50 62 ed bf f2 1b 22 d2 92 12 fc bf
       -0.9182511061219343 -1.7545345505075116
0005d0 97 f7 0d f5 74 0d e9 bf 18 65 2d 42 9c 7d f6 bf
       -0.7828926836225375 -1.4056665978481018
0005e0 54 32 cd f3 b9 f5 f9 bf 4c 07 08 f6 d5 ec 07 c0
       -1.6224917911050811 -2.990642473335276
0005f0 2d 1b 17 15 64 28 fe bf 27 6e 75 25 21 14 01 c0
       -1.8848610709989757 -2.134828846594036
000600 b9 85 32 4a 5c 02 f8 bf 6e 0b 82 26 5d 7e fb bf
       -1.5005762956937885 -1.7183505539148558
000610 ee 1a 41 eb 12 a5 f9 bf 16 0f ba 9d fe 6e fc bf
       -1.6028012456533207 -1.7770982896044578
000620 ec 9b 2f e8 3d b0 f6 bf aa bb 9e e5 bd 56 02 c0
       -1.4180277890934532 -2.2923543871942984
000630 20 5a 4d ce ae 70 f7 bf 77 8b 70 82 2c 1e f4 bf
       -1.4650104578664767 -1.2573666663454028
