models/torch/NH3_net.pt (torch, 660239 bytes, 8 tensors)

weight f8 [200, 5]
000000 94 ff 99 db de 9f cb 3f 45 02 34 e4 5e c2 b0 3f
       0.21581636164409856 0.06546586104742243
000010 96 0e 99 46 8e c6 dd 3f 12 28 bb f1 f2 55 d5 bf
       0.4652438821251307 -0.33337091070700453
000020 cc f4 c1 2f 3c f6 cf 3f 41 a7 d3 ed 35 16 d6 3f
       0.2497019990150079 0.3451056311156329
000030 13 c7 ce be c6 c8 be 3f 1d 72 59 56 a5 99 d8 3f
       0.12025110395805098 0.38437779839094494
000040 4e 63 c4 1e 9b 68 c1 3f 3a d6 a9 ca 65 f7 d0 3f
       0.13600481989194652 0.2650999526152621
000050 c3 0e 66 34 47 97 d7 3f 4a 93 56 67 da 75 cd bf
       0.3686082851129237 -0.2301590923863393
000060 72 78 e6 13 13 0e d2 3f c6 ab c1 c2 04 96 d9 3f
       0.2821090406740786 0.39978140849296684
000070 e7 21 ac 32 5b 95 d0 bf 0a e6 d3 17 bc ac d2 bf
       -0.2591159815642911 -0.2917928917591729
000080 11 8c f6 d6 3b 69 c9 3f 0a f0 b7 d4 8e 90 ab bf
       0.1985239791511906 -0.05383726450597244
000090 d4 24 cb 3e 39 02 d3 bf 46 24 7f a7 09 93 b4 3f
       -0.29701071865254147 0.08036861743234266
0000a0 f6 75 c6 e5 42 d3 c5 bf 55 82 c8 0e d7 73 cd 3f
       -0.1705096837949182 0.23009765836561039
0000b0 66 7d 85 c2 3b b0 d3 3f 72 70 6d 4a 4e 68 d8 3f
       0.30763143535837967 0.3813663222151781
0000c0 f0 f9 4e a8 da 40 d0 3f 75 37 11 17 4f 26 ae 3f
       0.25395838199975085 0.058886024061037746
0000d0 f3 fb b1 09 ec be be 3f ea d4 0f db 30 03 bc bf
       0.12010073887539345 -0.10942368839444652
0000e0 d7 f3 a5 fb 41 84 c2 3f 62 bc bd 1d e1 b3 b1 3f
       0.14466118609916975 0.0691509912119144
0000f0 41 46 4d 92 ec 1e ce 3f c5 a9 80 02 29 8d 93 bf
       0.2353187288631933 -0.01909317090773201
000100 39 93 aa 0f ef 4c ce 3f cb 36 2a a9 66 ed c8 3f
       0.23672283425289622 0.19474490413670362
000110 50 af 39 14 32 45 d1 3f 35 a2 dd e9 2f 10 97 bf
       0.2698483655465127 -0.022522686623604755
000120 1a fc 79 54 17 51 c4 3f 3a 33 09 06 c1 ed d2 3f
       0.1587247049792218 0.29576135243842183
000130 cb b9 6b 46 53 46 a4 bf f4 72 c4 ab 93 bc b7 3f
       -0.03959903940800621 0.0927212042192414
000140 f3 a3 fb ec 96 3d b4 3f 5d eb e0 79 80 d5 c3 bf
       0.07906478200642635 -0.15495305968382925
000150 4c 99 07 49 a8 66 9f bf 8c c3 69 c6 3c 2e ca 3f
       -0.030665044267061334 0.20453605354444127
000160 6b d0 78 1d 30 8f 7d bf 21 66 44 a3 ab 46 c5 bf
       -0.00721663279505345 -0.16621919128446996
000170 ec f5 1a 8a 8e 1d 8e 3f e7 76 6a 73 0d 75 db 3f
       0.014704812612189998 0.42901932021218986
000180 86 63 35 fa 39 cf d6 bf 28 36 3e b2 ed fd b9 bf
       -0.35639810022762963 -0.10153089143405991
000190 5f f0 67 72 e4 f8 c9 3f d9 0e cb fc 08 0d d6 bf
       0.20290809236746818 -0.3445455998118923
0001a0 61 d1 c8 f5 8e dc d8 bf 67 6a dc 5a 64 8b dc 3f
       -0.3884618187178344 0.4460078131975593
0001b0 09 fd e1 28 98 31 a6 bf 58 e4 18 9e a4 68 c4 bf
       -0.04334712504441469 -0.15944345206824795
0001c0 03 31 dc 12 ca a2 ae bf 8d 96 30 98 84 52 be bf
       -0.05983573417879209 -0.1184466239506838
0001d0 d6 af 4d a8 49 0f bd bf f7 b7 9b a8 70 5d c1 3f
       -0.11351452216121002 0.13566406472040146
0001e0 8e 0a d5 fd cb 1b d7 3f f5 89 96 ee 48 95 c0 bf
       0.36107158458995847 -0.1295558133106877
0001f0 33 c2 6e df c5 bc d8 bf 32 e9 02 f6 4a 18 c9 3f
       -0.38652178592295455 0.19605385792039837
000200 19 8d a0 2c de 99 cd bf c9 d8 48 84 2c b8 71 bf
       -0.23125817469654278 -0.004326032536985555
000210 ec d1 8c fc 73 5d bd 3f cd 50 2e f1 c1 a2 9d bf
       0.11470723071835892 -0.028941183419718897
000220 bf eb d4 b2 29 5a c3 3f 54 70 11 de da e1 a6 bf
       0.15118905288713155 -0.04469188652794345
000230 e0 27 4a 41 ee 43 bc 3f 02 6b 69 d4 87 72 c8 bf
       0.11041153997408015 -0.1909951960722865
000240 18 2e a0 a8 e5 a2 d2 bf 3b 0e a8 be 94 93 cd bf
       -0.29119245021203843 -0.23106631574056444
000250 d5 8c 8b b3 94 b2 d0 bf ff be 7e a9 87 bb c4 3f
       -0.2608997109766283 0.16197295929077168
000260 40 df 71 20 a7 2f c6 3f 7d 2a 03 ab c0 0b c3 bf
       0.17332924923152326 -0.14879616117680775
000270 4a b7 5a 58 40 51 c3 3f 31 28 a8 88 da 2c c8 bf
       0.15091709436586093 -0.18886882469843294
000280 ed 6d de 7c 04 ad c4 3f bc dc ee 8a db 9f b9 3f
       0.16153007599937955 0.10009548322601608
000290 1f de e1 cd f9 6c 9c bf 50 53 52 6d 0b 64 c6 bf
       -0.027759459677751615 -0.17492812002151448
0002a0 4d 7f 71 3c be 87 c4 3f fc 40 46 4c 6e ca db bf
       0.16039255095801722 -0.43423039864229884
0002b0 39 01 1d af 1a ba cd 3f 4e d7 14 75 05 e9 c2 3f
       0.23224195051626298 0.147736246269853
0002c0 0d 1a d6 da 07 f7 ca bf 54 89 da d6 7c b3 c6 bf
       -0.21066377816551132 -0.17735252848531025
0002d0 95 af ae 52 d5 59 97 3f 9b 73 3f f1 26 0a a2 3f
       0.022803624316722077 0.03523370451851023
0002e0 78 8b 2f 4b 7d 73 d4 bf 25 9f cf 7c da 8d b9 3f
       -0.31954891531329777 0.09982076213020415
0002f0 eb d0 74 8c f9 77 a6 3f 0d 34 c4 52 82 42 c4 3f
       0.04388408507876015 0.15827969590500893
000300 7a 94 20 04 91 59 cc bf 21 0a 2f 38 88 de ad bf
       -0.22148335172201766 -0.05833841024243137
000310 dd 34 90 ba 55 08 70 3f f1 9d ab b5 28 2c ac 3f
       0.003914198759060042 0.055024406601486116
000320 c8 9a 44 2d 93 0e d1 bf eb 8e 06 b2 cf b6 cb 3f
       -0.2665145818777259 0.21651645844132558
000330 a4 eb b2 c7 9e e3 ce 3f d8 6e 63 f1 66 88 d1 3f
       0.24132141829417464 0.27395032475554393
000340 8a 67 b2 a4 3c cd c9 3f 88 01 01 10 c2 69 b3 3f
       0.20157583276596497 0.07583248987885416
000350 f3 92 12 9d ac 1b a2 3f b0 08 ea 88 94 93 c1 3f
       0.03536738793744645 0.13731629071486884
000360 bb 5a 60 bd 45 75 d3 bf fe b2 f4 a5 c7 a7 c5 bf
       -0.30403274053370993 -0.16918273547471324
000370 ce 1c 55 22 d2 8b c4 3f 64 2e 6d 7f fe b8 cf 3f
       0.1605169932974832 0.24783307287212886
000380 3d c1 a8 fe e1 e9 c6 3f 6e 31 3e a0 9f 8a d1 bf
       0.17901253637820416 -0.2740859093544462
000390 bc 5c 89 d0 92 9d 92 3f 64 4a 80 9f eb b2 d1 bf
       0.018179220178663455 -0.2765454347255967
0003a0 c5 da 89 48 e8 3c d4 3f 5e 9d 02 9d 7c 69 d1 3f
       0.31621749004208893 0.2720634015372151
0003b0 92 76 85 e5 e0 99 bf bf b3 4e e3 58 94 3e 8c 3f
       -0.12344174960659363 0.013791235888141662
0003c0 d9 52 ef 96 9f a6 da 3f c4 b0 12 98 43 c5 cd bf
       0.4164198850606176 -0.23258252072753838
0003d0 88 11 c9 6b 21 37 c0 bf e8 e4 68 97 6a fa c4 bf
       -0.12668245089492935 -0.16389210122159814
0003e0 cb 52 c5 6c 25 e9 c2 bf a2 55 4c cd 15 d4 d1 3f
       -0.1477400570971866 0.27856965111399223
0003f0 c8 b4 1b 58 49 f0 cb bf 37 ca 9d db ff 1e b9 bf
       -0.21827046205672773 -0.09812926398971276
000400 e0 5f 90 92 8a 9a be bf 77 b8 a6 26 a4 d9 c6 bf
       -0.11954561308118583 -0.1785168827750032
000410 e2 33 e7 64 e9 b5 d7 bf 53 50 74 31 b5 8b d1 3f
       -0.37047800878354853 0.27415208653952056
000420 a0 18 a3 35 5f 34 d1 bf 7a 96 79 47 a3 4e b2 3f
       -0.2688215278434516 0.07151241774553255
000430 a0 b2 b8 b4 9b 4a d1 bf 7c 0e fa 07 7a a5 b1 3f
       -0.2701787247522507 0.06893122381921474
000440 26 75 82 e7 cf f8 bf bf e1 6d e2 f4 db df ca 3f
       -0.1248903217514977 0.20995664078951307
000450 f6 85 67 59 3d 94 c4 3f 4d 7d c9 c1 6e 8f bd 3f
       0.16077391496132493 0.11546985846643061
000460 f2 5a 0e 5b 9e 58 c0 3f 0f da 3d ca 30 64 d2 3f
       0.12770442434403823 0.28736514806897245
000470 b8 1d 7e 1c 10 34 d0 3f 33 45 8e 38 eb 2d d3 bf
       0.2531776693581054 -0.2996776630689794
000480 de e1 a0 70 51 f0 c1 3f b2 47 6a 73 d4 f7 d4 3f
       0.14014642714916098 0.3276263358212602
000490 61 5a 6b 61 b1 81 dc bf 6f 82 fa b2 a0 97 92 3f
       -0.4454158259735888 0.0181565388908233
0004a0 c3 e3 ef 2d f7 aa c8 bf c6 cb 08 5a 29 27 b6 bf
       -0.19271745436688378 -0.08653505752663113
0004b0 ed 1e d1 fc b1 c5 c7 3f c2 ee e0 cb e1 fa d0 3f
       0.18572068066190842 0.2653126231195807
0004c0 f6 fd 5c df 03 2c a9 bf 59 b5 9e 00 77 c7 d3 3f
       -0.04916393376924681 0.30904936848204084
0004d0 5f ca 36 24 42 57 bf bf 28 0c 98 2f a7 44 dd 3f
       -0.12242520698672753 0.4573152508530165
0004e0 4a 39 55 04 ec 4b d2 bf 29 f9 c9 38 bf cc d9 3f
       -0.2858839075387506 0.4031217627124471
0004f0 93 80 7e 1e ec b2 d8 bf b4 ee 9b 55 9e a1 6e bf
       -0.3859205529970577 -0.003739175078292545
000500 be e6 bd b5 dd 3d d0 bf 46 be 95 d4 44 24 a7 bf
       -0.2537760042974745 -0.04519858450919094
000510 2e 4e 24 c9 f5 e9 cf bf bd 04 51 f9 81 16 c9 3f
       -0.2493273956430228 0.1959993808141344
000520 36 27 aa e1 de 80 cb bf 5c 8c 21 43 bd e1 d3 bf
       -0.21487031954557673 -0.3106530337883606
000530 7e d4 d1 00 15 7c da 3f 38 70 00 eb c8 f3 bc bf
       0.4138233669285184 -0.11309486138674252
000540 00 26 16 c8 4a ff c2 bf 92 30 eb be e9 83 d1 3f
       -0.148415897081847 0.2736763348045851
000550 b7 0f cd c6 47 55 9f bf eb 1b bd 8d 8e b1 a6 3f
       -0.03059875632176531 0.04432340126236752
000560 43 87 61 36 ad 19 c0 bf 4f db 56 18 11 ab c4 3f
       -0.12578358798332986 0.16147054375115963
000570 6f db 5a f7 00 55 c8 3f 78 fe 6b d8 a1 d7 da bf
       0.19009410932423118 -0.4194111455435414
000580 f9 43 e3 ea df 64 d7 3f 0a 8a 86 f6 67 9f d4 3f
       0.36553190172440925 0.32222937655220163
000590 a8 4a 92 a2 6e 38 db bf 33 cc 8f 3e 6f 20 af 3f
       -0.4253193462001641 0.06079433096592659
0005a0 62 37 88 6e d5 41 d1 bf f8 63 6b 95 41 76 b3 bf
       -0.269643171254634 -0.0760231962007224
0005b0 1b 83 bd 9d f1 a9 d3 3f 21 ce 42 6b 2c fa d2 bf
       0.3072475471908988 -0.2965193793745318
0005c0 5b 7a a6 23 db 81 d0 3f 22 f2 3b 52 7b cb b6 3f
       0.2579257820270066 0.08904238469762807
0005d0 4d 24 6c df c1 74 b4 bf b8 40 8d 00 8a 58 c0 bf
       -0.07990657524727958 -0.12770199801389537
0005e0 5d c5 a7 ee a0 e4 b9 bf 39 28 34 78 e3 e0 bd bf
       -0.10114484621569404 -0.11671277699147788
0005f0 21 28 eb 15 36 12 d4 bf db 50 a2 60 8f c4 d3 3f
       -0.31361152782904084 0.3088720744792803
000600 95 bc dc ba 23 14 b8 bf b7 40 86 0c 7a c4 cb bf
       -0.09405730545107567 -0.21693349467796505
000610 df 3b 3d 19 18 4e b4 bf 40 50 26 66 f3 b3 b2 bf
       -0.07931662193480758 -0.07305833095443948
000620 94 13 33 28 a7 22 c7 3f 4d 35 51 1b cc 3b 6e 3f
       0.18074502432696404 0.003690622945703359
000630 27 3a 2c 95 ac d0 cb 3f 90 c3 80 9b ed 7f c6 3f
       0.21730572971178327 0.17577905743521827
000640 55 45 45 4f 95 ce a0 bf 9b 5e e8 f6 7c 6f ac bf
       -0.03282610504778442 -0.05553808702478343
000650 d9 68 62 da 0c e2 c7 bf 2a 72 73 fb 79 56 a0 bf
       -0.1865860048608912 -0.03190976328344093
000660 53 3d 80 58 a9 1a b9 3f 06 4c 3d ea 81 60 c5 bf
       0.09806307230632187 -0.1670076745745918
000670 de d5 95 4c 9f e9 bf 3f cd dd 09 87 90 02 b6 bf
       0.12465854282148522 -0.085976632088083
000680 3d ee 62 60 ff 7c d7 3f 02 03 ca 37 48 3a d4 3f
       0.36700424587954555 0.3160572571578514
000690 bc 7c 6a 39 7c 9f bc bf 47 a4 63 6e 29 14 b4 3f
       -0.11180855180508592 0.0784326452736802
0006a0 f8 0c d2 81 6c bf cb 3f d0 f2 f6 2f ce 9b d6 3f
       0.21677929247753247 0.3532596081165993
0006b0 a4 db 33 34 95 04 d1 3f 48 b1 21 48 0e 80 ca bf
       0.2659047136107182 -0.2070329525189527
0006c0 82 59 a1 d6 95 26 b6 3f 62 dc d4 29 33 9e ce bf
       0.08652626504895092 -0.23920287649682154
0006d0 ff d8 bc 30 0d 24 b3 bf e3 58 b0 84 18 0e c7 bf
       -0.0747688526142589 -0.18011766890476286
0006e0 6b 8e 2e 9f 9a 3a c7 3f 9a 3a 4c 64 db 72 d4 3f
       0.18147595188667096 0.31951031489089987
0006f0 da 50 2c 91 ee 30 c0 3f 78 4c e5 26 a7 57 a4 bf
       0.12649328316240976 -0.039731238840112704
000700 13 0f 90 1c 91 0b c7 3f 8e 8d 01 5f 2d 3f 9a 3f
       0.1800404920069175 0.025631627010068984
000710 44 c2 ca e3 d2 b3 c3 3f 44 2b 6b 98 69 89 cf bf
       0.15392528650910908 -0.2463809961539828
000720 d1 4f d0 26 a3 10 dd bf 6f b0 91 32 0b d6 d0 bf
       -0.45414046087648524 -0.26306419313801305
000730 4a 04 54 90 2e d9 bc 3f 21 d8 57 db 46 e0 c1 bf
       0.11268893264424765 -0.13965688428987824
000740 19 73 f9 85 3b 69 b2 3f 7f be 8b c4 ca ca d4 3f
       0.07191822071895294 0.3248774451630893
000750 85 0f 3c 61 e0 59 c9 3f ef 77 e7 32 69 39 d9 bf
       0.19805531261237888 -0.39412908526526186
000760 ad c4 9e 5a c0 b5 d8 3f f5 bc f4 3e 71 e9 b7 3f
       0.3860932240450648 0.09340579783451004
000770 13 0d 46 83 57 80 ca 3f 8d e0 5c b3 96 5f b9 bf
       0.2070416823372417 -0.0991148174188103
000780 fb 85 ef 5b 1c e0 c8 bf b6 49 4c ba c2 59 c1 3f
       -0.19433931817097502 0.13555177780706423
000790 30 55 93 45 6d 30 c1 bf 66 fb ce 4f ff a6 d9 bf
       -0.1342903699611866 -0.4008177070026505
0007a0 41 b5 0d d6 67 2c c2 bf e5 ec 36 39 08 cc b5 3f
       -0.14198015167077396 0.08514453312720922
0007b0 ce 4e 6b 88 af b9 c2 3f 4a 86 d6 59 86 0d d4 3f
       0.14629167710392327 0.3133254887889946
0007c0 8e b1 12 5a 12 76 d5 3f 49 10 09 32 4b ce b1 bf
       0.33533152385896237 -0.06955404254500865
0007d0 af c1 91 b5 0b 70 d2 bf 0b 63 79 3e 06 eb c6 3f
       -0.28808872920401546 0.17904737520691358
0007e0 fe 12 c3 3d 53 9c c6 3f 1d 2e c2 64 71 bf d6 bf
       0.17664566531870912 -0.35543474998186914
0007f0 c9 49 56 c4 13 5d c6 bf a0 57 c2 62 0a bd c9 3f
       -0.17471549116869614 0.20108156034683322

bias f8 [200]
000000 4c c8 e2 73 10 cd a8 3f 4c a6 96 11 4d c7 d2 bf
       0.04843951620695516 -0.29341437070488463
000010 c7 56 ec 94 27 50 d1 bf e9 62 55 62 ca 46 c7 3f
       -0.2705172495201222 0.1818478565353623
000020 46 1e 36 db eb 9a c4 3f a7 7c b0 8a f9 5c c2 bf
       0.1609778232925569 -0.14346236488288364
000030 54 c7 4d d5 2a 0a d7 3f 6b 9a ec 3b e8 04 92 bf
       0.35999556379748765 -0.017596844346508805
000040 fc 84 4a c5 fa ea ce 3f 9d c2 b9 ad 45 9f e3 bf
       0.24154600747446142 -0.6131924050406102
000050 90 f6 ef b6 9b eb d3 3f b4 5f a1 01 ce ec cb bf
       0.3112553869722001 -0.21816420631034605
000060 77 58 b2 cc 52 48 d1 3f 07 4e 8f b4 0c 27 d7 3f
       0.27003927221210894 0.36175840027610245
000070 8b 41 2b f4 1e c1 a6 3f 3f 2b 9f 68 a3 23 ca 3f
       0.04444214563921197 0.20421259506687225
000080 3e de a7 6c 70 7a cd bf ce 59 62 ea 04 75 b2 3f
       -0.23029904656844907 0.07209807131071175
000090 9b b3 75 1f b9 4b d3 bf f2 25 fe b4 5d 6b 90 3f
       -0.30149677345507947 0.016034568950578483
0000a0 d2 77 df 55 38 ac c8 bf 66 c7 31 ce 3a 14 dc bf
       -0.19275573914541028 -0.43873472343613285
0000b0 dd 59 45 7a b7 d2 bc 3f ba 0d fa f2 da 71 c2 3f
       0.11259028182153182 0.14409958709812348
0000c0 4d 73 41 44 3d fe d2 3f 5d b8 96 fd cf d8 d1 3f
       0.2967675367888674 0.2788581825688022
0000d0 84 be 4c 9e 73 bb d1 bf e1 1c 13 aa 12 5a b7 bf
       -0.27706613978350725 -0.09121815349782338
0000e0 58 a5 69 c8 47 ca d4 3f b9 9c 97 68 3d 64 d3 3f
       0.3248462159304686 0.3029931565674349
0000f0 0c a3 4f 1d 4b 27 ce 3f e4 f7 a1 a4 84 16 d3 3f
       0.23557413989262732 0.29824939801608097
000100 eb 75 42 cb 73 db c8 bf 29 c9 21 5b 9a ea b9 bf
       -0.19419715332780582 -0.10123600697423697
000110 4f 95 b3 c6 41 fb c9 bf b4 21 c0 6c 4f d8 db bf
       -0.2029802532407907 -0.43507753009955796
000120 cf f8 10 4f 73 e0 c3 3f c9 f0 94 70 bf 98 be 3f
       0.15528718338641176 0.11951824663714485
000130 bc 37 09 13 49 58 4f bf 2d af 08 ff 87 0e c1 3f
       -0.0009565693672557367 0.13325595810726423
000140 85 1c d7 f2 cc 3c cb bf a9 a5 72 37 7a cc d4 bf
       -0.21279298646388525 -0.32498031058147575
000150 c4 a5 20 7f 99 0f bf 3f 17 01 bc 7b 50 3e aa 3f
       0.12133178094577263 0.05125667105130754
000160 7d 2d d6 0f ee 46 ab 3f 20 ea 22 b9 ef 2f 62 3f
       0.053275527413542335 0.002220123490670703
000170 53 c5 5a 90 85 2e b9 3f 6e ad 57 74 57 87 8b 3f
       0.09836611532479837 0.013441737401953726
000180 5a 6d 98 d7 38 bd cf bf b8 ba 79 ba b4 de df bf
       -0.24796209838028 -0.49796789370058603
000190 a9 0f 21 96 43 6c db bf 5c 3a b0 ee ca 2e d0 3f
       -0.42848291073846184 0.2528560000363649
0001a0 c7 18 f3 fe 04 80 dd bf 03 6a c6 2e 91 0d d8 bf
       -0.4609386911146313 -0.3758280712878845
0001b0 da 10 8e d0 8b 28 c2 3f 35 2e bb 21 c1 01 d9 bf
       0.14186237033221155 -0.39073208135662024
0001c0 21 0b 3f 99 8c a6 c8 3f 26 df f1 cc 6c fe c9 bf
       0.19258267863013948 -0.2030769348818861
0001d0 3a a3 ae 85 ba a6 ba 3f e9 12 8a c0 46 ec c3 bf
       0.1041065765736108 -0.15564808274589062
0001e0 09 9e e8 53 af 28 d3 3f 6e 61 65 9c a5 7f c3 bf
       0.29935820764737336 -0.1523329747822219
0001f0 ad 07 ab e5 f5 b4 b9 bf 11 33 6f 9a 4a 5e cc 3f
       -0.10041748864298823 0.22162754574528568
000200 2b ea f9 1a 72 53 be bf 92 5c 25 8f 9a f5 71 3f
       -0.11846078070258474 0.004384616610273133
000210 b9 23 bd 70 bb e8 d8 bf da 61 72 c4 67 78 d2 3f
       -0.389204845520506 0.2885989588189922
000220 b8 63 82 a5 ce 7a bb bf 8b b9 b8 42 da e8 c1 3f
       -0.10734263935809352 0.13991859681977944
000230 e0 09 0c d3 ac 7e c3 3f 1e 5e f0 20 3b 53 d0 3f
       0.1523033171179824 0.2550800153416918
000240 d0 e2 89 6f 3a 02 d1 bf 38 53 53 2e 25 51 bc bf
       -0.26576100246851997 -0.11061317807191251
000250 6d c9 f8 ce b7 02 9c 3f 55 e5 f6 32 25 c1 d1 bf
       0.027354118354375446 -0.2774136541080073
000260 86 2d 63 f2 61 df c1 3f 75 31 f2 75 1b 69 ba 3f
       0.13962959609339637 0.10316630963843017
000270 96 88 49 4e 2a ff d6 bf 67 95 b7 28 07 83 b2 3f
       -0.35932405133474654 0.07231182807989499
000280 ad aa 2a fd d1 2c 87 bf 2c a8 9a af 80 a6 c4 bf
       -0.011315956629308255 -0.16133125852985708
000290 43 32 2b 37 80 17 d4 bf 50 77 fd 73 01 41 e1 bf
       -0.31393437755176395 -0.5391852631980587
0002a0 ea e8 48 7d 2a 0d ca 3f b1 1b ca 89 c7 89 c7 bf
       0.20352679364606924 -0.18389219501497459
0002b0 7a 06 56 67 46 1a d7 3f 3c a6 88 4d 7c 8b c8 bf
       0.3609786996022205 -0.19175676141576214
0002c0 4d e2 3d c9 f4 99 b5 bf 60 d0 5f a4 7c 52 c3 3f
       -0.08438043511513023 0.15095479990089
0002d0 94 44 da 78 03 2e dc bf 11 03 27 57 b0 0f d5 bf
       -0.4403084449960002 -0.3290825701806606
0002e0 b7 65 5e 19 72 b1 d8 bf f4 68 df 40 d4 cb ce 3f
       -0.3858304260007474 0.24059537093746253
0002f0 a8 7a bb b9 9f 42 d4 bf 8b f0 ee c2 d9 5b e2 bf
       -0.31656640184329854 -0.5737122351925036
000300 9a 79 31 e8 90 eb bb 3f b3 02 4a 6d 56 78 99 bf
       0.10906320256024174 -0.02487311403320076
000310 e4 98 45 b3 ea 86 c2 3f d3 51 fb 28 19 16 da bf
       0.14474233392247193 -0.407598772069176
000320 29 ae 20 15 0c 2e bb 3f 12 49 a4 a9 e9 d6 88 bf
       0.10617137447177839 -0.012128663529925397
000330 15 09 db 00 e7 01 d0 bf f7 1d 8e d8 6a a1 c1 bf
       -0.2501161106448689 -0.13773856710416485
000340 12 85 47 3b 4a ad de bf f2 1d ad 97 2e e3 d6 bf
       -0.47932678021432296 -0.3576160889828933
000350 2f 01 5c a2 c5 e5 d5 bf b0 b0 66 9a b7 00 81 bf
       -0.34214917045030097 -0.00830214919991365
000360 86 a3 fd 42 3c 0e c4 3f be 13 1b c0 36 4f c7 3f
       0.15668442984613423 0.1821049154297309
000370 30 1b 20 f4 b9 1b d2 bf 16 88 75 c1 03 40 e2 bf
       -0.2829422840153937 -0.5703142908571432
000380 b5 ec 32 5e ca 6d a0 bf ea 36 46 c0 68 2a d3 bf
       -0.03208763503922666 -0.2994634511640998
000390 80 f9 90 6e aa 3d ce 3f 58 3a a9 d5 78 af d8 3f
       0.23625688933129751 0.3857099615605981
0003a0 87 4a 4f 7d 00 aa c1 bf 9d 4f 61 fd b7 26 c3 bf
       -0.13800054663314062 -0.14961910125805114
0003b0 c5 a1 ff ca f4 7b d1 bf 71 69 59 2d f7 c7 d6 3f
       -0.27319068740919433 0.35595492771758247
0003c0 d3 d7 1a be 23 51 bf 3f e1 fb 54 59 32 96 c2 3f
       0.12233184233886556 0.14520863878166693
0003d0 cc 2c f0 91 ab 79 b6 3f f7 68 27 b4 8b d0 97 3f
       0.0877940398497003 0.02325647627899571
0003e0 bf 27 69 bb 93 3b d1 bf 4a f7 8f 21 17 c5 b2 bf
       -0.269261296289752 -0.07331986016648986
0003f0 e6 d1 49 49 65 49 d5 bf 58 fa 70 f5 60 23 c5 3f
       -0.3326047149378425 0.16514217361869288
000400 6c 90 45 29 a7 8d bd 3f fc d3 f7 96 54 d4 cd 3f
       0.1154427028428146 0.23304231044281198
000410 4f 9d 77 d6 98 66 c1 bf 34 6d a3 70 2b e7 db bf
       -0.1359435126498547 -0.43598447799532214
000420 d9 39 b8 be 50 41 b0 3f 91 1e 30 11 5d 9e db bf
       0.06349663406601937 -0.43154074362289757
000430 7b 00 f4 15 d8 3d c8 3f e1 27 d3 ae d1 88 c0 3f
       0.18938733169489183 0.12917538677567023
000440 88 a4 d6 80 17 c2 ce 3f 0a 76 8f 73 da dd c9 bf
       0.24029821196498724 -0.2020829262027493
000450 fa e7 c4 7f 5a 3c d5 3f 68 2f 9d b9 0e 4e d2 3f
       0.33180868604142655 0.2860142529141201
000460 54 ac bd b4 05 e3 e0 bf a5 e8 28 74 da 7f d1 bf
       -0.5277126817794717 -0.273428548276238
000470 08 a9 1f 61 6e d0 c7 3f 6c 95 95 83 a4 28 b0 bf
       0.18604831449858517 -0.06312015736110305
000480 ce d9 cf dd 00 51 b8 3f 68 13 39 15 ca f1 b0 3f
       0.09498601355867395 0.06618941324366079
000490 6c e5 ff ae 2a a9 d0 3f 38 8c 47 c9 6e bf d7 bf
       0.2603251179676451 -0.3710591283435778
0004a0 b1 6a b3 98 2e a5 bb bf 8b ae e7 4a b8 ea d3 bf
       -0.1079892275624086 -0.3112011653417787
0004b0 7d 1d 14 84 d9 7c d6 bf 7b 26 b9 62 ef 9b d3 3f
       -0.3513702192144235 0.3063925232023405
0004c0 ec 58 0e bf 7f c2 d4 bf ba ea 73 68 ad fd c9 bf
       -0.324371277406853 -0.20305411911234278
0004d0 e1 74 cc 9e 0f 34 b2 bf ff 29 09 e2 23 6b c5 3f
       -0.07110688807411548 0.1673321584406295
0004e0 b3 a1 56 2e 4c 6b 95 bf 4b 4f 5e 56 69 28 82 bf
       -0.020917120292922763 -0.008866141269926372
0004f0 62 e2 3a e3 84 e2 da 3f 8e 8c c5 6b 86 de c3 3f
       0.4200756281893857 0.15522842657364716
000500 c3 da f8 a4 d2 65 da 3f 6a cd d5 d0 ae 2a cc 3f
       0.4124647723250911 0.2200525779440839
000510 75 fc d6 f2 ce 44 bd bf 2e 22 bd 22 7c 37 d0 3f
       -0.11433118275361827 0.25338652985058985
000520 53 2f 25 53 84 1b e0 bf a4 b4 e2 25 3c 2c d1 3f
       -0.5033589958124857 0.2683248872734316
000530 1d 11 23 f9 37 64 ae 3f 44 fa 25 01 06 eb 9b bf
       0.059358357584218015 -0.027263730831231806
000540 6f 46 33 23 0d 30 f3 3e 38 de 70 85 ea eb d4 bf
       1.8298817121847917e-05 -0.32689917594277373
000550 24 34 2a 00 f1 51 dc bf df 08 64 69 2a 62 db bf
       -0.44250130668734955 -0.42786655704561655
000560 dc e2 c2 ac fc 49 d0 3f 5e 02 e9 61 be e9 d2 3f
       0.2545158087846582 0.29551658212225174
000570 af c6 11 93 ba db c6 3f b1 a8 d8 df 84 51 a2 3f
       0.17858059102177523 0.03577819092272828
000580 75 20 2c 55 e5 ec b5 3f 12 81 8f 34 61 29 c5 3f
       0.08564599351314135 0.16532530847963095
000590 b3 01 22 44 bb cb 8d 3f 0a 97 82 e8 09 ab d4 bf
       0.01454874326395914 -0.32293937402788286
0005a0 a3 99 3a f7 12 13 d4 3f 15 7d 15 2d b2 5a b1 3f
       0.31366418975303584 0.06779016113931775
0005b0 ef bc 6e 8d fb c4 db bf 7b 97 ee 3b 4c 03 63 bf
       -0.4338978654077001 -0.0023209084460686347
0005c0 30 e5 da 52 d4 43 db bf 07 40 90 57 35 38 d1 bf
       -0.426014977372307 -0.2690556864845352
0005d0 b4 c9 d5 6f 1c a2 da 3f a8 70 dc 39 f5 2f bf bf
       0.4161444751872765 -0.12182552969574323
0005e0 bf c8 54 8a 67 d4 c0 3f 55 84 2b af 9d 15 e0 bf
       0.13148206953480288 -0.5026386662758663
0005f0 55 f4 24 88 4b c2 87 3f 86 58 2b e7 2c de d3 bf
       0.011601057140632568 -0.3104355103981863
000600 c5 00 cd 22 24 40 c4 bf d2 bf 0c 2a 8e eb cd bf
       -0.1582074327398059 -0.23375107815945612
000610 cf 35 ea 7e 09 c0 c9 bf 32 83 da 91 9d f4 d4 bf
       -0.201173006982954 -0.32743014567863604
000620 7b 72 94 9d 9c 62 cd bf 7e 11 4d b5 98 e3 b8 3f
       -0.2295718926842659 0.0972228472356331
000630 7e 12 c0 6b 93 ff 94 3f d4 57 fb 7a 42 ca d8 3f
       0.02050619454532176 0.3873449517244556

weight f8 [200, 200]
000000 37 ca 9f 04 d5 43 74 3f 39 d6 98 97 e4 0e 84 3f
       0.004947502233323456 0.009794031025289406
000010 b4 81 d3 2a 00 8e a6 bf 76 57 1a 20 79 21 97 bf
       -0.04405212900906311 -0.022588627418904626
000020 a2 46 c3 74 e2 68 a4 3f da bc fc 66 6d 71 94 bf
       0.039862705949088154 -0.019963941012233068
000030 5b 12 31 e1 7f dd b3 bf 64 54 11 55 dc 4d a4 3f
       -0.07759856460422425 0.03965652979301451
000040 22 80 e1 f7 89 4a 8e bf 1f 8f 30 9a 36 fc 68 3f
       -0.014790609242652467 0.0030499521685828502
000050 88 c1 b9 98 11 52 b4 bf e0 6d 9d 2c a5 3d 86 3f
       -0.0793772695412881 0.010859766410866223
000060 89 ff 98 d8 82 b9 c1 bf cc 98 41 a0 f5 73 83 3f
       -0.13847385002190674 0.009498518899090057
000070 22 06 1a f5 c9 19 65 bf 77 05 09 75 ed ef bb bf
       -0.0025757736664793343 -0.10912975413613944
000080 55 31 03 0a 37 c8 96 3f 20 ff 40 85 4e 6c 96 3f
       0.022248134599793207 0.021897532351658033
000090 46 58 d0 f5 1f 2a 8f 3f 46 d5 a4 a6 be bf aa bf
       0.015217065514701155 -0.05224414619662325
0000a0 4f c8 78 87 81 2d 9d bf df bd b2 11 31 50 a9 bf
       -0.028493904012244105 -0.049439938936639775
0000b0 5b 40 71 7a 9b 31 75 3f 65 7e 58 3f fe d4 8d bf
       0.005174262368271422 -0.01456640845122976
0000c0 39 6e 2a 60 b7 76 b8 bf ab 20 37 b0 81 d2 a9 bf
       -0.09556146714970105 -0.05043416286531629
0000d0 0f e9 d2 0b 1f b3 91 3f 86 b3 b7 7a 3a e2 a0 3f
       0.017284855934783624 0.03297598598496791
0000e0 11 89 46 e9 f0 cb b2 bf 0b 5f 34 08 ef db 79 3f
       -0.07342439360812515 0.0063132607640665845
0000f0 26 97 3f d9 6a 68 c4 bf 53 ec 2f ab 50 19 9c bf
       -0.15943656547386204 -0.02744031948894261
000100 26 18 3e c8 6c c0 b0 bf 64 8f 5b fb 9e f8 a9 3f
       -0.06543617142423894 0.050724952872569756
000110 d7 f8 97 90 cb 9a 92 bf 5b c5 e3 5c 5d d8 75 3f
       -0.018168621731086212 0.005333294581064986
000120 ef aa 54 8f 36 19 9e 3f 1d 3f 6c b1 aa 28 a6 3f
       0.02939305543729181 0.0432790128307927
000130 27 28 d6 b2 8f b0 8e bf 94 0d b0 8f 3c 62 af bf
       -0.014985201497228996 -0.061296360530856436
000140 51 cf 54 4a 9f 87 58 bf 97 70 a4 8a 0f fb 8a 3f
       -0.0014971786088837267 0.013174172800568136
000150 48 d9 99 b9 47 0d a3 3f fe ae c2 2e 7a 77 90 bf
       0.03721069470059263 -0.016080769638093344
000160 8d f0 c2 08 5e 0b b3 bf ff 26 5a d7 4c 50 95 bf
       -0.07439220155623812 -0.020814133304646095
000170 c7 66 7a 61 9a 1e 4d bf bf 5e da 82 6d d9 b6 3f
       -0.0008886579334614558 0.08925518459943314
000180 54 73 ac c5 d3 fc b6 3f a6 34 93 00 70 e4 a5 bf
       0.08979533744827722 -0.042758464880173805
000190 f3 5d 2f 59 16 95 a3 bf 0d 46 2f cc 37 5f 82 3f
       -0.038246820818752435 0.008970676344605822
0001a0 74 30 8c 90 46 5f b7 bf d9 8d dd cc 0a 64 5c 3f
       -0.09129754094118586 0.001732836291432052
0001b0 d9 54 a6 f5 b7 e6 a4 bf 30 03 23 a3 38 41 be bf
       -0.040822743164577076 -0.11818269713240848
0001c0 94 40 22 44 74 29 8c bf 66 84 84 95 a7 13 ab bf
       -0.013750942544249058 -0.052884327890077285
0001d0 39 33 46 01 13 76 a2 bf 4f 5b d6 7a 60 09 9b bf
       -0.03605708494715149 -0.02640295743693893
0001e0 6a 3e 02 64 ef 7c c1 bf 24 54 51 ce 2f 99 b2 bf
       -0.13662521727791282 -0.07264994418194753
0001f0 17 89 38 8e cd f2 bc 3f 6a d2 54 59 e4 ff 84 3f
       0.1130798790186741 0.010253700233627334
000200 17 b7 67 f7 c8 70 a2 bf 7e 31 46 44 36 ef 9f 3f
       -0.03601673145372624 0.0311859587832699
000210 1f ed ff e5 0c a4 af bf 64 b7 a6 23 7d 8d ac bf
       -0.06179848010648414 -0.0557669740695548
000220 4e 64 1b a2 1b 01 b3 bf 29 6e 2f b3 77 e7 b3 bf
       -0.07423565585794842 -0.0777506649459886
000230 63 f5 49 31 53 3a ac 3f a3 bb 76 43 aa c4 b0 3f
       0.0551324842135539 0.06550087115350194
000240 4b 8e d7 fc 53 4b bf bf c4 c3 eb 50 7c b5 71 3f
       -0.12224316523457295 0.004323468789821431
000250 ab a9 b8 ec ba b6 9b bf b3 68 38 4e db 7b ae bf
       -0.027064247797321233 -0.05953870134199359
000260 ed c3 a4 15 68 15 62 3f 54 77 4f df a3 5a 80 bf
       0.002207473077895808 -0.007985382320778868
000270 97 e8 a1 e3 76 de b1 3f 1f d2 05 da 60 03 98 3f
       0.06980078751976958 0.023450387293865057
000280 11 a8 54 1f 39 a1 a6 3f fe c3 9a 94 da bb ab 3f
       0.04419878489927965 0.05416758598347114
000290 4d 41 cb e4 ca 94 c0 bf 5a 8a 27 0d 7d f0 b1 bf
       -0.1295407883794816 -0.07007581301835711
0002a0 18 6c ec f0 e4 88 c1 bf 73 d0 47 83 22 d9 b2 3f
       -0.13699018253177608 0.07362571435061387
0002b0 43 71 e4 19 c4 a8 b2 3f f5 51 d5 13 58 3a bf bf
       0.07288766510140925 -0.121984009592161
0002c0 89 3c 5c d1 e3 bf 88 3f 2d fc 53 dd 47 7a 96 bf
       0.012084750963849327 -0.021950838931840067
0002d0 0c cf 64 d7 ef 51 aa bf 19 eb 3a c8 1b d8 94 3f
       -0.051406378787218626 0.0203556385956559
0002e0 02 63 a8 58 64 bc ae 3f 04 f9 3a d0 71 4e a0 3f
       0.06003106672523552 0.03184848467707194
0002f0 71 32 c7 21 04 5d 91 bf 35 81 f5 b2 6a 77 96 bf
       -0.016956390916492873 -0.021939913914480875
000300 e4 5d 04 34 ff 04 9f bf 52 0d 73 aa de b9 9c 3f
       -0.030292499112958185 0.028052786973387818
000310 6a 0d f9 a0 5c 11 b0 bf 0e fa 0b 2a 41 9a b3 bf
       -0.06276492052079666 -0.07657248760731525
000320 9e c8 51 cf 00 38 a1 3f 85 41 a1 c6 de f8 8a 3f
       0.03363039522891252 0.013169994770721125
000330 5e c6 ef 5b 0f 1c b4 3f 4e 13 53 ca d6 5e 92 3f
       0.07855316156908418 0.0179399071683009
000340 97 7a 5c 7c d3 47 b1 3f 5d 62 1e b2 d1 3e a2 3f
       0.06750222955859396 0.03563552188206096
000350 db 4a f0 96 4d 2e a2 3f 09 ae 61 48 2e 32 b3 3f
       0.03550951449883196 0.0749844481194303
000360 27 4f 6a a4 98 ef bc bf 00 48 42 4d 52 61 ab bf
       -0.11303094877285656 -0.053476879054088045
000370 ad 51 1b 52 75 22 52 3f 70 15 65 3c 1f d3 8c bf
       0.0011068483076331723 -0.01407455828724366
000380 9f e5 65 4c 88 dc ab bf 7b bd c7 9f a9 93 95 3f
       -0.05441690380662156 0.021071100594722374
000390 66 03 f5 35 c9 21 bd bf 10 f7 f0 ec 74 06 b6 3f
       -0.11379678313552474 0.08603602204035732
0003a0 95 08 1b 2a 6c a6 aa bf b8 61 47 59 c6 70 a2 bf
       -0.05205095304474231 -0.03601665344075705
0003b0 34 cf f6 83 c1 c7 98 bf 3b d1 c1 37 f0 6f 97 bf
       -0.024199508361291325 -0.022887948420661202
0003c0 4b e1 7d 95 34 08 ba bf 26 7a b1 a0 d0 af 75 bf
       -0.10168770456028146 -0.005294623329148018
0003d0 79 ac 8a 99 66 fd 9e bf 60 84 57 ff f8 d9 90 bf
       -0.03026352226394777 -0.016456499657469315
0003e0 e9 db 31 fc c2 d2 c2 3f 11 61 37 00 7b 80 b4 bf
       0.1470569354457603 -0.08008545642167443
0003f0 4f 90 2d 0c f6 2c a7 bf e3 f6 47 57 c4 83 a7 3f
       -0.04526490114838621 0.04592717709964036
000400 c9 b4 3a 83 a3 f3 bb bf e8 43 11 13 dd ef 9f 3f
       -0.10918638185349318 0.031188444412979438
000410 a7 65 6e f4 a5 5c a8 bf 2c dc 6e c9 22 37 a9 3f
       -0.047581850135610275 0.04924877842807293
000420 d7 df 0f 62 43 c8 89 3f 06 50 61 13 bb 5c c2 3f
       0.012589003019442586 0.14345491834922103
000430 39 7c 8f bd a9 7d 9f bf 86 39 e9 b8 3e 06 b4 bf
       -0.030752803988317565 -0.07822029127530614
000440 90 fe 89 07 9d d5 b7 bf f1 bd 70 b2 a5 d5 a4 3f
       -0.0931032317548619 0.04069249919154661
000450 21 d9 ec 02 88 0c b1 bf 4d 51 9e 46 39 ad a5 bf
       -0.06659746238151289 -0.04233721720734938
000460 40 35 74 aa 5b 77 ad bf b1 fa b3 29 f5 ed 72 bf
       -0.057551254804006025 -0.004621465365970565
000470 88 85 8d 9a 48 ae b2 bf f3 5d 95 a4 9b 36 a0 bf
       -0.0729718568159311 -0.031666625824694615
000480 35 4f 66 95 fb 92 66 bf fe b9 e2 c1 6c 22 97 3f
       -0.002755633711055606 0.022592257818070387
000490 f0 45 76 83 13 89 b6 bf 12 95 f4 69 40 3a a3 bf
       -0.0880291171981964 -0.03755379956627726
0004a0 4c 53 64 d6 61 f3 8f 3f 6f e1 30 9f 16 0e a9 bf
       0.015600933413716732 -0.04893561070679452
0004b0 9c dd 62 f7 31 65 ae bf 08 0c 5d 56 c6 ee b4 bf
       -0.059365807960996636 -0.08176841362460163
0004c0 ac e9 78 61 68 a6 aa 3f 40 49 b6 b5 33 41 bd bf
       0.052050840280986804 -0.11427615343408082
0004d0 7e d0 23 da de cf bb bf a2 89 22 cc f6 99 a2 3f
       -0.10864060235673098 0.03633090249902017
0004e0 1c 5f fd 2f fe 50 95 bf 91 fc 6c f2 07 49 88 3f
       -0.020816775969563314 0.011858045659776802
0004f0 d0 c0 ce 70 b5 7a c1 bf cf c9 ac 10 68 d8 ab 3f
       -0.1365572739428047 0.0543854256014985
000500 ef 1c 38 3f 7a 1c a7 bf 09 e8 6d 38 3d db 76 bf
       -0.04513914128988882 -0.0055801764891558825
000510 eb 3f a1 39 39 b9 ad bf 10 a8 9c b6 6b e7 97 3f
       -0.05805376842965856 0.023343737622020966
000520 1a 79 27 f6 0f 18 94 bf ee 24 c1 89 a5 34 a9 bf
       -0.019623040579852626 -0.0492297869355499
000530 bd 81 54 9c a5 3b 95 bf 51 cd 2e 68 09 ca ba 3f
       -0.020735347429878582 0.1046453360893811
000540 75 03 35 d2 bb 46 a9 bf 01 ac f2 d0 c8 0a ac bf
       -0.04936778012279933 -0.05476977873453138
000550 f5 91 61 15 c9 e2 78 bf 66 e6 49 0e 0d 51 81 bf
       -0.006075654489994244 -0.008455373762660656
000560 a5 46 a9 b7 73 4d ac 3f d2 13 fc c6 93 2c ad bf
       0.05527841202696252 -0.05698072246563125
000570 8e 69 96 bb bd f2 a1 bf ee 0f 44 77 1d 6b b5 bf
       -0.03505509295355856 -0.08366569673313481
000580 6a fa 1d 78 dd fd bb bf 9b 46 53 39 84 2a a6 3f
       -0.1093424242262501 0.04329312515041047
000590 8d 19 af 10 ee 82 90 bf 62 5a e3 53 7e 21 a0 bf
       -0.016124458092031047 -0.03150553487801201
0005a0 fd 34 e7 51 09 c0 b9 bf 52 f7 be bd 02 33 ad bf
       -0.10058649301136664 -0.057029805815075676
0005b0 8a df dd 2a 63 68 8a bf b2 45 45 96 54 fa ac 3f
       -0.012894415612876537 0.05659736952169271
0005c0 f2 27 6d 3a af cf 24 3f b6 10 fc 94 d7 a8 a4 3f
       0.00015877737060981907 0.040350663124657
0005d0 e5 53 df 46 f9 23 bd bf 53 ae bf 85 8d 81 b6 3f
       -0.113830165674997 0.08791431918478425
0005e0 78 6f 8f 2f 80 70 74 bf 09 e9 83 08 ec c8 7a 3f
       -0.004990101552689079 0.006539270405705241
0005f0 2e f6 21 77 8a 26 bc bf a2 78 d3 7d e4 30 9b bf
       -0.10996308716308853 -0.0265536977575428
000600 ea fe d5 b3 b4 12 b0 bf 30 ae 56 81 16 87 b7 bf
       -0.06278542891049779 -0.09190502793961097
000610 36 2c d1 76 9d 8c b6 3f 58 41 fc 1d 20 44 86 3f
       0.08808311606223715 0.010872126498299536
000620 c9 46 91 54 30 66 70 bf 11 dd a0 de 0a a0 97 3f
       -0.004003704824826656 0.023071451032788796
000630 b4 60 ca 80 22 25 bf bf 5b dc 01 0f a6 76 9c bf
       -0.12166038173961874 -0.02779635874363993
000640 2a 4d fb b8 da a3 b0 3f b3 2b a5 f1 fc 08 9c bf
       0.06500021949914428 -0.0273780367363476
000650 38 24 b2 36 9a 6b b2 3f 46 16 5e 78 74 c2 c0 bf
       0.0719543822798564 -0.13093429448433563
000660 5c 68 7e e2 0d 62 a3 bf db a4 37 89 5f b6 8c bf
       -0.03785746946159982 -0.014019724249879342
000670 59 bd 0f 09 33 b6 b2 bf ee e9 6f 8d 34 e0 72 bf
       -0.07309264155604946 -0.0046083500701521295
000680 a6 a5 e4 43 b2 e2 cb bf 2a 8e 4c 92 00 9c 87 3f
       -0.21785572352500288 0.01152801939458133
000690 ef 0f 23 b7 c5 3b c6 bf a3 91 f3 0f 1d 00 b5 bf
       -0.17369910661920993 -0.08203298224868276
0006a0 a7 10 e2 cf 92 60 b9 bf 19 19 3d 55 d4 9f ae bf
       -0.09912984442968541 -0.05981315174590147
0006b0 aa 8a 25 36 dd 15 af bf 5b 43 42 b7 4b 22 b8 bf
       -0.06071368490190328 -0.09427331184475689
0006c0 cb 6f 4a 14 29 54 ab 3f bf d0 ef df 78 eb bd bf
       0.05337646839799922 -0.11687427012640493
0006d0 bf 4f 5e b8 9b c7 93 3f 07 ca 94 d2 a8 e3 a8 bf
       0.019316132667497984 -0.04861190386363395
0006e0 1d 3c a2 37 e2 fb b2 3f c7 73 e2 a3 c9 b7 bf 3f
       0.07415593965764385 0.1238981270893894
0006f0 c2 a9 29 67 b1 ff 87 bf 14 8c af 64 74 60 b5 bf
       -0.011718164406563928 -0.08350303133151754
000700 37 ff 6b ac 0f 74 91 bf 4d 52 b2 2f b5 78 9c bf
       -0.017044300936503744 -0.02780421355835676
000710 45 ea 38 07 cf 70 8b bf 54 35 64 b1 92 e7 9f 3f
       -0.013398759277255876 0.03115681846343439
000720 4d 49 af cb a6 7e b3 bf 80 79 3f 3e 62 7a a0 3f
       -0.07615129921695037 0.03218371400702136
000730 c5 c0 43 36 40 ef 9d bf b9 78 85 56 24 8f ad 3f
       -0.02923298197941972 0.05773271137398823
000740 48 81 09 45 5e 4c 7b 3f c0 ea 92 76 bc 3c a8 bf
       0.006664627304957378 -0.047338380312301975
000750 c6 78 b9 8d 99 38 62 bf 58 a4 4b 94 e1 b8 a1 3f
       -0.0022242545217486557 0.034613656380152846
000760 6b 27 e3 00 45 3c b9 bf f5 bb 8b 54 79 4d a1 bf
       -0.09857589027083484 -0.033794204302345955
000770 ff 3e c9 44 28 61 8a bf 54 c7 e7 ab 2c f7 c0 bf
       -0.01288062534254619 -0.13254316705529823
000780 56 db 74 02 0b 7d b3 bf dc 5b ff 12 80 11 b1 bf
       -0.07612675485584694 -0.06667328323179283
000790 91 31 e8 c7 38 01 cb bf 2c 95 2f bd dc 28 b1 bf
       -0.21097478638729375 -0.06702975863261845
0007a0 9c 22 fe 25 0c 25 81 bf 83 ad fc 7f ef c5 ab bf
       -0.008371443662114779 -0.05424450337735733
0007b0 3a 5d 30 84 66 c3 c7 bf b2 d5 51 4f c8 b9 a2 bf
       -0.185650648637173 -0.03657365768678335
0007c0 43 42 58 15 f4 c5 b4 3f d9 bd 45 67 50 4e ba 3f
       0.08114552994835215 0.10275747796344294
0007d0 92 9f 3f fd bd d6 9c bf 27 0e 94 7d 65 6f ae bf
       -0.028162926275313867 -0.05944363744677288
0007e0 1b db 61 31 93 7e b3 3f f4 55 93 59 6f 49 a8 3f
       0.07615013080235793 0.04743526428653047
0007f0 79 8c c6 7e 70 fe ab bf 6a b7 5b 39 d1 7f b6 3f
       -0.05467559382966498 0.08788783693645788

bias f8 [200]
000000 36 e9 b6 58 e0 3e 92 3f 70 15 12 54 ee f1 b1 bf
       0.017817979254439474 -0.07009782364374018
000010 2d 5a 9e 94 c1 b2 9f bf bd 34 0c 34 72 e5 a4 3f
       -0.03095533818813061 0.04081303487155583
000020 1a 92 bb 4e b1 02 ad bf 49 8a a5 0f 0d 3c a4 bf
       -0.05666116796581751 -0.039520652923574824
000030 18 fd 15 39 c7 5c a8 bf 67 fb 34 b6 f6 fe b2 bf
       -0.047582841604702775 -0.07420293758785378
000040 d4 a4 95 fe 66 0a 6b bf 38 29 69 4a 51 15 7e bf
       -0.003300858651233621 -0.007344548741978145
000050 ac 8b fc 24 aa 95 99 bf 86 a6 1c 99 bc 2f 8a 3f
       -0.024984987742879092 0.012786363051037652
000060 bb fa dd c1 02 cc a2 bf 06 39 e5 4b 72 94 ba bf
       -0.03671272865812144 -0.10382761338152954
000070 fc 34 fd 7a 64 f8 bb bf 97 cc bb a7 ab b3 a6 bf
       -0.10925891878760646 -0.04433952734498197
000080 fb 3b 9d bd 67 dd c4 bf 26 82 0c 08 8c a2 a3 3f
       -0.16300675161843955 0.03834951017620751
000090 03 7b 54 8e 9b 8a b3 bf 0f 30 99 21 ef d7 cd bf
       -0.07633373474935116 -0.23315228596254697
0000a0 e4 60 1b 00 3c 98 a7 bf 3f 38 4f f8 58 ef b9 bf
       -0.04608333112054355 -0.10130840360872727
0000b0 ab 69 49 4c eb f3 ab bf b6 49 24 c1 3c 42 b1 bf
       -0.05459533029780358 -0.06741695132612943
0000c0 d7 d1 62 31 fd 33 d0 bf 9f 7c 8c c9 f7 51 93 bf
       -0.2531731588635728 -0.01886737029701335
0000d0 49 f2 32 2c 79 a3 77 3f 7f b5 42 9f c8 12 7e 3f
       0.005771134691880572 0.007342132263301492
0000e0 b6 33 7a 05 80 d0 b6 3f 4c 93 a3 1b 92 9e bd bf
       0.08911895879482654 -0.11570084738521053
0000f0 8e 57 43 01 ed 42 bc bf 07 7a db a9 10 f4 93 bf
       -0.11039620667301461 -0.019485721938389513
000100 d0 39 e7 58 12 c5 9c 3f 0a ba 78 76 a6 cf af bf
       0.02809551875707844 -0.06213112064539324
000110 7b 4f 77 36 39 63 bf bf d1 55 f8 bb 02 28 a8 3f
       -0.1226077802633067 0.04718025726848974
000120 1f 69 82 a7 3e fb b6 bf bf 91 46 44 77 17 c8 bf
       -0.08977119054398884 -0.18821612199566393
000130 13 05 30 71 32 83 a5 bf 27 d0 88 1d 31 7a ac 3f
       -0.04201657897648139 0.05561974988486922
000140 37 c7 07 c2 b1 df b3 bf 5b 5e e9 32 17 ce c8 bf
       -0.07763205515928183 -0.193789386614969
000150 0f de f7 60 db 0f 9f bf 3f f1 20 13 62 73 9b bf
       -0.0303339269575798 -0.026807339112779657
000160 77 07 8b cb 8a b3 ae bf dd 71 ab 94 15 79 c1 bf
       -0.059963548037116725 -0.13650769957793232
000170 bc 79 cd 46 a1 5b b2 3f e2 40 d5 23 dc 77 91 bf
       0.0717106626375203 -0.017058791815828374
000180 08 03 d2 3e d9 a6 a6 3f 91 ed df 56 ec b8 ab bf
       0.04424170390939791 -0.054145227055381835
000190 e4 6f b6 7d 1e 87 ab bf 83 cb 1e 2d d6 4b be bf
       -0.053765251966268385 -0.11834467507905626
0001a0 bd ea 34 fe 01 91 bb bf d4 0d ef a7 66 2a 87 3f
       -0.10768139320581845 0.011311342239315993
0001b0 af c3 5a ad cb 75 b1 bf a7 19 da ca a5 7a 61 bf
       -0.06820366842545299 -0.002133678258192623
0001c0 a1 48 27 56 e4 d3 6c bf 2f a5 0d 87 09 51 bb bf
       -0.003519006700323749 -0.10670527980041265
0001d0 fb 41 d0 56 64 2f b7 bf 77 27 d4 13 a4 60 b2 bf
       -0.0905668937632597 -0.07178712352847848
0001e0 78 45 13 c7 29 63 87 3f c5 cf 79 29 74 14 ad bf
       0.011419607532306073 -0.05679667478844367
0001f0 b9 99 4d 4a ed 14 c2 bf 9d 4b d5 12 13 44 ce bf
       -0.14126363876421325 -0.23645246905888664
000200 a4 09 22 c1 fc f2 cd bf ab 92 fa 07 62 1a a1 bf
       -0.2339778845817594 -0.03340441081426112
000210 2c 45 01 ae f5 30 90 bf 5c a6 7e 77 65 41 b9 bf
       -0.015811766381664302 -0.09865411918021877
000220 25 87 76 0e 7c 24 b5 bf 7d 1e 23 4e f5 a8 d3 bf
       -0.08258796074963166 -0.3071873915728032
000230 f1 1d 45 21 9f 5e 95 3f 6c 7f 02 06 5a 4a 9f 3f
       0.02086876526416676 0.030557066551977582
000240 22 31 73 23 ec ae a0 bf 14 26 d7 6d bf 60 a2 3f
       -0.03258455212344048 0.03589437690568445
000250 61 bd 96 57 8a 0d c0 bf 74 fe be 7c 6d 9c ba bf
       -0.12541322018430903 -0.10394939704473832
000260 c1 71 1a 24 e4 da b4 bf 92 a2 3b 97 df ee ad bf
       -0.08146501428058796 -0.05846308442216243
000270 ab e8 52 ff 57 a2 bc bf 02 25 e6 2c c6 de bd bf
       -0.11185216887943976 -0.11668051334540411
000280 b2 93 b7 29 d2 8b ad bf 02 ff 3f 1f 79 71 a9 bf
       -0.057707374184054486 -0.049693856301017206
000290 9b 81 1b c8 88 21 a0 3f 95 ea 87 7b 96 3f ac bf
       0.031505846430948746 -0.05517263658471908
0002a0 43 b8 fe de 98 1c a7 3f 75 e2 18 7b 44 ff a2 bf
       0.04514005395991252 -0.0371037864937919
0002b0 35 7b 13 c0 fb ca 93 3f c5 99 0f 5d e2 0f 30 3f
       0.01932900771941633 0.0002450873990355286
0002c0 92 94 bd 02 1d b5 92 bf fa 05 64 38 a9 7d 75 3f
       -0.01826901749827365 0.005246792809204143
0002d0 36 20 f3 2e 55 7e c7 bf 42 10 bf ba 7f 15 93 3f
       -0.18354286949602433 0.018636699460117485
0002e0 8d 35 da ea 84 02 66 bf b6 c8 ec 63 9b 3a a7 bf
       -0.0026867481272520644 -0.04536901087557636
0002f0 9d 0a 86 cb 32 e9 bb bf 1e 6c 80 35 bd 4a 8b bf
       -0.10902707547033193 -0.013326147265663887
000300 f6 b8 75 61 f1 0f c6 bf 23 0f 65 77 57 dd ab bf
       -0.1723615384939376 -0.05442307789283365
000310 3f f2 79 39 77 9b a3 bf c8 04 6e 65 14 ca c7 bf
       -0.038295484319835975 -0.18585448219895384
000320 77 42 b7 ee 85 ba 21 bf 84 a9 b3 2b 0a ef 8c bf
       -0.00013525853078856832 -0.01412780710093809
000330 33 11 6a d7 ab 71 a3 3f a9 5a 30 e9 76 46 af bf
       0.03797661785668751 -0.06108447643798815
000340 e1 e9 94 83 21 58 a2 3f a6 07 0a 0b 92 aa c8 bf
       0.035828635513514014 -0.19270539797804281
000350 12 aa a1 77 12 3d a7 bf eb 37 62 69 71 55 cd bf
       -0.045387818435148955 -0.2291700138634377
000360 7e 6d 14 20 e6 6a b9 bf 9a 81 bf 1a ae 29 b7 bf
       -0.09928739817808283 -0.09047973778752408
000370 05 a1 29 78 dc ef 74 bf 2c 4c 6c 0a 8f e0 b8 bf
       -0.0051115619740829165 -0.09717649464100536
000380 bc 6e fe 85 c0 d7 b8 bf 8c 1b 25 12 0f b5 c4 bf
       -0.09704211493811504 -0.16177547822936977
000390 66 22 d3 f0 3b 38 a5 3f c8 0c d9 2d 1c 17 88 3f
       0.04144465746646091 0.011762828969159492
0003a0 0c 74 e5 ea 40 99 c0 bf 42 be d5 0b ac 70 98 bf
       -0.12967692822977062 -0.023867309782359188
0003b0 55 60 b4 e4 31 49 a5 bf 1a 08 15 86 52 1f b9 bf
       -0.04157405773929727 -0.0981341912602435
0003c0 a9 1b ea 8e 84 9d bd bf f9 d5 9e 96 78 e5 a7 bf
       -0.11568478097079428 -0.04667260016087122
0003d0 d6 e8 18 03 7f 16 a1 3f 4d 01 af f4 d5 dd 99 3f
       0.03337475693520424 0.025260298785498226
0003e0 fd 3b e9 f3 b4 c4 b5 3f b1 32 06 25 de 63 9e bf
       0.08503275828228136 -0.029677840242174628
0003f0 54 1b f0 9f 47 be c1 bf 87 e0 a0 f7 4a 37 af bf
       -0.13861937818020442 -0.06096872589881835
000400 7f 48 57 ea aa c2 cb bf b8 2f 5e 6c f1 a3 a4 3f
       -0.21687828485898206 0.04031328628397496
000410 97 ee 4f cb 81 14 62 3f 19 c9 06 8f 83 33 77 3f
       0.002207044128679513 0.005664361859475408
000420 01 86 66 ef 37 b5 b3 bf 71 83 14 e8 59 30 a6 3f
       -0.07698392481554352 0.0433376403618756
000430 17 73 e3 3f 35 45 c2 bf 23 a2 91 67 a0 21 8f bf
       -0.14273706073336065 -0.015200856362029452
000440 a4 21 b3 3d a5 0d ac 3f 36 c7 d2 ba 39 c0 b3 bf
       0.054791606694894385 -0.07715187846295354
000450 e7 dc 6d ff 2f 03 c3 bf 39 67 93 a5 9e 9a cb bf
       -0.1485347745144516 -0.2156561192012363
000460 ef d5 20 6c 79 86 a5 bf aa 67 ee 6e af c7 cb bf
       -0.042041582535983106 -0.21703141132894405
000470 23 97 1a c6 71 57 c2 bf ba 8c b1 13 95 89 aa 3f
       -0.14329359219589674 0.05183091988944839
000480 66 65 ef 28 05 d3 74 bf 4d 1a 23 46 4f ec b8 bf
       -0.005084057002897912 -0.09735579931575807
000490 47 f3 ea d2 d9 cd 84 3f 0b 32 ba 8e 0b 19 ca bf
       0.010158254384231248 -0.20388931721790046
0004a0 d5 ce a3 5f 17 46 81 bf 51 b0 40 92 d7 63 a0 bf
       -0.008434469801137304 -0.03201173458396112
0004b0 2f 9f 8b 29 bd 6c c0 bf ec c3 b7 db 06 b4 c2 bf
       -0.12831844833930847 -0.1461189816323264
0004c0 16 9b bf b8 dc 60 a5 bf 40 a6 7b eb c1 59 b7 bf
       -0.04175462489347674 -0.0912133407506639
0004d0 26 02 eb fc 64 0c b6 bf d5 ac 9a e9 60 68 bb bf
       -0.08612662482028863 -0.10706144049861462
0004e0 a8 04 95 c7 84 ec b2 bf 0a e9 5f d3 76 c7 be bf
       -0.07392148850068969 -0.12023108158601672
0004f0 3d 11 e4 9b bc 27 a3 3f 0d 48 a1 32 e1 58 b8 bf
       0.03741254237141554 -0.09510619627079127
000500 64 f4 95 b6 f5 c7 b5 bf 9c 07 b2 75 e8 3e b0 bf
       -0.08508239467296758 -0.06345990060256529
000510 84 15 29 2f 46 b5 a9 3f c4 ec d9 38 09 06 bf bf
       0.050211137062926375 -0.12118585241289553
000520 3e 1b 3b 10 91 b8 a3 bf 57 18 42 24 20 99 b5 bf
       -0.03851750682001985 -0.0843677605172116
000530 f5 d8 dc e5 f6 21 b1 bf 2c f7 07 e7 59 66 b2 bf
       -0.06692450630075426 -0.07187425508888329
000540 db c5 e4 37 99 b9 a9 bf c2 de d7 41 4c 0c ba bf
       -0.050244129250483126 -0.10175015075207752
000550 53 ed 36 b0 45 8c b4 bf cd 72 57 b8 dc 28 b0 bf
       -0.08026538421738864 -0.06312350750472291
000560 9d 65 07 31 8a fc 9c 3f d3 5a a3 79 a2 be 72 bf
       0.028307112925039502 -0.004576334637212925
000570 ce 18 63 1f a4 07 9c 3f e7 b6 9d cc fe 96 a0 3f
       0.02737289849826468 0.03240200279001986
000580 8a 31 7b 7f ad 4e b2 3f 06 6f f8 a7 25 27 a1 3f
       0.07151302683195673 0.0335017936269804
000590 e8 7d 0b fb ad 86 b1 bf cc 78 63 3a 58 e8 a8 3f
       -0.06846129778886445 0.04864764893294335
0005a0 75 aa e5 31 09 d3 87 bf 36 a6 81 ab fb c1 af bf
       -0.011632987818946486 -0.06202684849342825
0005b0 02 f3 aa 80 28 42 b4 bf 53 c0 bb d6 c8 02 ba bf
       -0.07913449422171584 -0.1016049885035966
0005c0 79 ea 1b cc 20 78 b3 bf c4 52 b1 c1 2f 1b ad bf
       -0.07605175955897349 -0.05684804191029039
0005d0 02 6d 89 34 17 b2 b1 bf e0 42 dc 73 e5 f6 b1 bf
       -0.06912369759213635 -0.070173588548879
0005e0 dd 03 2d ee 54 f8 95 bf 20 41 3a 37 44 62 c1 bf
       -0.021455122983073827 -0.13581135460527438
0005f0 af c2 42 1b ad 72 b4 bf 49 7f 75 c0 cd 6f a3 bf
       -0.07987481990381683 -0.03796236967423156
000600 dc e8 ae 75 56 dc 96 bf 67 a8 e8 b2 00 9b bd bf
       -0.022324896748366338 -0.11564640396014313
000610 ca 36 01 c4 6f 56 bb bf 7d 9c f4 7f 1e af 8a bf
       -0.10678766761085537 -0.013029325752155646
000620 cc c9 a9 62 da e5 a5 bf b5 f4 22 51 42 7c ac bf
       -0.04276926473984907 -0.05563552132068975
000630 ff a3 34 6e ee 80 b7 bf 41 f5 66 e1 95 b9 b6 bf
       -0.0918110865647037 -0.08876930954916863
