models/torch/NH3_net_SU.pt (torch, 660201 bytes, 12 tensors)

mean_in f8 [5]
000000 d2 8d 9d 69 5a 44 8a 40 1b 81 fd ec 1e 41 49 40
       840.5441467579751 50.50875627878323
000010 45 a1 e4 58 9b 53 d5 3f ff ee 3d cf d4 53 d5 3f
       0.33322795563664825 0.3332416557166055
000020 bc 6f dd d7 8f 58 d5 3f
       0.3335303886467462

std_in f8 [5]
000000 21 b9 9f 88 16 3a 6f 40 93 bb 2e 42 fa 90 3c 40
       249.81525069423608 28.566318642052988
000010 47 cd c7 26 2d 2a ce 3f be 6d de aa a7 24 ce 3f
       0.23566212075784618 0.23549362033086924
000020 b8 5e b7 03 16 32 ce 3f
       0.23590350324115206

mean_out f8 [2]
000000 64 b8 fa b5 35 59 e0 3f 76 4f b4 1b c4 43 bf 3f
       0.5108898691448869 0.1221277778279822

std_out f8 [2]
000000 c2 87 97 30 2d 23 ce 3f 3e 7f 81 97 15 bb c8 3f
       0.2354485022797786 0.1932093610548637

linear_afunc_stack.0.weight f8 [200, 5]
000000 ba 12 8c 13 28 3c f1 bf fd 8c 5a e9 00 e2 c3 3f
       -1.0771866572915045 0.15533458132004077
000010 5d be 72 d8 bc a8 ec 3f 4b cb 8d e5 bf d6 f5 bf
       0.895597861051964 -1.3649291006992879
000020 e6 ff 97 ba 4e c2 73 3f 5b d6 d8 fb ab 1a c8 bf
       0.004823977980322502 -0.1883139590951711
000030 58 2d 5b 79 56 7d ba bf e8 97 8d e1 be f9 c8 bf
       -0.10347500288769618 -0.19512163174948616
000040 66 fb 5f 32 2a cf e1 3f 28 25 98 19 de d2 c9 3f
       0.5565386756787631 0.20174766778681286
000050 00 9e f1 8a cf 3c e7 bf 63 49 0c be 1e 0f b2 3f
       -0.7261731828447751 0.07054321422427771
000060 10 33 54 38 8e e5 d3 3f 1d 85 f0 62 1d 30 e8 bf
       0.31088595867986246 -0.7558733875668256
000070 51 05 30 af 86 0b cb bf 0e 17 b5 12 82 0f e6 3f
       -0.21128924898224935 0.6893930783632827
000080 e5 44 4d 26 03 ad 02 c0 0e c5 b4 78 4a 00 cc 3f
       -2.3344786636667885 0.21875887769559949
000090 84 87 89 87 85 8f d1 3f 04 63 7b f2 70 d7 cc 3f
       0.27438486324364697 0.22532474365177546
0000a0 06 53 1e ac 7f af bc 3f 06 38 00 be bc 2f 9d bf
       0.11205289795027448 -0.02850241574929415
0000b0 90 ec b4 84 71 00 c3 3f d2 8d 19 36 f6 8e c4 3f
       0.14845103244610813 0.16061284677117144
0000c0 7b d0 a4 e3 f2 1d a1 3f ee 9c 59 62 84 db d4 bf
       0.03343161610465103 -0.32589826206681394
0000d0 48 29 c1 c1 d9 7f ad bf df c0 84 14 00 1f e5 3f
       -0.05761604776542356 0.6600342179063111
0000e0 05 c9 2e a0 11 56 da bf bb 46 1f 27 82 a0 e3 3f
       -0.41150322573516035 0.6133433117012922
0000f0 f2 67 8c bc 26 3f da 3f 56 07 4c b3 c5 cd db bf
       0.41010445034919407 -0.4344343424746645
000100 41 85 70 c2 e0 de d2 3f 37 eb d9 5d 46 05 e2 3f
       0.2948533915351455 0.5631439049751411
000110 ed 2c 06 bf f1 55 de 3f a4 a3 82 f2 7a 98 d8 3f
       0.47399562506389153 0.38430665667197617
000120 26 67 f5 ab 45 47 cc bf d8 2f ae 63 7c e0 a4 bf
       -0.22092505356231945 -0.04077519146730396
000130 70 cc 43 5f d2 55 d0 3f 76 2e 57 73 36 85 d2 3f
       0.25523814490515573 0.28938065780378197
000140 17 22 06 83 39 1e e0 bf 14 c1 91 36 0a 0e d4 3f
       -0.5036895331441568 0.3133569271949608
000150 93 eb 48 d3 83 a3 a2 3f b6 fc 90 82 a6 ba a6 3f
       0.03640377000961972 0.04439277976825322
000160 11 47 c5 3d 19 b8 ad bf 4d 06 73 be f8 77 c6 3f
       -0.05804518584285579 0.17553624438555673
000170 cb 76 e6 0d 1a 11 ac bf f2 d3 08 9a 91 db e1 bf
       -0.05481797618561542 -0.5580528267370239
000180 50 e1 2e 5f d3 99 d9 3f bd c8 56 fc 03 12 cd 3f
       0.4000137738726339 0.22711229153862247
000190 e9 c4 5b 5b 62 8b e6 3f fa 30 db db 73 2e 63 bf
       0.7045146736474212 -0.0023414862506340147
0001a0 8c 9e 36 86 e5 34 c4 3f da 0c 38 93 d7 a4 e5 bf
       0.1578642754877716 -0.6763723254556695
0001b0 54 b4 9c b5 d1 11 cd 3f c4 c6 80 77 3a 6b f3 bf
       0.22710629813937777 -1.2136788051688407
0001c0 99 49 cc 1b fb b7 c0 3f 80 0f bb a3 1d 0a d1 3f
       0.13061465127300378 0.2662424181873959
0001d0 cc 31 c0 29 2d e2 e4 3f 95 62 48 fc 73 54 90 bf
       0.6526094260639694 -0.015947162888638806
0001e0 82 b3 ca 8a 20 7e d6 3f a7 6f 59 20 96 74 c7 3f
       0.3514481883419692 0.1832454355197772
0001f0 08 22 c9 8d b8 c4 c7 3f 68 f7 88 20 90 e5 e2 3f
       0.18569094584587753 0.590522826714488
000200 12 33 38 6b b2 e2 b4 3f 3e fc 08 b6 d1 e5 da 3f
       0.08158412091888703 0.4202770497976792
000210 97 cd 32 fb e3 d6 e3 bf bb c8 12 1c 0d 9b e1 3f
       -0.6199817568034857 0.5501771496112932
000220 54 70 51 f9 2d 59 da bf 6d 58 73 5c e2 06 d2 3f
       -0.4116930899379032 0.281670179637678
000230 2b 84 0c 05 17 9b ef bf dc 03 2b bc 71 77 e4 3f
       -0.9876818750964323 0.6395806002766409
000240 a1 52 57 d5 ef ae b0 bf 29 9d f9 7e 9b d3 c3 3f
       -0.06516932447932301 0.15489524555162262
000250 23 ab 60 49 95 0d b5 3f 08 d2 2f cf 2d 5a ce 3f
       0.08223851243444051 0.23712704292815112
000260 51 d7 f6 9a d6 61 f0 bf da 27 7a 3a d4 fc e4 3f
       -1.0238863042154274 0.6558629171497572
000270 d6 43 24 82 37 e0 db bf c1 62 a0 b7 7b db d2 3f
       -0.43556010922571653 0.29464619571949063
000280 35 be 45 c9 18 d9 84 3f b4 ec 01 34 22 dc a0 bf
       0.010179704325053421 -0.03292948613030813
000290 14 bf c6 b7 e3 d2 b2 bf 25 71 1a ed 04 b8 b0 bf
       -0.0735304187462556 -0.06530791081099048
0002a0 ac 56 84 37 00 d6 bb bf 7a d7 8e ae 0d f4 77 bf
       -0.10873414378542162 -0.005847981877129866
0002b0 7b e3 33 52 a2 90 99 bf af e2 f6 ff ae 75 bd 3f
       -0.0249657976791897 0.11507695912485859
0002c0 a4 c8 9c 70 d6 30 bb 3f 4f 94 dc 69 97 60 bc 3f
       0.10621395348860801 0.1108488686991944
0002d0 f5 3e 6e f2 23 e1 e7 3f e1 e9 92 04 31 28 ea bf
       0.7462329611753079 -0.8174061860402696
0002e0 86 ca 61 44 f3 19 b3 3f 71 73 3b 9d d2 57 e0 3f
       0.07461471957666718 0.5107205458585736
0002f0 80 67 cb a1 d0 35 d3 3f fd 87 43 0a ee 35 f2 3f
       0.30015960502861816 1.138166465847916
000300 e6 aa 92 3a 02 97 d2 bf 7b 27 31 76 65 ec f1 3f
       -0.29046683998119105 1.1202139489055003
000310 1a 9b 34 f6 43 f7 e3 bf 8e e6 25 26 f2 65 e3 3f
       -0.6239337738705644 0.606194567211064
000320 96 aa d3 ce a1 3e f7 3f 60 2b 4f 1c 79 7c d1 bf
       1.4527910308048937 -0.2732222343881201
000330 7d 45 f7 cf a1 58 c6 3f 86 ce 12 ff f5 62 78 bf
       0.17457983641228828 -0.005953751490938358
000340 c4 98 b7 5f f3 23 c1 3f 75 5d 1c c2 ba 50 ed 3f
       0.13390962766351866 0.9161046782709678
000350 8e b6 66 9f 4d 75 c4 bf ef 19 62 90 17 8c c8 3f
       -0.15982980998289914 0.19177526998483027
000360 69 c3 a3 e3 8c 0e bd 3f 64 7f 99 cc 54 50 bf bf
       0.11350327069864154 -0.12231950755221771
000370 2d 47 67 e5 e8 d1 c9 3f cf 64 c6 c8 79 3a b9 bf
       0.20171843720759722 -0.09854851867420965
000380 74 a6 ea b0 12 d2 b3 bf ca c8 34 c7 88 20 6f bf
       -0.07742420977833736 -0.0037996932457185816
000390 bb 32 b3 a6 0f 59 98 bf 99 49 3a ee ff 29 84 3f
       -0.02377724127727519 0.009845733125335697
0003a0 9c 1a 57 53 2f aa 6d bf 98 3d 54 c6 56 8b c2 3f
       -0.00362118953009667 0.14487728771244401
0003b0 8b 44 dc 70 35 f5 c0 3f d0 b6 70 da a3 d3 bc 3f
       0.13248317728770007 0.11260437090887909
0003c0 83 1e e1 a1 b8 dc d5 3f 80 97 b8 35 ed 3b da 3f
       0.34159675415546803 0.40990762945363457
0003d0 39 6e 96 6a 9f b2 b5 3f e8 0b f9 5c 04 52 b8 3f
       0.08475681640850831 0.0950014807686298
0003e0 65 54 0c 8f 47 90 b5 3f e8 0a c6 64 85 ee e0 bf
       0.08423278086077486 -0.5291163414225055
0003f0 9d a3 c9 7a 65 91 a4 bf 56 bb 5b 65 95 96 b4 bf
       -0.04017178653595652 -0.08042272305077111
000400 f9 6c 9e 5e 41 0b d7 bf 78 31 1a 01 3d b2 c1 3f
       -0.36006197204706286 0.1382519011862191
000410 e6 ff 3f a5 63 81 d5 bf 14 25 cf 0d 4e 28 e1 bf
       -0.33602229249663507 -0.5361700315199038
000420 a6 38 9b c4 e7 7f b6 bf 72 f0 d5 f7 5d ae dd 3f
       -0.0878891806598597 0.4637675209303388
000430 2d 3e d7 dd 32 4a ce 3f cc 07 72 45 dc 9b f7 3f
       0.23663936454839654 1.4755518639290015
000440 c9 b8 6a 77 3c 86 e0 bf ff c7 05 78 b8 34 be bf
       -0.5163862545357684 -0.11799195223082391
000450 51 dc 8b e4 e4 4d a3 3f 9a ec 2c 50 1e bc 96 bf
       0.03770365991470526 -0.022201989787600775
000460 a1 0d 81 c9 b8 d4 e7 3f 27 c0 d5 87 28 79 f0 bf
       0.7447170196177703 -1.029579668622327
000470 10 33 2b 93 2d 7a e5 3f fa b0 15 d1 b4 a6 cf 3f
       0.6711643099202735 0.24727497300353446
000480 e2 6d 2c 15 cb c7 e1 3f b0 18 9f 42 53 cd f2 bf
       0.5556388295694286 -1.1751282312775793
000490 b6 23 09 04 72 07 bf 3f 68 8e 24 f2 76 ca b1 bf
       0.12120735739257679 -0.069495615116972
0004a0 1e fa 93 a6 3c ec b1 3f b0 c6 58 c7 a5 e7 c1 bf
       0.07001093928190769 -0.13988182290772988
0004b0 9f c6 6f 40 3c f0 5e bf c4 5d f9 37 2c 04 8c bf
       -0.0018883312602579261 -0.013679833849137853
0004c0 59 96 39 77 eb 51 c2 3f d0 54 65 39 63 e4 c3 3f
       0.1431249935296133 0.15540733625917946
0004d0 37 22 af 2f 29 00 c3 3f b5 07 f7 ec 69 e3 66 3f
       0.14844240978551834 0.0027939862117997935
0004e0 90 c1 60 ea 01 03 99 3f 7b 01 69 fe 8a 70 b3 3f
       0.024425535135550513 0.0759360190504647
0004f0 bf 39 14 fb 4c 49 c1 3f 26 14 8f db 57 08 c1 3f
       0.13504946002690407 0.1330671140732715
000500 74 6a 16 07 2e 8b 51 bf 1a 79 16 e8 ab d3 98 bf
       -0.0010707807053679493 -0.024244962730898136
000510 ab c5 64 f8 14 d0 a5 bf ff 7a 33 0c 44 d6 a4 bf
       -0.04260316402577343 -0.040697218408004325
000520 71 7e e4 d1 c3 db a5 bf a1 f8 e3 d5 b0 f3 cb 3f
       -0.042692298289918613 0.21837435191986734
000530 2a 43 be f7 b7 16 ce bf fd e1 59 c9 ae 27 cf 3f
       -0.23506831738316097 0.24339852172467139
000540 39 78 45 53 50 10 e5 3f 5f b3 58 53 c6 51 d3 3f
       0.6582414270776616 0.30186613215737695
000550 b3 e5 10 54 89 ef ec 3f 32 ed fe d2 cd c3 c1 bf
       0.9042402879633101 -0.13878796389131193
000560 35 d3 90 b1 78 e6 ab 3f 3c d4 a9 e4 55 6d da bf
       0.054492732692244784 -0.4129233105698551
000570 40 25 36 cb e9 e2 e4 bf cf 22 07 10 5b bd e8 3f
       -0.652699372193787 0.7731147110981399
000580 20 54 7b 9f 4c bd ca bf c4 ba 15 3d ca 22 c7 bf
       -0.20890195643610898 -0.1807492063776036
000590 e2 c6 50 58 9d fc d3 3f 71 df b9 e4 5d 6b db bf
       0.3122933733421701 -0.42842814766435483
0005a0 2e 9a 02 72 e9 24 ed bf 2d 7f ff 3d cd ef c6 bf
       -0.9107558466683423 -0.17919316794631737
0005b0 0d 2b 15 20 f2 e9 bb 3f e1 c0 53 f5 a2 45 da 3f
       0.10903847964543108 0.41050027806978845
0005c0 21 fa f9 30 e8 d4 bf 3f 17 72 59 51 a1 ba 86 3f
       0.1243424529620616 0.011098156256758291
0005d0 4b de f6 8e 2a c5 8c 3f 9a bc 57 e4 17 1c c4 3f
       0.014047939765858738 0.15710734033152535
0005e0 b6 59 65 b6 18 0d c4 3f 49 5f ad ae 1e 48 c2 3f
       0.15664967447328387 0.14282592324411272
0005f0 e0 6d 64 19 55 85 e2 3f 31 16 bb b8 1e fe c1 bf
       0.5787759300177946 -0.14056762714442209
000600 ab f3 39 b3 79 05 c1 bf 6e e3 59 b4 3f 43 b5 3f
       -0.13297959567344483 0.08305738595107723
000610 52 90 3a 78 55 20 c6 3f f8 b6 8f 18 28 cf f1 3f
       0.17286175127549314 1.1130753478459479
000620 e0 ca 73 51 c0 c3 d9 bf c1 f5 53 08 ce c6 c1 3f
       -0.40257270769431663 0.13887954146041007
000630 19 0a 3d 63 b9 2c ae bf 89 ea 54 87 29 2d cf 3f
       -0.05893496834189111 0.24356574161523195
000640 89 36 9c 5c 86 cf 9b 3f e0 85 e1 1e 73 d2 ae 3f
       0.027158831980207885 0.060199353713652703
000650 8a b1 71 fd ec 02 da 3f cc 39 98 2b 12 cd d8 3f
       0.40642857313539393 0.38751653916633866
000660 1a 20 04 74 cb b4 e0 3f f4 8b 06 01 dd d7 ea 3f
       0.5220696702899688 0.8388505001097415
000670 b4 dd 20 87 38 be b1 bf 51 ab 36 19 9a 20 b7 bf
       -0.0693087892440108 -0.09034121623578285
000680 7b e9 cf 7f 2a ac b2 3f ba df 75 f3 bb 35 c1 bf
       0.0729395448724172 -0.13445233714787524
000690 7a a1 b4 b8 12 49 e3 bf 55 fd b7 ee 5b 67 ce 3f
       -0.6026700599223169 0.2375292697542856
0006a0 de 85 e0 13 b0 05 bd 3f d0 41 92 2c f1 7b d0 3f
       0.1133680389907776 0.2575648246065869
0006b0 47 a5 2d 94 6c 9e d4 3f da ab 1e 69 b4 8e c5 3f
       0.3221694418958418 0.16841750271609507
0006c0 9b 34 c4 5b cf 82 e5 bf e8 e3 83 ba bf eb 7c bf
       -0.6722180168450395 -0.007060765208955801
0006d0 1a 35 67 f1 06 58 d8 3f d2 52 f6 c4 15 40 c2 bf
       0.3803727490856815 -0.14258072011275275
0006e0 8b 16 b0 77 db c6 88 bf f4 36 79 1a f5 9f ab bf
       -0.01209804018982232 -0.05395475338137415
0006f0 81 13 6f d2 f7 f6 8e 3f 30 0f be 05 b1 c0 ac 3f
       0.015119491681511612 0.056157619429568206
000700 4b 04 5c 7a d9 5d 9a 3f c0 c0 13 52 d0 42 81 3f
       0.025748632519939012 0.00842821836928953
000710 c2 6b 20 8e 08 1d a8 3f 60 ee 51 44 53 9a b4 3f
       0.04709650740570438 0.08047981660814107
000720 c8 de 07 fb 39 5d b1 3f e0 68 dc 5b 76 39 cc 3f
       0.0678287732952142 0.220503611425392
000730 ff 1d d0 d2 2e 3a 85 3f 97 81 33 0b 7d 49 b7 bf
       0.010364881332875163 -0.09096509479014113
000740 05 89 32 a8 9e 6d b0 bf 9c 8f 02 eb 9e 94 9d bf
       -0.06417266470319667 -0.02888725575816374
000750 ca 26 3e 40 b4 88 76 bf e5 0f 01 c4 f1 af 65 bf
       -0.005501464944140453 -0.0026473733887843903
000760 77 fe 23 5d 47 66 7f bf 84 30 d4 fe e4 3d d3 3f
       -0.007665900006258767 0.30065274129516006
000770 6b c8 d3 89 2e bf d2 3f e6 ba ce f2 e7 24 d4 3f
       0.29291881046004303 0.31475256644891514
000780 af ba 0a a3 0a 34 e5 3f ac 10 3a 72 d7 44 c2 bf
       0.6626027283108068 -0.14272587850076002
000790 19 b6 32 f0 e5 59 d0 3f a6 26 25 d9 3c a5 e2 bf
       0.25548695046276887 -0.5826706162562985
0007a0 55 b8 0e 0e 4b 50 e4 3f b7 ab 7d 95 93 16 a2 bf
       0.6348014139709998 -0.03532849502410989
0007b0 3e 0f 25 67 89 02 92 3f a4 f7 eb 58 0a a2 d8 bf
       0.017587801857430245 -0.3848901623131218
0007c0 0a 92 52 82 f1 78 e9 3f db 5f 16 a8 37 27 af bf
       0.7960135979997756 -0.060846080082398855
0007d0 b7 b0 b1 da 98 cc e0 3f e8 f9 58 d6 52 89 b6 bf
       0.5249752303475564 -0.0880328915891152
0007e0 db d4 70 2f 4a ad ea 3f ad e3 c6 ff ef 14 f1 bf
       0.833653538377486 -1.0676116935048683
0007f0 7e dd 33 97 7e 08 d7 3f 25 27 ad 3e b7 5e 91 3f
       0.3598934628093601 0.016962874603712614

linear_afunc_stack.0.bias f8 [200]
000000 8c d4 40 d2 f8 d4 11 c0 85 a2 08 38 ce d8 e0 bf
       -4.457980427939344 -0.526465520325545
000010 86 72 7e 11 b5 8f 06 c0 56 00 fb ac 33 15 12 c0
       -2.8201695791925117 -4.5207049396704715
000020 ea ea fc 00 07 48 0f c0 c1 85 82 68 e1 d6 02 c0
       -3.9101696088013016 -2.354922119601469
000030 a9 36 6f 88 90 d3 07 c0 3a bf 4a 81 41 68 dd bf
       -2.9783030184688255 -0.45948827387018165
000040 9f 29 57 bf e2 12 f6 bf 72 ce 10 0b 84 67 f8 bf
       -1.3796107744443373 -1.5252724106075246
000050 c0 9d 8f e7 ee 9d f0 bf 75 6e 2f 23 14 be 04 c0
       -1.0385579152442546 -2.5928118466234147
000060 0e 19 f3 35 8e 28 e3 bf 8b 14 a8 a5 a5 08 f8 bf
       -0.5987006238654276 -1.5021110983809958
000070 56 fd 09 e1 5e 4f ff bf 94 8d 9f 42 53 f7 0e c0
       -1.956877593096427 -3.8707642750684474
000080 89 a5 b5 83 94 f5 7f 3f 4a 4f a6 56 bd 7d 8a bf
       0.0078025628421100135 -0.012935141760671027
000090 83 31 13 b4 cf dd 07 c0 0c 7b 8b 50 7f a0 07 c0
       -2.9833063190801012 -2.953367833382236
0000a0 ac 76 38 88 15 32 f7 bf 85 49 2f 44 6c ec ee bf
       -1.449727565871778 -0.9663602191670156
0000b0 49 92 ad 49 49 c6 0c c0 05 e8 a8 70 54 12 78 3f
       -3.5968194728941723 0.005876855701496102
0000c0 18 0b 9d c9 30 91 cc bf 6b 29 d1 fd a9 76 02 c0
       -0.22318086475760235 -2.3079414205032456
0000d0 4b c9 f0 c5 10 8f 10 c0 e0 41 e5 75 50 6b f8 3f
       -4.1397124222006125 1.5261997800154106
0000e0 64 88 f3 c2 68 13 f4 bf 88 1e 9b 32 fd 3e 04 c0
       -1.2547385802540925 -2.530756373747696
0000f0 c8 8f e4 5b f1 d7 85 bf d3 db dd 5e 68 bc 8d bf
       -0.010665784470411568 -0.014519515414333306
000100 0d 7a cb 9e cf b9 6e bf b6 81 f8 35 2d e8 12 c0
       -0.0037507109721979293 -4.726734965603489
000110 f6 fb b6 88 4c c2 04 c0 7f 2c 25 6c cb 60 fa bf
       -2.5948725396005967 -1.6486314987585329
000120 ba f7 12 ff 50 d9 f8 bf a6 23 ec c5 c4 8b 61 3f
       -1.5530557597953547 0.002141842196014615
000130 f9 6d 13 d7 b2 4f fb bf e5 5f 45 6c 57 7e f7 bf
       -1.706957664623472 -1.4683450917564127
000140 36 f8 f0 29 cf a6 8b bf 57 f4 50 c3 56 5e df bf
       -0.013501757113882556 -0.49013299058771537
000150 f8 9e 81 1f 73 9c f4 bf 3e a4 11 1c 6a 77 00 c0
       -1.2881957274166194 -2.058307856834772
000160 b0 aa 16 57 4a 47 73 bf c6 e5 d0 bb 57 ea 93 bf
       -0.00470665969025201 -0.01944863399351051
000170 e7 01 1b c3 54 04 5c 3f f4 cc bf 67 39 e9 8e bf
       0.00171001699020234 -0.015093277434039078
000180 59 12 26 22 f4 ee f9 bf 54 a2 fe e6 6d b5 f2 bf
       -1.620838292497089 -1.1692942641476707
000190 c9 5e bc 32 6c b6 f4 bf ea 81 d6 ac 3b 0d 6a 3f
       -1.2945367795818348 0.003180138161681824
0001a0 ce c5 11 92 59 ab 09 c0 91 bf 7c 51 c8 ea 81 3f
       -3.2086669360803404 0.008748593317790017
0001b0 26 52 9b c3 a1 4f 71 bf e2 b6 d0 4c 0b b4 06 c0
       -0.004226333514186586 -2.8379121781534744
0001c0 b9 35 82 78 97 b4 4a 3f 89 7a b5 cc 47 3e 65 bf
       0.0008149852374274492 -0.002593174203567476
0001d0 42 23 21 fa 4e b8 e8 bf 86 ab 3e 9e fd 8b 69 bf
       -0.7724985967007358 -0.0031185105780954818
0001e0 21 cd 3f a9 98 d8 fc bf d4 79 14 7e 89 c6 d9 bf
       -1.802879963998585 -0.4027427417039722
0001f0 55 90 b7 af 78 79 13 c0 6e b8 c9 2b 2e d8 0b c0
       -4.868624444559903 -3.480556814282912
000200 39 4c 3c 05 b8 fe 13 c0 a5 02 34 f1 7f 15 07 c0
       -4.998748857312472 -2.885497936629991
000210 62 7f 8c b2 57 12 04 c0 85 ef 7f 71 9f d4 15 c0
       -2.508956332123419 -5.457639478143283
000220 a3 c5 89 d7 12 1d ef bf 49 ed 18 26 ef 32 11 c0
       -0.9722990236024781 -4.299740405341546
000230 90 a1 f9 25 53 75 12 c0 d9 7d dd 96 57 9e 0f c0
       -4.614574998246454 -3.952315500864398
000240 1d 4c e6 bb b3 40 04 c0 bc 1d 25 85 d4 9d f4 bf
       -2.531592815366379 -1.2885327530837989
000250 61 12 85 1e 26 a0 80 bf 7a 7b 01 97 f9 4e 12 c0
       -0.008117959791556108 -4.577123984780764
000260 7e f8 ed 1f 68 06 f3 bf 51 0c dc a5 41 a1 f5 3f
       -1.1890641448258346 1.351869247330587
000270 72 75 ec 8c bc 77 f5 bf f3 36 10 0a 4b 57 07 c0
       -1.3417325501280541 -2.917623594875175
000280 c9 62 95 eb af 76 80 3f b7 00 7f 19 ad 0e e8 bf
       0.008038877846659702 -0.7517915246935648
000290 42 f7 c1 38 af 0c 50 bf 12 10 e9 d5 2f 46 f3 3f
       -0.0009795867108830102 1.2046354633212144
0002a0 7c cd 96 6a 2a c9 e1 bf fe 12 06 ba 03 94 0c c0
       -0.5558063585107642 -3.5722727330306716
0002b0 2d 57 fa 39 da 94 49 bf 36 30 49 bd 26 af 0c c0
       -0.0007806840476003212 -3.5855231082878403
0002c0 67 70 77 51 0e 67 f1 bf d1 c5 a2 45 aa 44 02 c0
       -1.087660139302011 -2.283527893094949
0002d0 27 25 c6 69 02 3b 98 3f 0e 3d 12 61 c0 6e 6f bf
       0.023662603097851644 -0.003836990109057254
0002e0 82 9f 19 a9 f9 3f f2 bf 75 95 6c 5d 52 56 60 bf
       -1.1406189542267104 -0.0019942864122579015
0002f0 19 fe a7 0b 19 4a 12 c0 16 b1 20 b3 e5 f9 0f c0
       -4.572361166122868 -3.997020148692296
000300 af 00 7f 19 ad 0e e8 bf cf 8d dc ed 5f 6b 80 bf
       -0.7517915246935639 -0.008017301031549543
000310 aa 08 94 15 fa 56 fd bf 20 98 8c b5 93 8d 06 c0
       -1.8337345927143738 -2.8191293891459424
000320 c4 07 20 8e fc 1b 66 bf 62 79 a6 f3 4c 1e 0a c0
       -0.0026988918989454286 -3.2647952113322143
000330 9a d5 19 26 f5 2c a4 bf ac da dc c7 bc c5 30 3f
       -0.03940549936389033 0.0002559266939558362
000340 e3 9f 24 3a f9 72 79 bf 6b b0 90 1a 9f c8 f4 bf
       -0.006213162940447578 -1.2989798581793603
000350 22 8d 11 d6 49 b4 7e bf 8d 9a 00 00 65 05 fe bf
       -0.0074961551882524475 -1.8763170242397422
000360 98 b5 b3 fa 7c 7a 81 bf ee 3f 52 07 89 01 01 c0
       -0.008534408951585346 -2.1257496425605416
000370 6b d1 0a 2d 71 d3 f2 bf 6e ea 55 e7 cc 5c e5 bf
       -1.1766216048682405 -0.6675781744264222
000380 cd 6a c7 6f e1 ca 00 c0 44 94 03 93 6b 69 05 c0
       -2.099062798760633 -2.676474712893226
000390 be 2e 44 bf 7a 29 82 bf 25 de e1 67 0b 5e 00 c0
       -0.008868178331361217 -2.045920192318379
0003a0 78 98 e2 c7 23 8b 10 c0 b1 00 7f 19 ad 0e e8 bf
       -4.135878680424973 -0.7517915246935641
0003b0 b8 52 36 63 33 1c 10 c0 08 2d c2 62 5f 45 69 bf
       -4.027539777937527 -0.00308483724626785
0003c0 f3 97 fe db 9f a8 1a c0 1e f7 2a 1f de 2e 00 c0
       -6.664672315038831 -2.0228846011149377
0003d0 bc 85 ff 61 bc 31 73 bf b4 00 7f 19 ad 0e e8 bf
       -0.004686103697140561 -0.7517915246935645
0003e0 30 67 ab 66 e1 9a 04 c0 fc 28 ba 92 9b 91 52 3f
       -2.5756252308900898 0.0011333483952591919
0003f0 58 87 cb b3 55 54 65 3f 45 4a dc 23 18 12 01 c0
       0.0026036905168077933 -2.1338351060487946
000400 2e e9 ee 9e 5e ad f5 bf 54 d0 17 b8 71 d7 03 c0
       -1.35482656558322 -2.48019737074541
000410 b8 00 7f 19 ad 0e e8 bf cb 6c 52 b7 12 7d 73 bf
       -0.7517915246935649 -0.004757950887461958
000420 a1 30 f9 f5 da 23 03 c0 5a 76 43 63 23 76 74 3f
       -2.3925074783965816 0.00499547789897078
000430 3c ce 1e f0 50 58 0e c0 83 82 11 21 55 5f 09 c0
       -3.7931231269265293 -3.1715490897625513
000440 2e ef b2 81 3b 95 f7 bf 5c bb ee fc 9b 7d fe bf
       -1.4739337030759532 -1.9056663398912042
000450 b4 00 7f 19 ad 0e e8 bf 96 06 53 85 25 0b c4 3f
       -0.7517915246935645 0.1565901661870625
000460 80 0d 6d 06 92 80 8f bf 69 14 43 c2 9f ed 7d 3f
       -0.015381947346787994 0.007306694086030332
000470 34 b8 11 8e cf 22 f2 bf 95 71 c4 c1 b4 60 11 c0
       -1.1334987210825718 -4.34443953286645
000480 5a ab 4f a8 ab de 05 c0 24 06 f8 82 0e e4 9a 3f
       -2.7337258481324342 0.026260592216209258
000490 a2 ef cd cc 44 dc f5 3f 14 56 c7 5c 37 92 0a c0
       1.3662765503095007 -3.321394657929668
0004a0 a3 9a 47 da b8 76 ec bf 87 b8 98 9a 01 6e e3 bf
       -0.8894924414897399 -0.6071784991707013
0004b0 38 4b 6c a9 79 0e 10 c0 b4 00 7f 19 ad 0e e8 bf
       -4.0141359779689125 -0.7517915246935645
0004c0 2c f2 7a c9 c1 e6 fa bf 86 ff d1 b1 1f ad fa bf
       -1.681337153465516 -1.6672665544610665
0004d0 ec 56 a7 2a 72 5f 72 3f 7e 29 8c c6 57 ce 0e c0
       0.0044855556138452095 -3.8507533561252663
0004e0 27 c3 81 b7 f3 b4 02 c0 e0 88 f4 3f 80 59 18 c0
       -2.338355477950603 -6.087403296756946
0004f0 c4 2f ed 22 6a 28 0a c0 fe fd fb 10 32 d8 df bf
       -3.2697336891778566 -0.4975705304968584
000500 e0 9d 0e 16 64 51 78 3f 9c e5 ad 12 d7 ca f6 bf
       0.005936995469631751 -1.4245215158137858
000510 ae 40 7b ec f7 bb 7d bf 65 b0 1d 8f 8e 3d 9a 3f
       -0.007259338810129785 0.02562544582853867
000520 a5 37 ff 1e ae ef 93 3f e0 d8 41 d2 0e f0 13 c0
       0.01946899475279164 -4.984431538838379
000530 eb f1 17 22 29 d0 53 3f 5a f1 37 44 66 a9 fd bf
       0.0012092973414602425 -1.8538572945390883
000540 33 53 7f f7 f4 e1 83 3f f9 de 90 22 47 48 e2 bf
       0.009708322337169761 -0.5713229823222427
000550 94 9b 83 aa 50 2a 10 c0 0b 69 d3 53 fe fe 67 3f
       -4.041323341639231 0.002929207547464623
000560 bf 42 a8 57 12 71 13 c0 05 25 a8 54 80 0e 11 c0
       -4.8604215332458685 -4.264161417734845
000570 17 fb f5 bb 33 b4 0a c0 03 38 d4 e6 48 9b f2 bf
       -3.337989300197829 -1.1629113213307398
000580 9a 53 ed 4b 8b c8 a2 bf b6 00 7f 19 ad 0e e8 bf
       -0.036686280268134655 -0.7517915246935647
000590 ca e0 94 1f a9 58 13 c0 ce b9 72 54 44 ef ec bf
       -4.836582654439733 -0.9042073869111904
0005a0 a8 f7 ea 6a 36 6d f2 bf bc ba a1 4c 77 a5 70 bf
       -1.1516632248380834 -0.004064050686891359
0005b0 35 72 e6 3a 11 81 f5 bf 38 d3 29 8a 56 0a 11 c0
       -1.3440105725086486 -4.260095747759628
0005c0 05 cd 95 0c da b8 ed bf 93 90 d4 82 a1 ed 09 c0
       -0.9288149114421748 -3.2410307141418087
0005d0 81 93 78 74 e1 2d 81 3f c2 85 be c8 f8 d3 6c 3f
       0.008388291708863129 0.0035190447869843664
0005e0 4f c6 fc 28 2c ac 02 c0 16 dc a6 a3 13 85 72 3f
       -2.334068603719778 0.004521443096044761
0005f0 db f4 e8 83 b7 53 01 c0 74 2e 53 11 50 29 10 c0
       -2.1658773713557884 -4.040344496442788
000600 22 6b 22 2b 70 a8 13 c0 87 32 3a 29 48 65 fe 3f
       -4.914490388847101 1.8997270212595667
000610 d3 21 6b b2 f6 21 08 c0 ce b6 3d bd a9 0c 0f c0
       -3.0165838183349734 -3.8811831268747943
000620 cd f1 3a 26 53 71 80 bf 60 45 85 e9 3d 44 f8 bf
       -0.008028649906344132 -1.5166606065652886
000630 94 ef 1c e4 38 05 11 c0 76 49 fb 82 f4 31 0e c0
       -4.2550998346959155 -3.774392150205297

linear_afunc_stack.2.weight f8 [200, 200]
000000 1d 43 63 a2 c4 6a d7 3f 15 70 a1 27 80 a4 e1 bf
       0.36589160783937463 -0.5513306402240256
000010 ff a0 92 ad 07 37 e7 bf 0c a7 7e 09 00 e9 db bf
       -0.7254675283520838 -0.4360962002489124
000020 62 e7 3c 95 78 65 ea bf a0 e8 a4 31 fa 0c bc 3f
       -0.8248865999987454 0.10957301818862897
000030 f3 2f 3b 68 34 c5 b3 bf 61 27 b5 2b 88 2f d4 3f
       -0.0772278551550583 0.3154011179764123
000040 54 9c 82 9e 62 ce 66 3f 1d a1 fb bf f3 c4 c4 bf
       0.0027839590221279496 -0.16226050256887783
000050 48 3e aa f2 18 4e 9c bf 4a b2 5b 23 55 e7 c6 3f
       -0.027641668139550185 0.17893470980142673
000060 f0 32 14 85 6f 42 d6 3f 96 d6 2c 78 a5 23 e2 3f
       0.34780490871416614 0.5668513629122625
000070 cf 48 fe 87 b7 e4 c1 3f c9 4b f7 02 ca 21 cb bf
       0.13979238643930222 -0.2119686617357657
000080 43 2c e1 33 3d 59 d8 bf a0 46 46 a1 04 54 dc bf
       -0.38044672075620073 -0.4426280569979131
000090 22 61 34 cd f4 63 c5 bf 00 3e c5 db 73 84 ce 3f
       -0.1671129228568669 0.2384171317194017
0000a0 44 cc ca aa 3d 7d dd 3f 74 08 6e da ce 65 d4 3f
       0.4607690971271874 0.318713868437164
0000b0 d1 03 02 28 11 67 dc 3f 76 d6 2a 80 04 50 c4 3f
       0.4437907114698279 0.15869194276972437
0000c0 f0 0f ae 34 95 d6 d4 bf c4 df a4 76 ad 4c d5 3f
       -0.3255970968677948 0.3328050287850568
0000d0 37 6a 08 17 37 5a e8 3f eb f6 76 81 40 72 ec bf
       0.7610125970707661 -0.8889467743499301
0000e0 8d a1 0c 9c 3d fe e0 3f 5a fd 72 9e 6e 0b be 3f
       0.5310352371061967 0.11736194008243697
0000f0 4d 85 aa 24 24 61 b2 bf 0e 4c ff f5 03 9f a2 3f
       -0.07179475684326526 0.036369441775285435
000100 25 6f 6c 80 e9 40 c0 bf 92 a8 99 fc 1c a4 a5 3f
       -0.1269809605663507 0.04226770957468874
000110 ce 9f 58 e1 55 20 df 3f f1 de 60 7d 7b 5d d3 3f
       0.486348600449216 0.3025807117842155
000120 64 2e c1 b9 99 9c c6 3f 42 97 9c a6 d0 95 d8 3f
       0.176654067707534 0.3841439845149247
000130 49 f4 68 6e 95 6e b4 3f 42 46 f9 e7 15 82 c5 bf
       0.07981237359577266 -0.1680323965725155
000140 1b 12 e1 ed 76 7f c7 3f df 0a 7a b7 30 d6 d2 bf
       0.18357740988916835 -0.29432313840531593
000150 72 9c 81 47 f6 17 c2 bf ca c2 3c d4 74 36 da bf
       -0.14135626307981713 -0.40957375265410845
000160 1c 73 7d 35 20 da de 3f 77 b6 6b ff 39 92 ce 3f
       0.48206334327351086 0.23883748027531101
000170 67 0d 99 0d e6 99 df bf f2 67 e3 ea b2 53 97 3f
       -0.49376822784343805 0.02278022345203818
000180 a2 60 d6 d2 4c 70 db bf 31 2e d1 0e 50 f0 d8 3f
       -0.4287292536696531 0.38966752478583816
000190 f5 03 53 3a f9 f2 ae bf 37 09 51 8f 3d 1c de 3f
       -0.06044749104467676 0.4704736613822606
0001a0 ac 60 4d 2b 92 18 bb 3f 53 9a e8 3d 30 29 e1 bf
       0.10584367329772942 -0.5362778863098562
0001b0 55 06 92 a4 df 22 e1 3f d5 10 00 6c 22 ce bb 3f
       0.5355070318475535 0.10861411225056668
0001c0 14 97 b3 ec cb be 88 bf 92 ac 55 05 d7 c0 cd 3f
       -0.012082665597016574 0.23244750748140014
0001d0 9b e7 38 14 1c 44 ce 3f b1 9c 76 eb 16 79 ca 3f
       0.23645354258934223 0.20682035920365174
0001e0 6b 3d 4b e9 b5 83 e9 3f e3 5a c6 d1 7d 06 e1 bf
       0.797327953006897 -0.5320424172558343
0001f0 8a ac 12 8f e6 82 d2 3f d0 b2 57 69 4b 34 b8 bf
       0.2892395398327571 -0.09454795190658705
000200 91 fe 36 7d c2 2b c4 3f 3d c5 7f 6a 76 bf c6 3f
       0.157585440769243 0.17771797371055156
000210 44 03 ef bd 9a 09 e2 3f 11 c9 7c 11 a4 05 d0 3f
       0.5636724195138432 0.2503442927146731
000220 61 4c 45 b6 1b c1 c4 bf 33 2b 14 13 69 f5 d1 3f
       -0.16214319610535013 0.28060366500055806
000230 03 e1 f2 c8 40 14 da 3f 45 d3 d5 cc 4e 42 d5 3f
       0.4074861490621659 0.33217210772936695
000240 cc 55 13 75 00 57 a4 3f 50 df 10 05 a8 6f de bf
       0.03972627095360401 -0.47556496138303306
000250 8c 88 60 1f 04 f7 97 3f 27 66 0f 44 60 5e c3 3f
       0.02340322915564079 0.1513176281285251
000260 03 4e e3 cf 02 e0 e5 bf 01 8c 98 c5 66 ab ed bf
       -0.6835950908957219 -0.9271730288786558
000270 2d e2 91 0c cd dd a9 bf 4e 1b f9 52 7c 30 e1 bf
       -0.050520332130819724 -0.5371686573570089
000280 34 54 25 9b 33 e8 a6 3f 22 a5 ba 38 29 6b be 3f
       0.04474030751104188 0.11882264742839202
000290 80 b0 81 c8 40 bc c9 3f 63 4b 56 90 eb 9f f2 bf
       0.20105752745019245 -1.1640430105369084
0002a0 9f 35 47 40 08 ad c4 3f ad 6e ec 49 f7 8e e2 3f
       0.16153052462179304 0.5799519008464437
0002b0 b9 a5 95 7b bc 16 ea 3f 1b 11 9c a0 e7 0e 99 bf
       0.8152754224549233 -0.02447091977866576
0002c0 5a b4 47 0d d7 fd d1 3f 3a e7 e9 93 6c be c5 3f
       0.28111816689380975 0.1698737833246982
0002d0 c0 91 4b a0 2f b0 aa 3f 63 54 54 94 1c b3 a1 3f
       0.05212544280746867 0.034569638353936914
0002e0 35 68 82 51 8d 43 d3 bf 5f d8 a0 23 60 6e d7 3f
       -0.30099804839995 0.3661117885525353
0002f0 08 a0 ac fc a1 f1 d7 3f ca 73 54 0d c8 d9 d4 3f
       0.3741230933687807 0.32579232503649946
000300 b9 32 9b cb 31 5a d4 3f 10 ed 98 c6 7e a6 ba 3f
       0.31800503619596615 0.10410301540916955
000310 05 e9 c8 93 8a 08 e7 bf 11 7c 88 2e 67 fd 8e 3f
       -0.7197926412984833 0.015131765468195753
000320 8c 35 e7 10 d3 91 c9 3f a6 7e 93 b9 e7 b9 b0 3f
       0.19976270985936784 0.06533668785732036
000330 13 9d b6 ca 6a 80 e2 3f ad 27 a6 08 d1 f2 c8 3f
       0.5781759223217783 0.19491017267529057
000340 7e 4a 65 46 56 c2 bf bf 90 17 b5 aa e2 2c b5 3f
       -0.12405909746784435 0.08271614711438091
000350 3d f8 ef f9 bd b8 d9 3f 96 90 f7 7e 70 84 f9 bf
       0.4019007626337759 -1.594833847012557
000360 4c 95 5d e8 17 e0 9e 3f 50 6f 56 b2 3d 55 b2 3f
       0.030151723439663144 0.07161317447611038
000370 62 23 06 53 95 9d cb bf 2f 9e 3e 31 d1 e3 b7 3f
       -0.21574656061082026 0.09331996395359775
000380 27 e2 70 7c b6 ba dd 3f 3e fa 7d 09 a1 3b d2 3f
       0.4645210471385632 0.28488946845019203
000390 16 3f d6 21 88 c8 dc bf e4 00 d1 f2 3a 33 da 3f
       -0.44973948768982674 0.4093768473867512
0003a0 33 0e cc ed 2f 18 e7 bf bf 30 46 a9 61 26 e0 3f
       -0.7217025417780348 0.5046852403770784
0003b0 f1 c7 3e eb 09 28 c3 3f cb 6a 9d 8c 7d 5c a8 bf
       0.1496593855532065 -0.047580645956903554
0003c0 ed 80 ba b8 17 b5 b7 bf a4 3d e5 3d 14 3e cf bf
       -0.09260700473760482 -0.2440820028518661
0003d0 52 d6 36 df 22 dd d8 3f cf a7 51 92 08 1c c9 3f
       0.3884970836473701 0.19616801399689485
0003e0 23 45 46 a8 e1 f0 d8 3f 75 00 a4 9d 67 db e4 bf
       0.3897022383981314 -0.6517828062933534
0003f0 06 15 f1 21 9c cc e4 bf 83 60 c2 e0 ea a8 a0 3f
       -0.6499767935680729 0.032538738190113235
000400 af b2 0b 17 82 f0 d8 bf 55 38 62 05 97 69 db 3f
       -0.38967945337825943 0.42831969762562966
000410 47 d8 c9 ff fb 20 c3 bf 02 88 15 63 d9 af c0 bf
       -0.14944410314245912 -0.13036649072734013
000420 4b 96 be 7f bb 67 c0 3f 6f d7 60 56 fc 18 d3 bf
       0.12816566216968037 -0.29840000567798247
000430 54 a4 81 87 46 00 aa bf 1e a3 12 fc 2b 68 d1 bf
       -0.0507833519375899 -0.2719831430099918
000440 2b 27 38 ae 73 d6 de bf 8c 40 b8 bb c1 3a e3 bf
       -0.4818391038285081 -0.6009224573517868
000450 68 f1 07 df 2a 03 df 3f 4b 09 09 cd 33 c5 97 3f
       0.48456832676290285 0.023213204755174115
000460 82 84 66 c5 72 a6 e0 3f 0f cd a4 49 1e cc d3 bf
       0.5203183989980433 -0.3093333930184636
000470 e4 1f 24 fb 56 2d bc 3f 8f 8c 22 a6 0b 44 da 3f
       0.11006682998060985 0.41040316795460624
000480 99 1c e5 6f 76 73 9a 3f b3 04 22 21 fe f2 ac bf
       0.025831080035712082 -0.05654138712362435
000490 dd 90 3d f4 53 ac e9 bf 97 df 11 b2 87 6f c2 3f
       -0.802286126167498 0.14402862734618502
0004a0 fe 51 a6 e1 f8 13 b9 bf 0c f1 a3 38 b0 86 b4 bf
       -0.09796100148225403 -0.08018018133947552
0004b0 36 4e 37 3f 77 3d c4 bf a0 51 17 f3 da 64 d1 3f
       -0.15812578760834278 0.27178071727146325
0004c0 29 5e 28 a8 d5 7e ca bf 5f 56 61 59 d5 2f c0 bf
       -0.2069956847269492 -0.12645975937145956
0004d0 9d 9c be b3 0d dc ae 3f 0e fc 3f a5 2e a7 8c bf
       0.060272625152088845 -0.013990749757793377
0004e0 35 c4 2f bb 66 d0 d6 bf ff 31 91 e1 5e b9 e7 bf
       -0.3564698055261631 -0.7413782506569645
0004f0 3e a2 2c 62 0d 87 59 bf 42 b4 c2 fc 02 47 d9 bf
       -0.001558077878778388 -0.3949592083325265
000500 08 c4 bb 74 5c f0 d3 bf f1 70 3f 24 15 44 e2 bf
       -0.3115454807257838 -0.570810862347143
000510 f5 77 d7 ad fb 7b da bf d0 a9 5a 53 ae 36 c7 bf
       -0.41381732918478004 -0.18135623044993432
000520 be d2 5a 2c 23 a6 d5 3f 3b cc 9d 7a 2e 86 df 3f
       0.33826522189637476 0.49256479238755774
000530 4e 8e 0c 3a 4a d7 8e bf 16 5f f9 6b 87 77 c2 3f
       -0.015059070488468464 0.14427273533032609
000540 f6 a5 0f cb 3b 53 e4 bf bd 6b d3 ad 75 56 f2 bf
       -0.6351603475606555 -1.1461083211968195
000550 18 dc 2d 48 51 02 c9 3f 88 f0 11 38 bd c7 c5 bf
       0.19538322471973468 -0.17015805471226408
000560 3f 1d 09 f5 a8 ef d0 3f 6f af 88 f2 fc c5 d8 3f
       0.26462768487222726 0.38708423314050483
000570 4f 8d 12 fb 93 9b d2 3f a9 87 54 63 8d dd ec 3f
       0.2907457305793359 0.9020449581187125
000580 14 57 57 43 cf 23 f0 3f bb f9 f0 a7 75 4e cc 3f
       1.0087425833239125 0.22114439678439432
000590 b8 d6 32 47 9d 09 e8 3f fa 47 63 f6 69 7e d0 3f
       0.751173628864044 0.25771569310484177
0005a0 6f f7 09 5c 3c ef b7 bf cc 02 bd 2e c2 d5 e3 3f
       -0.09349419829410775 0.6198435700281038
0005b0 7a b4 67 19 3c 5c a5 bf 4e 93 4e b3 e7 01 e1 3f
       -0.041719320393760875 0.531482553681238
0005c0 31 18 ba a6 65 b6 e5 3f 8b 09 b5 82 99 f0 9e 3f
       0.678515267981089 0.03021468982957169
0005d0 f0 29 50 48 43 30 a3 bf e7 53 5e ae fe a9 e7 bf
       -0.03747759111145743 -0.7395013242372642
0005e0 b1 00 34 2c 33 23 c8 bf bd 77 66 9a 94 44 df 3f
       -0.1885742154918311 0.48856082037115894
0005f0 50 69 db 4d bb ba c4 3f 21 21 db a5 77 42 c1 3f
       0.1619485979234221 0.13484092329441302
000600 3e 96 6b ab af 2a dc 3f 40 85 f3 7a 40 2e f3 bf
       0.44010535946140183 -1.1987919619353562
000610 8d 9e d5 a4 68 3a 5f bf 37 30 b7 81 72 b1 d4 3f
       -0.0019060155785498884 0.323330523181315
000620 fd b8 09 37 7f fd e7 bf 4b d5 be c9 87 fa d3 3f
       -0.7496944498978163 0.31216616346076326
000630 2a 54 64 b9 ec de ce 3f cc cf c7 2a a1 d3 da bf
       0.2411781220659191 -0.41916684320244424
000640 00 5b a9 38 1e a6 e3 3f cc fb 32 42 69 70 ce bf
       0.6140280825300977 -0.2378055165517864
000650 d4 5c 64 0b 7a 63 c6 bf 07 ed dc 2e 17 8d d7 3f
       -0.17491078907253288 0.36798648430313147
000660 92 ce 42 b1 15 b3 d7 3f d0 d7 a8 e0 b8 5e d1 3f
       0.370305464846049 0.2714063829365587
000670 fa fc 16 21 62 37 a9 bf a4 18 c9 e4 d2 99 c6 bf
       -0.04925066617897218 -0.17656932994049612
000680 3a 34 e1 b4 6e 2f c2 3f 04 9a 05 11 8c af b0 bf
       0.142072523422401 -0.06517863669942164
000690 69 19 88 1a 13 a2 c3 3f fc 58 9c 5b 71 c5 e4 3f
       0.15338362498750804 0.649101904799664
0006a0 0e 9d 01 a5 3f 8b cb 3f f5 bb 22 3e a8 1e b1 3f
       0.21518703038166404 0.06687404171928775
0006b0 02 9c 81 b2 20 4f ea 3f 9a 55 cc f2 b6 21 db 3f
       0.8221591459704316 0.4239327784610737
0006c0 d6 88 98 31 66 0f d3 bf ad 2b bc d8 f1 1e b4 3f
       -0.29781489222854185 0.07859717885382507
0006d0 2e fd c9 fa 72 6d aa bf b0 b8 d8 8c c2 bc c2 bf
       -0.05161628066434286 -0.14638549687646707
0006e0 ec 00 b6 17 b2 cd dc 3f af 98 6c 06 72 32 d9 3f
       0.45005466762087454 0.3937039435135245
0006f0 5c 41 45 fe 17 c2 df 3f 5b 3e 75 3a ac c7 ce 3f
       0.49622154074770264 0.24046852926629722
000700 67 c7 12 3c 18 3f b8 bf ba 7f 74 4e 6a 3b 91 bf
       -0.09471274820933005 -0.016828213728444764
000710 96 2e b0 d7 13 f0 e3 3f 42 7f 6d b4 a6 c2 76 3f
       0.6230563366566055 0.005556727591141288
000720 69 a1 65 3a 9b 87 df 3f ab c4 3a e3 3c 36 e3 3f
       0.4926517553599497 0.6003708303525362
000730 0e a4 83 b4 92 51 c8 bf 13 8a 0c a5 f4 e7 d0 3f
       -0.18998941244288442 0.2641574489408935
000740 13 3e ba fd a1 3e c6 bf ab 88 46 24 9d 3f d3 bf
       -0.17378640069044646 -0.3007576803448823
000750 8c c6 47 48 0f 7f e4 3f 12 7c 2d 75 e6 d2 ca 3f
       0.6405102168775598 0.2095611641079534
000760 42 7c 74 c6 bb 2b e4 3f 7b 08 b3 60 0a d4 d7 3f
       0.6303385616373662 0.3723169273690769
000770 58 cb 7f 56 74 4a e4 3f 70 e9 84 82 03 24 da bf
       0.6340886773526604 -0.40844810243620255
000780 eb 3d 2d 9d 1b a2 d1 3f e4 0b 8c f3 1c 0c 85 bf
       0.2755192789963689 -0.010277010138002703
000790 3a 86 a2 25 e0 c5 98 bf 2a e2 26 1b ab 7b d3 bf
       -0.024192335412072753 -0.30442311908294306
0007a0 c5 e5 97 9c 25 9c d9 3f aa b9 aa ca 36 99 d1 bf
       0.4001554517013484 -0.2749764422577764
0007b0 bc 34 93 c7 7a 12 c5 bf 9a eb a9 18 3a bd ca 3f
       -0.1646264528739375 0.2088997478893731
0007c0 a9 02 72 1d a3 05 de bf ba 58 92 9b 32 db 9a 3f
       -0.4690940654327656 0.02622679781469437
0007d0 1f 7b 5e 9e d7 8a c6 bf 5d 42 6d 1f 88 e1 d8 3f
       -0.17611212952484664 0.3887653643514904
0007e0 fb e8 26 78 ef 7b d3 bf bb be 5b ce b8 00 b2 bf
       -0.3044394181594183 -0.0703235153011929
0007f0 0b b6 52 a8 aa 6d c6 3f 1b d7 36 59 f1 1a d7 bf
       0.17522175997639552 -0.3610194560272803

linear_afunc_stack.2.bias f8 [200]
000000 c5 66 b5 34 7f 03 d8 bf b9 cd 55 e2 cb 73 f0 bf
       -0.3752134337170044 -1.0282706109254447
000010 c2 d8 d2 1d 48 0d fb bf a6 b6 3a a5 ab a7 03 c0
       -1.6907426037774234 -2.4568703564207963
000020 7c 0d 4d 74 cc 72 f2 bf fc e1 0a d2 fd 62 85 3f
       -1.1530270140654855 0.010442717525948268
000030 a1 84 c8 a9 6d 06 f3 bf 18 92 1c f6 42 c4 f7 bf
       -1.1890694267424708 -1.4854154218420543
000040 9e 5c a1 7e b6 b3 f8 bf 0d 60 f9 3e 38 47 f3 bf
       -1.5438752123352866 -1.204887624733604
000050 40 a4 2f cf 68 2c f1 bf 03 84 7a 0c 49 f1 f3 bf
       -1.0733421414572746 -1.246407555336419
000060 ae 5b a7 58 1a d6 ea bf 2e f3 f2 bd 31 f3 e6 bf
       -0.838635609771577 -0.7171868047658785
000070 1e be 55 f2 3e 76 e5 bf 2d 69 13 f8 41 5b fb bf
       -0.6706843121627946 -1.7097797098600254
000080 39 b1 16 1c 21 f8 f3 bf af 94 a1 b1 4c 86 e9 bf
       -1.2480784508907858 -0.7976439923628699
000090 48 cc c7 ec e3 c4 f5 bf fa 0f 51 76 ff d0 e4 bf
       -1.3605689286457778 -0.650512438857276
0000a0 d8 a7 d9 f8 a8 6d d9 bf bd ee ba 33 81 c3 f3 bf
       -0.39731811811236417 -1.2352306385718486
0000b0 d6 af 1e c4 16 1f ef bf 9a 4b 54 24 26 ad a4 bf
       -0.972545035406706 -0.04038352197144164
0000c0 10 c8 24 da a9 02 df bf ae 3c 9e 21 e9 e2 f9 bf
       -0.4845375662144997 -1.6178981126029544
0000d0 b1 2b ec e8 f7 39 ee bf 78 f5 ba 37 bb 80 00 c0
       -0.9445762204426186 -2.062857089417488
0000e0 76 90 53 1e 0d f9 a1 3f a6 14 11 5b dd 7c fd bf
       0.03510323519893259 -1.8429845387738992
0000f0 e8 6f 4e f7 11 6c ef bf aa cb eb 5d b9 da f2 bf
       -0.9819421606257466 -1.17839943588181
000100 47 79 e4 5e 68 9b f5 bf e4 5e 90 96 b2 71 f8 bf
       -1.3504413325059248 -1.5277582055477348
000110 a6 25 4b 75 ec 5f 00 c0 e3 a1 23 3b 5e 96 f9 bf
       -2.046837726932341 -1.599210959446389
000120 1d c1 fd 9d 98 3e f1 bf 72 f8 c6 a3 3a 2a f9 bf
       -1.0777822658092824 -1.572809829478072
000130 7b 91 6b 01 06 a7 f3 bf e9 4c 33 ad db 2b e8 bf
       -1.2282772117115133 -0.7553537733860171
000140 77 4c 70 9a b1 c7 e9 bf 0d 72 b9 62 ad b5 fd bf
       -0.8056266800289354 -1.8568548065587749
000150 56 e8 a6 b7 db 8c f1 bf a3 f6 6a 15 07 02 fc bf
       -1.0968892263322423 -1.7504950367578338
000160 89 28 cb 84 87 44 f7 bf 5e 16 33 ce 30 95 f1 bf
       -1.4542308032273772 -1.098923497645408
000170 bb 52 26 9a f6 94 e7 bf fd c9 69 c0 eb 4e ee bf
       -0.7369339953171087 -0.9471338995047628
000180 74 e7 7f 72 89 e6 f4 bf da 7c 8c 05 f7 f5 07 c0
       -1.3062834236756915 -2.995100062703938
000190 38 e4 d1 64 7f 4c f5 bf 01 46 61 c7 ed 80 e6 bf
       -1.3311761797215365 -0.7032383817806364
0001a0 d5 93 6d 77 18 03 e0 bf e3 4a 34 39 8c 51 f4 bf
       -0.5003778774813507 -1.2699091181318003
0001b0 98 96 58 e9 1b 3b f7 bf 1a 00 68 45 a4 2b 00 c0
       -1.4519309153633113 -2.0213094160426524
0001c0 fe c5 6d 82 63 6d f6 bf 2e b6 58 2a 4f 71 e7 bf
       -1.4017062277674763 -0.7325816943245564
0001d0 95 5a d4 71 ce ed ec bf 4c 3b ce 38 59 20 f4 bf
       -0.9040291045410692 -1.257897588631482
0001e0 12 47 85 b2 b1 b3 f3 bf bf 95 ce 07 92 91 f5 bf
       -1.2313706372701216 -1.348039656158434
0001f0 47 6c cb 83 5b 28 b7 3f 17 a1 71 d7 85 02 e7 bf
       0.09045955627100098 -0.7190579612625098
000200 14 3b 09 60 28 e7 e6 bf b5 36 b6 b5 1b 05 f1 bf
       -0.7157174945549252 -1.0637471292606453
000210 57 6b c6 48 ac 56 f6 bf fe 95 17 44 11 bb f0 bf
       -1.3961603968407041 -1.0456707630013393
000220 11 34 fc b2 87 b0 ee bf 30 a6 2a cb 3e d8 f0 bf
       -0.9590490814022151 -1.0527942596621749
000230 ed ed 84 8a dc 1e f7 bf ab a5 73 cb f8 7b de bf
       -1.4450345431240479 -0.4763166415055717
000240 2a c5 89 a4 1a 47 d2 bf ba 50 a3 a7 fb 57 f1 bf
       -0.28558984821491384 -1.0839802311284488
000250 cd 05 3b 93 18 b3 e1 3f d6 7b 38 fa 00 a3 ec bf
       0.5531123042675802 -0.8948979270097606
000260 e8 2e 8d 61 70 5c ec bf 2f e2 7f 94 7a ae fa bf
       -0.8862840562155414 -1.667597370220516
000270 7f 5b b1 48 8f f4 f1 bf 98 3a 3b db 44 28 ee bf
       -1.1222069587290375 -0.9424156457769923
000280 f8 31 36 04 3b d5 ff bf 89 75 49 51 dd df e2 bf
       -1.989558235599473 -0.5898272121082054
000290 b8 cd f7 29 1b eb fd bf 0c fa 08 57 7c 88 e7 bf
       -1.869898952424462 -0.7354108524230596
0002a0 0a b3 8e 32 11 20 e0 bf 63 cb 5d 14 75 ba e4 bf
       -0.5039144504022215 -0.6477609060078574
0002b0 df 29 81 60 03 5a fa bf c9 9f d2 2f 0c 29 f5 bf
       -1.646975876780395 -1.3225213878704258
0002c0 32 f5 10 0d 28 db ee bf 30 d0 af c6 15 ca d1 bf
       -0.9642524962615993 -0.2779592933941357
0002d0 2f b1 e8 78 b7 12 ea bf 41 b8 f7 82 ec cc e8 bf
       -0.8147847520354271 -0.7750151212656037
0002e0 59 31 b7 d4 d0 27 00 c0 09 dc 51 fb 26 34 ea bf
       -2.0194412821203227 -0.8188662441815505
0002f0 50 fa f7 8f 33 be da 3f 19 d4 4b 08 c2 a2 f9 bf
       0.41785897311630027 -1.6022358249731552
000300 f3 85 5f 52 6f 05 f0 3f 70 ea bc ca 62 2d ed bf
       1.0013268678379716 -0.9117902717328672
000310 4a 3a af e7 64 b7 e5 bf c6 b5 40 a5 af 00 fd bf
       -0.678636982449299 -1.8126675086199255
000320 6d d6 5f 01 5a 46 f3 bf eb e0 a4 be 6c f6 e1 bf
       -1.2046756795583875 -0.5613311503903139
000330 2f 54 5c 8b d9 2b fe bf 69 a8 4a 1a 74 df ed bf
       -1.8857055133605731 -0.9335270417698328
000340 10 c0 85 46 23 c8 e0 bf c8 a5 0a 72 91 db 02 c0
       -0.5244308831588587 -2.3572110089778313
000350 07 75 e2 47 25 59 d4 bf c0 e7 72 5e 24 1c e2 bf
       -0.3179410173414258 -0.5659353108123852
000360 4e 24 d3 04 2a ba f3 bf e6 a9 38 61 8b ee f0 bf
       -1.232950228544968 -1.0582383916577043
000370 9d 45 ac cd af 6a c4 bf 0b 74 02 9f f2 bc 02 c0
       -0.1595058206808461 -2.3422596380828558
000380 06 48 f9 d6 39 6d 06 c0 8a 7a 58 2a e5 c5 f7 bf
       -2.80333297680136 -1.4858142522931836
000390 30 64 ee 6e ba ae ce bf 67 23 36 e0 13 b6 f0 bf
       -0.2397072831779794 -1.0444525488148544
0003a0 4c 1b c9 68 dc a0 ef bf e4 61 6d 83 e5 8c ef bf
       -0.9883863493531435 -0.9859492842616047
0003b0 b8 61 8b 30 33 97 f5 bf 78 aa fe 7a 2b 37 f6 bf
       -1.349414052607342 -1.3884692005618984
0003c0 60 1b 13 ce 75 5d ea bf 66 ef a3 6b 85 ba dd bf
       -0.8239087128539317 -0.4645093489814286
0003d0 ba 33 dc 49 73 57 e7 bf d1 5b 0a f0 c3 73 f4 bf
       -0.7294250910359701 -1.2782630325871092
0003e0 2e 25 6f 9b d8 97 e2 bf 80 b4 16 04 1c 88 d3 bf
       -0.581035903532358 -0.30518246077810574
0003f0 1e 20 6c 55 74 ef fe bf 12 40 94 be 40 87 ed bf
       -1.933460553818811 -0.9227603647468661
000400 78 ec 77 a1 e4 94 eb bf c7 5b d9 ee a1 39 e2 bf
       -0.8619254258804991 -0.5695352234860075
000410 dc ae 9c d4 5a 1a fc bf 71 34 69 3f 70 a6 e3 bf
       -1.7564342789800582 -0.6140671957488292
000420 e6 9f 96 48 fc 8c f9 bf f5 f4 3f 2c 50 61 f8 bf
       -1.5969202838405123 -1.5237580994137805
000430 94 0c de a9 28 4b d9 bf 8d 48 f2 c1 a3 bc f3 bf
       -0.3952123316632392 -1.2335546089202893
000440 de f9 69 91 36 ad f3 bf f7 04 39 69 c6 fd dc bf
       -1.2297883682473336 -0.4529891994062178
000450 20 71 a9 83 0a b1 e3 bf 9e bb ec 4f 28 a8 f2 bf
       -0.6153614589234486 -1.1660540697155066
000460 7a 12 d0 e7 48 d4 ee bf 82 93 fc 52 01 f9 f2 bf
       -0.9634136703103444 -1.1857922784485884
000470 a0 2f 49 86 f2 7b f1 bf cd c4 69 f5 f8 8c f0 bf
       -1.0927605863134673 -1.0344171129657298
000480 cb 9d b7 c2 11 94 f7 bf 83 fd 5e 5f 5c af f1 bf
       -1.4736497503416668 -1.1053127026969782
000490 3c 0e 9e b2 95 cd f3 bf 37 6d 49 52 c7 c7 f6 bf
       -1.2376915909998294 -1.4237740721062673
0004a0 40 f6 25 bf 90 bb e0 bf aa b7 86 9f 45 c9 ec bf
       -0.522896169029714 -0.8995693317171931
0004b0 35 af c0 63 ac a1 f0 bf dc 5b 13 7d d2 52 ff bf
       -1.0394710442150885 -1.9577202687994406
0004c0 60 c2 f4 1c 4f 7e f4 bf fa af ee 9b 4c c9 f0 bf
       -1.2808371668908407 -1.049145325766402
0004d0 7f a4 e7 a7 fc 6f e8 bf a5 fc 5a c5 7f ea d7 bf
       -0.7636702803985286 -0.3736876895236015
0004e0 3a 0c b2 3a 91 ef f0 bf 26 66 1f 63 84 fa f5 bf
       -1.0584881108086521 -1.373661410520421
0004f0 fe d3 d1 cf 23 8b e4 bf 21 e8 d2 4f dd 16 e9 3f
       -0.6419848498322833 0.7840410765704783
000500 4e 01 fb f9 a8 b4 e6 bf 4b ce 16 5a 8f ff e1 bf
       -0.7095532305175227 -0.5624462852051207
000510 3f 2a 52 05 71 51 e8 bf 09 a9 9a ec 19 09 f0 bf
       -0.7599415878224319 -1.002221988902024
000520 29 40 05 e3 2a c1 01 c0 fa ec 4d 98 7f 39 ff bf
       -2.219320081327187 -1.951537699641277
000530 9a 65 46 6f b3 9d fc bf 51 c0 04 16 d7 49 e6 bf
       -1.7885012003592693 -0.6965136938142767
000540 84 fd a9 82 a8 a9 f7 bf 2c 8e 53 d6 f4 15 e8 bf
       -1.4789204696715794 -0.7526802240431087
000550 2e e2 ee 23 da f2 fd bf c0 ec 7f 8b d9 e3 f4 bf
       -1.8717900661123497 -1.3056273888785626
000560 4f 19 ae ab 5f dc e8 3f 0d ca e0 78 bd 4f 07 c0
       0.7769010880590858 -2.9139356082535017
000570 a5 86 6d 05 10 d3 e4 bf 3b 12 5e 24 5b a9 dc bf
       -0.6507644754421632 -0.44783667136679
000580 11 eb ac 80 9d 15 ff bf 22 df c4 f9 8e cf f6 bf
       -1.9427771593461254 -1.425673461590073
000590 42 0c 05 a5 02 a2 f3 bf d5 a4 96 a0 a6 5d f2 bf
       -1.2270533033449884 -1.147863986300128
0005a0 99 f4 3b 62 21 d8 f0 bf db 6e a8 7c 36 d4 fd bf
       -1.0527662122033574 -1.864309775300106
0005b0 77 92 4c f3 e7 18 fd bf 04 f9 e1 4f 7d 2f 04 c0
       -1.8185805801269035 -2.5231882325016404
0005c0 8e 11 dc 9c 8b be e0 bf 8e 2e db 07 ef 8a d5 bf
       -0.5232599319138431 -0.33660484091954224
0005d0 c0 07 4b 4f 89 6f e8 bf b5 32 74 13 cf de f4 bf
       -0.7636152790730577 -1.3043967018049163
0005e0 0f 85 14 86 f1 55 f0 bf a2 2d 0d f3 18 1d d9 bf
       -1.0209822881227557 -0.3924009679364763
0005f0 05 d0 4b 76 be 28 f6 bf 02 b5 9c a1 02 ce e5 bf
       -1.3849472638075906 -0.6813977390753794
000600 b6 a7 41 ff f7 8a f2 bf 71 5c df e8 25 63 f6 bf
       -1.1589279147105862 -1.399206075342388
000610 82 aa 18 39 11 73 f7 bf a6 62 cf d3 50 de e4 bf
       -1.4655925970388641 -0.6521381508747097
000620 93 ed 68 8d 8b 47 eb bf 71 ca e8 02 bc bd f9 bf
       -0.8524835359489081 -1.6088218797346168
000630 c6 44 1b 72 3e f9 e3 bf 08 c0 52 8f 28 f9 e5 bf
       -0.6241752842562611 -0.6866648482591708
