models/torch/NH3_net_LU.pt (torch, 660145 bytes, 12 tensors)

mean_in f8 [5]
840.6391363527828 250.48906347440237 0.33343644002620115 0.33318348659324865 0.33338007338055026
00000000: 1827 85f3 1c45 8a40 3e87 7168 a64f 6f40
00000010: c142 4dcb 0557 d53f 750e 9fd4 e052 d53f
00000020: cbae 1360 1956 d53f

std_in f8 [5]
249.82576688232643 143.93258233436035 0.23583784348939493 0.23559620385453864 0.2355586820153651
00000000: c836 abae 6c3a 6f40 f65c e8b6 d7fd 6140
00000010: 631a 7938 ef2f ce3f 9df9 4e33 0428 ce3f
00000020: dbbd c571 c926 ce3f

mean_out f8 [2]
0.45085247328826145 0.19354909546172455
00000000: c300 0655 c4da dc3f bad8 967d 37c6 c83f

std_out f8 [2]
0.251552648096682 0.23105829027431313
00000000: 5a09 3347 7019 d03f 2453 196c 5193 cd3f

linear_afunc_stack.0.weight f8 [200, 5]
1.329092389492328e-05 7.807225489315807e-05 0.054283776496312844 0.054181695313252884 0.05419818398088409 0.00018918478985545685 0.00044007668187592597 -0.08289318150015107
-0.08308669747033719 -0.08286266627740506 -0.003321099542671377 -0.003559034870214461 0.2680084813355843 0.27047260190599376 0.2679614690029259 0.38807874540103066
-0.12868995462704638 -0.16726205044683556 -0.03629035084198344 -0.285610110471712 0.8983423681951418 -0.043055199349709236 -0.03875478607380134 0.5739613537397055
-0.1520084979486135 0.2914423321331821 -0.2969653489191009 0.7304744339417644 0.04262553050590457 0.08131360485634101 0.026817734612710392 -0.03335235164826499
-0.11329756065433352 -0.1246419832908935 -0.10585384169535025 -1.356486988651167 0.5139457507887573 -0.005996813918030321 0.7235706616679586 -0.03784944026219174
0.07482022960062235 -0.02864304466141419 -0.1593885677902952 1.1057745407787078 -0.9382803384150417 0.30259474826708493 -0.22483086167377025 0.09130627936676651
0.3843204078896197 0.17354282223661302 1.3421032608736212 -0.25253702852335785 -0.2345914269080462 0.10967233709654413 -0.11638338500456216 -0.20053868694404064
-0.37638836501058837 -0.2894079525817871 0.6220662675595979 0.33526682752596887 0.15629357971938934 0.526135730544736 0.10850146828895159 -0.23546459743237722
0.020194635315346297 -0.007279678658952206 -0.020435223835302864 -0.13616565444541337 -0.14445265129807472 -0.1733697959382392 0.5912975304400298 -0.39389077388010313
0.3594147487890555 0.9624648061314224 -0.28454131314240516 -0.4488001859579872 -1.251785756410879 -0.3828406440875925 0.18033624663854705 -0.2930919618211484
0.18721045892799384 -0.14634332429631322 0.14458478936081426 0.47813608432669585 -0.30196833586347954 -1.9287910863940751 0.37681808867211397 -0.003295309815127811
-0.21249880097155338 -0.02489891472593389 -1.4339094185564407 0.22750905763233475 -0.15151405437709378 0.6211175385507817 -0.13584261964792496 -0.47251985738757113
0.11298609713797604 1.131620761300689 -1.6985852606605745 0.24682879472208483 0.19959530328596978 0.04401422884379145 -0.01817312961717624 0.19827623338076567
0.15918859267769686 0.7449894525525778 -0.36454036893682457 -0.053513582002794546 0.7980624487385555 -0.6668565388694117 0.2318720955268028 0.767455783079767
0.5979663204374156 0.27649149693190295 0.5374089471514348 0.5196897458045275 -1.1153250810299762 -0.2022615803325554 0.6229817505789768 -0.03896727666480106
0.43877465789341186 -0.05970529407166424 0.7723776427583141 -1.1667320053169346 0.255691607449669 -0.14890095051436444 -2.279081849088534 0.28945115013391165
0.3151742869563879 0.2567152461889185 0.6214930152376524 0.9703686940626362 0.45350760744831997 0.12506152927141045 0.4500889086972475 -0.0057298043511470765
0.017053365350641433 0.36754846583042977 0.3689329972868947 0.3600978581933391 -0.42032969346130566 0.4030735668822087 0.41649331326479117 -0.41861252821605566
0.47648005797276133 0.5516060676509322 0.12199334155296228 0.15679512757953157 0.6614313279922633 0.44814967116617876 -0.2811467318131339 -0.0346058182210153
0.25095517475916435 0.3645390800447456 0.24645298285496633 0.1609733318317761 -0.18125238831553292 0.16561585166210993 -0.0953117976081425 0.026550594996404785
0.22144497827183485 0.833240457498664 0.2951789259272098 0.007268224463903342 0.30210951633527716 1.2037872949122572 -0.21621281808065368 0.3586408499790428
-0.1886847127506779 0.35058570774464837 -0.8604403278712565 -0.22619774135219942 -0.14431354423060538 1.2044588339216273 0.172690465997036 -0.8017437225338122
0.21017302238698102 -0.11171805846738772 0.6452739783489263 -0.15736556703463697 0.37641352259849586 0.7727039435699401 0.30744177963326874 0.17320764341497394
0.3030987582451583 -0.02415788490818307 0.051390827760390834 0.2787464121158473 0.20771296095662364 0.19684637283244802 -1.269147566269111 0.06879432481339572
0.06655738725537796 1.1882865468238808 -0.09435293870921943 1.0392003596863428 -0.5842323327754257 0.34131583580988906 0.2328197296382895 0.621678960082741
0.21729380750520044 -0.03592156045723203 -0.1551581425837242 0.015681998064275175 -0.037677339761788546 0.09207523391064393 -0.0920723122611342 -0.3686242354040833
0.545987418534433 0.3517443627427272 0.09757305573374779 -0.962013823160549 0.17520136755454194 1.0505311133230084 -0.5200741404523616 0.5557704719539535
1.6975359779564363 0.5465058076187764 0.19243496644821864 0.4971212931535361 0.7720897781276975 0.18231619981270158 -0.21400966898016277 -0.29249683740386984
-0.09214376689660521 -0.14088088872690332 -0.19400581542836853 1.2742469080264607 -1.8213991426646823 0.7823497565869408 0.11904681794776237 0.04186208739292311
0.06186850823339915 0.5375399877169789 -0.9985908596793761 0.02452581907242087 -0.04933320806579561 -0.003142096031774585 -0.013230530350944496 0.10313568450725545
0.7871582127241374 0.020317219230325617 -0.056790714476865616 0.3624750582800707 0.3641336559351903 -1.8873308921787888 0.42892599540170584 0.20675526869277439
0.3129015167322021 0.3530273788580939 0.04101616661464425 -0.04633718576329443 -0.059895465048188795 -0.07647163461908779 -0.015296263328328367 0.4526776195701121
00000000: 162c b9ab 82df eb3e 4533 3f20 5777 143f
00000010: 3a94 8249 15cb ab3f 6e13 d302 b4bd ab3f
00000020: 66a6 6647 ddbf ab3f 6f26 7df8 fccb 283f
00000030: d5ed d5f4 42d7 3c3f 34c3 9acf 7c38 b5bf
00000040: 7b24 5e78 2b45 b5bf 7387 b8d9 7c36 b5bf
00000050: 4766 85bd d934 6bbf e5c0 ee4b d627 6dbf
00000060: f8c3 980b 0d27 d13f 089e e950 6c4f d13f
00000070: ef29 7ddc 4726 d13f ed49 f13b 48d6 d83f
00000080: a133 3995 e978 c0bf cef9 43c6 d768 c5bf
00000090: a6a9 0d1c a694 a2bf 4182 f8a0 6f47 d2bf
000000a0: 634c 807e 38bf ec3f 1e70 42c2 540b a6bf
000000b0: 603b 80d5 aad7 a3bf 865b 6f33 e45d e23f
000000c0: e5a1 b3b3 0375 c3bf ada5 4bbd fda6 d23f
000000d0: f1c6 69f3 7a01 d3bf f801 8beb 0b60 e73f
000000e0: b1b9 fe76 03d3 a53f 12ee 93e9 f7d0 b43f
000000f0: d824 75b4 1b76 9b3f ffe1 2537 8f13 a1bf
00000100: aa18 baa5 1101 bdbf 3966 f179 89e8 bfbf
00000110: 2ecc 3cc4 3c19 bbbf f24c 5bb3 2bb4 f5bf
00000120: c2c9 f15b 3e72 e03f 8fbb 877a 1d90 78bf
00000130: d3af 06a9 7d27 e73f 922f 3278 0061 a3bf
00000140: 1cc1 3627 6b27 b33f 5b87 5030 9a54 9dbf
00000150: 14ff 0137 d866 c4bf b24d 16a5 40b1 f13f
00000160: 091e ff7c 6406 eebf 23e7 ef5c b65d d33f
00000170: 9a9a 02f7 41c7 ccbf 41b9 cc2b d95f b73f
00000180: 2190 c49f b498 d83f 151c fbb4 a636 c63f
00000190: 20ea d444 4179 f53f 9b5b a211 9129 d0bf
000001a0: effa 3e85 1707 cebf f904 1b7d 7c13 bc3f
000001b0: 7272 6430 4dcb bdbf b0f3 006f 40ab c9bf
000001c0: 502f 9439 bf16 d8bf 4aa1 e2ee a885 d2bf
000001d0: d19f 6384 f7e7 e33f e717 eafe 0275 d53f
000001e0: 161a bc92 6d01 c43f 714b 7e99 1ad6 e03f
000001f0: a178 de91 c0c6 bb3f 2f3f ab34 b423 cebf
00000200: 29ad ef08 e7ad 943f 1bda 3fdc 4bd1 7dbf
00000210: aa7b 3ca8 f8ec 94bf fb3a 574c e06d c1bf
00000220: 0ca7 92aa 6c7d c2bf 889f d541 fb30 c6bf
00000230: 7941 6ecc e8eb e23f 13b7 00a6 8135 d9bf
00000240: 6bf0 efb7 a600 d73f 8555 3cfe 82cc ee3f
00000250: 7eae 93c4 ec35 d2bf a235 486a 24b9 dcbf
00000260: 3122 5680 5007 f4bf e9e3 7b0b 7680 d8bf
00000270: 1348 cc14 4215 c73f 0e82 afc9 04c2 d2bf
00000280: 254e 4827 83f6 c73f 5f98 ebc7 60bb c2bf
00000290: 26e1 e61e c181 c23f 3e1f 4e17 c899 de3f
000002a0: 1d84 bdff 7253 d3bf d30f ce0a 54dc febf
000002b0: 4cd4 d89d c91d d83f e56f 5bfc c3fe 6abf
000002c0: 2857 4e24 2933 cbbf 68ab d0e1 197f 99bf
000002d0: 4705 a200 4bf1 f6bf 5c8e 094d 041f cd3f
000002e0: c58c 3702 d064 c3bf 2886 61e3 31e0 e33f
000002f0: 1739 657c 4a63 c1bf 452c 8ced c33d debf
00000300: b93b 1c28 a8ec bc3f 642d 145f 1e1b f23f
00000310: ac13 00bd 672d fbbf 0f6f 8500 1698 cf3f
00000320: 5533 06c2 568c c93f 5daf e272 0889 a63f
00000330: a9a9 7c15 fa9b 92bf cee3 f898 1d61 c93f
00000340: 6a36 b9b3 4a60 c43f 2681 d21e f4d6 e73f
00000350: a9f2 a920 a154 d7bf c008 30d9 2166 abbf
00000360: c0ed af42 ba89 e93f 0a2c 3286 e356 e5bf
00000370: e940 921d fcad cd3f 7684 2e6e ff8e e83f
00000380: c76b cc43 8a22 e33f 7374 3c64 09b2 d13f
00000390: 89fb 923f 7432 e13f 0481 c963 4ca1 e03f
000003a0: b1ea b61c 5fd8 f1bf 41ff 611c b5e3 c9bf
000003b0: a6ba 976c 77ef e33f 226d c7d5 84f3 a3bf
000003c0: 8acf 7d4d e214 dc3f 1f29 df3a b191 aebf
000003d0: 7bdf 7951 51b7 e83f 1286 e02d efaa f2bf
000003e0: 72e9 f654 405d d03f a3b8 66b4 2f0f c3bf
000003f0: 8ff0 b543 8f3b 02c0 d857 e71d 5e86 d23f
00000400: b923 c1c5 d02b d43f 0a06 b1c8 056e d03f
00000410: b36b e451 45e3 e33f c6f5 c1a5 420d ef3f
00000420: 4c93 9ec5 4406 dd3f a4ae 1a25 0402 c03f
00000430: 9468 c9b5 41ce dc3f d27b cfa4 2278 77bf
00000440: 6cf8 def9 6f76 913f 64f2 1b00 ea85 d73f
00000450: 4dcc 7025 999c d73f cf33 13e3 d70b d73f
00000460: 8c0e bd83 aee6 dabf af08 e912 f5cb d93f
00000470: c365 de91 d3a7 da3f c690 9833 8cca dabf
00000480: c11b 8c36 a67e de3f d6bf 9ac4 c1a6 e13f
00000490: 29bb 4ca4 f43a bf3f 7e28 90dc dc11 c43f
000004a0: 13da 4808 722a e53f 14cd 57f5 7bae dc3f
000004b0: baf0 a0dc 4efe d1bf f46a 0593 dab7 a1bf
000004c0: 9990 164b a60f d03f affd b9b8 9b54 d73f
000004d0: ad8e ae76 c58b cf3f f070 df2d c69a c43f
000004e0: b48c 113c 4733 c7bf ed41 4b75 e632 c53f
000004f0: ab62 a69d 5a66 b8bf 63ac cb44 1430 9b3f
00000500: 383e c51d 4f58 cc3f 9a25 55e4 e7a9 ea3f
00000510: 75d9 5426 36e4 d23f 3790 f525 49c5 7d3f
00000520: ec1a 1e27 c355 d33f b3d0 6f77 b642 f33f
00000530: a6f2 5093 dcac cbbf 3cdb 6ac0 f8f3 d63f
00000540: f178 4217 d226 c8bf 7054 4d09 ff6f d63f
00000550: e4ba 8b27 ba88 ebbf a9b4 c42e 0cf4 ccbf
00000560: f08e 6bc0 dd78 c2bf 9f25 51a0 7645 f33f
00000570: 05e6 e49f b81a c63f eeca 8173 e2a7 e9bf
00000580: d5a7 d318 f3e6 ca3f aa73 7dff 8d99 bcbf
00000590: 8cfd 3e9d 15a6 e43f cf12 f70d 8e24 c4bf
000005a0: e74a 55be 2817 d83f 9ef0 e39e fdb9 e83f
000005b0: 3dbb 3c49 20ad d33f b338 f105 ab2b c63f
000005c0: 2cc1 8755 f865 d33f 2716 7c36 d8bc 98bf
000005d0: b02a 1709 e64f aa3f c28d fa30 fbd6 d13f
000005e0: 85cb 219b 5696 ca3f 3567 d30e 4332 c93f
000005f0: fcc7 aead 6d4e f4bf dd53 393f 819c b13f
00000600: a0ad 91a9 e709 b13f 5b2a 0ec1 3803 f33f
00000610: 7e9f 09a2 8327 b8bf 2b82 6d8e 90a0 f03f
00000620: e628 5101 08b2 e2bf a743 1a60 1ed8 d53f
00000630: 627b 5472 09cd cd3f 4c55 4546 cbe4 e33f
00000640: 08d8 6d92 48d0 cb3f 9d2b c58e 4f64 a2bf
00000650: 3577 0dd6 38dc c3bf a1b9 4913 f10e 903f
00000660: cf81 27bc 714a a3bf b4f2 6a16 3e92 b73f
00000670: ff56 0712 0d92 b7bf eeb4 e41a 8a97 d7bf
00000680: 5740 549b ba78 e13f 6b12 a2c9 fa82 d63f
00000690: 33e4 583b 8cfa b83f 95c8 9836 d1c8 eebf
000006a0: e33c ee97 ff6c c63f d571 72b6 f9ce f03f
000006b0: 5d9f 1786 72a4 e0bf abfd 2328 dfc8 e13f
000006c0: 49b3 517c 1b29 fb3f ab7e 59bf f97c e13f
000006d0: 1b40 c07f b5a1 c83f b156 0fd4 d5d0 df3f
000006e0: a74c 549f f5b4 e83f beff dc21 2356 c73f
000006f0: 4217 a638 ab64 cbbf b350 b5a7 44b8 d2bf
00000700: 11e6 59e1 bb96 b7bf d152 db8c 6208 c2bf
00000710: eed3 3fbc 2ed5 c8bf 570b d0b9 5063 f43f
00000720: e450 6b6d 7324 fdbf 1262 525b 0209 e93f
00000730: 1e4c c72d da79 be3f f5fc 9690 f26e a53f
00000740: 1c8e 07a7 3aad af3f 5e2c 710f 8733 e13f
00000750: cb09 8dd1 74f4 efbf b56d 4bdb 4b1d 993f
00000760: 88ab 7fc6 3342 a9bf accc 50f6 73bd 69bf
00000770: d60d 54b9 9b18 8bbf 4b5d 02a8 1967 ba3f
00000780: 06b2 8d6b 6630 e93f c844 8f80 09ce 943f
00000790: 870a ca2a ac13 adbf 256e 3b96 ca32 d73f
000007a0: ee54 e73f f74d d73f e336 aae0 8132 febf
000007b0: 86e4 a904 8673 db3f 0cd4 a7e6 f476 ca3f
000007c0: 62f3 4e15 9406 d43f 7a70 b225 0098 d63f
000007d0: c132 6f2c 1200 a53f 4851 e2f2 81b9 a7bf
000007e0: b411 1f4f 9eaa aebf 88b9 c221 a593 b3bf
000007f0: 4f2a f8b5 a553 8fbf 20d3 eb8c abf8 dc3f

linear_afunc_stack.0.bias f8 [200]
-0.751681110721184 -0.7510126197627016 -0.7600188638112567 -3.5977101177884143 -1.9417483437036887 -5.052167037573525 -0.0023878417102335394 -4.568295310074454
-3.5808461887916616 -3.8012923237839926 -1.923397360070969 -4.412260034318865 -4.285135275987313 0.00017752500323020475 -4.54117206636268 -5.089383713400601
-3.3040496438045124 -0.3499940035808535 -4.3054424037548475 -2.764638790701888 -4.131046525550987 -4.922416542978257 -4.327146913479178 -5.367786542871051
-0.7840397835564592 -5.9924600576287945 -4.735668546356423 0.00034642987187178607 -3.6900136418280147 -3.378234553046448 -4.340978237918144 -4.709246536311872
-4.575817427478903 -2.2721380263337383 -3.8229759623984085 -1.3547408933858884 -1.9595391082552192 0.018628020688967115 -3.973722599555956 -4.441209362427463
-4.105516476993418 -0.7683456993385492 -6.260781463377251 -4.696437024949767 -5.030358501042457 -6.531327965644881 -4.283835411683287 -0.030706947320992488
-3.017236895724961 -4.178066453298151 -0.013640110884286641 -4.394780764431669 -4.392143508968621 -7.102322726768409 -4.273928054231756 -6.627729249731421
-4.099006325847357 -3.1956082216513955 -0.8840740544477391 -0.268337170994314 0.8384368466513757 -3.662034120342072 -1.3108094291606784 0.00032103975318606355
-5.03673730119131 -1.3318191636268382 -1.7749255642106399 -2.8944817158709886 -2.4433992760197007 -3.2387456620797983 -4.294363071967356 -2.2682156043955177
-1.8389103005054785 -4.366548010013726 -0.016280547994698497 -0.3316852969003865 -1.9127883121228317 -4.18223817551306 -0.7529353169421708 -4.275633504273061
0.0031792761247729086 -3.7580698522013978 -1.3352978766585222 -0.007310914402109787 -0.005547873229669022 0.00019692404170590903 -6.741149768326672 -4.130163810911398
-4.195275736055417 -4.198650768259868 -0.014132088520553173 -3.9661776107066657 -3.9871331277481863 -7.054121971935673 -4.615938035777998 -4.147178804317733
-4.107246467716271 -6.603628661294267 -6.580509463673865 -5.8118725606520885 -2.43001878870119 -5.017920293732406 -4.319814840502205 0.012490975302750748
-4.853533625402617 -6.389543438420111 -4.698537967632183 -0.7574943888635285 -1.1843489631026185 -0.03932384242375906 -4.776926911916147 -1.3712806352856373
-0.012018003030094464 -0.02444849250685625 -2.281297231160693 -4.913945339378083 -0.9406930146215817 0.7752671364918309 -4.178195920296218 -1.1208058877915719
-3.9981537124010904 -4.166631454970423 -4.751055353657431 0.023707245976607814 -3.8255326807235313 -3.8603292282471693 -1.8055141682156022 -0.743084878906267
-3.89405331584854 -0.7527741453784671 -3.9840308783489 -4.151389599775986 -0.7511827904059171 -0.952498790312242 -4.543740136971662 -3.3471376126977184
-0.0238288355342242 -0.001322820269759797 -5.1780414342783665 -1.9680737151189365 -0.27052501406597346 -4.791006065362279 -3.1831651033358135 -2.4555212630127805
-3.1555082708524402 -4.82671936703704 -1.8649123834248547 -4.365355714482304 -0.04564325157679168 -1.7188609734936535 -3.96395302937838 -4.53117868481367
0.012498529735141341 -2.8057475995690226 -0.007889263083192138 -5.000259954156766 -4.383349696894438 -0.8688144695515269 -3.516079184204589 -4.414085950771319
-4.398464848067183 2.6399686714541177 -5.1825679561856495 -3.6188994703812436 -3.615041833966427 -4.227724322245565 -4.9511635039987265 -4.282536888011976
-0.9729806325742627 -1.5589377240251356 -3.163137594912707 -6.737505394125026 -5.5211269251961514 -5.22653397909889 -4.660662003821791 -2.136503976020741
-1.8836454463465881 -0.7516842433682439 -8.23028794604963 -4.324426366627133 -3.83182204328067 -3.200950416083815 -0.4379879769991196 -0.7517471170868062
-0.9523795267201633 -1.2976442988628396 -6.026585254236624 0.7818190361459861 -4.1478352083059615 -3.625024122448782 -4.304850357617326 -4.1133311957607805
-3.833759378244638 -2.2224148299690665 -6.907194081915718 -3.343148611550891 -4.221953491972473 -1.8115752070236917 -1.5720627822848372 -2.6387352351770192
00000000: aa30 728b c50d e8bf 6673 189e 4b08 e8bf
00000010: 9732 8d14 1352 e8bf cb1d 033e 1cc8 0cc0
00000020: ea4f 14b6 6611 ffbf df3a a146 6b35 14c0
00000030: fe16 b6c1 aa8f 63bf b8f5 ac34 ef45 12c0
00000040: 72ee c6af 92a5 0cc0 3681 29f3 0b69 0ec0
00000050: 147b 6b4f 3cc6 febf b363 937e 27a6 11c0
00000060: ae34 7580 fa23 11c0 e18f 8b2a c044 273f
00000070: 5425 9a02 292a 12c0 0867 7767 875b 14c0
00000080: b301 6494 b16e 0ac0 7f41 cb3f 4d66 d6bf
00000090: 3ac1 bbe4 c538 11c0 718a 3af1 fa1d 06c0
000000a0: d2fb 750f 3186 10c0 2386 55f6 8db0 13c0
000000b0: 8a85 b999 ff4e 11c0 0729 1609 9d78 15c0
000000c0: c469 a499 da16 e9bf 6568 0873 47f8 17c0
000000d0: d12f 6d18 53f1 12c0 8dfc 54f8 20b4 363f
000000e0: bb8f 4bdf 2585 0dc0 d369 5cd6 9f06 0bc0
000000f0: 4806 3266 295d 11c0 060b 59b9 44d6 12c0
00000100: 78f4 6d15 a34d 12c0 a7cf 98b3 562d 02c0
00000110: 8e29 df6b 7495 0ec0 e456 7ac9 04ad f5bf
00000120: d706 13ae 455a ffbf 8ce2 974e 3913 933f
00000130: 61c0 0313 2fca 0fc0 8642 1963 ccc3 11c0
00000140: e380 e782 0c6c 10c0 5bcd 55b8 4996 e8bf
00000150: ea6e c24b 0a0b 19c0 f987 97c9 26c9 12c0
00000160: 2088 844c 161f 14c0 7494 2f70 1420 1ac0
00000170: 7381 0ac0 a522 11c0 cebe 035a a471 9fbf
00000180: db62 fb18 4d23 08c0 99b8 650d 57b6 10c0
00000190: c86a 4bb1 58ef 8bbf ac4b a168 4194 11c0
000001a0: 866f 6911 8e91 11c0 736e f449 c768 1cc0
000001b0: 7b87 8998 8018 11c0 355b d974 cb82 1ac0
000001c0: 3272 0eea 6165 10c0 5b92 160b 9b90 09c0
000001d0: 930b e3ab 554a ecbf f630 6eab 6f2c d1bf
000001e0: fb20 8482 79d4 ea3f 83a4 7d8b d84b 0dc0
000001f0: 6489 d84e 13f9 f4bf f33d 9b3d 270a 353f
00000200: d1a3 8c76 9e25 14c0 da69 7f9c 214f f5bf
00000210: 9de7 3159 1866 fcbf 7149 a407 e627 07c0
00000220: f898 6ceb 148c 03c0 8b8e 557c f3e8 09c0
00000230: e3ff 5c83 6d2d 11c0 b73e 0939 4e25 02c0
00000240: 502d 0f35 2d6c fdbf fbb0 8d5c 5877 11c0
00000250: e8f1 ca14 d9ab 90bf d413 b0f7 543a d5bf
00000260: 51d1 cbea c79a febf 2ca5 efa4 9cba 10c0
00000270: fda3 48ce 0b18 e8bf 8123 5aab 3f1a 11c0
00000280: 5f26 63df 6c0b 6a3f f74e 3aed 8610 0ec0
00000290: 5faa 6a4e 615d f5bf 3bb7 2ca4 0cf2 7dbf
000002a0: 282c 57e1 5db9 76bf c4e0 49a3 accf 293f
000002b0: a89a 01f7 eff6 1ac0 e0f2 7ba9 4985 10c0
000002c0: cb3d d05c f6c7 10c0 7101 641b 6bcb 10c0
000002d0: 11dd 28d0 48f1 8cbf 80e6 c053 bbba 0fc0
000002e0: 2ed0 a30d a6e5 0fc0 c1d5 0dc0 6b37 1cc0
000002f0: ad1d e075 b876 12c0 10d6 5c0a b696 10c0
00000300: c6cf 9d04 d26d 10c0 a1bf bca1 1d6a 1ac0
00000310: b2fd a512 7152 1ac0 fd14 4285 5b3f 17c0
00000320: e018 d1b0 ad70 03c0 c40f 8eb2 5912 14c0
00000330: 01ee a28a 7d47 11c0 2b19 5d53 de94 893f
00000340: ee8f fcb7 046a 13c0 068b a179 e48e 19c0
00000350: 67fa 7789 4dcb 12c0 c950 62df 643d e8bf
00000360: 723c f9e5 17f3 f2bf 2d82 5332 4122 a4bf
00000370: 9d3f 78ba 921b 13c0 e509 a3f6 c3f0 f5bf
00000380: 76e3 d10f e59c 88bf 0b88 038f 0609 99bf
00000390: 0153 42c3 1840 02c0 8ad7 7b49 e1a7 13c0
000003a0: d002 ac3c 281a eebf e2ab 9c06 fdce e83f
000003b0: bfcf c7fd 78b6 10c0 2daa 9327 d2ee f1bf
000003c0: 3e26 7903 38fc 0fc0 da54 a66f a1aa 10c0
000003d0: 0cc7 95a7 1401 13c0 e94d 9758 b646 983f
000003e0: ebe4 cbe0 b09a 0ec0 85ea 584a f4e1 0ec0
000003f0: e135 0fd3 62e3 fcbf c4be a1f0 59c7 e7bf
00000400: 4599 c36c 0527 0fc0 8098 f5cd b916 e8bf
00000410: f819 c694 4bdf 0fc0 35f8 0fe0 059b 10c0
00000420: e390 c37d b009 e8bf 4bdc 3bbe de7a eebf
00000430: 6e43 e736 ca2c 12c0 58fc ad15 f0c6 0ac0
00000440: 3cf7 4815 9666 98bf 71c1 0373 4fac 55bf
00000450: ec3b 667e 50b6 14c0 4ed9 28dd 3a7d ffbf
00000460: 7173 0a26 4850 d1bf acac 767e fd29 13c0
00000470: 28c4 0444 1f77 09c0 182e fa54 e8a4 03c0
00000480: c88c cc1e 7b3e 09c0 5c93 9185 8f4e 13c0
00000490: 4f71 0b5e aed6 fdbf ce6e f4ce 1f76 11c0
000004a0: 1a60 9c61 8d5e a7bf 5a6a 385d 7480 fbbf
000004b0: 6e7b 8001 2db6 0fc0 936d 1e4e ed1f 12c0
000004c0: ce22 af43 d498 893f edd5 27cc 2b72 06c0
000004d0: f66d 74f7 3e28 80bf 3668 3a25 4400 14c0
000004e0: 5c5f acd2 8c88 11c0 1f7e a000 54cd ebbf
000004f0: c870 921f ee20 0cc0 fb2e c125 06a8 11c0
00000500: 7637 4c2b 0798 11c0 4ae1 12e5 a71e 0540
00000510: af75 2418 f3ba 14c0 af64 c690 81f3 0cc0
00000520: 1a76 940d 9beb 0cc0 a131 9290 30e9 10c0
00000530: 0e4b 3bce fdcd 13c0 41b3 9759 5121 11c0
00000540: fe87 9147 a822 efbf a204 d3ae 68f1 f8bf
00000550: 752f 5715 1b4e 09c0 f38f 319d 34f3 1ac0
00000560: 4a21 f34b a215 16c0 61a6 fe85 f8e7 14c0
00000570: 687f 9094 84a4 12c0 b043 8665 8f17 01c0
00000580: 3216 5568 6923 febf 71ec 451d cc0d e8bf
00000590: 71e4 394d e875 20c0 9c7e ea6c 364c 11c0
000005a0: e7db bf50 92a7 0ec0 a494 49e4 8b9b 09c0
000005b0: a227 50b9 fe07 dcbf f200 58f8 4f0e e8bf
000005c0: f293 14a1 e479 eebf d54e 17ab 26c3 f4bf
000005d0: 3202 362a 391b 18c0 5f64 f45a a904 e93f
000005e0: 5e7c e31c 6297 10c0 6907 a9a5 0c00 0dc0
000005f0: b08f 30b1 2a38 11c0 f2a2 cd17 0d74 10c0
00000600: 245a 7209 8aab 0ec0 7ce6 266d 81c7 01c0
00000610: 9fcf 437c f7a0 1bc0 283b 02b3 c4be 0ac0
00000620: e204 b5c6 47e3 10c0 3794 c648 36fc fcbf
00000630: 1ac1 d24d 2b27 f9bf f71a 0f38 211c 05c0

linear_afunc_stack.2.weight f8 [200, 200]
0.5581244146879334 0.26372026870590803 0.5206954706692015 0.7259120065812015 1.5410282407931541 0.7262383971352072 0.41937725287196337 -0.9379137864462561
0.6490415902312621 1.343536888840478 0.274109785230496 0.18575334772332 0.1410929448493805 0.29596771488842794 0.7492078213146866 -0.7128600577594872
0.36827141616825865 -1.258958632238131 0.9739217450191568 -2.1669872362766642 0.17269087899937155 -0.26860945018191185 0.30474568066899177 1.9694058073692573
0.5553726847631546 -1.3714473582155418 0.238187627417698 -0.12085451969752199 -0.06675603535060211 -0.16459823263143583 0.25900335935267305 0.26666123291331334
-0.20375608989581334 0.37624275477953634 -1.4874213849409004 0.9302824161048576 0.030661155345660464 0.3946078335654405 -0.2432658692074502 -0.0970995834613496
-0.05058693640031789 0.8804387985511521 0.17324497477032869 0.35264729019479935 -0.16432863760558403 -1.001305208488384 0.6863936573943757 0.13571291357988816
-0.039676498224262016 -0.37400692383141193 0.17067087488708574 0.3170040877584408 0.36223312352856024 0.2786944519167566 -0.33752441951388623 -0.7413773745859374
0.4738086905243927 0.5853515674537507 -1.2901555431529486 0.278376635444317 -1.2211974589534156 -0.09807731367142909 0.45092868802328884 -0.024356076446585846
-0.025809227128088377 1.0721916226740547 -0.8952715482511279 0.9563018649664193 1.714630034836239 0.8063317652028457 -1.1408855884592757 -0.09939007536446265
-0.5672981812734943 0.4023684095241867 -0.031877977290549975 -1.9058306466246941 -1.9228938334385193 0.09610086392451363 0.7499100542496635 -1.3601054612709635
0.22035475688315095 -0.02523949447557504 0.14048939249853715 0.37332232087259243 0.41314447555666495 0.20302784442749897 0.09121678503903792 -0.5051032680141615
-0.737483271448858 0.36964980896015787 0.07403692472816613 -0.5945446726560696 -0.7166837274408981 -1.8754947737074112 0.18221601675755517 0.22988583253456293
0.24588134019679517 -2.7677500080108453 -0.2293637560510478 -1.5478652842137748 0.3056188124657385 -0.19362530145955323 -1.0650550105666283 0.10214997837497128
-3.7712597850781653 -1.8578727631873342 0.040782348555792394 0.5335934285813633 -0.10466750075880837 0.07118317675941821 0.3594967333935606 -2.2964982667149525
0.004017628173030884 -0.2536599318359747 1.1886856214951877 -0.5056039786230226 -0.6363893145972704 -2.7158105234353247 -0.6882667740447337 0.4657628695265994
-0.2812300316559973 0.2847496209963181 0.05811915618887029 -0.033344986435560206 -0.7760702934850663 -0.4702804920062444 0.11735645485700259 0.5611537906461352
0.042837596991979934 0.43165620065939864 0.23207736808632964 0.14776333863387847 0.6352605545152273 0.14060711440715512 0.9538183404909516 -0.3047876718741619
0.3431721215294116 0.46490404111431705 -0.8726789471294933 0.2895763173078945 -0.10638471196746868 -2.8351801137150185 0.9898779215897852 -0.46023364243243126
0.24421789171674405 -0.27362521096201303 -0.021660400640441606 0.08555844694468767 -1.8720510064197216 0.23002509401599344 0.9385969895499643 -0.06528012354798142
0.24706868030107468 -0.6610543532401191 -0.057125731390235454 -0.17291252486594352 -0.15219467259081398 -1.165257166877975 -0.8551623754484017 -0.021094526612614985
0.6821472337942612 -1.4831252129326065 0.35417952873791136 -2.090335916130324 0.12511934325367852 1.2953432359078836 0.49133061194566147 -0.9741056183513863
2.886287167044101 -1.0318068466747692 0.8605617444524029 -7.361669543600171 0.12585047340151387 0.5405971270894848 0.07226746041015271 -2.381112655502132
0.5832713747774543 0.24914400363328768 -3.793356167227164 0.3782364120652851 -1.4875804807939843 -0.5270576973204023 0.16782525771770518 0.22649995042538587
0.6632495190352161 0.350257139152082 -0.3268598578035767 -0.12416531288360805 -0.30943809109276466 0.12392019206277942 -0.09133150179807395 0.7845410883272153
-0.16150576269605044 1.3115388349594137 1.853235752546396 0.07266242523314827 -0.2213178707174775 -0.48439488965978106 1.0985205289267446 0.5162709937818282
0.31844392303944524 0.914701472166071 0.31161866062173393 0.6434402433827833 0.40793741418751706 0.21473180704640818 0.13988989481699302 -0.3583122696771232
0.45403444188620046 0.25990642977905787 0.3548236823125419 -0.02873499217045515 0.14315518622753942 0.5499561729658807 -0.2698530757156221 0.1773926821375732
0.22958028751600715 -0.9121979672969511 0.1801269660483644 -0.5865004961786183 0.18495447317093405 -0.2140979735383041 -0.058299065568840805 0.9399151275568577
0.009606664146871917 -0.3759250706020557 -0.10960134318468602 -0.20022035840993502 0.22180241004857723 -0.11190722031922593 0.9658835430173793 -0.1577964900659652
-0.0169265808571522 0.20617203244616375 -0.042946072173915675 0.08862745396067764 0.21001764236751003 -0.12799471411384028 0.1388109173843526 0.330496930425914
0.23102426533261772 0.5210164908035729 0.15886888116131961 0.11584969423905835 -0.2932765835371141 0.20645803460605017 0.6252154548357326 -0.4262221111109961
0.6428441799662676 0.2822596223736194 -0.21369369742085792 -0.1289240204970158 0.05452825028101436 -0.31125679635060555 0.33336678869698105 1.1233419682036088
00000000: d2e1 85bb 27dc e13f da96 58fa cae0 d03f
00000010: b262 368c 89a9 e03f a847 01d1 ab3a e73f
00000020: 44b4 863a 0da8 f83f 1372 994e 583d e73f
00000030: b25e 71b0 13d7 da3f 6422 e8c5 6303 eebf
00000040: f42f 79de f2c4 e43f 8ca1 6889 207f f53f
00000050: 3207 c5c4 038b d13f f10d cc04 c4c6 c73f
00000060: a086 e967 550f c23f 9587 0792 22f1 d23f
00000070: 1787 4eae 82f9 e73f 1274 56e5 bfcf e6bf
00000080: 3aa2 1f46 c291 d73f b4ac 87ce b124 f4bf
00000090: 940e 77ef 5d2a ef3f f742 7567 fd55 01c0
000000a0: 6955 cf16 bc1a c63f f061 fbb0 e530 d1bf
000000b0: 5e84 0407 f480 d33f 4641 f3a9 af82 ff3f
000000c0: 6ec8 c4ef 9cc5 e13f a58a fbc8 72f1 f5bf
000000d0: 7a11 09a3 ee7c ce3f 85b5 ac61 52f0 bebf
000000e0: 7536 a46c ec16 b1bf 45d2 100d 8e11 c5bf
000000f0: d453 7ed3 8293 d03f 6c51 9e46 fa10 d13f
00000100: 324f 3bf7 ad14 cabf c3a4 c87d 5c14 d83f
00000110: 3a13 bb5d 7acc f7bf f3da 26a1 dfc4 ed3f
00000120: 5766 de4d a365 9f3f b22c fa36 4141 d93f
00000130: 4450 3d04 5623 cfbf c7f5 6baf 84db b8bf
00000140: d46d e3ea 87e6 a9bf f003 bdfc 8d2c ec3f
00000150: 3ade 6a2e e42c c63f 4638 9af0 c591 d63f
00000160: ccf6 2786 b808 c5bf 675a 3c9c 5805 f0bf
00000170: fd19 d6d4 eff6 e53f 2539 bc6e 0a5f c13f
00000180: 1205 965c 7a50 a4bf b157 95bc baef d7bf
00000190: df86 0211 8bd8 c53f 78bb 6783 cb49 d43f
000001a0: 6b51 c5d6 d32e d73f 87c8 2341 21d6 d13f
000001b0: 3477 da05 009a d5bf 01e9 3a0b 5db9 e7bf
000001c0: f638 97af e152 de3f cf09 dc35 33bb e23f
000001d0: 3f85 8923 7aa4 f4bf fa0b 4d3c ecd0 d13f
000001e0: 8f9c c258 068a f3bf 35c5 b246 981b b9bf
000001f0: 79d8 f8ff 03dc dc3f d516 309f ccf0 98bf
00000200: d4fa cce9 bb6d 9abf 40e2 2667 b227 f13f
00000210: 65e4 9884 10a6 ecbf 794e 645e 069a ee3f
00000220: 9bc6 45e7 1f6f fb3f a4b5 2846 78cd e93f
00000230: 9b90 2e3f 1141 f2bf 78c2 3cc3 a071 b9bf
00000240: 4acc f483 4e27 e2bf 0965 f66d 67c0 d93f
00000250: c0e0 d96b 4f52 a0bf 447b af46 487e febf
00000260: b4c6 0453 2cc4 febf 6552 acf3 109a b83f
00000270: 5a34 be5e 43ff e73f 0851 b4f1 fdc2 f5bf
00000280: 9763 2aad 9534 cc3f dc54 5ccd 61d8 99bf
00000290: faa9 1b71 8efb c13f 40ef c04d 83e4 d73f
000002a0: 1d7e c286 f570 da3f 7b2a ffff d0fc c93f
000002b0: 1dc4 96b4 fb59 b73f 4b27 2754 ce29 e0bf
000002c0: b609 8784 7699 e7bf b837 1dac 57a8 d73f
000002d0: 2765 677a 15f4 b23f f933 a28c 8206 e3bf
000002e0: 9ee3 5db6 12ef e6bf aa46 cece 0602 febf
000002f0: acfa 63bc da52 c73f ef5b 4622 e66c cd3f
00000300: e7c2 6b2d 0a79 cf3f 5548 bf1d 5a24 06c0
00000310: a240 90a3 ca5b cdbf 93fd 6463 0ec4 f8bf
00000320: 064b 2535 428f d33f bf34 b9c0 b6c8 c8bf
00000330: 9331 6d1f 770a f1bf 0e59 6840 8026 ba3f
00000340: b10b 0d40 8a2b 0ec0 d04c 60ca d8b9 fdbf
00000350: 0a37 9a8a 6ce1 a43f 4ac2 a386 3213 e13f
00000360: 2890 b644 7dcb babf c003 3588 0f39 b23f
00000370: 586d 3c96 fe01 d73f 29e4 b67b 3a5f 02c0
00000380: 193f c5d9 c974 703f 64a1 e2dd f63b d0bf
00000390: 9ac1 d836 db04 f33f 4a3a 1d65 e82d e0bf
000003a0: 2103 b71f 4d5d e4bf 844c 22de fab9 05c0
000003b0: f841 ae0a 4806 e6bf f8b3 1311 0fcf dd3f
000003c0: 3965 273f acff d1bf b190 6e79 5639 d23f
000003d0: 7d62 3446 cbc1 ad3f e6dc 7314 9812 a1bf
000003e0: a04b 3d5e 91d5 e8bf 5f45 4759 1319 debf
000003f0: f5d7 9597 120b be3f 2840 5bcb f8f4 e13f
00000400: 0a54 3d3c cfee a53f 9fa7 3c54 41a0 db3f
00000410: fd48 0911 b6b4 cd3f dc79 7db9 e8e9 c23f
00000420: 819d 42f1 0d54 e43f 4459 fbf6 69ff c13f
00000430: e579 570a ae85 ee3f b21a bb26 a481 d3bf
00000440: 6389 b733 88f6 d53f 904f 17e1 fcc0 dd3f
00000450: 3e86 3a66 fcec ebbf 4925 221b 6b88 d23f
00000460: 18d5 b14a 073c bbbf 8f67 55e9 72ae 06c0
00000470: ab56 8876 14ad ef3f 3e0a b1ce 7774 ddbf
00000480: 05c0 0229 8842 cf3f 3d59 1c51 1383 d1bf
00000490: 1ecf 79e1 242e 96bf dc23 868b 28e7 b53f
000004a0: f443 90c1 ebf3 fdbf 1b6d 0758 7671 cd3f
000004b0: 81b7 c78d fc08 ee3f d1a8 b7bb 32b6 b0bf
000004c0: c126 e14e f29f cf3f 896e 8175 5b27 e5bf
000004d0: 6e8b 2978 953f adbf 171b af63 ff21 c6bf
000004e0: a494 b372 1d7b c3bf 70ba f2b2 e4a4 f2bf
000004f0: 0442 6a7c 7d5d ebbf 7700 b4b7 cd99 95bf
00000500: c380 866f 26d4 e53f 82b2 d680 e1ba f7bf
00000510: aee3 359d e0aa d63f b678 6b09 02b9 00c0
00000520: de8e af1f e903 c03f 551b 35d4 b9b9 f43f
00000530: 5b23 75f3 f571 df3f f468 b58b df2b efbf
00000540: 1d8d eab9 1d17 0740 c11c 64e5 4782 f0bf
00000550: b393 93c8 b889 eb3f 4fe3 3680 5972 1dc0
00000560: 130a b949 de1b c03f 0926 a558 924c e13f
00000570: fdcd 06cb 1e80 b23f 77c9 bbca 840c 03c0
00000580: 8896 ebba 28aa e23f 9fbb cc61 f3e3 cf3f
00000590: 8a90 421e cb58 0ec0 8d83 fe7e 0635 d83f
000005a0: 93d9 b230 21cd f7bf 0714 a31a a8dd e0bf
000005b0: 748f ab4c 4c7b c53f 1db3 cf4b f3fd cc3f
000005c0: e801 2b0e 5739 e53f 5251 76eb 9c6a d63f
000005d0: 850f e99b 45eb d4bf e4f8 2146 4cc9 bfbf
000005e0: 7253 586c d5cd d3bf db42 39d4 3bb9 bf3f
000005f0: 1a3a 5155 8061 b7bf f479 97e9 f51a e93f
00000600: c491 7288 38ac c4bf 9e5a 3925 10fc f43f
00000610: 7e6f 4f88 daa6 fd3f 3140 0634 019a b23f
00000620: fa3e 60dc 2454 ccbf ea0c 5c6c 5300 dfbf
00000630: 8f99 1b43 8a93 f13f ea52 45bf 4a85 e03f
00000640: 721e c49e 6261 d43f 73cd 9105 3c45 ed3f
00000650: 1865 0c65 8ff1 d33f 784c 48fe 0f97 e43f
00000660: 2603 3087 a51b da3f 6970 56f4 547c cb3f
00000670: 9dd2 a37d e9e7 c13f a333 0196 96ee d6bf
00000680: 7e2a ca79 e60e dd3f 84f4 fa93 4ea2 d03f
00000690: fc3b d863 6eb5 d63f fcde 7dae b46c 9dbf
000006a0: 24cf 8cbd e852 c23f 99e5 23b0 3d99 e13f
000006b0: 681c bbd5 4545 d1bf 1c51 2aac cdb4 c63f
000006c0: e900 5809 e362 cd3f 2294 a0ca b930 edbf
000006d0: 3f18 2782 660e c73f 1999 45b0 9cc4 e2bf
000006e0: 2850 c292 96ac c73f 6552 3ef9 8f67 cbbf
000006f0: f2d4 0208 60d9 adbf 79ea bbe3 c813 ee3f
00000700: effe aca2 a8ac 833f 56de fe06 280f d8bf
00000710: 1d6e 9368 d50e bcbf d499 ae19 d2a0 c9bf
00000720: 5393 aa78 0564 cc3f 5e14 759b f3a5 bcbf
00000730: d822 a09a 84e8 ee3f 68e2 20e6 ac32 c4bf
00000740: ceb7 db9c 3355 91bf 4762 5a5c d863 ca3f
00000750: 220e f50e 07fd a5bf 7af2 49f0 49b0 b63f
00000760: e296 c6ac dbe1 ca3f 2204 977b 2162 c0bf
00000770: b92c 3f5f 8ec4 c13f 5ce4 e698 dc26 d53f
00000780: 7ecf 1700 3492 cd3f 6db2 95c6 2aac e03f
00000790: 3551 78c4 d055 c43f 9123 0258 53a8 bd3f
000007a0: 7d5e be25 0bc5 d2bf e490 5085 376d ca3f
000007b0: c124 6fd7 c301 e43f 9171 031b 3947 dbbf
000007c0: 3e21 2cf5 2d92 e43f 45dd c4a9 8a10 d23f
000007d0: fa56 e4a8 505a cbbf d40c da11 9580 c0bf
000007e0: ad82 5477 20eb ab3f 06f3 3ea0 a1eb d3bf
000007f0: 3bab c1a7 e155 d53f 548a 7a6d 35f9 f13f

linear_afunc_stack.2.bias f8 [200]
-0.7427873448829373 -0.9930017074067654 -1.553679177340083 -0.15838699290985794 0.7065676302562681 -1.3152573163101196 -0.7829319682692127 -0.6995848900744824
-0.7420886877337404 -1.1942062464204797 -0.7111942423214155 -0.5892727371201447 -0.29115635584269334 -1.880982099508452 -1.6715173292585062 -0.6604718917093008
-0.773422343739899 -1.19514512322559 -0.5485291730145269 -0.781381489041212 -1.923697660787188 -0.7102323537504429 -1.0608960614655898 -1.0186093787119388
-1.1158291591670706 -0.4990017900742558 -1.2972660868747055 -1.4011061173460642 -0.6842019358045375 -0.95368409151545 -0.42716864764643525 -0.33073460129247967
-0.5996864705269961 -1.4649186064373916 -1.0224034199046876 -1.1992619647062956 -0.44797792670839015 -1.5139866969498124 -1.1613262313349713 -0.9074223418043027
-1.2781983176507679 -1.0918846437876204 -1.2815514409393853 -0.8793100368209984 -0.21321849710719015 -1.0188566740954637 -1.0937152270218617 -1.6803099170916014
-0.863269535175498 -1.194791505985863 -0.785979773465068 -1.183734888840261 -0.6652601632973084 -0.7135742375044818 -0.9370870169297512 -0.9565235990018752
-0.9996477205791928 -0.7793866667327435 -1.0731828525574414 -0.6877297955920958 -1.3433560784957113 -0.5393500020470519 -0.9345406110885992 -1.2905033700375983
-0.8880518177624804 -1.181806760432202 -0.6169203570466963 -1.0163606428477705 -1.6611820085619564 -0.5615674435246055 -0.839075138180397 -0.9901722798946666
-1.2413083026730996 -1.3159087604785786 -1.5672692845164498 -0.6251484281598245 -1.0371299086950165 -0.933949153103028 -0.7808456974441963 -0.3444304536884602
1.1228733927814023 -1.4294541548275221 -1.2018262896455896 -1.482709515479275 -1.430737151999315 -0.6085705034342486 -0.947548452361911 -0.9954942390713997
-1.5035039985457348 0.8569652584324564 -1.7510241496490004 -1.3514389055502307 -1.4085708586051129 -0.7069490367716119 -1.0231528725587855 -0.7474454131501397
-0.9999969089301864 -0.7697838908845825 -0.8426324942774527 -0.6497231812387894 -1.2865203268784435 -1.8714129038787086 -1.407918900289535 -1.5625998593544346
-1.267909608690602 -0.7863199141970928 -1.0363173291870196 -0.9319401939048132 -1.7224704370562127 -1.4114455758094755 -0.8214893160638829 -0.9998611162821383
-0.7642373115118982 -0.8618093508920986 1.8042206776521605 -1.390863965214127 -1.4294821778551685 -0.46325213817772354 -0.9394478843647104 -1.1037507176232277
-1.083342786960161 -1.307039164233287 -1.2759123710985398 -0.9624128703457758 -0.6130432550917858 -1.801072193600583 -1.2897227036507413 -1.1695726660843637
-1.0287686377043173 -0.5255834019038874 0.3329078342148661 -1.751807438311335 -0.8369067452372702 -0.5960206765769395 -1.7582284163630064 -0.941186782784798
-0.8881782993702341 -1.2320190234224175 -1.9057381602718875 -0.8689090721747335 -1.0732817246071804 -0.8774815718156598 -1.0424320051073874 -0.7497629206331814
-1.5009569420130957 -1.0994895795479906 -0.7298426545748626 -0.7781451895569692 -1.4985689472132797 -0.6490151520542394 -0.2913582957748105 -1.1554923024220913
-1.217785353686602 -1.2366259096148042 -1.3744690033624416 -1.0776301139896658 -0.7999861313112667 -1.3350725188852015 -1.3953563912001528 -0.8403484227990458
-1.1862193145148825 -2.1623296901268048 -1.0334549152396075 -0.7358579536506984 -0.8035716360311255 -0.16889234348830998 -0.6422197615601362 -1.2544068502534838
-0.6127126550566073 -1.2469538450684525 -1.4614910949801063 0.4885044918125811 -1.0575076986845713 -1.4446118864285555 -0.31637026536610136 -1.1306735069618983
-0.5356332388038431 -2.213111766280677 -1.3895056967817756 -1.0098739913977897 -1.597449442099462 -1.403270210860503 -1.0733058804443187 -1.263951695250223
-1.1978098145913905 -0.8664519190410747 -0.3808224812564248 -1.04983308310006 -1.5422749923790589 -0.8097258321180507 -0.957987371263613 -0.9793165386311546
-0.6945628039682492 -0.7729442343636143 -0.8092334886060113 -0.8251852794160525 -1.0806454305113466 -0.8020716447841478 -0.780058838514709 -1.4271632172807858
00000000: d9f4 44f7 e9c4 e7bf 1ee5 4584 abc6 efbf
00000010: f16d 72b2 dedb f8bf 8d6e 5465 0646 c4bf
00000020: cf9c 0bb8 339c e63f ed06 7641 4b0b f5bf
00000030: 97b1 d657 c70d e9bf 39a9 f4d9 ff62 e6bf
00000040: fb88 91c6 30bf e7bf c7e0 5002 781b f3bf
00000050: a2f7 7b6d 1ac2 e6bf a85f cb7f 52db e2bf
00000060: 657b 9744 4ea2 d2bf e600 9caf 8018 febf
00000070: ffcc 7df4 88be fabf cb32 daf2 9522 e5bf
00000080: 2279 0b37 e0bf e8bf 11a5 237e 501f f3bf
00000090: 6bfa 5f0d 8d8d e1bf 9b37 a4c0 1301 e9bf
000000a0: 1390 c732 77c7 febf 8a6a 7d33 39ba e6bf
000000b0: d932 0726 6ef9 f0bf 6c77 0f59 394c f0bf
000000c0: 61bb 28ad 6fda f1bf b4eb 4034 a5ef dfbf
000000d0: 5963 9515 9ac1 f4bf 51a1 833f ee6a f6bf
000000e0: fe7d 4475 fbe4 e5bf 4dc7 f87f 9484 eebf
000000f0: b226 e12a bb56 dbbf 343c 0d76 c12a d5bf
00000100: 378c 58ae a130 e3bf 3735 1f7e 4e70 f7bf
00000110: 70f2 3cb0 c35b f0bf 0201 5c50 2d30 f3bf
00000120: 05b7 229c abab dcbf f7a7 5f1d 4a39 f8bf
00000130: 4f21 79d0 ca94 f2bf e1b1 3694 9a09 edbf
00000140: d9cb 4114 8073 f4bf b628 4108 5c78 f1bf
00000150: 129f 6f15 3c81 f4bf 931a 66cd 4e23 ecbf
00000160: b623 fd63 be4a cbbf 51d2 e8a7 3c4d f0bf
00000170: 4623 b389 db7f f1bf add8 d0a6 8ce2 fabf
00000180: c4c7 a66e e79f ebbf 46f7 bbb2 dd1d f3bf
00000190: d632 cb0d bf26 e9bf f73f abfe 93f0 f2bf
000001a0: a331 96ae cf49 e5bf 4432 aba3 99d5 e6bf
000001b0: fa05 67e9 9dfc edbf b616 f260 d79b eebf
000001c0: 1513 6d37 1dfd efbf 59c7 914e bcf0 e8bf
000001d0: 93cb 65c8 c12b f1bf acb0 91ea e101 e6bf
000001e0: a859 80f1 627e f5bf c677 7cef 5a42 e1bf
000001f0: b619 2db6 c1e7 edbf 4107 9bdc e6a5 f4bf
00000200: bd2e 4ea5 eb6a ecbf def7 a334 aee8 f2bf
00000210: 0e12 b8c2 cfbd e3bf 3990 9f60 0343 f0bf
00000220: 97a2 f795 3394 fabf dff7 8d49 5cf8 e1bf
00000230: 37e3 ab1a b4d9 eabf 0eb5 f1c6 7daf efbf
00000240: 6abf 4318 66dc f3bf 0268 2c58 f60d f5bf
00000250: 2360 10f5 8813 f9bf baf3 c246 3701 e4bf
00000260: e9c6 f887 1598 f0bf 768a 9655 e9e2 edbf
00000270: 23d8 b71d b0fc e8bf 01a8 9507 260b d6bf
00000280: 08b7 3817 4af7 f13f 34d9 e151 0bdf f6bf
00000290: 6703 1834 ae3a f3bf 5039 e79c 2db9 f7bf
000002a0: d825 d0a3 4ce4 f6bf 6aee 31d9 6879 e3bf
000002b0: 61a2 c821 5152 eebf ce60 05bc 16db efbf
000002c0: ee8b 7235 5a0e f8bf 9fd1 d867 426c eb3f
000002d0: 8afa 13e6 3104 fcbf 9a15 de66 7e9f f5bf
000002e0: eeeb bc98 8189 f6bf c5ed 1b96 539f e6bf
000002f0: cf2c e78b d55e f0bf 47cd a0a4 12eb e7bf
00000300: 8799 7e84 f9ff efbf 01c8 8ad3 11a2 e8bf
00000310: 7ffe ae6b d8f6 eabf 32f5 db44 88ca e4bf
00000320: 7750 9956 9695 f4bf 0a8b 37a8 4ef1 fdbf
00000330: 149f 02f8 d586 f6bf 7d95 cab5 6800 f9bf
00000340: c3c3 f995 5b49 f4bf f770 7561 8829 e9bf
00000350: 592e d27a c194 f0bf 31c5 d43d 74d2 edbf
00000360: 6fbb 3729 3d8f fbbf 29f8 c2f4 4795 f6bf
00000370: c53f 50f6 a349 eabf ac29 5fbd dcfe efbf
00000380: 3d73 6ace a174 e8bf 61fe 2e34 f193 ebbf
00000390: 1e87 5480 16de fc3f 1179 bc92 fa40 f6bf
000003a0: 16a5 41b4 28df f6bf 15a0 d14b eca5 ddbf
000003b0: fd91 7402 f50f eebf 7e0d 3283 f6a8 f1bf
000003c0: 489f 053f 5f55 f1bf fc91 0fe6 a1e9 f4bf
000003d0: 76e1 2617 236a f4bf 9b4e 6c13 16cc eebf
000003e0: 25e2 74e3 0c9e e3bf e3fd 9313 31d1 fcbf
000003f0: 0b6b 1146 b4a2 f4bf c20b f2d3 91b6 f2bf
00000400: c072 611a d675 f0bf 82ec 4f48 94d1 e0bf
00000410: 173e 22a9 5c4e d53f cffc 863c 6707 fcbf
00000420: 7111 93a7 f0c7 eabf 6f68 34f4 9912 e3bf
00000430: edd4 b21e b421 fcbf 089f 6fbe 331e eebf
00000440: 56fc 99e5 f46b ecbf e262 5a94 59b6 f3bf
00000450: 1fb6 114c e77d febf 9a05 0666 1ace ebbf
00000460: 2d51 2975 292c f1bf 554f b93b 5414 ecbf
00000470: c5d6 a32e cdad f0bf 45ef fbce 0efe e7bf
00000480: 1968 2a6d eb03 f8bf fa38 a762 8297 f1bf
00000490: dafe 93fb de5a e7bf 1dfb 95bd 90e6 e8bf
000004a0: a350 b16e 23fa f7bf 3dce 956c bbc4 e4bf
000004b0: cd59 f143 9da5 d2bf 07ec 1a7f e57c f2bf
000004c0: a41b ba7e 0c7c f3bf cde8 f23f 38c9 f3bf
000004d0: 1deb ac35 d3fd f5bf 6c53 0c13 f93d f1bf
000004e0: d388 e783 7c99 e9bf 8f67 6600 755c f5bf
000004f0: 0082 2739 6153 f6bf bd58 2560 22e4 eabf
00000500: 6e99 9b1a c1fa f2bf 931d 3282 734c 01c0
00000510: 5883 6d05 0889 f0bf aacc adfa 258c e7bf
00000520: 99e6 17dd dbb6 e9bf 15de e9a9 439e c5bf
00000530: ccdc 1775 108d e4bf 2b79 dbea 0c12 f4bf
00000540: d807 ea91 579b e3bf 1a0c 03e0 85f3 f3bf
00000550: 495b 857c 4462 f7bf 472f 1258 a843 df3f
00000560: 32e5 5131 8deb f0bf e8f9 795a 211d f7bf
00000570: dc26 cb11 693f d4bf 01ae 6d1a 3d17 f2bf
00000580: 9f04 6a51 e823 e1bf e38b 14f1 73b4 01c0
00000590: e288 5453 6a3b f6bf e126 62a1 7128 f0bf
000005a0: 484a 6d25 278f f9bf d78c f176 cb73 f6bf
000005b0: 2cce 71c9 422c f1bf eb2c ad69 2539 f4bf
000005c0: 2df7 c79f 3a2a f3bf b6cf fa5f f9b9 ebbf
000005d0: 9afc a441 655f d8bf 19c7 62c6 1dcc f0bf
000005e0: ac4e db8a 28ad f8bf 9c8c f525 46e9 e9bf
000005f0: 01dd b121 d5a7 eebf 9049 3ba3 8f56 efbf
00000600: 5cf9 01c6 db39 e6bf c526 078c f5bb e8bf
00000610: 7e81 0ca1 3de5 e9bf 3171 87f5 ea67 eabf
00000620: a2e3 e9dc 524a f1bf f2b2 6c27 92aa e9bf
00000630: a30b 0cf4 3df6 e8bf e166 0419 a9d5 f6bf
